model/agua-viva.onnx (onnx, 302121 bytes, 16 tensors)

fc.weight f4 [2, 256]
000000 88 87 9f 3b 48 16 47 bc 27 98 e2 ba a4 df 96 3c
       0.0048684515 -0.012151308 -0.0017287777 0.018417187
000010 ea 47 80 bd 93 10 3b bb 65 cb 10 be c6 06 ec bd
       -0.062637165 -0.0028543815 -0.14140089 -0.115247294
000020 d0 a0 33 3c 94 c8 d0 3c b4 7f c6 b9 34 88 db bb
       0.010963634 0.025486268 -0.0003786065 -0.0066995863
000030 9b 2a 4e 3d d8 ac 01 3c aa d5 f9 3c 4e 03 47 3d
       0.0503336 0.007914744 0.03049739 0.048587136
000040 38 20 6a bd dd 27 df bc 98 ac ca b9 8b cd 3d 3d
       -0.057159632 -0.027240688 -0.00038657035 0.0463386
000050 1e da 36 bd 1e e1 aa bd 96 0a 07 be 2f c2 28 be
       -0.044641607 -0.08343719 -0.13187632 -0.16480325
000060 5a 06 c8 3d 0e 3e b1 3d f7 a7 a9 3d 82 b1 8f 3d
       0.097668365 0.08654414 0.0828399 0.07016279
000070 e7 45 78 3c 6e 9b ce 3d cc f4 0c 3d 9f d4 9a 3d
       0.015153385 0.100882396 0.034413144 0.075600855
000080 58 20 d1 3d ad ec a5 3d b1 a5 9f 3d a3 df 7e 3a
       0.10211247 0.08101783 0.07795275 0.00097226555
000090 7a 4b de bd e0 59 83 bd 79 5e db bc 0c 22 c9 bd
       -0.1085424 -0.06413627 -0.026778447 -0.09820947
0000a0 fb 43 3b 3c 6d 47 04 3d b5 3d dd 3a e3 3c bf bc
       0.011429782 0.03229468 0.0016879352 -0.023344463
0000b0 d1 af 91 3a 86 61 20 bb ad 08 cc 3b a5 de a5 3b
       0.001111502 -0.002447219 0.00622662 0.0050619417
0000c0 29 ab 50 3b 88 e5 23 3d 9c df 92 3c 2e 90 95 3c
       0.00318403 0.04001382 0.01792889 0.018257227
0000d0 27 f1 29 bc 68 ee 04 3d b1 79 6c bd 13 c9 a1 bd
       -0.010372437 0.032453924 -0.05773324 -0.0789968
0000e0 9a d8 ac bd 10 90 d3 bd 14 a5 bf bd 1d 58 fa bd
       -0.08439751 -0.10330212 -0.09357658 -0.122238375
0000f0 74 82 ca bb 2e a2 c0 ba 6d f8 c9 bb d9 70 d6 3b
       -0.006180102 -0.0014696771 -0.006163648 0.006544214
000100 b8 0e ca 3c f4 32 30 3d de a2 01 3e 26 47 06 3e
       0.024665222 0.043017343 0.12659785 0.13113078
000110 7f 94 28 3d a0 52 a4 3d 81 55 80 3d 61 e8 26 3c
       0.041157242 0.08023572 0.062663086 0.010187239
000120 de c9 e3 bd 00 cd b8 bd 70 bc 02 3c 55 dd a5 39
       -0.111224875 -0.09023476 0.007979497 0.00031636158
000130 0b a4 1e 3c ce 24 e0 3b fb 54 20 bc f5 0b 8b b8
       0.009682666 0.006840325 -0.009785886 -6.630264e-05
000140 b0 ac 2b 3d 73 a4 ee 3c b2 36 6f 3c 09 8b 94 3d
       0.041912735 0.02913115 0.014600443 0.07253081
000150 22 e3 b4 39 98 ff ec 3a ee 87 34 3b ee 13 f3 ba
       0.00034501503 0.0018081544 0.002754684 -0.0018545368
000160 01 c8 e5 bd ba bd 97 bd b7 ca 44 bd e0 19 11 bd
       -0.11219788 -0.07409234 -0.048044886 -0.035425067
000170 fa 0c 8b bc 11 bc df 38 03 6f ae 3b 51 c5 1c bb
       -0.016973961 0.00010668499 0.005323292 -0.002392132
000180 a7 d7 3c bc 84 60 55 3a 27 a4 2f 3d cf 3a b0 3c
       -0.011526025 0.0008139687 0.042881157 0.021512417
000190 ae 0e cf bb 68 e5 6b bc eb 00 ac ba 49 74 87 3c
       -0.0063188886 -0.014397956 -0.0013122832 0.016534941
0001a0 51 2b bb bc 43 77 a7 bd 81 ce e6 ba 37 4f 3d bd
       -0.022847803 -0.08177044 -0.001760915 -0.046218123
0001b0 a3 e9 cd 3c 3b a2 8f 3a 1f 55 17 bd a7 25 86 bc
       0.02513582 0.0010958383 -0.036946412 -0.016375376
0001c0 cd b9 bb 3c 4f 7a f9 3c a9 95 05 bd ee 2d 67 bd
       0.022915745 0.03045383 -0.03261343 -0.056440286
0001d0 a4 08 0f 3c 97 88 44 3b 75 c7 64 bb e4 b4 50 3a
       0.008730087 0.002998864 -0.0034908925 0.0007961525
0001e0 ac d9 bf ba 18 39 ab bc c7 30 87 3c 1f f3 6c bc
       -0.0014637015 -0.020901248 0.016502751 -0.014462261
0001f0 73 55 d1 3d 62 57 ff 3d fa 0a 0b 3e 9a 4f c7 3d
       0.10221376 0.12467839 0.13578406 0.0973198
000200 e6 44 13 3c b4 ab 77 3c 1b e8 0d 3b 5f bd be bb
       0.008988595 0.015116621 0.0021653238 -0.0058209146
000210 50 68 46 bc 55 6d 81 3b 06 f6 3c bc 2b e7 bd 3b
       -0.012109831 0.003949801 -0.011533266 0.0057953796
000220 f3 a0 de bc c2 14 3e bd 81 21 6e 3c ef 49 01 3d
       -0.027176356 -0.046406515 0.014534355 0.03156465
000230 2c 7c d2 bd 3d af c4 bd 0b be 0d be ae fe d4 bd
       -0.1027759 -0.096037365 -0.13842027 -0.10400139
000240 c6 d3 2f bd 3d c9 cd bd 54 a7 6a 3c f1 ca 17 bc
       -0.042926572 -0.10048149 0.014322121 -0.009264694
000250 22 dd 3c bd c4 85 5e bc 21 55 18 be 06 be 0e be
       -0.046109326 -0.013581697 -0.14876224 -0.13939676
000260 a5 e6 b2 bd ee 1f 16 be 17 28 b1 bd 95 10 02 be
       -0.08735398 -0.14660618 -0.08650225 -0.12701638
000270 77 cc b8 3a fb 53 d0 38 79 77 82 bb ab df 16 ba
       0.0014099021 9.9338555e-05 -0.0039815274 -0.0005755375
000280 0c c1 da bb ea 5a ba 39 49 d8 8f bb b2 d8 da bb
       -0.006675845 0.0003554442 -0.004389797 -0.006678664
000290 5c b6 f8 bc 81 91 fa bc 4f 67 d1 bc 7c 22 cc bc
       -0.030360393 -0.03058696 -0.025561957 -0.024918787
0002a0 e0 ee 8f bd 20 a7 c1 bd 8d 40 ef bc d6 1b b8 bc
       -0.07027984 -0.09455705 -0.029205585 -0.02247421
0002b0 d6 2c 2b 3d 6f 0e 34 bd e5 0f 08 bd 14 8b 66 bd
       0.041790806 -0.043959077 -0.033218283 -0.05628498
0002c0 a9 93 dc 3d 5f 45 c3 3c 3d d8 61 3d 1c 75 98 38
       0.107703514 0.02383679 0.05513786 7.269738e-05
0002d0 8f a8 f9 bd 6e 5e ef bd 9b 5a d0 bd 9f 49 0c be
       -0.12190353 -0.11687933 -0.101735316 -0.13699959
0002e0 9b a3 58 3d 2b 52 61 3c 64 60 c2 3c 0d ef 93 3d
       0.0528904 0.0137525005 0.023727603 0.0722333
0002f0 b1 e7 b3 bc 70 c3 99 bc 61 f8 e9 3c 17 8f 0f 3c
       -0.021961065 -0.01876995 0.02856082 0.008762143
000300 81 fb f4 3b 11 df be bb da 2e e3 3a 83 8d 14 bb
       0.0074762707 -0.0058249314 0.0017332688 -0.0022667355
000310 35 26 0e bb 50 d8 c4 bc 57 05 0b bc 9a 63 98 3c
       -0.0021690254 -0.024028927 -0.00848516 0.018602181
000320 2d 83 94 bd 4a f6 9f bd ed 2f 61 bc 5d 25 05 bd
       -0.07251582 -0.07810648 -0.013744337 -0.032506336
000330 c0 cc 6e bc fd 5e 52 3c 6b 29 8e ba 8a df bb 3b
       -0.014575183 0.01284003 -0.0010846084 0.005733435
000340 4a d7 f0 3b 99 b3 95 3b ff 2a 10 bc fc 6b cc bb
       0.007349883 0.004568529 -0.008799314 -0.0062384587
000350 58 84 da bc 72 82 a1 3c 1b 40 80 3d 08 2f aa 3d
       -0.026674435 0.019715521 0.06262227 0.08309752
000360 e4 b2 7f 3c 60 d0 af 3b 4c 7d 68 bb 3c 36 b7 bc
       0.015606616 0.0053654164 -0.0035475073 -0.022364728
000370 e2 a4 7f 3d b7 9e a1 3d 86 99 b2 3d a8 e4 6a 3b
       0.062413104 0.078916006 0.087206885 0.0035841856
000380 8a 37 d5 bb ee 63 3d bd f8 af 2b be a1 64 69 be
       -0.006506865 -0.04623788 -0.16766346 -0.22792293
000390 5a 4e 65 3d 7a ab a3 3d a3 f2 cf 3d f5 a1 91 3d
       0.055982925 0.07991691 0.10153701 0.07110969
0003a0 2e d7 a0 3d a1 0c f5 3d 51 c9 5e 3d 30 2e 9d 3c
       0.07853542 0.119652994 0.05439121 0.019187063
0003b0 e3 65 81 bb 91 80 95 bd 23 fd a6 3c ab d7 a2 bd
       -0.0039489134 -0.07299913 0.020384377 -0.07951292
0003c0 b6 35 d9 bd 42 4c f2 bd bc b3 37 bd 0d d8 da bd
       -0.10605948 -0.11830951 -0.044849142 -0.1068574
0003d0 63 04 6c 3d 47 7c e7 3c 4e 9d ed 3d 6e e8 03 3e
       0.05762137 0.028257502 0.11602269 0.12881634
0003e0 b9 84 c9 3d 02 e3 6b 3c bf a3 c3 3d be 22 0e 3c
       0.09839768 0.014397385 0.095527165 0.008675275
0003f0 fc 0d 28 3c 2c d5 e0 bd 4b 7e 9b bd 90 45 e0 bd
       0.01025724 -0.10978159 -0.07592448 -0.10950768

fc.bias f4 [2]
000000 62 54 7b bc f2 4c 10 3c
       -0.015339943 0.008807408

onnx::Conv_80 f4 [16, 3, 7, 7]
000000 e5 be 28 bd 4e 09 41 3c fe 10 c0 bd a8 d6 b7 bd
       -0.041197676 0.011782004 -0.09378241 -0.08976489
000010 c3 3c ec bd 10 3b a2 bd cf 44 0e bd 88 ca ff bc
       -0.11535027 -0.079214215 -0.03473359 -0.031224504
000020 fc bc 0b be 92 27 4f be 9c 91 b2 bd 11 bc d8 bd
       -0.1364631 -0.20229939 -0.08719179 -0.10582746
000030 2b d3 37 be b8 cf ff bd 95 54 0e be 1c fd 81 bd
       -0.17951648 -0.12490791 -0.13899453 -0.06347105
000040 27 98 97 bd 5f 26 0a be f6 a6 35 3d 2c 6e a5 bc
       -0.07402068 -0.134912 0.04434868 -0.020194136
000050 77 b0 55 3c ac 40 17 be 77 55 36 3d 4c 78 e4 bd
       0.013042561 -0.14770764 0.0445151 -0.11155757
000060 c5 a9 58 bb 0c 0c 43 3d e8 8d 00 be 09 5c 0a be
       -0.0033060175 0.04761891 -0.12554133 -0.13511671
000070 35 4e b6 bd b2 0c 04 3e 62 98 c1 3d 5c a7 33 3d
       -0.089016356 0.12895468 0.09452893 0.04386078
000080 4a f7 52 3e 6a 17 a2 bc 3e 61 42 bd 98 42 04 3e
       0.20602146 -0.019786555 -0.04745602 0.12916028
000090 17 4b ab 3d cb e0 73 3e ca c9 37 3e 3e 60 92 3e
       0.083639316 0.2381622 0.1794807 0.28589052
0000a0 4d 42 f8 3c 7c 30 0c 3d 05 6b 23 3c 31 cd 55 3e
       0.030305052 0.034225926 0.009974246 0.20879056
0000b0 88 ed 17 3e c3 d9 79 3e 32 74 0d 3e 5a d0 23 3e
       0.14836705 0.24399476 0.13813856 0.15997449
0000c0 81 43 c4 3d d4 34 d6 bb 1a 5e dd bc fe 8f 54 3b
       0.09583188 -0.0065370593 -0.02702241 0.003243446
0000d0 f2 5b d2 bd 05 06 9d bd 13 d3 0a 3e 57 c6 98 3d
       -0.102714434 -0.07667164 0.13557081 0.07459705
0000e0 41 b0 c7 3d a6 f1 20 3e 20 df 11 3e 50 c5 bd 3c
       0.09750415 0.15717182 0.14245272 0.023165375
0000f0 ac 66 d2 3c b5 fb 82 bd ee 63 87 bd b4 bf eb 3d
       0.025683723 -0.063956656 -0.06610857 0.11511174
000100 5a 36 ec 3d 05 96 98 3d 46 12 40 bd de 49 71 3d
       0.11533804 0.07450489 -0.046892427 0.058908336
000110 3b 54 47 3d a8 f9 55 3a 6d ea 2d be 18 6d b8 bd
       0.048664313 0.0008162507 -0.16983958 -0.09005183
000120 e3 39 32 bd 80 e9 45 be ea d2 13 be b6 96 db bd
       -0.043512236 -0.19327354 -0.14435926 -0.10722105
000130 04 90 39 be 67 ee 1d be 6a 61 9a 3c a7 ee f1 3d
       -0.18121344 -0.15422975 0.018845279 0.118130974
000140 27 ed 7d 3d f8 a8 ac 3c 09 7f a0 bd dd 58 3d be
       0.061993744 0.021076664 -0.0783673 -0.1849093
000150 5a 3d 13 3d b3 ad 10 3e af 5b f8 3d 39 7c 23 3e
       0.03594718 0.14128761 0.12126862 0.15965356
000160 2e ff 98 3d 6c 91 fd bd 95 07 e5 bd ef ea 16 3e
       0.07470547 -0.12381253 -0.11183087 0.14738058
000170 06 a9 60 3d 31 3a 30 3e a1 88 49 3c 54 c8 c8 3d
       0.054848693 0.17209698 0.012300641 0.098038346
000180 29 b7 da bd d6 f3 56 be eb 2c 70 3e 34 97 fb 3c
       -0.10679466 -0.20991454 0.23454635 0.030711748
000190 a6 bc bd 3d 8e f2 15 bd a1 3f 7c 3c c2 fa bd bd
       0.092644975 -0.03660827 0.01539603 -0.09276344
0001a0 d1 c5 8e 3d 57 8e 81 bc 07 14 b6 3d d2 dc 3a 3e
       0.06971324 -0.015814943 0.08890539 0.18248299
0001b0 90 b0 69 bd 17 a1 cf 3b a7 ad bd bd f8 30 08 bd
       -0.05705315 0.006336342 -0.09261637 -0.033249825
0001c0 40 82 ef 3d 08 5b a6 bc 2c fd 5c bd 10 74 8c bd
       0.11694765 -0.020307079 -0.05395238 -0.06858075
0001d0 c4 36 b7 bd b0 a7 7e 3c 1f 66 e3 bd da c0 cb bd
       -0.089459926 0.0155429095 -0.111034624 -0.09948893
0001e0 33 a1 01 3e 65 86 7c bd 56 76 76 bc 7f 3e 8b bc
       0.12659149 -0.061651606 -0.015042862 -0.016997574
0001f0 a3 5c cd 3b 75 5a 3f be 16 d1 71 bb 0c e2 a8 3d
       0.0062671467 -0.1868685 -0.0036898307 0.0824624
000200 61 a0 cc 3d f0 d0 26 3e bc a8 05 3d e8 6f 81 3d
       0.09991527 0.16290641 0.03263162 0.063201725
000210 ee 37 37 bd a7 30 8d 3d 30 cd 54 3e 7b 56 de 3d
       -0.044731073 0.06894045 0.20781398 0.108563386
000220 db 37 d4 3c be a9 36 bc df fe 07 be 23 dd 87 bd
       0.02590554 -0.011148868 -0.1328082 -0.06633975
000230 83 0e e8 3d 44 f5 c8 3d ce 00 f8 3b 70 81 a7 3c
       0.11330893 0.09812406 0.0075684553 0.020447463
000240 f0 48 10 3b c4 2b da 3d 22 79 cd bd 30 fe 9f bd
       0.002201613 0.10652879 -0.1003287 -0.07812154
000250 65 be 33 3b d4 63 a4 3d e6 07 d1 3c 8f b7 96 bd
       0.0027426716 0.08026853 0.025516462 -0.0735923
000260 64 08 b2 bc a0 12 c8 bd 31 2c de 3c b0 83 3c 3c
       -0.021732517 -0.097691774 0.027120681 0.011506006
000270 5e 43 c9 3c 0e ba 2e 3d 7f 1d 13 3d 34 39 f7 bd
       0.024568256 0.042657904 0.0359168 -0.120714575
000280 a8 ee 14 bd d7 4f a4 3d b6 e2 6d bd bf fd 3a 3d
       -0.036360413 0.08023041 -0.058077537 0.045652147
000290 a8 3f 86 3d d5 9e d4 bc 00 3e 05 be 1b aa 00 be
       0.0655511 -0.025954643 -0.13011932 -0.1256489
0002a0 97 0b 83 3c 3a 0f a0 3d 00 69 06 3d 2a f4 53 3b
       0.015996737 0.07815404 0.03281498 0.0032341578
0002b0 b6 8b 15 3c 4a bb d5 bc c3 32 8b bd b5 11 8f 3d
       0.009127548 -0.026090283 -0.067967914 0.06985799
0002c0 33 e6 a1 3d c8 c0 a2 3b 91 29 96 3d 6e a7 eb 3d
       0.07905235 0.004966829 0.07332147 0.11506544
0002d0 92 4c b5 bc f1 9d e9 bc b5 2f 40 bd 21 73 bf 3d
       -0.022131238 -0.028517695 -0.046920497 0.09348131
0002e0 f3 4b cc 3d c2 7d 01 bc 98 3c c4 3d 66 bc 3c bd
       0.09975424 -0.007903518 0.0958187 -0.04607811
0002f0 d9 8e df bd 7e 05 13 bd 69 61 db 3d 8d 3f 34 3d
       -0.10915918 -0.03589391 0.10711939 0.04400592
000300 b6 4c b1 3d 11 dc a2 3d 8f e8 ba bd 80 07 be bc
       0.086572096 0.079521306 -0.09126388 -0.023196936
000310 b2 37 68 bd 13 f5 10 bd b6 7e a4 3d 70 12 53 bd
       -0.05669374 -0.03538997 0.08031981 -0.051531255
000320 c3 c9 02 bc 81 24 c5 bd e7 df 10 be 9d 9c 9a bd
       -0.007982674 -0.09626103 -0.14147912 -0.07549403
000330 c8 b3 e7 3d 2b ed 48 3d b9 61 9f bc 52 0d 94 3d
       0.113135874 0.049054306 -0.019455777 0.07229103
000340 c8 07 6c bd 3e d1 ea bd 88 3c 03 be 8f 37 9f 3d
       -0.05762461 -0.11465691 -0.1281606 0.07774269
000350 c0 55 23 3d e2 23 80 3c e3 2d 42 3c 50 fc 93 3c
       0.0398767 0.01564211 0.011851761 0.018064648
000360 ec be 09 be f0 83 4d bd 49 1d 4b 3d e6 57 ba 3d
       -0.13451737 -0.050174654 0.049588475 0.090987965
000370 df 7f c3 3d e1 81 f6 bc 67 1f eb 3b 6b 4a e9 3c
       0.09545874 -0.030091228 0.0071753743 0.028477868
000380 1f 48 86 bd db d4 d6 3d 04 c7 b0 3d 17 6f dd 3d
       -0.06556725 0.10489818 0.08631709 0.10812204
000390 f6 7e 06 3d a7 a1 53 3d e4 6a 4f bd 72 7f b2 bb
       0.032835923 0.051667836 -0.05063905 -0.0054473216
0003a0 3b 7f c7 3d f4 02 cf 3c 37 53 b3 bc dd ad bf 3d
       0.09741064 0.025269963 -0.021890266 0.09359334
0003b0 7b bb 73 bd 0a 73 9a bd a4 e7 62 bd 95 6d 4d 3d
       -0.059504967 -0.07541473 -0.05539669 0.050153334
0003c0 49 a9 a9 ba 49 ff 93 3c fd b4 63 3d af 75 24 3d
       -0.0012944128 0.018066065 0.055592526 0.040151294
0003d0 ab bf b8 3a da e4 ed bd b7 1b 0e 3e 75 d2 8b 3c
       0.0014095207 -0.116159156 0.1387776 0.017068127
0003e0 21 7c 8c 3c b3 0c b7 bd f0 66 a9 bd 3b 7d 92 3b
       0.017149033 -0.08937969 -0.08271587 0.004470495
0003f0 57 5c 28 bc 77 9c ec 3d 1c 58 d5 3d d9 63 c4 bc
       -0.010275922 0.11553281 0.10417196 -0.023973392

onnx::Conv_81 f4 [16]
000000 d4 4b bf be 48 ab cc be 42 17 92 bf fe 21 a0 3f
       -0.3736254 -0.39974427 -1.1413348 1.2510374
000010 fc 9f 98 3e 61 d6 0d 3f 5c 32 66 3d 4f 7b 1f 3f
       0.29809558 0.5540524 0.05620037 0.6229753
000020 75 e5 39 3f 24 1a 0c 3f b6 26 de 3d 0b 18 1e 3f
       0.7261575 0.5472739 0.10847227 0.61755437
000030 e7 de 5b bf b2 ae b8 3e ac 43 f8 3e 66 91 4e be
       -0.85886997 0.36070782 0.4848913 -0.20172653

onnx::Conv_83 f4 [32, 16, 3, 3]
000000 30 68 fe 3b 06 da 94 bc 58 dd cd bc f4 fa 85 3d
       0.007763885 -0.018170368 -0.025129959 0.06542006
000010 0f 0c 26 bc e6 33 e4 3c 20 f5 85 3b 6b a0 3f bd
       -0.010134711 0.027856778 0.004088059 -0.046783846
000020 78 b6 ff bc 9b 35 4c 3d 11 b0 4c 3c bf 32 8b bc
       -0.031214938 0.04985581 0.012493149 -0.016991971
000030 1a dd 75 3d 22 15 a5 3c 7d 37 01 3d 8f dd f4 bc
       0.060025312 0.020151678 0.03154706 -0.029890804
000040 08 1d ca bc 60 7f 2a bd e7 fd 92 3c 6b 32 14 bb
       -0.024672046 -0.04162538 0.017943336 -0.002261306
000050 91 ea 86 bc 46 2c 1d 3d 93 fe 1f 3c 16 e3 92 bc
       -0.016469272 0.0383723 0.009765285 -0.017930549
000060 52 a5 05 3d 0c 00 3b bc e8 07 87 bc e0 02 95 3c
       0.032628365 -0.011413585 -0.016483262 0.018189847
000070 ff 97 15 3d b8 b4 ba 3d cd 09 20 bd 54 f6 1c 3d
       0.036521908 0.091165006 -0.039071847 0.038320854
000080 91 92 70 3d 7e fe f5 bb a2 e0 5a 3b f0 8e 9c 3b
       0.058733527 -0.0075071445 0.0033398052 0.0047777817
000090 88 7f df 3d 4c 61 01 3d ed 04 51 3d 28 fb 47 3d
       0.109129965 0.03158693 0.05103009 0.048823506
0000a0 26 02 58 3d 1a d9 8d 3d 57 29 74 3d 07 6c 34 3c
       0.052736424 0.069261745 0.059609737 0.011012084
0000b0 96 42 6b 3d bb de d0 3c c2 d4 ad 3a d2 e3 16 bc
       0.05743655 0.025496831 0.0013262259 -0.00920959
0000c0 51 84 05 3c c7 fa bf bb 4a ee 46 3c a4 af 03 3c
       0.0081492225 -0.0058587524 0.0121417735 0.008037481
0000d0 c6 d9 97 bc 22 f0 a9 bc 61 bf a0 bc 2a e9 3a bc
       -0.01853646 -0.020744387 -0.019622507 -0.01140813
0000e0 a5 1a 92 bc 31 9d 2d bd 4e 2b ec bc 5c 1e e5 bc
       -0.01783497 -0.042386238 -0.028829243 -0.027968578
0000f0 46 05 0b bd eb 16 57 bd 4b 8a 0b bd 83 8d cb bc
       -0.033940576 -0.05251209 -0.034067433 -0.024847751
000100 81 89 d7 bb be ea d1 3c 18 2b 98 bb c2 8c 84 bc
       -0.006577671 0.02562463 -0.004643809 -0.0161804
000110 1c 86 22 3d f0 00 07 bd 83 40 40 bd 6c 62 4a 3c
       0.039678678 -0.03295988 -0.046936523 0.012352567
000120 ba e4 68 3d db 6c 05 3d 27 51 c6 3d b5 77 bf 3c
       0.056858756 0.032574516 0.09683447 0.02337251
000130 d7 0c 07 3d b3 e5 69 3d 16 8d 3a bc ec 44 e8 bb
       0.03297123 0.057103824 -0.011386177 -0.0070882943
000140 71 98 19 3d 25 71 cb bc 1d c2 25 bc b8 01 cb 3c
       0.037498895 -0.024834225 -0.010117081 0.024781093
000150 f1 ce 43 bd 40 32 90 bc 7b 15 09 bb 75 1d 97 bd
       -0.047804777 -0.017602086 -0.0020917344 -0.07378665
000160 9c 9b b5 bd 6f 2e 94 bd 7f 37 f5 bc 56 4e 02 bc
       -0.08867571 -0.07235419 -0.02993369 -0.007953247
000170 96 81 d7 bb c5 bd 17 bd 3e 89 1d bd c2 8b 80 bc
       -0.006576727 -0.037046213 -0.038460962 -0.015691642
000180 ab 3f 66 bc 30 73 91 bc 2a 40 db 3c bd 4f d4 bc
       -0.014053266 -0.017755121 0.026763994 -0.025916928
000190 a6 4e 24 3d e8 a3 6f 3d d8 68 96 3c 88 3a 45 bc
       0.040114067 0.058505923 0.01836054 -0.012037881
0001a0 68 f3 9f 3c 0c 45 88 3c c0 9c 24 bb 5e 94 19 3c
       0.019525245 0.016634487 -0.0025117844 0.009373752
0001b0 c5 e5 65 3d 96 e0 05 bc 77 21 fc 38 d6 db c7 3c
       0.05612733 -0.008171221 0.0001202253 0.024396818
0001c0 bc 1e 85 bc 91 6c 41 bc dd 27 86 bd 48 18 93 bd
       -0.016250007 -0.011805669 -0.06550572 -0.07182366
0001d0 09 11 b6 bd ae 87 c4 bb f0 d1 47 bc 35 ff 04 bd
       -0.08889968 -0.0059976196 -0.012196049 -0.032469947
0001e0 78 bb 1f 3c e5 a3 17 bd df 2d 03 3d dd 3a 5f bd
       0.009749286 -0.037021536 0.032026168 -0.054499496
0001f0 ca b7 e2 3b fa fe 23 bc 36 5a a5 bd bf 92 5e bd
       0.006918882 -0.010009522 -0.08073847 -0.054339167
000200 70 93 29 3c f1 a1 26 bd c2 76 28 3c 70 cc 3e 3c
       0.010350093 -0.040681783 0.01028222 0.011645421
000210 66 c8 f8 3c d7 12 63 3d 7a b3 47 3c be 33 fa 3b
       0.030368995 0.05543789 0.012188787 0.0076355627
000220 f3 fd 02 bc da 1e 11 bd 5a 4e 89 3b e2 65 11 bd
       -0.0079951165 -0.035429813 0.0041902484 -0.035497554
000230 75 72 3e bc d9 90 b5 bd 14 fd af bd e0 98 6a bd
       -0.011623968 -0.08865518 -0.08593193 -0.0572747
000240 70 40 1d bc 6b 50 40 bc 28 71 e3 bb 33 56 8d bb
       -0.009597883 -0.011737923 -0.0069409795 -0.0043132543
000250 1d ad 47 ba 35 89 80 3b 5e a3 fb b9 e1 86 56 bc
       -0.00076170434 0.0039226064 -0.0004799617 -0.013093681
000260 ff 5f 61 ba de 11 bc ba 06 42 34 3b 0a ba 75 3b
       -0.00085973734 -0.0014348587 0.0027505173 0.003749492
000270 b0 5d ab 3b e9 c2 9a 3b 13 9d 2d 3b 74 e8 05 3c
       0.0052296743 0.004722942 0.0026491329 0.008173097
000280 fc d8 32 bb fa da 00 3c 55 f9 ac 39 90 71 3b b9
       -0.0027289977 0.007864708 0.00032992163 -0.00017876015
000290 79 74 cc ba 1a e0 5a 3b 34 78 85 bb e2 80 b6 bb
       -0.0015598676 0.0033397735 -0.004073167 -0.0055695632
0002a0 8c d3 d1 3a ac 0b 4b bb 7e ce 05 bc 10 f0 8e bc
       0.001600848 -0.0030982299 -0.008166907 -0.017448455
0002b0 64 5b 6e bc 26 ab 33 bb 7c ab 0f bc a3 92 41 bc
       -0.014548156 -0.0027415245 -0.008768912 -0.011814746
0002c0 09 4c 02 3c 46 bb 8a bb 66 98 96 bb e7 43 af 3b
       0.0079526985 -0.0042337505 -0.004595804 0.0053486708
0002d0 6a 0d 9b ba 16 16 a9 ba ed cc 99 3b e3 e8 86 3c
       -0.0011829559 -0.0012900259 0.0046936185 0.01646847
0002e0 78 24 6e 3b 2a b3 64 3c 3c 90 f5 3b 06 c3 06 3c
       0.0036337655 0.013958732 0.0074940007 0.008225208
0002f0 f2 21 02 3c d9 f0 3c ba a3 7d ba 3a bf 0b 4d 3b
       0.0079426635 -0.000720752 0.0014228116 0.0031287519
000300 37 01 cf 3b 75 c5 a1 3b 98 5a 17 3c 1b 11 59 3c
       0.0063172835 0.004936869 0.009237908 0.013248707
000310 15 0c b0 3b fd d1 d9 3b cc a6 f0 bb f8 1c be bb
       0.005372534 0.006647347 -0.0073441025 -0.005801793
000320 10 83 9c 3a df d2 d8 bb 9f 70 18 bc 8c 2b 81 bb
       0.0011940915 -0.0066169347 -0.009304195 -0.003941959
000330 6c 47 25 bc a2 8d 4a bc 59 fe 0d bc b7 e9 fb bb
       -0.010087829 -0.012362869 -0.008666598 -0.007687773
000340 7b c2 04 bb 91 4a 8a 3a 91 8c af b9 6d ee b2 3b
       -0.002025752 0.0010550787 -0.0003348333 0.0054605515
000350 83 42 3e 3c 06 c0 4a ba 44 7b 9e ba 93 39 21 3b
       0.011612537 -0.0007734302 -0.0012091179 0.0024600967
000360 2d 99 67 b9 7b 62 62 3a c3 49 92 3b b9 0e c3 3b
       -0.00022086939 0.00086358906 0.0044643595 0.005952683
000370 8d 2e c7 3b d8 89 1a 3c b7 16 8c 3b b6 84 bd 3b
       0.0060785473 0.009432279 0.0042751688 0.0057836426
000380 51 47 15 3c 54 bc 99 bc 1f de 74 bc cc 58 70 bb
       0.009111241 -0.01876656 -0.014945536 -0.003667402
000390 d0 25 44 bc c3 1e 55 bc 93 77 40 bb d6 63 50 bc
       -0.011971906 -0.013007822 -0.0029368147 -0.012719115
0003a0 5b 21 40 bc 1c 27 ad 3a 0e 94 bd bb 33 9b 77 bb
       -0.011726703 0.0013210508 -0.0057854718 -0.0037781715
0003b0 29 44 ee bb b5 77 7d bb 9a bf a6 ba 40 d7 bf bb
       -0.007271309 -0.0038676087 -0.0012721897 -0.005854517
0003c0 3c e0 dc bb 3a 9d 6a bb c5 13 9c bb bb 8e dd bb
       -0.006740598 -0.003579928 -0.004763099 -0.0067613996
0003d0 e9 d8 22 bb 3a 3e e9 39 77 db 5f 3c 20 83 86 3c
       -0.0024848527 0.00044487586 0.013663164 0.016419947
0003e0 da 89 fa 3a 82 cf 70 bb fb 24 62 bb 04 15 28 ba
       0.0019114569 -0.0036744778 -0.0034506905 -0.0006411823
0003f0 16 f4 72 3c ca ae 13 3c b4 2b 9f bb 6f dc d3 3a
       0.014828702 0.009013841 -0.0048575047 0.0016163717

onnx::Conv_84 f4 [32]
000000 df ea 30 3e e8 54 d8 3d fd 51 05 3e d6 26 ed 3d
       0.17277096 0.105630696 0.13019557 0.11579673
000010 d4 70 77 3e 1f 52 92 be 8d 72 6e be 9e ac f6 be
       0.24164134 -0.28578278 -0.23285885 -0.4817857
000020 10 90 86 3d 20 87 66 be f9 0d b6 3e 41 f3 99 3e
       0.065704465 -0.22512484 0.35557535 0.300684
000030 ce 9f 9e 3d 8c 2b 3a be 83 07 3a bf d4 cd 11 bf
       0.07745324 -0.18180674 -0.7266771 -0.56954694
000040 37 ca 63 be 8f 87 36 3e 59 86 d2 3e 5f f3 20 3e
       -0.22245108 0.17825149 0.41118124 0.15717839
000050 36 f2 16 be 15 85 5b 3e 99 47 0a bf 3d 38 01 3f
       -0.14740834 0.21437486 -0.540155 0.5047644
000060 ec 18 0d 3c b9 1e b3 3c fb 66 a1 bd 96 25 bd 3d
       0.008611899 0.021865236 -0.0788097 0.092356846
000070 7f a1 00 bd 76 77 67 3f 79 4f 1e be 58 a1 68 bd
       -0.031404015 0.9041666 -0.15460004 -0.056794494

onnx::Conv_86 f4 [32, 32, 3, 3]
000000 9e 17 f3 3b 06 fc e7 3a 55 c9 e1 39 c8 c3 2c 3b
       0.007418587 0.001769901 0.00043065348 0.0026361812
000010 d5 10 d9 3b e8 43 b5 3b 12 28 08 bc 3c e0 84 37
       0.006624321 0.0055317767 -0.008310335 1.5840043e-05
000020 3a b1 3f bb 90 a6 35 3a f1 26 9f 39 39 c8 b1 3a
       -0.0029249922 0.0006929422 0.00030355857 0.0013563699
000030 7f a6 00 bb 98 fa 1e bb ad 62 e1 ba 68 94 cf 3a
       -0.001963049 -0.0024258252 -0.0017195545 0.0015837075
000040 10 86 a6 3a de 06 d8 3a d6 fd e6 3a 14 b5 a4 b9
       0.0012704749 0.0016481539 0.0017623256 -0.0003141543
000050 c1 bc 1c 3a bf db 07 3a 61 d3 02 ba 76 19 f8 39
       0.0005979054 0.0005182586 -0.00049906044 0.00047321216
000060 ac 18 03 3b cb 43 d7 3a 68 27 c0 3a 96 93 ab 3b
       0.002000372 0.0016423402 0.0014660181 0.0052360995
000070 cb ae 9a ba 32 ab d0 bb 43 02 37 bb 85 08 01 3a
       -0.001180136 -0.0063680643 -0.0027924932 0.0004922229
000080 64 f3 d5 3b d8 b5 93 bc 49 52 65 bc ed 49 87 ba
       0.0065292586 -0.018031046 -0.013996669 -0.0010321714
000090 54 ad 6d bb e6 ca 10 bb b5 f5 2e 3b d7 93 0c bc
       -0.0036266642 -0.0022093593 0.0026696746 -0.00858017
0000a0 1a 6e 40 bc cf ac e9 bb 00 ac 1a bc 8d 60 4f bc
       -0.011745 -0.007131196 -0.009440422 -0.012657297
0000b0 4d 92 9f bb 56 94 d4 3b 0b 32 45 3c 72 36 b4 3c
       -0.0048697353 0.0064874096 0.012035857 0.021998618
0000c0 b2 b8 1c 3c 05 a8 bb 3b 97 14 9b 3c d3 01 e8 3b
       0.009565519 0.0057268166 0.018930716 0.0070802956
0000d0 c1 fe 3d 3b 23 05 5e 3c b7 0b 1e bc 6f ad 12 bc
       0.0028990956 0.013551029 -0.009646348 -0.008952483
0000e0 34 99 be bb f5 4f 9d bb c6 c8 05 bc b7 41 72 bb
       -0.005816603 -0.0048007914 -0.008165544 -0.0036965439
0000f0 bc 8c 6f bc de d8 98 bc 13 ab 6b bc fa 4c dd bb
       -0.014620956 -0.018658098 -0.014384049 -0.006753561
000100 43 e5 58 bb 34 5e 62 3a 0c e7 37 bb 8f c7 9d 3b
       -0.0033095635 0.0008635253 -0.0028061299 0.004815049
000110 2c f2 97 3b 27 cf 64 39 df cc 2e 3c 79 a1 66 3c
       0.0046370234 0.00021820945 0.010668962 0.014076584
000120 9e 87 58 3c 06 65 62 3c 09 32 56 3c 6b 44 9e bb
       0.013215927 0.013818031 0.013073453 -0.0048299334
000130 66 71 27 bb dd 99 2e 3a e0 73 92 3b 60 b5 ec 3b
       -0.0025549768 0.00066605007 0.00446938 0.00722377
000140 63 0a 30 3c b5 92 9e bb 31 97 08 bc 04 7f a7 3b
       0.010744664 -0.004839266 -0.008336828 0.005111577
000150 4e a7 74 bb ad cd 12 bc 9e 29 a1 ba eb 7e d6 bb
       -0.0037331167 -0.00896017 -0.0012295728 -0.0065458915
000160 55 ea 64 bc 47 b0 28 bc 4d 42 00 3c d5 74 ae bb
       -0.013971885 -0.010295934 0.007828307 -0.005323986
000170 68 3d 6d 3b 72 0e b1 3b 8b b8 f9 bb 3a 3c 81 ba
       0.003619993 0.0054033333 -0.007620876 -0.0009859868
000180 78 dc 26 3b b6 73 32 bc 88 6d 96 bb c3 d5 2d 37
       0.0025461 -0.010891845 -0.004590694 1.0361374e-05
000190 79 5d 38 ba f6 3e 7c ba d0 99 90 3a f7 00 19 3a
       -0.00070329715 -0.0009622419 0.0011032168 0.00058366306
0001a0 c1 ba 27 bb 10 e4 87 3b 3e 63 7a 3a 03 54 fe ba
       -0.0025593492 0.00414706 0.00095515314 -0.00194037
0001b0 b0 45 c2 ba 8a 18 3d ba a3 e4 2f bb 98 38 cf bb
       -0.0014821794 -0.00072134344 -0.002683916 -0.006323885
0001c0 ba e6 80 bb b4 39 a8 bb b7 b0 b5 39 03 4f 9c 3a
       -0.0039337547 -0.005133832 0.00034654673 0.0011925403
0001d0 32 4a 15 3b 52 89 70 ba 0f c2 15 ba 33 e1 fd 3a
       0.002277982 -0.0009175736 -0.0005712816 0.0019369483
0001e0 48 de 0e bc eb c4 81 bb 9b ea 0e 3b 3e 8b 2d bb
       -0.008719988 -0.003960242 0.0021807316 -0.00264807
0001f0 e1 b5 bd ba 7b b2 df 3b 5b e4 2e bc 6e b7 b9 3a
       -0.001447376 0.0068266965 -0.010674561 0.0014169046
000200 f1 c4 ff bb 9d fe f6 bc ec c0 1a bc aa 06 65 bc
       -0.0078054597 -0.030150706 -0.00944541 -0.01397864
000210 fe 46 d3 bc ec 85 11 bc 51 a2 17 3b cf 22 9b bc
       -0.025790688 -0.008882027 0.002313752 -0.018937496
000220 9e 98 ed 3b 29 39 0d bc b3 28 bc bc 82 07 91 bb
       0.0072508594 -0.008619585 -0.022968626 -0.004425944
000230 f7 93 34 bc a0 d8 d5 bc 3f 50 79 bc 26 4c 03 bb
       -0.011021606 -0.026104271 -0.015216886 -0.0020034402
000240 7a 6d 1e bc 72 c8 82 bc 9d 3d 1c bc c5 ba 61 bc
       -0.009669656 -0.01596472 -0.009536174 -0.0137774395
000250 56 c1 61 bc 3a f9 74 bb 94 1e 8c bc 95 fb 8b bc
       -0.013779005 -0.0037379996 -0.017104425 -0.017087737
000260 81 c7 04 bc fb 81 80 3a 80 73 ef ba fc 4c 5b 3a
       -0.008104206 0.0009804362 -0.0018268675 0.00083656586
000270 41 f6 04 bb 55 a3 c3 bb 43 ee d1 bb a1 f9 19 bc
       -0.002028838 -0.0059703984 -0.006406577 -0.009397895
000280 83 ac 77 bc 44 db 8b bc 76 9c d6 b9 6f 06 bc bb
       -0.015116814 -0.017072327 -0.00040933833 -0.0057380716
000290 52 ac 3d b9 33 4a 94 3a db 98 c0 bb b5 9a e7 ba
       -0.00018088639 0.0011313617 -0.005877597 -0.0017670008
0002a0 5d c4 58 3b 0b 7a 9f bb 25 9b c5 ba 0e f1 69 ba
       0.0033076026 -0.0048668436 -0.0015076144 -0.00089241646
0002b0 2e ff ed bb c7 fa eb bb 03 d4 3b 3b e8 98 a1 bb
       -0.007263086 -0.007201526 0.0028660304 -0.004931558
0002c0 ac f2 d1 bb 62 91 2b bc 49 e5 4b bc 3b 41 3a bc
       -0.0064071026 -0.010471674 -0.012444803 -0.011368091
0002d0 18 85 58 bb dd 89 2b bc 1b 6c a8 bb d9 b4 03 bc
       -0.0033038314 -0.010469881 -0.0051398403 -0.008038723
0002e0 d1 2e 71 bc 3f 5f 28 bc 16 2a e4 bb 46 05 81 bc
       -0.014720635 -0.010276615 -0.006963025 -0.015749585
0002f0 65 46 84 bc 11 e8 c3 3b fc 2a 1d 3b 9a fd 6d ba
       -0.016146848 0.005978592 0.002398192 -0.0009078622
000300 bb 4c 85 bb 52 5f fc bb bb 80 25 bc 43 b4 ad 39
       -0.004067985 -0.0077017928 -0.0101014925 0.00033131437
000310 9f d6 bb bb 81 7f ca bb cb d7 21 bc 5a dd 50 bc
       -0.005732372 -0.0061797504 -0.009878109 -0.012748087
000320 b9 18 8f bb a8 ae 93 bc 2c 66 9d bc c1 ac 3f bc
       -0.004366961 -0.018027619 -0.019213758 -0.011698903
000330 48 bb 96 bc 95 b8 7f bc 89 3b 33 bc 25 5f 32 39
       -0.01839985 -0.015607973 -0.010939487 0.00017010847
000340 dd 14 10 bc f7 68 23 bb a6 1d eb 3a 7d a7 27 bc
       -0.008794037 -0.002493439 0.0017937913 -0.010232803
000350 49 4c a7 bb 51 b5 e6 38 5b 08 03 bc ab 5f 87 bb
       -0.0051055294 0.000110010275 -0.007997598 -0.0041312776
000360 16 dc 96 3a 9d ce 66 3b b4 b1 ae 3b 35 6f 11 bb
       0.0011509683 0.0035218366 0.0053312425 -0.0022191529
000370 06 9d d1 ba ce e7 dd 3a d5 fd c6 ba 60 ca 02 bb
       -0.0015992231 0.0016930045 -0.0015181849 -0.001995705
000380 6a df ad 3a d1 43 be ba 80 9b ab ba 23 09 24 ba
       0.0013265435 -0.001451606 -0.0013092607 -0.0006257465
000390 b8 38 91 38 f3 3b 83 b8 5a 97 c1 39 e2 a3 87 3a
       6.9247035e-05 -6.257733e-05 0.00036924594 0.0010348524
0003a0 05 a4 61 3a 57 0a a0 3a 34 98 74 ba 56 36 80 3b
       0.00086075097 0.0012210113 -0.00093305414 0.0039127273
0003b0 44 35 bf ba 81 d2 cc ba f5 54 1d 3b 64 18 b1 3a
       -0.0014588018 -0.00156267 0.0024006937 0.0013511297
0003c0 6b dc f2 3a dd 27 73 3a e8 4e 19 3b 7a 79 9d bb
       0.0018528824 0.00092756544 0.002339298 -0.004805741
0003d0 b5 8f ce bb cb a4 eb bb 1d bb 69 bb 45 eb bc bb
       -0.0063037523 -0.0071912757 -0.0035664507 -0.005765351
0003e0 b2 d4 c6 bb 68 bf b6 bb 4b d9 c6 bb c8 cb d0 bb
       -0.0060678357 -0.0055770166 -0.006068384 -0.006371949
0003f0 03 70 20 b9 d0 b2 38 3a 0c f9 21 3b 5f e8 d1 ba
       -0.00015300517 0.0007045688 0.0024715094 -0.0016014687

onnx::Conv_87 f4 [32]
000000 9a e9 80 3d 68 50 10 3f a6 0e 67 bc 6a f9 8c 3e
       0.06294556 0.5637269 -0.014102614 0.27534038
000010 a8 1f 2e 3d 82 a0 27 bd d2 8b fe 3e 6c 5c 9c bc
       0.04251066 -0.040924557 0.4971605 -0.019087039
000020 98 69 0f 3e 34 5a 49 bd 0e 21 ad 3e ac a7 69 3e
       0.14005125 -0.04915829 0.3381428 0.22817868
000030 7a 24 79 bd d8 47 35 3f c7 50 80 3e c4 90 e2 bd
       -0.060825802 0.7081275 0.25061628 -0.11062768
000040 38 58 17 3e 11 2b 5b 3e 3c 17 20 3e 65 e0 e5 3e
       0.14779747 0.21403147 0.15633863 0.44897762
000050 74 af 85 3c 09 97 08 3c ad 8f f0 3d 3a c3 68 be
       0.016319014 0.008336791 0.11746154 -0.22730723
000060 35 69 19 be c8 b5 c4 3e 02 7a 65 3d 0e 0a d2 3c
       -0.1498154 0.38419938 0.05602456 0.02563956
000070 83 68 0c b6 22 13 4b 3e d1 fa 83 3e fc b5 58 be
       -2.092246e-06 0.19831517 0.25777295 -0.21163172

onnx::Conv_89 f4 [32, 16, 1, 1]
000000 6a c7 0d 3d 23 2b a8 3a 96 17 ee bc 04 56 98 3b
       0.034614004 0.0012830239 -0.029063981 0.0046489257
000010 8a e9 cf 3c 57 d4 7a 3c ee ed 23 3d b8 ef 70 bb
       0.025379915 0.015309415 0.04002183 -0.0036763977
000020 db 30 fb 3b de 65 c1 3c 74 a0 7b 3c b8 b0 88 3c
       0.007665736 0.023608144 0.015358079 0.016685829
000030 fb 06 1e bd af 78 4e 38 41 2f d4 3c f6 31 3f 3d
       -0.038580876 4.9226623e-05 0.025901439 0.046678506
000040 6e c0 1a 3d 06 54 87 3d f0 99 36 bc 68 38 3f 3e
       0.03778117 0.06607823 -0.0111451 0.18673861
000050 91 86 d0 bb 87 3d 07 3e 2d bc 0b bd 24 af 64 3e
       -0.006363698 0.13207065 -0.034115005 0.22332436
000060 4d 89 03 3e 2b d8 88 3e 21 62 a3 be 62 23 65 3e
       0.12845345 0.26727423 -0.31910804 0.22376779
000070 64 0d b5 3e 85 b8 99 bd 6c 1c 9f 3e 1c 0a f8 bd
       0.3536178 -0.075058974 0.31076372 -0.12111303
000080 17 a7 e9 3d 52 3e 95 bc 54 63 ef 3d 3a 5d d7 3d
       0.11408823 -0.018218193 0.11688867 0.105158284
000090 47 fc d0 3d 53 f1 29 bc 41 8d ea 3c 73 48 e2 bd
       0.10204368 -0.010372478 0.028631808 -0.11048975
0000a0 3b 16 4c bd 6e fe 06 bd 69 f3 38 bc 8a 37 6d 3e
       -0.049825888 -0.032957487 -0.011288502 0.23165718
0000b0 44 5b 00 3e d9 99 24 be 83 73 24 3d d6 cd 5e bb
       0.12534815 -0.16074313 0.040149223 -0.00339972
0000c0 9c db b3 3d 56 49 76 bd 4f 9b 7b be 90 08 59 be
       0.087821215 -0.060128532 -0.24570964 -0.21194673
0000d0 e2 47 d9 3d fe 0d e5 bd 15 75 89 3e 71 23 92 3e
       0.10609414 -0.111843094 0.2684714 0.28542665
0000e0 d4 78 72 3d 9f 93 36 3e bc 14 b9 bb dd 55 eb 3d
       0.059197262 0.1782975 -0.0056482237 0.114909865
0000f0 77 ed 97 3e cd da 86 3e 6b 6f 84 bd 7c a9 dc 3d
       0.2967336 0.26338807 -0.06466564 0.10774514
000100 5a 28 fb 3e cd 26 61 3e 95 56 02 3d 05 43 c2 be
       0.49054223 0.21987458 0.031820852 -0.37941757
000110 da aa 2a 3d c4 d6 b4 3c ae fd 99 3c b1 d9 9a 3d
       0.041666843 0.022075064 0.018797722 0.075610526
000120 be a2 2c 3e 37 4f 9a bd 02 24 b2 be 38 f8 0f 3e
       0.16858956 -0.0753464 -0.34793097 0.14059532
000130 de c7 d7 3e f0 35 c5 bd 03 56 84 3d b1 3b 2e bf
       0.42144674 -0.096294284 0.06461718 -0.6805983
000140 51 b5 08 be 2c c8 57 3c f6 aa 86 bd 3b f2 ee bc
       -0.13350417 0.013170283 -0.06575577 -0.029168239
000150 8c 11 ad bd 21 b1 1c bd c9 00 27 bd 12 62 00 be
       -0.084506124 -0.03825486 -0.040772233 -0.12537411
000160 6d f1 6a bc 6d b8 c5 bd ed 48 08 3e 0c 1e 32 3e
       -0.014339787 -0.09654317 0.13309069 0.17394274
000170 72 6f 46 bd 36 59 c7 3d 45 b2 eb bd 18 3a d9 bd
       -0.048446126 0.097338125 -0.115086116 -0.10606784
000180 18 b8 9f 3d bc 24 3d bb 11 df af bc a7 67 89 bd
       0.07798785 -0.0028861007 -0.021468671 -0.06709223
000190 a9 ab 3d 3c 52 11 d2 3c 62 c8 86 3d c3 7b cc bc
       0.0115765715 0.025643025 0.06581189 -0.024961358
0001a0 26 bb 27 bd 6f 20 f5 bd 1e d0 a3 bd f5 39 a7 bb
       -0.040949963 -0.11969077 -0.079986796 -0.0051033446
0001b0 e2 6e 09 3e 51 4a 27 be 02 3c cb bd bc f1 51 bc
       0.13421205 -0.16336943 -0.09923555 -0.012813982
0001c0 95 32 48 3c 78 9a 37 bb 21 2d 58 3c e9 c9 c3 bc
       0.012219091 -0.0028015655 0.013194353 -0.02389999
0001d0 83 c6 15 3c 7a e2 e3 bb f6 e0 e3 bb da cb 4e bc
       0.009141567 -0.0069544883 -0.0069543077 -0.012621844
0001e0 e7 ef e7 38 74 c2 6a bc 6f 30 29 3c cb 71 54 3d
       0.00011059624 -0.014328588 0.010326489 0.051866334
0001f0 31 28 0c 3d 6c 9d 72 bd 44 77 38 bd a6 15 64 bb
       0.034218017 -0.05923216 -0.045035616 -0.0034802943
000200 a8 b7 83 be 20 bb a1 be 40 7e f0 3d 9d 9f 2a be
       -0.25726056 -0.31588078 0.1174283 -0.1666245
000210 ad 3c 8c 3e 7f b5 ce 3e e1 8b 3c bd 4f eb dc bd
       0.27390042 0.40372846 -0.046031836 -0.10787069
000220 28 00 48 be 5a 00 4b bd 70 b2 30 be 38 be 0a 3f
       -0.1953131 -0.049560882 -0.17255569 0.541965
000230 5a 1c 0f 3f 61 b5 88 3e 44 ac 43 be 5e fd e9 be
       0.55902636 0.2670088 -0.19108683 -0.45701116
000240 f7 0a 9e bc 01 c7 7a 3b da 56 92 bd d8 f4 53 bd
       -0.019292338 0.0038265588 -0.07145472 -0.051747173
000250 a7 85 86 bc a3 d8 8d bd 5a 3a 02 bd 3f 0b fd 3c
       -0.016421152 -0.06926086 -0.03179393 0.030889152
000260 1d 32 37 3d 66 9b 79 bd c6 96 bb 3b 43 0e b0 3c
       0.044725526 -0.060939215 0.0057247607 0.021491176
000270 b0 cd 32 ba be 10 6a bd ed 44 3a bd c5 92 1a bc
       -0.0006820811 -0.057144873 -0.04547589 -0.009434407
000280 02 67 19 3e 78 be 22 be 28 e0 a2 bc ed cf d0 bd
       0.149807 -0.1589297 -0.019882277 -0.10195909
000290 a5 b3 99 bd 85 bb 06 bd ec 84 d8 bd 1b b6 f1 bc
       -0.075049676 -0.032893676 -0.10572228 -0.02950578
0002a0 2a 24 f7 bc d0 b6 d8 3b 61 d2 54 3e 87 ae 4e be
       -0.030168612 0.00661359 0.20783378 -0.20183764
0002b0 54 40 17 be ad e8 20 be 40 12 1a bd 72 a0 53 3e
       -0.14770633 -0.15713759 -0.03761506 0.20666674
0002c0 86 a8 4a bd ef 5f 99 3d 01 64 ab 3d 7d 69 80 be
       -0.049477123 0.07489001 0.083686836 -0.2508048
0002d0 d1 2f 0b 3e 85 46 e1 bd 67 33 d9 bd 52 68 dc 3d
       0.1359246 -0.10999779 -0.10605507 0.10762085
0002e0 92 a8 c5 bd e4 d6 ca bd bb 42 6c be 53 b5 0f be
       -0.09651293 -0.099042684 -0.2307233 -0.14034013
0002f0 f4 2a 2d be a8 d4 5d 3e 67 b9 90 3d b0 fc bf 3d
       -0.16910917 0.21663153 0.07066613 0.09374368
000300 fe 50 54 bd ad f7 ac bd 30 1e cc 3d e8 71 15 be
       -0.051835053 -0.08445678 0.09966695 -0.14594233
000310 4d c3 fa bc 01 e2 31 bc 5d 3a 91 3d 26 12 80 3d
       -0.030610705 -0.010857106 0.0709121 0.062534615
000320 76 7b 91 3d f3 fe 1a bd e9 7e d3 bd 4a ac c3 bd
       0.071036264 -0.037840795 -0.103269406 -0.09554346
000330 56 35 0d 3e 8d 82 b0 bd 72 6f a7 3d b4 67 d0 3d
       0.13789877 -0.086186506 0.081755534 0.1017603
000340 e4 36 0f 3e 09 01 67 3e c1 e9 7f be a3 aa 70 bc
       0.13985783 0.22558989 -0.24991514 -0.01468912
000350 89 1f 71 be e3 6c 56 3e c2 3e 8c bd 0a bb fe 3d
       -0.23547186 0.20939974 -0.068479076 0.124380186
000360 16 1c c9 3c 09 4f b1 3e d9 0e 84 be d8 05 01 3d
       0.024549525 0.34630612 -0.25792578 0.031499714
000370 ed 7e 2f be ae ec 94 3d 4c e2 90 3e be c3 9c be
       -0.17138262 0.072717056 0.2829765 -0.3061809
000380 05 2e 33 be 7b 29 de bd af c3 ab bb b4 f4 ab 3d
       -0.17498024 -0.108477555 -0.005241833 0.08396283
000390 1e 90 43 be c0 ba 7c be 38 21 0e bd c6 4d ec 3d
       -0.19097945 -0.24680614 -0.03469965 0.115382716
0003a0 58 cf 1f be 29 c3 09 be 58 1c 61 be ef b8 fa 3d
       -0.15606439 -0.13453354 -0.21983469 0.122423045
0003b0 0a 7f ab 3e 1c fb 8c 3e 51 65 f4 bd 2c c2 60 bd
       0.3349536 0.2753533 -0.11933387 -0.054872677
0003c0 8b 62 ea 3c 24 70 b1 3a 01 c0 1c be f3 4d 47 3e
       0.028611442 0.0013537449 -0.15307619 0.19463329
0003d0 55 2d 0e 3e 71 43 10 3d 39 9f 84 3e 8f bf 13 3d
       0.1388448 0.035220567 0.25902727 0.036071356
0003e0 12 7b 0a 3d 35 91 04 3e da b9 98 3e e8 ff b5 3d
       0.033808775 0.12946017 0.29829293 0.08886701
0003f0 7e fb cf 3d c3 e4 cc bd 35 78 36 be 71 8b 92 3d
       0.1015539 -0.1000457 -0.17819293 0.071555026

onnx::Conv_90 f4 [32]
000000 a1 51 b8 bd 7a 5d 3c bf 62 b5 7b be 25 bf 09 bf
       -0.089999445 -0.73580134 -0.24580911 -0.5380729
000010 c5 86 b1 bd 30 b4 45 3e d5 0e 34 3e 8a 69 83 3c
       -0.086682834 0.19307017 0.17583783 0.016041536
000020 e5 51 8b be 93 88 07 3e c2 c3 8d 3e 54 b6 35 3e
       -0.27210918 0.13235693 0.27688414 0.17745334
000030 62 1c 83 3c 84 bc 43 be 5c 2f 07 3c b4 a8 d1 be
       0.016004745 -0.19114882 0.008251037 -0.40949023
000040 ad cc 99 be 48 54 c5 3e 46 d7 98 be 12 1f 64 be
       -0.30038968 0.38540864 -0.2985174 -0.22277477
000050 6c cf 02 bf d4 95 b8 bb ef 75 ae be 8e d6 e3 bd
       -0.5109775 -0.0056330953 -0.3407435 -0.111249074
000060 14 86 ed bd f0 ec f9 bb 3c 42 84 3e af 32 61 be
       -0.11597839 -0.007627122 0.25831783 -0.2199199
000070 8e 4b 0d b6 7e b9 75 be 06 b5 15 3e 72 ee 59 bc
       -2.1054616e-06 -0.23996541 0.14619836 -0.013301479

onnx::Conv_92 f4 [64, 32, 3, 3]
000000 2f c3 95 3a 90 73 31 ba d0 a9 2c ba 1d 06 60 3a
       0.0011425967 -0.00067692343 -0.00065865833 0.0008545833
000010 e5 08 13 ba 20 50 fe ba 79 68 88 3a 63 26 73 ba
       -0.00056089304 -0.0019402541 0.0010407112 -0.00092754344
000020 a7 c7 3c bb 34 60 29 3a 79 e4 96 3b c1 e3 5a bb
       -0.0028805526 0.0006461174 0.004604873 -0.0033399912
000030 58 fd 6a bb 4d 92 0b ba 76 15 b3 bb 1b 17 21 ba
       -0.003585657 -0.000532423 -0.005465205 -0.00061451056
000040 a6 f1 14 3b e1 a7 51 3b 0e e9 e2 3a 1a 6f 57 3a
       0.0022727042 0.0031990933 0.0017311887 0.00082181545
000050 4f e8 29 ba 08 25 4a 3b d3 1c b2 3a ba 90 5f bb
       -0.0006481455 0.0030844826 0.0013588913 -0.0034113363
000060 26 38 ea 3b 7d 2c dd 3b 8a a4 ec 3a d7 79 93 bb
       0.0071478067 0.006749688 0.0018054408 -0.0045006084
000070 ad 59 b4 3a a0 a6 96 ba c4 68 f8 bb 10 31 8e bb
       0.0013759636 -0.001149375 -0.0075808484 -0.004339345
000080 89 07 53 bb d0 16 63 bc da 30 87 bc 80 4f 50 ba
       -0.0032200536 -0.013860419 -0.016502786 -0.0007946417
000090 01 66 bc bb da 51 9a bb 97 4a d7 bb 9f f3 4b bb
       -0.0057494645 -0.0047094645 -0.006570171 -0.0031120551
0000a0 0d 10 8a bb 0f 6b 7c bb 4a 3b 2c 3b 32 65 3c bb
       -0.004213339 -0.003851596 0.0026280456 -0.002874684
0000b0 18 73 2d 3b e1 3c b5 b9 d0 d4 53 3b 0c 3d a4 3b
       0.0026466306 -0.0003456837 0.003232289 0.00501216
0000c0 20 03 5c 3b 78 d1 8b 3b 0a 23 d1 3b 34 09 bf bb
       0.0033571199 0.004266914 0.006382351 -0.0058299545
0000d0 a3 63 80 bb c9 0a 20 bb 59 9a 04 3c e9 d5 25 3c
       -0.0039181276 -0.002442049 0.00809344 0.010121801
0000e0 c5 53 1c 3c f9 17 63 bb 9b 97 96 bb 51 3c 0d bb
       0.009541457 -0.003465174 -0.0045957095 -0.0021550844
0000f0 67 77 1e bc 46 b1 5c bc 95 57 e1 bb ab 85 b6 ba
       -0.009672022 -0.01347 -0.0068768957 -0.0013925334
000100 0a 84 1b bb 4e dc 8d ba ac bc 83 3a a2 96 81 b9
       -0.0023729824 -0.0010823102 0.0010050735 -0.00024717028
000110 f0 95 fc 39 e6 ed 19 3b de 5a 35 3a d4 9e b0 3a
       0.00048176898 0.0023487746 0.00069181423 0.0013475069
000120 cc 49 85 ba 6a e9 e4 39 d9 5c 75 bb 3e e3 35 3c
       -0.0010169088 0.00043661456 -0.0037439375 0.011101542
000130 8c 45 10 3b d3 b9 05 3b be b5 b6 3b d5 09 01 3b
       0.002201411 0.002040495 0.0055758646 0.0019689698
000140 2d e0 50 3c 1f 72 05 3b b5 a6 04 ba b9 ba e8 ba
       0.01274876 0.002036221 -0.00050602417 -0.0017755843
000150 6b 81 b5 3a 61 3a bc ba ff 35 13 bb ea 20 b9 ba
       0.0013847774 -0.001436066 -0.0022462604 -0.0014124189
000160 26 b5 a3 bb ca c8 d5 bb f4 58 cb 3b 9d 24 3b b8
       -0.00499596 -0.00652418 0.0062056724 -4.4618373e-05
000170 28 61 cc 3b c0 a5 d7 bb 79 64 fd bb 94 15 5d bb
       0.006237168 -0.0065810382 -0.0077329245 -0.0033734785
000180 d9 94 9f bb dc 5a 48 bc 42 a3 07 bc 19 78 1d 3b
       -0.004870039 -0.012228694 -0.00827867 0.0024027883
000190 37 0c e7 38 e8 14 52 3b 87 09 df ba dd 1a 89 bb
       0.000110172135 0.0032055918 -0.0017016389 -0.0041841106
0001a0 c4 7b b4 ba ee a5 e2 bb 1c 6c 21 bc 31 0d 4a bc
       -0.0013769795 -0.006916753 -0.009852435 -0.012332247
0001b0 eb df ce bb a5 95 e3 ba 0c fd 11 bb fd 7c 7f bb
       -0.006313314 -0.0017363323 -0.0022276072 -0.003898441
0001c0 f3 90 bd ba 6e 44 2b 3b 1c 17 86 bb 18 c7 12 bb
       -0.0014462754 0.0026133317 -0.0040921103 -0.00223965
0001d0 d9 9e 40 3b 7c 97 1e 3c 12 bd 28 3c 9d 09 f9 3a
       0.0029391556 0.009679671 0.010298984 0.0019000057
0001e0 b6 f6 66 3b 5a 65 cd 3b ea e1 30 bb 67 28 d7 3b
       0.0035242266 0.0062681856 -0.0026990124 0.0065660956
0001f0 aa 27 19 3c 4c 7d a0 3b 12 34 77 bb 9c 81 d9 bb
       0.009347836 0.004897749 -0.0037720245 -0.006637765
000200 1a 80 1a ba cb 10 af bb 8d f7 10 bc c6 ab 77 bb
       -0.00058937224 -0.005342578 -0.008848083 -0.0037791594
000210 70 28 54 bb ba d6 c0 bb 04 4a 98 bb 8c dc 86 3c
       -0.0032372735 -0.0058849724 -0.004647495 0.016462587
000220 e3 a6 75 3c 33 89 46 3b 9d 3f 8e 3c a3 a9 a9 3c
       0.014993402 0.003029418 0.017364318 0.020710772
000230 8d 78 a0 3b 38 94 65 3c 52 b2 b2 3c 9c 59 eb 3b
       0.0048971833 0.014012389 0.021813545 0.007182313
000240 ff 4c 84 ba 8f 0d 41 3a 4c dd 69 3b d6 8b 23 bb
       -0.0010093747 0.0007364386 0.0035684882 -0.0024955175
000250 0d 42 1e bb df 75 2a ba e0 51 2f 3b c4 e7 58 3b
       -0.0024148256 -0.00065025495 0.0026751682 0.0033097127
000260 53 75 b0 3b 03 14 f0 3b cc 1f 4b 3c 13 ea 94 3c
       0.00538508 0.0073266043 0.012397718 0.018178022
000270 87 7b bd 3b 27 64 a6 3b 4b f2 2c 3c f2 02 e7 ba
       0.005782548 0.005077857 0.010555814 -0.0017624779
000280 8d c0 a2 bb f3 71 43 bb da f1 89 39 c4 3d 9b bb
       -0.0049668015 -0.0029822558 0.0002631087 -0.0047375876
000290 7e 86 82 bb 94 85 7b 3a 62 d3 d0 bb 6c d5 dd bb
       -0.003983318 0.0009594795 -0.006372855 -0.0067698266
0002a0 11 0e b5 3b a4 33 0d 3b 75 d8 88 3a 6c 03 52 3c
       0.0055253585 0.0021545673 0.0010440486 0.012818199
0002b0 69 c8 9a 3c 1a d1 8e 3c c4 82 61 3b af 2e 70 3c
       0.018894391 0.017433692 0.0034410218 0.014659568
0002c0 9d cf 2e 3c a4 e5 ab ba d6 06 46 3c 37 94 34 3c
       0.010669616 -0.0013114703 0.012086591 0.011021665
0002d0 38 d3 d8 3b 94 be 47 3c 17 34 c0 3b 77 6b 00 3c
       0.006616976 0.012191433 0.0058655846 0.007838122
0002e0 ef 7e 6e 3c 4d 19 1c 3c 1f 78 55 bb a2 35 95 3b
       0.0145566305 0.009527517 -0.0032572818 0.0045535127
0002f0 b6 4a c4 3a 30 2b 1d ba 2d f0 f2 3a b0 d3 d8 b9
       0.0014975879 -0.000599551 0.0018534713 -0.0004135645
000300 a1 bb 18 ba c4 05 c7 b9 06 36 2d ba 25 e5 93 bb
       -0.0005826299 -0.00037960534 -0.00066074764 -0.0045134
000310 e4 9d 7a bb f8 c8 54 bb 50 11 03 3c 68 8b c6 3b
       -0.0038241083 -0.003246842 0.007999733 0.006059099
000320 64 d5 93 bb 54 82 d5 3b c3 e8 73 3c 0b 44 c0 ba
       -0.004511522 0.0065157805 0.014887038 -0.0014668716
000330 32 79 de 3b d8 a3 a3 3c 49 99 5c 3c 5f 7c 8f bb
       0.00678935 0.019975588 0.01346428 -0.00437884
000340 cd 76 1e bc 51 e0 2f bc 1f 4b ea 3b fb 5f c3 bb
       -0.009671879 -0.010734634 0.0071500684 -0.0059623695
000350 67 39 55 bc 6e 8c a7 3c 5d 38 82 3c 47 6b 01 3c
       -0.013014174 0.020452704 0.015896017 0.007899112
000360 ec 9a 53 3b e2 77 b8 3a da ba 84 3a 96 d4 0a 3b
       0.0032288386 0.0014073814 0.0010126487 0.002118384
000370 ad b8 c9 3a 3a 96 9b ba ee 93 cd 3b df 59 c8 3b
       0.0015390121 -0.0011870333 0.006273738 0.006114229
000380 e6 4a 52 3b 5e aa ac 3b 21 a1 c6 3b f4 cb c2 3b
       0.00320881 0.005269333 0.0060616885 0.0059447233
000390 39 90 39 bb ab de 51 bb 41 a1 1c 3a eb 71 49 bc
       -0.0028314723 -0.003202359 0.00059749564 -0.012295227
0003a0 a6 fb 21 bc 60 ee 8d bb 88 34 a2 3b 26 be c0 3b
       -0.009886658 -0.004331395 0.00495011 0.0058820425
0003b0 be cc 8c 3b 2c 22 a9 3b 4e 0d b3 3b 86 63 87 3b
       0.004296868 0.0051615443 0.0054642325 0.004131737
0003c0 71 56 ca ba 3b a2 a5 3a 06 2e e0 3a ac 1e bc 3b
       -0.0015437138 0.001263685 0.001710356 0.005740961
0003d0 1a cb 8b 3b f9 45 1f b9 c5 0a e1 3b a7 f6 c8 3b
       0.004266155 -0.00015189488 0.006867739 0.006132919
0003e0 a8 37 07 3b 73 85 0b bb 8b 6a b2 ba 93 3b be bb
       0.002063254 -0.0021289259 -0.0013612075 -0.0058054416
0003f0 86 aa a6 22 80 da 51 9d 85 cf 01 1b 3a 56 1a 26
       4.517494e-18 -2.7773882e-21 1.0737683e-22 5.354634e-16

onnx::Conv_93 f4 [64]
000000 99 3c 16 bd ae 2f a4 ba a4 7b 1b be a4 93 ab bc
       -0.036678884 -0.0012526417 -0.15183884 -0.020944424
000010 21 54 9c 3e 91 6a a0 b4 ba e0 11 3c fb 11 12 bd
       0.30532935 -2.987986e-07 0.008903677 -0.03566168
000020 79 da e0 bd 37 5c 06 bd 3a b0 d4 bb 56 72 c7 bc
       -0.1097917 -0.032802787 -0.0064907344 -0.024346512
000030 b4 3c 23 bc da 26 7d bc f6 d3 e3 bc 5a 75 88 bd
       -0.009963203 -0.015451157 -0.027811032 -0.06663008
000040 8b 58 59 bd 40 ba 61 3e 7a 24 78 bd 8c c2 3a bd
       -0.053062957 0.22043705 -0.06058166 -0.04559569
000050 78 35 4d b8 b9 ac c0 bd 1e 5f 13 bb f2 d6 e9 3b
       -4.8925605e-05 -0.09407944 -0.0022487114 0.007136219
000060 38 78 89 3d 7c 73 8e 3d 91 18 1b bb a1 16 db bc
       0.06712383 0.06955621 -0.0023665766 -0.026744189
000070 7e 5c ab bd 89 75 65 3d c8 83 62 bc cc a0 d9 a9
       -0.08367251 0.056020293 -0.013825364 -9.66463e-14
000080 1a 29 f1 bd f0 1d 93 bb 0a 51 f8 bd cc 8f 78 bd
       -0.117754176 -0.004489653 -0.12124832 -0.06068401
000090 50 15 83 bd d1 1f 8f bd a0 81 86 3a 9e 1b 11 be
       -0.064005494 -0.069884904 0.001026202 -0.14170691
0000a0 10 86 e0 3c 60 6c a7 bd 01 f5 05 bb f4 5a 22 be
       0.027407676 -0.08174968 -0.0020440223 -0.15855008
0000b0 09 38 42 b9 97 a4 16 ba 1c 42 d6 bc 64 27 8a bd
       -0.00018522156 -0.00057465717 -0.02615457 -0.067457944
0000c0 7b 56 c0 bd 11 4a e3 bc dc fd 17 be 58 db a9 bd
       -0.09391495 -0.027745279 -0.14842933 -0.082937896
0000d0 ae 83 86 b0 a3 91 12 bd be 6d aa bd 8b 90 a7 3d
       -9.787209e-10 -0.03578342 -0.08321713 0.08181866
0000e0 40 d0 24 3a 10 9e fb 3a 92 1d 41 bd 68 9a 7e 3e
       0.0006287135 0.0019196887 -0.04714734 0.24863589
0000f0 ef 30 2a ac e5 0a 2a 3e 84 e1 ff 3b a2 3b a4 bd
       -2.4185617e-12 0.16605718 0.007808866 -0.080191866
