model/agua-viva.onnx (onnx, 302121 bytes, 16 tensors)

fc.weight f4 [2, 256]
-0.028074017 0.006667517 -0.14734517 -0.13270983 -0.13325246 -0.13401671 -0.056521274 -0.04358791
-4.736691e-18 -1.1227732e-15 -4.3462777e-15 5.3221212e-11 -0.001343086 0.022119993 -0.054948173 -0.05075357
0.060566653 0.046104826 0.060885414 0.07053774 0.024744995 0.11270384 0.06185336 0.092462085
0.014319036 -0.00028048514 -0.026026193 -0.03968026 -0.0004418194 -0.0017959971 0.00023004726 0.0005341246
0.04024878 0.021104341 0.07808504 0.07656706 -0.06713967 -0.07469324 0.017964203 0.019984407
-0.029622972 -0.0558316 0.027820846 0.025332099 3.5666788e-05 -1.563738e-05 -0.00066421955 -0.0023605388
-0.015192318 -0.028965186 0.054388165 0.019420056 0.0018087311 0.0021104012 -0.0018460042 -0.001278062
0.030230049 0.014459203 0.033043765 0.030864093 6.3736155e-11 7.8355725e-11 7.665305e-11 8.3755176e-11
0.006156797 0.009627961 -0.0058345706 -0.0018908511 -0.050516672 -0.06367335 0.032904927 0.019452449
0.049923457 0.05947929 0.027264617 0.046878844 -0.016202034 -0.041677438 -0.101476535 -0.077014305
0.011878184 0.032073222 0.0028764606 0.028630309 -1.8177701e-17 -5.5271685e-20 3.8869085e-16 -9.462473e-20
0.003441234 -0.023238175 0.01446358 -0.0020793201 -0.110562764 -0.14123085 -0.017028889 -0.078587644
0.020277781 -0.014275172 -0.049257077 -0.051989138 0.039833255 0.01603204 0.019625336 0.033908118
-0.010620855 -0.008219164 -0.013303633 -0.014238567 -0.029690431 -0.020015579 0.025472952 -0.0037931735
-2.9143954e-05 0.005011801 -0.008641654 -0.0085334275 -0.10679923 -0.14813316 -0.038075995 -0.08752708
0.10368027 0.085519336 0.11743345 0.07966201 -0.0008152317 -0.0006530279 0.00040291343 0.00022520479
6.8033586e-21 -2.1523258e-21 -9.040807e-21 -9.893973e-21 0.021326154 0.09812993 0.08872978 0.11759042
0.10211194 0.05243658 0.10464174 0.027686875 0.03547992 0.03495297 -0.045060314 -0.015541411
-7.466961e-20 2.2919973e-20 2.619475e-17 -4.335875e-18 2.952308e-10 9.1886143e-10 -4.3146233e-09 -2.3377826e-08
-0.0056634136 -0.002347472 0.0017536434 0.0039412207 0.066105686 0.0826778 0.087535575 0.080129586
0.10603201 0.12281806 0.13567649 0.12571356 0.018311217 0.013821072 -0.011752693 -0.02766933
-0.15256643 -0.14141175 -0.015164226 -0.027729422 0.003936801 -0.0009389194 -0.0082168495 -0.0049649193
0.13831532 0.08163386 0.12490604 0.1277798 0.02474048 0.058459308 0.021562094 0.06122209
-0.059269503 0.005535023 -0.1668993 -0.114939496 0.0047346624 0.0013291977 0.005745505 0.009405388
4.2781493e-16 4.7858606e-16 4.2246144e-16 3.7901405e-16 0.059205092 0.07968919 0.0070834467 0.011746317
0.07661303 0.052483868 0.117982715 0.12654893 2.6453777e-25 3.929665e-20 -7.429918e-23 4.22884e-18
-0.0904742 -0.10548774 -0.048923686 0.0075071948 0.051052347 0.043896474 0.026168726 0.07955586
-0.041340254 -0.07600652 -0.08268384 -0.06651621 -0.06765655 -0.05601613 0.0020809676 -0.025525061
2.1075057e-18 -1.6137526e-18 -6.9694976e-17 1.6699971e-19 -0.044013333 0.015204103 -0.09398916 -0.06955733
-0.004746446 -0.0058024935 0.0033800188 0.0003891091 5.3119793e-11 5.1809057e-11 4.9612963e-11 4.9731115e-11
-0.011460867 -0.007491931 0.0044631218 0.0057301093 0.088203155 0.059139058 0.079297096 0.030728232
-0.08238727 -0.13952187 -0.015234675 -0.0625322 0.007671846 -0.02150655 -0.12548396 -0.12429929
00000000: 7bfb e5bc 307b da3b a7e1 16be 16e5 07be
00000010: 5573 08be ad3b 09be da82 67bd 3c89 32bd
00000020: c8c0 aea2 05cf a1a6 5697 9ca7 c211 6a2e
00000030: 7d0a b0ba fd34 b53c 5611 61bd fae2 4fbd
00000040: bd14 783d 6ad8 3c3d fc62 793d 1776 903d
00000050: 04b6 ca3c 45d1 e63d f359 7d3d c35c bd3d
00000060: 649a 6a3c 140e 93b9 e234 d5bc c587 22bd
00000070: ffa3 e7b9 aa67 ebba d738 7139 7f04 0c3a
00000080: e8db 243d 03e3 ac3c 0deb 9f3d 31cf 9c3d
00000090: 8680 89bd c5f8 98bd aa29 933c 57b6 a33c
000000a0: e0ab f2bc adaf 64bd 8be8 e33c 4385 cf3c
000000b0: ec98 1538 052d 83b7 051f 2eba 45b3 1abb
000000c0: 33e9 78bc 6648 edbc 20c6 5e3d cf16 9f3c
000000d0: f212 ed3a a84e 0a3b 9ff5 f1ba a584 a7ba
000000e0: 02a5 f73c 4be6 6c3c e658 073d b2d6 fc3c
000000f0: 4428 8c2e 5a4e ac2e d58f a82e f92d b82e
00000100: f5be c93b 98be 1d3c ed2f bfbb 6fd6 f7ba
00000110: 92ea 4ebd 2c67 82bd 51c7 063d be5a 9f3c
00000120: 8a7c 4c3d 8ea0 733d 0c5a df3c 0804 403d
00000130: 21ba 84bc f6b5 2abd eed2 cfbd adb9 9dbd
00000140: b79c 423c 365f 033d 0083 3c3b 1c8a ea3c
00000150: e2a8 a7a3 af81 829f a510 e025 246d df9f
00000160: 5386 613b fc5d bebc a7f8 6c3c 3445 08bb
00000170: bb6e e2bd d29e 10be 2b80 8bbc 8ff2 a0bd
00000180: 971d a63c 69e2 69bc cac1 49bd 90f2 54bd
00000190: 3228 233d a055 833c 50c5 a03c 3de3 0a3d
000001a0: 1803 2ebc aca9 06bc 7bf7 59bc e148 69bc
000001b0: 5939 f3bc b6f7 a3bc a7ac d03c e496 78bb
000001c0: 2a7a f4b7 093a a43b b995 0dbc cacf 0bbc
000001d0: 8eb9 dabd 38b0 17be 93f5 1bbd 6641 b3bd
000001e0: 5256 d43d c324 af3d f380 f03d d625 a33d
000001f0: 46b5 55ba f62f 2bba 203e d339 f324 6c39
00000200: 0683 001e 09a0 229d a9c6 2a9e 51e4 3a9e
00000210: 30b4 ae3c 58f8 c83d f5b7 b53d 3fd3 f03d
00000220: 1120 d13d bdc7 563d 694e d63d 96cf e23c
00000230: 6553 113d d82a 0f3d 2a91 38bd 67a1 7ebc
00000240: 024f b09f 1879 d81e 9b9a f123 2ef7 9fa2
00000250: 0b4e a22f 2093 7c30 d43f 94b1 62d0 c8b2
00000260: 2894 b9bb 0bd8 19bb 82da e53a 5b25 813b
00000270: 6b62 873d fa52 a93d da45 b33d fb1a a43d
00000280: 4f27 d93d 0988 fb3d c7ee 0a3e 0ebb 003e
00000290: 6801 963c c771 623c 5e8e 40bc caaa e2bc
000002a0: 603a 1cbe 3ece 10be 6073 78bc d028 e3bc
000002b0: 4800 813b d021 76ba f79f 06bc c3b0 a2bb
000002c0: 88a2 0d3e a72f a73d bdce ff3d b5d8 023e
000002d0: 8cac ca3c 0773 6f3d fda2 b03c 04c4 7a3d
000002e0: 94c4 72bd 235f b53b a6e7 2abe 6665 ebbd
000002f0: 3a25 9b3b 7938 ae3a ca44 bc3b 0e19 1a3c
00000300: 579e f625 6bf1 0926 4e88 f325 9a7c da25
00000310: 0a81 723d 1634 a33d 421c e83b a073 403c
00000320: 4be7 9c3d 53f9 563d eca0 f13d 0b96 013e
00000330: afbd a316 bc92 391f f7a4 b39a 4404 9c22
00000340: 8a4a b9bd f509 d8bd 3464 48bd eafe f53b
00000350: 441c 513d cacc 333d cc5f d63c 2fee a23d
00000360: 6654 29bd 4ea9 9bbd 2556 a9bd a739 88bd
00000370: 848f 8abd 2b71 65bd d860 083b ef19 d1bc
00000380: a881 1b22 d925 eea1 a7b4 a0a4 9128 4520
00000390: 5347 34bd a11a 793c 647d c0bd 1374 8ebd
000003a0: 1388 9bbb d822 bebb 4e83 5d3b 5701 cc39
000003b0: 929f 692e d0db 632e 3b33 5a2e 42b8 5a2e
000003c0: 5cc6 3bbc df7e f5bb 613f 923b a4c3 bb3b
000003d0: dba3 b43d cc3b 723d 8466 a23d c6b9 fb3c
000003e0: a8ba a8bd d2de 0ebe dc9a 79bc e210 80bd
000003f0: 1c64 fb3b 812e b0bc de7e 00be a090 febd

fc.bias f4 [2]
0.022647582 0.048801735
00000000: 6c87 b93c 54e4 473d

onnx::Conv_80 f4 [16, 3, 7, 7]
-0.19161072 -0.24744701 -0.15531375 -0.023573378 -0.09851383 0.06822051 -0.042420402 -0.18912874
-0.16186252 0.005665901 0.06158293 -0.018025823 -0.041820265 0.062445868 -0.13037673 -0.004110774
0.003308995 -0.09793698 0.084248714 0.0732071 0.09784935 0.08527659 0.039329965 0.026186137
-0.022891607 -0.04943141 0.015444071 0.09996716 0.03259467 -0.077192955 0.05559162 -0.08275765
0.06763759 0.06872512 0.08904933 -0.043775495 0.00484773 0.10916897 -0.06665348 -0.0314218
-0.04826393 0.090713665 -0.014203904 0.11936247 -0.08539039 -0.007401408 -0.014611979 -0.029631479
0.07747787 -0.035369042 -0.10457795 -0.14684756 -0.028287185 -0.07411658 -0.022240056 -0.050367784
-0.09745896 -0.051568292 0.030128926 -0.08014237 0.07367438 -0.02261086 0.14056075 -0.048486028
-0.034876082 -0.06545345 0.017246274 -0.08018873 -0.08506715 0.06167971 0.0023545737 -0.05249824
0.041118503 -0.037665542 -0.07461688 0.022415737 -0.085001305 0.042151656 0.041802198 -0.04921556
0.09627876 0.102869675 -0.058594104 0.023054147 0.07567132 -0.017716696 -0.009634459 -0.012998394
-0.076582804 -0.06594091 -0.09473347 -0.008141743 0.023038417 -0.022711458 0.046939943 0.06788902
0.061451316 0.059197713 -0.1843525 -0.117934175 -0.14109181 -0.04027189 -0.080938295 -0.10413884
0.049985338 -0.103054255 -0.046129648 -0.080155365 0.0133721195 0.002349989 -0.0068849986 -0.05155569
-0.10401713 -0.044558104 -0.09113351 -0.08549077 0.038666904 0.05479694 -0.0470979 -0.05222602
0.0038204936 -0.047199316 0.013056511 -0.03335115 -0.056191288 0.08723818 -0.034846947 0.04526319
0.0129907755 0.02124535 0.01658664 0.044787932 0.07371327 0.04578555 -0.11575831 -0.12326531
0.08693822 -0.063522555 -0.103515476 -0.007797884 -0.020812681 0.064998 0.027975632 -0.06878885
0.0052076005 0.050936498 0.09068309 0.13863227 0.12784676 0.18683419 0.05888726 0.04775927
-0.048634868 0.0072415834 0.030790282 0.11088932 0.055407673 0.078037925 0.08295699 0.10040088
0.100786276 0.07354468 -0.025269356 0.050956167 0.10073249 0.09375198 0.07795765 0.102702
0.06201789 -0.043691404 -0.08796886 -0.10498807 -0.11756954 0.009631334 -0.0033544374 -0.06772172
-0.046674207 -0.040117707 -0.0062817377 -0.06260671 -0.04419689 -0.11535775 -0.13719967 -0.14050187
-0.1792006 -0.18298626 -0.16803232 -0.14879256 -0.18112154 -0.16665639 -0.13439628 -0.089363456
-0.18306622 -0.14959298 -0.19777605 -0.031177979 0.013935034 0.056843568 0.046531774 -0.08653201
-0.0012319152 -0.12785041 -0.09044294 -0.034607228 0.102624446 0.07255303 0.1227204 0.014658769
0.038227625 0.001487846 -0.04180536 0.030834874 -0.037954498 0.059323575 0.062314473 0.101869226
-0.022431744 -0.08696123 -0.13387206 -0.11436655 0.049282487 0.002619441 0.07550697 -0.011345292
-0.036136694 -0.0014139061 -0.08319299 0.01187088 -0.003766186 0.054935325 0.05698438 -0.051321775
0.03597831 0.06624849 0.05871376 -0.080313094 -0.053170152 0.054760583 0.028661694 -0.017329494
-0.102990344 -0.060103647 0.031323753 -0.040856995 -0.10401952 -0.022013124 0.11739249 -0.09609545
0.11848787 0.040282156 -0.011779891 -0.099424854 -0.06608758 0.077577785 0.05043895 0.034450192
00000000: 9a35 44be c062 7dbe 910a 1fbe f51c c1bc
00000010: 9ec1 c9bd 32b7 8b3d 04c1 2dbd f7aa 41be
00000020: 4abf 25be 06a9 b93b 623e 7c3d e4aa 93bc
00000030: ba4b 2bbd 3dc7 7f3d 7a81 05be acb3 86bb
00000040: b9db 583b 2f93 c8bd 978a ac3d 9bed 953d
00000050: 3d65 c83d 7ea5 ae3d 7518 213d 4f84 d63c
00000060: 2e87 bbbc 9778 4abd 2109 7d3c 95bb cc3d
00000070: fd81 053d 5717 9ebd 0ab4 633d d87c a9bd
00000080: 9485 8a3d c1bf 8c3d 7f5f b63d ef4d 33bd
00000090: b5d9 9e3b fb93 df3d 9f81 88bd 25b4 00bd
000000a0: 66b0 45bd 16c8 b93d 7eb7 68bc 5074 f43d
000000b0: 28e1 aebd 8387 f2bb 1567 6fbc b7bd f2bc
000000c0: b8ac 9e3d 21df 10bd f72c d6bd 355f 16be
000000d0: 87ba e7bc 6fca 97bd c730 b6bc 734e 4ebd
000000e0: 9098 c7bd 4639 53bd f0d0 f63c af21 a4bd
000000f0: 98e2 963d 693a b9bc 28ef 0f3e 4999 46bd
00000100: 39da 0ebd 750c 86bd 0f48 8d3c fd39 a4bd
00000110: b037 aebd dda3 7c3d 314f 1a3b 6508 57bd
00000120: e06b 283d 2f47 1abd bcd0 98bd 35a1 b73c
00000130: 2a15 aebd 37a7 2c3d c838 2b3d 4196 49bd
00000140: cc2d c53d 56ad d23d 5f00 70bd 0ddc bc3c
00000150: 91f9 9a3d 9b22 91bc dad9 1dbc 37f7 54bc
00000160: 72d7 9cbd 070c 87bd 9f03 c2bd f264 05bc
00000170: 10bb bc3c 610d babc 1944 403d 6609 8b3d
00000180: 60b4 7b3d 4d79 723d e7c6 3cbe 7987 f1bd
00000190: 5f7a 10be 23f4 24bd fac2 a5bd bf46 d5bd
000001a0: 6dbd 4c3d 1c0e d3bd 71f2 3cbd 7f28 a4bd
000001b0: bc16 5b3c 4602 1a3b 8e9b e1bb 0f2c 53bd
000001c0: ef06 d5bd 8f82 36bd 35a4 babd c915 afbd
000001d0: 3061 1e3d c272 603d bae9 40bd f3ea 55bd
000001e0: 3f61 7a3b 1254 41bd faea 553c 379b 08bd
000001f0: d628 66bd eea9 b23d acbb 0ebd e565 393d
00000200: 43d7 543c ba0a ae3c b5e0 873c 8d73 373d
00000210: fcf6 963d a189 3b3d b112 edbd 8672 fcbd
00000220: aa0c b23d 1d18 82bd ecff d3bd 6485 ffbb
00000230: 5b7f aabc ac1d 853d 272d e53c 2be1 8cbd
00000240: 85a4 aa3b caa2 503d 0eb8 b93d 9ef5 0d3e
00000250: 43ea 023e 7651 3f3e c433 713d 399f 433d
00000260: 5b35 47bd ce4a ed3b e73b fc3c f119 e33d
00000270: 28f3 623d 59d2 9f3d 5be5 a93d fa9e cd3d
00000280: 0969 ce3d 989e 963d ae01 cfbc 6ab7 503d
00000290: d64c ce3d 0a01 c03d 43a8 9f3d 6d55 d23d
000002a0: 7906 7e3d c2f5 32bd 0529 b4bd fc03 d7bd
000002b0: 4dc8 f0bd becc 1d3c 1fd6 5bbb afb1 8abd
000002c0: 742d 3fbd 7752 24bd 09d7 cdbb f237 80bd
000002d0: cc07 35bd af40 ecbd 127e 0cbe b9df 0fbe
000002e0: 5d80 37be c060 3bbe aa10 2cbe 145d 18be
000002f0: ed77 39be f9a7 2abe 2e9f 09be 3004 b7bd
00000300: b675 3bbe e72e 19be ce85 4abe f668 ffbc
00000310: c54f 643c cdd4 683d 1a98 3e3d b237 b1bd
00000320: 3778 a1ba 38eb 02be 263a b9bd 4fc0 0dbd
00000330: c42c d23d af96 943d d554 fb3d 552b 703c
00000340: 9294 1c3d d403 c33a 193c 2bbd 6b99 fc3c
00000350: 2d76 1bbd 47fd 723d 763d 7f3d d0a0 d03d
00000360: c7c2 b7bc bb18 b2bd c215 09be 0339 eabd
00000370: 6fdc 493d edaa 2b3b 66a3 9a3d 9be1 39bc
00000380: 1204 14bd d152 b9ba 1661 aabd 147e 423c
00000390: 1ed2 76bb dd03 613d 7468 693d c836 52bd
000003a0: fe5d 133d 4aad 873d d77d 703d 317b a4bd
000003b0: f2c8 59bd a24c 603d eecb ea3c 95f6 8dbc
000003c0: 9aec d2bd 3e2f 76bd 564d 003d aa59 27bd
000003d0: 3008 d5bd de54 b4bc 796b f03d b1cd c4bd
000003e0: c5a9 f23d e7fe 243d 7200 41bc 429f cbbd
000003f0: ed58 87bd 1ae1 9e3d 1399 4e3d a51b 0d3d

onnx::Conv_81 f4 [16]
1.1082213 0.7061333 0.5362186 -0.80408925 0.39447436 -0.1570266 0.21872333 -0.3686723
0.2000142 -0.06889032 0.98257893 -0.9483705 0.82036895 0.8668464 -1.3190266 -0.041440036
00000000: 32da 8d3f 27c5 343f 9f45 093f cbd8 4dbf
00000010: 8bf8 c93e 95cb 20be 02f9 5f3e 9ec2 bcbe
00000020: 86d0 4c3e 5e16 8dbd 4b8a 7b3f 69c8 72bf
00000030: b303 523f a5e9 5d3f ddd5 a8bf 07bd 29bd

onnx::Conv_83 f4 [32, 16, 3, 3]
-0.020790476 0.009087525 -0.0055517876 -0.022384487 -0.0020407115 -0.013014795 -0.015377612 0.021414112
0.0005349564 0.04632925 0.05701922 -0.0015486096 -0.014502889 -0.022280317 -0.02591792 -0.034071054
0.021247046 -0.031348575 0.012076978 0.021990648 -0.017871406 0.0019064109 -0.0036283748 -0.023293793
-0.019284306 -0.0067631504 0.0025227005 0.025367802 0.011540219 -0.04391575 -0.000526043 -0.024855157
-0.015428322 0.0010629256 -0.008272889 -0.011663861 -0.033969842 -0.027680585 -0.010155903 -0.024757817
0.021510925 -0.02855287 -0.014407807 -0.0028078302 0.03447005 0.01689013 0.026153928 -0.025624622
-0.014997481 0.014124884 0.005698756 -0.040028047 0.013740637 0.030501578 0.024439028 0.027638871
-0.007386808 -0.015618694 0.047218163 -0.016752394 -0.010303735 0.002499282 -0.02723208 -0.019171279
0.00563509 -0.035090413 -0.030844765 -0.01680787 -0.025269393 -0.007747348 0.034160502 0.018338108
-0.029553583 0.03242603 -0.012827037 0.004782948 0.0043776706 -0.002551826 0.013865597 0.032417387
0.012117537 0.026194034 0.010215668 -0.0051735267 -0.0070687253 -0.0071965456 0.021077428 0.007904307
0.017292151 0.023979543 -0.0015088341 0.051211637 0.026354397 -0.05931276 0.002298464 -0.050249748
-0.04870825 0.009906481 -0.04569766 0.043150384 0.0489271 0.024195535 -0.0068440875 -0.028624415
-0.008673046 -0.007677508 -0.023391388 -0.017738301 0.07032178 0.08236906 0.048145898 -0.018600237
0.031105455 -0.050671145 0.01127838 0.04208005 -0.030974371 0.0014038433 0.0153748775 -0.012295158
-0.008419529 0.003339612 -0.047170367 0.015095718 0.048488334 -0.009362316 0.037991982 0.0008149058
-0.012772134 -0.016237732 -0.017658517 -0.017720308 -0.0073948973 -0.009442088 -0.0004808853 0.0044887722
0.033247475 0.020214034 -0.001127786 -0.009030992 -0.009449995 -0.011706089 -0.027601162 -0.030723512
-0.016255593 0.10824294 0.07838405 0.017398652 0.020657111 0.048714373 0.01596719 -0.020737072
-0.028229672 0.017182646 0.024749825 -0.032343566 -0.024170227 0.009989268 0.06177156 0.051447563
0.034190852 0.07858063 0.033360288 -0.032841567 -0.03411885 -0.034560677 0.042472016 0.054987483
0.026724868 0.022892777 0.14131209 -0.02308205 0.03949158 -0.026839815 -0.025248077 -0.042505253
0.037590086 -0.04239752 -0.04662735 -0.024756001 0.045344815 -0.05497511 0.036910888 -0.046334416
0.042097818 -0.01315657 0.04246058 0.027993126 0.012113607 -0.010765798 -0.026730895 0.042228173
0.013843624 -0.08049129 -0.005932205 0.021375066 0.09387076 0.027809456 0.04150598 0.068319656
-0.029607847 0.039925274 -0.017004931 -0.07791407 -0.007281294 -0.078521736 -0.05991783 -0.03551984
-0.06061773 -0.042833023 -0.086593375 -0.056455486 -0.0702776 -0.012318447 -0.042112257 0.0041412083
0.08015296 0.008677057 0.009803617 0.03557565 0.00015597591 -0.04552883 0.032482073 -0.0063162893
-0.0066579515 -0.020632746 -0.076801375 0.03561394 0.05855746 0.024836073 -0.026195563 0.06595518
0.042667445 0.09074932 0.018758561 0.017458966 0.08664783 0.0020437143 -0.064860344 -0.045844823
-0.09020122 -0.0821025 -0.028504215 -0.015309606 -0.062239133 0.002375638 -0.05045174 0.047158066
0.081016205 0.082680896 0.094182745 0.082664855 0.031666856 -0.052141875 -0.06544614 0.03464844
00000000: ca50 aabc d8e3 143c c5eb b5bb ac5f b7bc
00000010: 75bd 05bb 023c 55bc 61f2 7bbc a66c af3c
00000020: 513c 0c3a bdc3 3d3d fc8c 693d b7fa caba
00000030: 869d 6dbc 3685 b6bc d151 d4bc 178e 0bbd
00000040: 490e ae3c 5d67 00bd 84de 453c bb25 b43c
00000050: 0e67 92bc 89e0 f93a 07ca 6dbb a0d2 bebc
00000060: 1ffa 9dbc 6b9d ddbb e453 253b 23d0 cf3c
00000070: 3013 3d3c 00e1 33bd 26e6 09ba 0b9d cbbc
00000080: 13c7 7cbc dd51 8b3a 038b 07bc c719 3fbc
00000090: f623 0bbd 65c2 e2bc f264 26bc e8d0 cabc
000000a0: ae37 b03c b5e7 e9bc b90e 6cbc 9303 38bb
000000b0: 7830 0d3d 2b5d 8a3c c340 d63c baea d1bc
000000c0: ffb7 75bc 0f6c 673c a1bc ba3b 73f4 23bd
000000d0: 6920 613c 72de f93c 5b34 c83c ea6a e23c
000000e0: 090d f2bb 8de5 7fbc d567 413d 513c 89bc
000000f0: ffd0 28bc feca 233b d015 dfbc 160d 9dbc
00000100: 90a6 b83b f7ba 0fbd 29ae fcbc a8b0 89bc
00000110: c201 cfbc 77dd fdbb e2eb 0b3d cd39 963c
00000120: 5b1a f2bc 28d1 043d 7e28 52bc 47ba 9c3b
00000130: 9072 8f3b 893c 27bb 872c 633c 18c8 043d
00000140: a288 463c df94 d63c 9e5f 273c b086 a9bb
00000150: c4a0 e7bb 00d1 ebbb 92aa ac3c 1181 013c
00000160: 45a8 8d3c bf70 c43c 12c4 c5ba 4bc3 513d
00000170: 2de5 d73c f0f1 72bd d4a1 163b aed2 4dbd
00000180: 4d82 47bd cb4e 223c 782d 3bbd 75be 303d
00000190: c867 483d b735 c63c 5e44 e0bb c07d eabc
000001a0: 6419 0ebc 9b93 fbbb 4c9f bfbc ea4f 91bc
000001b0: de04 903d 1cb1 a83d a234 453d 865f 98bc
000001c0: ded0 fe3c 8c8c 4fbd f4c8 383c 215c 2c3d
000001d0: f7bd fdbc 2a01 b83a e9e6 7b3c a171 49bc
000001e0: 10f2 09bc 64dd 5a3b b735 41bd 0854 773c
000001f0: b49b 463d 6664 19bc 7b9d 1b3d 679f 553a
00000200: 3642 51bc fe04 85bc 98a8 90bc 2e2a 91bc
00000210: e550 f2bb fdb2 1abc 551f fcb9 8d16 933b
00000220: 812e 083d e797 a53c 38d2 93ba baf6 13bc
00000230: 27d4 1abc e5ca 3fbc d51b e2bc e0af fbbc
00000240: 732a 85bc 79ae dd3d d187 a03d 9e87 8e3c
00000250: 1a39 a93c b988 473d a0cd 823c cbe0 a9bc
00000260: ea41 e7bc 9fc2 8c3c 25c0 ca3c b07a 04bd
00000270: a400 c6bc 07aa 233c 2d04 7d3d aeba 523d
00000280: b50b 0c3d e2ee a03d cca4 083d e184 06bd
00000290: 35c0 0bbd 7f8f 0dbd 23f7 2d3d 8e3a 613d
000002a0: 1cee da3c a289 bb3c 1eb4 103e 9116 bdbc
000002b0: ecc1 213d 2cdf dbbc 0ed5 cebc fd19 2ebd
000002c0: 10f8 193d 06a9 2dbd 52fc 3ebd 19cd cabc
000002d0: 7cbb 393d 952d 61bd df2f 173d 28c9 3dbd
000002e0: c36e 2c3d a78e 57bc 25eb 2d3d d751 e53c
000002f0: 2678 463c 0863 30bc c0fa dabc 73f7 2c3d
00000300: 5ed0 623c 9ed8 a4bd f162 c2bb c31a af3c
00000310: 503f c03d a8d0 e33c 2d02 2a3d 2deb 8b3d
00000320: 288c f2bc af88 233d ed4d 8bbc 6991 9fbd
00000330: ec97 eebb 01d0 a0bd 666c 75bd 407d 11bd
00000340: 4c4a 78bd ae71 2fbd de57 b1bd de3d 67bd
00000350: b4ed 8fbd 50d3 49bc e77d 2cbd f9b2 873b
00000360: 3c27 a43d 372a 0e3c 5a9f 203c c6b7 113d
00000370: 778d 2339 707c 3abd ec0b 053d e0f8 cebb
00000380: f22a dabb 0106 a9bc 0a4a 9dbd ecdf 113d
00000390: f2d9 6f3d 0575 cb3c 1498 d6bc 8213 873d
000003a0: 0fc4 2e3d c8da b93d 8eab 993c 1b06 8f3c
000003b0: 6b74 b13d d6ef 053b 80d5 84bd c8c7 3bbd
000003c0: 6bbb b8bd 5b25 a8bd ac81 e9bc 24d5 7abc
000003d0: 76ee 7ebd 98b0 1b3b 7ca6 4ebd d128 413d
000003e0: d3eb a53d 9a54 a93d e2e2 c03d 314c a93d
000003f0: 1bb5 013d b892 55bd a008 86bd 86eb 0d3d

onnx::Conv_84 f4 [32]
0.053728037 -0.26573473 -0.16780539 0.0605314 0.0108211525 0.16505514 -0.09861149 -0.74151695
-0.009640027 0.013477183 -0.66226643 0.15143625 -0.033742324 -0.67402565 0.00054864807 0.06559282
0.19500554 0.0993255 -0.04670693 0.2729521 0.18390004 0.17313188 0.41354734 0.24341922
-0.27789372 0.23407838 0.076553546 0.16494946 0.15982097 0.29335722 0.27562585 -0.035101026
00000000: ee11 5c3d 620e 88be 2dd5 2bbe c6ef 773d
00000010: 344b 313c 3704 293e d2f4 c9bd 0ed4 3dbf
00000020: 34f1 1dbc 67cf 5c3c 4b8a 29bf 1b12 1b3e
00000030: 6435 0abd f28c 2cbf 26d3 0f3a 8755 863d
00000040: 88af 473e 2b6b cb3d c44f 3fbd 61c0 8b3e
00000050: 4b50 3c3e 7c49 313e 7abc d33e e342 793e
00000060: 1648 8ebe 3eb2 6f3e 1bc8 9c3d 83e8 283e
00000070: 1ca8 233e eb32 963e d51e 8d3e 18c6 0fbd

onnx::Conv_86 f4 [32, 32, 3, 3]
-0.0047986116 0.0028482764 0.009220775 -0.0160343 -0.015851444 -0.016422402 -0.0005443021 0.0008759102
-0.00027326445 0.058075164 0.016259221 0.0040956824 0.012106452 -0.03043504 0.018752083 0.077724226
0.059968285 0.043368362 0.004728602 -0.0068174163 -0.0029524104 -0.019618468 -0.015913827 -0.0052909865
-0.022494009 -0.026179893 -0.011093092 -0.0018540745 0.00097644643 0.0015139837 -0.0049747885 -0.0013256778
-0.001041875 0.002954598 0.0042534606 0.0038615542 0.0057755527 0.0067674294 -0.000977012 -0.019237602
-0.02126649 -0.028612051 0.051805608 0.026317578 0.039977588 0.0012732304 -0.00038216065 -0.0039058952
0.014957271 -0.006757466 -0.022943627 0.044513434 0.055094253 0.066251114 0.023980979 0.01709207
0.028952902 0.026496693 0.021272946 0.04986173 0.10637651 0.10623174 0.07392454 -0.006533293
-0.011994165 -0.0028014625 0.013850541 -0.011202668 -0.0016734343 0.005212181 -0.013348562 0.017380914
-0.0049328567 -0.0022817645 0.0023628555 0.003979034 0.004472856 0.0070206746 0.0011009813 0.0057530454
0.0052405293 -0.04942791 -0.061209638 -0.04551616 -0.061440922 -0.06853198 -0.057817873 0.02923668
0.014984123 0.0011469969 0.043252874 0.041346222 0.032533403 0.06328298 0.0660951 0.077503815
0.1073473 0.09816143 0.111314215 -0.0024859195 -0.0036285906 -0.01617878 -0.01190253 0.0070315083
-0.008199208 0.016619656 0.023689032 0.007453406 -0.007973889 -0.0042569097 -0.0037857082 0.005912681
0.0035894844 -0.004963644 0.03216331 0.025231337 0.02445539 0.032623682 0.008450285 0.016486906
0.01932155 0.04249532 0.01744329 0.027697427 0.030236205 0.017554553 -0.00020773386 0.0038277041
0.011799097 0.0020263053 -0.006889021 -0.00516562 -0.014549439 -0.021778727 -0.021075128 0.0040690936
0.0058259787 0.001725712 0.0040039783 0.0066199745 0.0002603243 0.008164235 0.010647662 0.0047246986
-0.006787583 -0.009501504 -0.010738095 -0.0060267053 -0.009078354 -0.014712094 0.0061467243 0.0033666238
0.00038602497 0.01233271 0.012253589 0.011059635 0.007719453 0.00908274 0.004669526 0.010751771
0.011079363 0.008211674 0.039437447 0.06476546 0.067814305 -0.012886452 0.01043078 -0.009180363
-0.019594526 -0.010546392 -0.020035343 0.016273983 0.012066523 0.012356139 0.018675026 0.01563244
0.0054621636 0.042475224 0.031881865 0.024399078 0.056040395 0.06756545 0.017063549 0.0021765514
-0.03733796 0.00013301555 0.0037986569 0.013423426 -0.012316283 -0.02576644 -0.031436298 -0.056469604
-0.053713277 -0.034869272 -0.028908096 -0.021741685 -0.036594443 -0.038694046 0.018087154 0.024902016
0.030715546 0.011064161 0.02218795 0.03358719 0.09624779 0.093591064 0.08305591 -0.007608737
-0.019683897 -0.025226679 -0.0021633862 0.039053816 0.015797062 -0.013513604 -0.008577733 -0.0022873278
0.0030821972 0.046133775 0.0423598 -0.0062366202 0.02486983 0.0069247996 0.0052741533 0.01001115
0.01355445 0.013902481 -0.005379624 -0.010071392 0.07872581 0.078111984 0.070116095 0.08601133
0.049407836 0.07597584 -0.008556681 -0.010739107 -0.01563759 0.028259365 0.021526745 0.013112758
0.022915421 0.030422017 0.02285841 -0.009692212 -0.01681019 -0.0089174425 -0.027670072 -0.044443198
-0.035985045 0.0015159417 -0.0040746154 -0.0030541138 0.034681235 0.037967876 0.027339397 0.038643647
00000000: ac3d 9dbb 26aa 3a3b bc12 173c 5d5a 83bc
00000010: e3da 81bc 4688 86bc 7faf 0eba 579d 653a
00000020: ef44 8fb9 39e0 6d3d 0f32 853c 1335 863b
00000030: 245a 463c e852 f9bc f89d 993c e12d 9f3d
00000040: 4ea1 753d 06a3 313d 63f2 9a3b a264 dfbb
00000050: 3a7d 41bb e9b6 a0bc b75d 82bc 0360 adbb
00000060: 5b45 b8bc 3777 d6bc cdbf 35bc 6b04 f3ba
00000070: 36f8 7f3a dd70 c63a 8d03 a3bb 5ec2 adba
00000080: 868f 88ba eea1 413b 9d60 8b3b 2112 7d3b
00000090: d940 bd3b 50c1 dd3b 150f 80ba 2d98 9dbc
000000a0: 1037 aebc d263 eabc 1e32 543d f697 d73c
000000b0: 8abf 233d 86e2 a63a bc5c c8b9 0cfa 7fbb
000000c0: 570f 753c bc6d ddbb 46f4 bbbc b853 363d
000000d0: 83aa 613d aaae 873d c273 c43c ab04 8c3c
000000e0: a32e ed3c 980f d93c 9a44 ae3c d03b 4c3d
000000f0: eddb d93d 0790 d93d c065 973d 3c15 d6bb
00000100: 2d83 44bc be98 37bb 61ed 623c 658b 37bc
00000110: 2357 dbba f1ca aa3b edb3 5abc 6b62 8e3c
00000120: cda3 a1bb a889 15bb 23da 1a3b 8e62 823b
00000130: 0991 923b b00d e63b cd4e 903a 0b84 bc3b
00000140: bfb8 ab3b ec74 4abd f5b6 7abd 276f 3abd
00000150: 7aa9 7bbd 7f5a 8cbd 6fd2 6cbd c381 ef3c
00000160: f87f 753c d456 963a ed29 313d a85a 293d
00000170: bf41 053d 829a 813d de5c 873d 52ba 9e3d
00000180: e7d8 db3d dc08 c93d b5f8 e33d cfea 22bb
00000190: a6cd 6dbb 5c89 84bc d402 43bc 9168 e63b
000001a0: f955 06bc f225 883c 800f c23c b43b f43b
000001b0: eaa4 02bc 8c7d 8bbb a519 78bb 2abf c13b
000001c0: 8e3d 6b3b 10a6 a2bb adbd 033d f3b1 ce3c
000001d0: ac56 c83c 69a0 053d 1073 0a3c 8c0f 873c
000001e0: 3a48 9e3c 930f 2e3d 3be5 8e3c b7e5 e23c
000001f0: ebb1 f73c 91ce 8f3c 22d3 59b9 38da 7a3b
00000200: 0051 413c c3cb 043b 4cbd e1bb 5c44 a9bb
00000210: c560 6ebc 4d69 b2bc bfa5 acbc 0856 853b
00000220: dae7 be3b 4931 e23a ce33 833b 5fec d83b
00000230: 237c 8839 49c3 053c 8873 2e3c a5d1 9a3b
00000240: 606a debb 32ac 1bbc d6ee 2fbc ab7b c5bb
00000250: 60bd 14bc ff0a 71bc 766a c93b 93a2 5c3b
00000260: 6563 ca39 230f 4a3c 47c3 483c 7933 353c
00000270: 77f3 fc3b c6cf 143c d302 993b 3228 303c
00000280: 3786 353c 428a 063c 2989 213d c1a3 843d
00000290: 3ae2 8a3d b221 53bc dde5 2a3c 3c69 16bc
000002a0: b384 a0bc c6ca 2cbc 2921 a4bc 0451 853c
000002b0: aab2 453c 6771 4a3c 5efc 983c 9a0f 803c
000002c0: f3fb b23b 80fa 2d3d 8f96 023d 93e0 c73c
000002d0: 9d8a 653d c15f 8a3d dbc8 8b3c 79a4 0e3b
000002e0: b0ef 18bd 177a 0b39 e3f2 783b eeed 5b3c
000002f0: 3cca 49bc 2414 d3bc 59c3 00bd ac4c 67bd
00000300: 7402 5cbd 15d3 0ebd acd0 ecbc 9e1b b2bc
00000310: 0ee4 15bd a67d 1ebd 832b 943c 50ff cb3c
00000320: 2b9f fb3c 7446 353c 81c3 b53c b992 093d
00000330: 901d c53d acac bf3d 3819 aa3d b652 f9bb
00000340: 2040 a1bc 2ea8 cebc 99c7 0dbb e5f6 1f3d
00000350: d768 813c 2a68 5dbc 9f89 0cbc fee6 15bb
00000360: b0fe 493b c5f6 3c3d 7881 2d3d 905c ccbb
00000370: d0bb cb3c 6ee9 e23b ced2 ac3b ce05 243c
00000380: 7c13 5e3c 3bc7 633c 8f47 b0bb 7b02 25bc
00000390: ff3a a13d 2df9 9f3d 0799 8f3d b526 b03d
000003a0: df5f 4a3d 3999 9b3d 5231 0cbc 14f3 2fbc
000003b0: 671a 80bc 2f80 e73c db58 b03c e5d6 563c
000003c0: 1fb9 bb3c 9837 f93c 8f41 bb3c 15cc 1ebc
000003d0: 86b5 89bc 771a 12bc 59ac e2bc 120a 36bd
000003e0: 0e65 13bd 90b2 c63a 5a84 85bb 8727 48bb
000003f0: e90d 0e3d 3484 1b3d dff6 df3c cd48 1e3d

onnx::Conv_87 f4 [32]
-0.375227 -0.59081256 -0.1377365 0.013529613 0.29400706 0.05133329 -0.04656495 0.021473212
0.5454084 0.056065902 0.10500384 0.0638824 0.01262518 0.12411612 -0.048955638 -0.18792044
0.046405286 0.2118749 -0.3371974 -0.017883915 0.24481748 0.0005751364 -0.15442154 0.10327846
0.072321564 -0.06818471 0.010091446 0.39015597 0.18289211 -0.20317368 0.026114678 -0.18794349
00000000: c11d c0be 7e3f 17bf cc0a 0dbe 4fab 5d3c
00000010: 1888 963e db42 523d e4ba 3ebd 97e8 af3c
00000020: e39f 0b3f 5ca5 653d 410c d73d c7d4 823d
00000030: d8d9 4e3c 9830 fe3d b585 48bd 376e 40be
00000040: 7813 3e3d bcf5 583e 23a5 acbe 4a81 92bc
00000050: 6fb1 7a3e c0c4 163a ae20 1ebe a883 d33d
00000060: 541d 943d 6da4 8bbd 9856 253c 86c2 c73e
00000070: 1248 3b3e c30c 50be 73ee d53c 4274 40be

onnx::Conv_89 f4 [32, 16, 1, 1]
0.043280598 0.17031609 -0.12632693 -0.0015568044 0.12622447 0.042236187 0.10311168 0.16082054
0.08722342 -0.09799747 0.019747535 0.0034075435 -0.11745293 0.031146836 -0.18824294 0.15706956
-0.22625166 0.1743305 -0.041055255 0.09835705 -0.1880396 -0.15140097 0.13752167 0.23085602
0.15051074 0.12075244 -0.13665836 0.0063824323 -0.17051575 0.08885164 -0.21184789 -0.23552178
-0.06155013 0.062103856 -0.031634364 -0.0049039614 -0.083119996 -0.10956765 0.009224851 -0.10168497
-0.07201349 -0.051576946 -0.12549615 -0.03729284 -0.1709298 0.04942215 0.028123138 -0.099644594
0.01764752 0.00028197022 -0.015468414 0.010365479 -0.017547775 -0.016293062 -0.0210589 -0.0034480935
-0.0072387964 -0.009714524 0.034624062 0.0035297512 0.003005664 -0.016004626 0.009173192 -0.0011740836
-0.032827158 0.017714802 -0.03223226 0.12164262 0.21815193 -0.057659484 -0.13047917 0.11549021
0.0003797719 -0.20007138 -0.050728213 0.20232014 0.012059592 -0.16774695 -0.036441766 0.11894761
0.0066154734 -0.023297599 -0.0040453705 0.013946882 -0.05746505 0.024299525 -0.010161951 -0.036153052
0.0062630232 0.028388556 -0.044444032 0.07235307 -0.005494228 0.03350014 0.0041121864 -0.004821621
0.12171458 0.12584361 0.011944891 0.089889176 -0.0937957 0.21090075 0.045899384 -0.13587604
0.042413566 0.017799335 0.106707014 0.15304664 0.10397637 0.1369027 0.06425186 -0.04131742
0.055966794 -0.00874571 -0.0006357093 -0.008478365 -0.015824158 0.05462094 -0.03283874 -0.07953578
-0.024482798 -0.036975384 -0.076182194 0.03748105 -0.0046780957 -0.03265515 0.050067138 0.011655445
-0.12740998 -0.112849124 -0.022004178 0.31333095 -0.15652244 -0.19558984 0.26537332 0.11591297
-0.09490506 -0.1786305 0.11966246 0.21393164 0.3129125 0.32735687 -0.31872138 -0.11498081
0.32290268 0.23333313 0.060811043 0.32453638 -0.021362226 0.20462158 0.119095735 -0.11287451
-0.118487895 0.07746221 0.08584483 0.11865697 -0.104019076 0.17080428 -0.31712908 -0.11893701
0.037441604 -0.0008350899 0.034415744 -0.039497785 -0.01979304 0.045275435 5.846735e-05 0.03470583
0.00827792 0.022621073 0.007853524 -0.002259045 0.012910863 0.024381964 -0.043803286 -0.020521753
-0.10947116 -0.00010075764 -0.047400627 -0.019640168 0.0033434848 0.014190051 0.047505528 0.013965999
-0.010740241 -0.051987298 0.021110155 -0.0152695915 0.012904933 0.04583366 -0.031196013 -0.0016223248
0.07392755 0.10805651 0.1685131 0.17096704 -0.11054325 -0.015594667 0.059805386 -0.1581476
0.02176529 0.0792072 0.13585167 0.2620036 0.23469743 0.18252285 0.116831645 0.059985895
-0.014634328 0.029312946 -0.004426007 0.094257526 -0.08931289 -0.056485474 -0.05383997 -0.00044695748
-0.03776152 0.004195536 -0.10936707 0.100927085 0.083810054 -0.01785908 0.062178504 -0.10116177
0.022126103 0.030826503 -0.03425075 -0.0843261 -0.08768363 -0.095816195 0.11909958 -0.022317002
0.022491178 -0.017938258 0.043491993 0.14736165 0.01556687 -0.020082554 0.08566392 0.037059553
0.27718744 0.10246334 0.102190025 0.24801953 -0.023007784 -0.069161706 -0.0059392676 0.1200833
-0.15358506 0.090135485 -0.0030931067 -0.14357293 0.19181769 -0.1608218 -0.021251317 -0.048613355
00000000: ff46 313d 5767 2e3e d95b 01be b00d ccba
00000010: fd40 013e daff 2c3d 372c d33d 24ae 243e
00000020: 31a2 b23d e6b2 c8bd 95c5 a13c 1851 5f3b
00000030: 298b f0bd a627 ff3c c2c2 40be d8d6 203e
00000040: 84ae 67be b283 323e 8e29 28bd 6c6f c93d
00000050: 748d 40be db08 1bbe 7bd2 0c3e 8565 6c3e
00000060: 7d1f 1a3e 0e4d f73d 2bf0 0bbe b923 d13b
00000070: ae9b 2ebe d9f7 b53d a7ee 58be 9f2c 71be
00000080: fd1b 7cbd 9d60 7e3d 0993 01bd 69b1 a0bb
00000090: d13a aabd 0165 e0bd d423 173c 3640 d0bd
000000a0: cf7b 93bd 5942 53bd 1082 00be 61c0 18bd
000000b0: 3908 2fbe e16e 4a3d 7f62 e63c 7712 ccbd
000000c0: 8891 903c 67d5 9339 3b6f 7dbc f8d3 293c
000000d0: 5ac0 8fbc 0779 85bc b783 acbc 69f9 61bb
000000e0: 6d33 edbb ab29 1fbc f6d1 0d3d 6653 673b
000000f0: adfa 443b 221c 83bc 284b 163c b5e3 99ba
00000100: c575 06bd a21e 913c f905 04bd c41f f93d
00000110: 3863 5f3e 5a2c 6cbd 559c 05be 2286 ec3d
00000120: 1f1c c739 83df 4cbe 63c8 4fbd 032d 4f3e
00000130: 9895 453c dbc5 2bbe f643 15bd ce9a f33d
00000140: 9dc6 d83b 9bda bebc 078f 84bb 7781 643c
00000150: 7960 6bbd cc0f c73c 507e 26bc 3915 14bd
00000160: 0c3a cd3b 1e8f e83c f20a 36bd d92d 943d
00000170: ed08 b4bb 7137 093d 85bf 863b b0fe 9dbb
00000180: 7e45 f93d 26dd 003e 81b4 433c d117 b83d
00000190: f617 c0bd 5ef6 573e fe00 3c3d 1723 0bbe
000001a0: d9b9 2d3d e9cf 913c 3589 da3d 42b8 1c3e
000001b0: 90f1 d43d 3930 0c3e 7b96 833d 743c 29bd
000001c0: 703d 653d 2b4a 0fbc bba5 26ba d7e8 0abc
000001d0: aaa1 81bc 35ba 5f3d ea81 06bd a8e3 a2bd
000001e0: 2690 c8bc 8073 17bd 6905 9cbd bb85 193d
000001f0: b64a 99bb 68c1 05bd 3313 4d3d 7bf6 3e3c
00000200: c377 02be 711d e7bd 1b42 b4bc ea6c a03e
00000210: 6b47 20be b448 48be 03df 873e c763 ed3d
00000220: 965d c2bd eaea 36be 9811 f53d e510 5b3e
00000230: 1136 a03e 529b a73e 732f a3be 0f7b ebbd
00000240: 8053 a53e e1ee 6e3e 0015 793d a229 a63e
00000250: d6ff aebc 5288 513e 77e8 f33d c02a e7bd
00000260: c8a9 f2bd 82a4 9e3d 6acf af3d 6d02 f33d
00000270: f407 d5bd 51e7 2e3e be5e a2be 3f95 f3bd
00000280: 5e5c 193d efe9 5aba 86f7 0c3d 6ec8 21bd
00000290: 0325 a2bc bc72 393d d73a 7538 b327 0e3d
000002a0: 1da0 073c d44f b93c 11ac 003c 7c0c 14bb
000002b0: 1688 533c afbc c73c 136b 33bd 3c1d a8bc
000002c0: 6a32 e0bd d94d d3b8 2927 42bd 6be4 a0bc
000002d0: 5e1e 5b3b 637d 683c 2895 423d a5d1 643c
000002e0: d6f7 2fbc a2f0 54bd 34ef ac3c 4f2d 7abc
000002f0: 366f 533c 13bc 3b3d c88e ffbc 30a4 d4ba
00000300: 5467 973d bb4c dd3d b38e 2c3e fc11 2f3e
00000310: 8064 e2bd c680 7fbc 7ef6 743d 72f1 21be
00000320: 1f4d b23c 6237 a23d b31c 0b3e 5625 863e
00000330: 8654 703e 45e7 3a3e 6e45 ef3d c5b3 753d
00000340: d2c4 6fbc b421 f03c 0a08 91bb 170a c13d
00000350: ade9 b6bd 505d 67bd 4d87 5cbd 9e55 eab9
00000360: d3ab 1abd b57a 893b d8fb dfbd dcb2 ce3d
00000370: 9ba4 ab3d 354d 92bc e3ae 7e3d e72d cfbd
00000380: cd41 b53c dd87 fc3c 844a 0cbd 2ab3 acbd
00000390: 7a93 b3bd 483b c4bd 7bea f33d 25d2 b6bc
000003a0: 6b3f b83c 41f3 92bc a924 323d f9e5 163e
000003b0: 2f0c 7f3c 2b84 a4bc 9170 af3d c2cb 173d
000003c0: 83eb 8d3e 4dd8 d13d 0149 d13d d5f8 7d3e
000003d0: d27a bcbc a7a4 8dbd 309e c2bb 3cee f53d
000003e0: 6745 1dbe f498 b83d b8b5 4abb c804 13be
000003f0: db6b 443e 78ae 24be 3e17 aebc cc1e 47bd

onnx::Conv_90 f4 [32]
-0.15619648 0.09730534 0.2877679 -0.004811161 -0.015288565 -0.012013709 -0.47861528 0.040634103
-0.2962399 -0.44803086 -0.039689507 0.03584467 -0.62403065 0.047668576 -0.06784315 -0.24538174
0.55167055 -0.45681694 0.12948813 -0.014013642 -0.015324725 -0.35374635 -0.17424247 -0.16803774
0.017615924 0.017024146 0.006425946 0.19877912 0.016368575 0.030605108 -0.021654667 0.1594519
00000000: f8f1 1fbe 0648 c73d 5056 933e f2a6 9dbb
00000010: e47c 7abc 26d5 44bc 100d f5be f26f 263d
00000020: c2ac 97be 4d64 e5be 7791 22bd dcd1 123d
00000030: 79c0 1fbf 2040 433d 59f1 8abd 5a45 7bbe
00000040: 483a 0d3f e9e3 e9be 8998 043e 7a99 65bc
00000050: 8e14 7bbc 3e1e b5be 9e6c 32be 1612 2cbe
00000060: 454f 903c 3976 8b3c be90 d23b c18c 4b3e
00000070: 6417 863c 90b7 fa3c 2165 b1bc 5c47 233e

onnx::Conv_92 f4 [64, 32, 3, 3]
-0.00022400865 -0.000119514065 -0.0012314087 0.0009417381 0.0012668063 0.00057244144 0.00027932893 -0.00029671693
-0.0011585419 0.00055131194 0.0008917227 0.0038167164 -0.0017373365 -0.0026255997 -0.0020319934 0.0011713842
0.00015191836 -0.0034882864 0.007752524 0.007012164 0.005953829 0.010759035 0.010428079 0.0077929716
0.010989659 0.010735348 0.009722975 0.0013414978 -0.0012324668 -0.0013508992 0.00083597284 -0.0009920987
-0.0019132924 0.0020399694 0.000334934 0.0002091071 -0.000365952 0.00031769264 0.00078210596 -0.002728339
-3.1971413e-05 -0.00030878396 -0.00646584 -0.0059883944 -0.004487432 0.0008173776 0.0008028563 0.00014374063
-0.0012369184 -0.0014220369 -0.001953471 -0.0014116411 -0.0016630616 -0.001935666 -0.0012167273 -0.000948487
-0.0014665572 -0.0012709935 -0.0015219569 -0.0006366633 -0.00075204344 -0.0021048775 -0.0011502666 0.00070780714
0.00040624093 -0.0027353736 -0.0005730401 -0.0007195442 -0.003123255 -0.0021820161 -0.0029746804 -0.0045354576
-0.0024025526 -0.00328004 -0.0030269339 0.00025366797 -0.0035400053 -0.0050185774 0.00087904156 0.0006755695
-0.005098428 -0.0010313593 0.00088159525 -0.0012172591 -0.0016115478 9.835847e-05 0.00013192881 0.00064640114
0.0029815536 0.0036274164 0.0014756314 0.00024094702 0.0008474905 0.00046738965 -0.0008924064 0.0002272568
0.00094805524 -0.00056902814 -0.0005378184 0.0016886991 0.0023612103 0.001520884 0.0014956022 0.0019747133
0.0006355768 0.0016823035 0.0017164394 0.001043383 -0.0002023208 -0.0012470309 -0.0016479588 0.0013803476
-0.000116668874 0.001186529 0.00084816554 -0.00031947152 -0.0003415294 -0.0003689786 0.0005311922 4.2025513e-05
0.00092228147 0.00077767845 -0.0022110837 -0.00250616 -0.003084863 -0.0062367404 0.0035491306 0.002399467
0.0006328363 0.0019705521 0.00013494276 -0.0012654393 -0.00091556535 -0.0011241625 -0.0019533243 0.0035978798
0.0039310413 0.0006393489 0.0026089011 0.0014690519 -0.0010255213 -0.00018656948 0.0011250125 0.00026186073
-0.010563229 -0.009629282 -0.007947222 -0.0021818196 -0.0010649216 -0.0008543732 0.004854727 0.0074125435
0.011707726 -0.0048656547 -0.0060807075 -0.00084241334 -0.0020438505 -0.002846215 -0.0046361214 0.0031255675
-0.0027706865 -0.0060515758 0.00054645614 -0.001327661 -0.00040811047 -0.0015617828 -0.002364115 -0.0014128863
-0.0032880756 -0.0015320126 -0.002848278 0.00023552774 0.00064583984 0.00087720505 -0.0010235858 -0.0007123517
-0.00011729288 0.000285179 0.00055164774 0.0010775484 0.0026882372 0.004424716 0.005822131 0.002110478
0.001881841 0.003940644 0.0010271575 -0.00021489048 -0.00016946514 -0.005366178 -0.004155872 -0.003386854
-0.0046861577 -0.0045201583 -0.008013905 -0.0006569942 0.00032166223 -0.0024873782 -0.00070493785 -0.0005700914
-0.00085081684 0.003074269 0.0031282038 0.00079772406 0.0019767166 0.001419949 -0.0007867183 -0.002074276
-0.0022886377 -0.0037282538 -0.0014320674 -0.0033060843 -0.004597473 0.00020991443 -0.0006914615 -0.0017912891
-0.00071039534 -0.00024426615 0.0010348788 0.004199984 0.005211642 0.0054939357 0.0027833334 0.004172407
0.004105402 0.0013051701 0.00036099445 0.0017858301 0.00028441445 -0.0007527512 0.001336319 0.00019079258
-0.0011379261 0.00096830976 -0.0013821623 -0.0016989032 -0.002208824 -0.0006300093 -0.0008647139 -0.0020878308
0.00060970976 0.00054640457 -0.00014807457 -0.0015321381 -0.0014782385 0.0005374996 0.0010905479 0.0033630335
0.002770706 -0.003839315 -0.0029416825 0.0003730206 0.007092017 0.005453144 0.003674433 0.004853849
00000000: dde3 6ab9 a0a3 fab8 3867 a1ba f9de 763a
00000010: f70a a63a e50f 163a e572 9239 ac90 9bb9
00000020: 37da 97ba eb85 103a 7fc2 693a e021 7a3b
00000030: 57b7 e3ba 4112 2cbb 312b 05bb 2289 993a
00000040: 464c 1f39 bc9b 64bb e308 fe3b 4cc6 e53b
00000050: 5618 c33b aa46 303c 89da 2a3c 2f5c ff3b
00000060: f80d 343c 50e3 2f3c 1d4d 1f3c 32d5 af3a
00000070: b98a a1ba a810 b1ba 3025 5b3a 4f09 82ba
00000080: 71c7 faba 02b1 053b 159a af39 c243 5b39
00000090: 3fdd bfb9 fc8f a639 3e06 4d3a efcd 32bb
000000a0: 0b19 06b8 48e4 a1b9 66df d3bb 4b3a c4bb
000000b0: 4f0b 93bb 4845 563a c676 523a 15b9 1639
000000c0: 1820 a2ba a463 baba ce05 00bb d106 b9ba
000000d0: 16fb d9ba 2cb6 fdba 987a 9fba e3a3 78ba
000000e0: 7e39 c0ba 7797 a6ba 667c c7ba c0e5 26ba
000000f0: c824 45ba fcf1 09bb 8bc4 96ba 228c 393a
00000100: bcfc d439 f443 33bb 1238 16ba cb9f 3cba
00000110: 86af 4cbb 2800 0fbb dbf2 42bb 2d9e 94bb
00000120: 2574 1dbb f1f5 56bb 865f 46bb bdfe 8439
00000130: 6fff 67bb e172 a4bb 7b6f 663a b418 313a
00000140: b710 a7bb ad2e 87ba db1a 673a 708c 9fba
00000150: 923a d3ba cd45 ce38 5f56 0a39 3f73 293a
00000160: 2b66 433b f3b9 6d3b f969 c13a b9a6 7c39
00000170: 202a 5e3a fa0b f539 61f0 69ba c84b 6e39
00000180: e986 783a d52a 15ba 62fc 0cba 5757 dd3a
00000190: 89be 1a3b 6658 c73a 1508 c43a 316a 013b
000001a0: d69c 263a bd80 dc3a 26fa e03a 20c2 883a
000001b0: 1426 54b9 6a73 a3ba 5200 d8ba c8ec b43a
000001c0: 20ac f4b8 4f85 9b3a 6d57 5e3a be7e a7b9
000001d0: 4d0f b3b9 7873 c1b9 b53f 0b3a 8d44 3038
000001e0: 43c5 713a 1edd 4b3a d4e7 10bb 633e 24bb
000001f0: 6a2b 4abb 925d ccbb 8898 683b 6040 1d3b
00000200: ede4 253a 6124 013b 6c7f 0d39 19dd a5ba
00000210: 8d02 70ba a258 93ba 5803 00bb 68ca 6b3b
00000220: f7cf 803b fa99 273a 19fa 2a3b 348d c03a
00000230: c96a 86ba dda1 43b9 2875 933a 5a4a 8939
00000240: 6511 2dbc 23c4 1dbc 1135 02bc dcfc 0ebb
00000250: d794 8bba 04f8 5fba 6714 9f3b ece4 f23b
00000260: c3d1 3f3c 1270 9fbb ac40 c7bb 67d5 5cba
00000270: 1ff2 05bb 9087 3abb 9bea 97bb 52d6 4c3b
00000280: 6894 35bb 4c4c c6bb 0d40 0f3a e904 aeba
00000290: a9f7 d5b9 bcb4 ccba 45ef 1abb 9930 b9ba
000002a0: c17c 57bb d0cd c8ba 2daa 3abb fff7 7639
000002b0: 944d 293a 3cf4 653a d729 86ba 1dbd 3aba
000002c0: 23fb f5b8 1484 9539 749c 103a 863c 8d3a
000002d0: 232d 303b 35fd 903b 93c7 be3b f24f 0a3b
000002e0: 1ba8 f63a 8520 813b b0a1 863a 3954 61b9
000002f0: 74b2 31b9 c4d6 afbb fb2d 88bb fbf5 5dbb
00000300: 578e 99bb d61d 94bb c14c 03bc 223a 2cba
00000310: c6a4 a839 4803 23bb 94cb 38ba 3072 15ba
00000320: 5a09 5fba ad79 493b 8d02 4d3b 5b1e 513a
00000330: cd8b 013b 951d ba3a c53b 4eba 94f0 07bb
00000340: f8fc 15bb b855 74bb 35b4 bbba e4aa 58bb
00000350: 66a6 96bb 7a1c 5c39 3243 35ba b0c9 eaba
00000360: d339 3aba d910 80b9 c5a4 873a 05a0 893b
00000370: 6cc6 aa3b 7906 b43b 9668 363b b0b8 883b
00000380: 9c86 863b 3e12 ab3a db43 bd39 8412 ea3a
00000390: 761d 9539 4754 45ba 6d27 af3a 7e0f 4839
000003a0: 7726 95ba 2bd6 7d3a ac29 b5ba bbad deba
000003b0: ebc1 10bb 3527 25ba f8ad 62ba fdd3 08bb
000003c0: eed4 1f3a 973c 0f3a 7744 1bb9 06d2 c8ba
000003d0: 74c1 c1ba fde6 0c3a b7f0 8e3a 5766 5c3b
000003e0: bc94 353b 049d 7bbb 3ec9 40bb fa91 c339
000003f0: 2764 e83b 4ab0 b23b c2ce 703b 090d 9f3b

onnx::Conv_93 f4 [64]
-0.007109567 -0.035498627 0.009111848 0.30025098 0.036597513 0.003800657 0.008478158 -0.0019914869
-0.009102392 0.0048245555 -0.06045556 -0.08191997 -0.0015494523 -0.14313382 -1.03578356e-29 -0.17841385
-1.3891947e-36 -0.015049298 -0.0056823953 -0.02296963 0.20526981 -9.652369e-37 -1.24505495e-29 -0.17177887
-0.0032633008 0.07867431 -4.650683e-37 -0.000106033316 0.13789563 -3.1670568e-34 -0.07638363 -3.136521e-28
-4.2295114e-36 0.12265658 0.0005458221 0.042731848 0.021154907 -0.0020597964 -0.052664325 -0.044488568
-1.3740017e-36 -0.012428135 0.02728091 0.036276616 -0.02027367 -5.29981e-05 -0.016731901 -0.036874995
-0.01874852 -0.070473686 -0.01285551 0.09743639 -8.043731e-37 -1.7855564e-11 -0.015553694 -0.0018520998
-0.1297706 0.0038271882 -0.021504916 -0.07922501 -0.01596605 0.04327624 -0.10015307 -8.161958e-37
00000000: 5ff7 e8bb 0267 11bd dc49 153c 7fba 993e
00000010: 46e7 153d 7214 793b f9e7 0a3c 9b83 02bb
00000020: 3322 15bc 4e17 9e3b 40a0 77bd a8c5 a7bd
00000030: fe16 cbba ac91 12be f514 528f 1fb2 36be
00000040: f75b ec83 5591 76bc 6333 babb ce2a bcbc
00000050: 4032 523e ff39 a483 f386 7c8f cde6 2fbe
00000060: 1add 55bb ff1f a13d 2a41 1e83 345e deb8
00000070: 8334 0d3e ae7c d287 056f 9cbd f7cc c691
00000080: 4de7 b384 5f33 fb3d 8015 0f3a 9707 2f3d
00000090: 0e4d ad3c a6fd 06bb 8cb6 57bd a539 36bd
000000a0: 37c6 e983 609f 4bbc 377c df3c ca96 143d
000000b0: f814 a6bc 474a 5eb8 5711 89bc 3c0a 17bd
000000c0: 7f96 99bc 8254 90bd eb9f 52bc bb8c c73d
000000d0: 64db 8883 280f 9dad ecd4 7ebc 28c2 f2ba
000000e0: 96e2 04be 90d1 7a3b 142b b0bc b940 a2bd
000000f0: 3ccb 82bc 6d42 313d 0e1d cdbd 57de 8a83

onnx::Conv_95 f4 [64, 64, 3, 3]
0.018819097 0.0102943685 0.024433432 0.0424802 0.04451882 0.03179618 0.03561173 0.024287213
0.018855812 -0.02630287 -0.036784504 -0.03428927 -0.03749845 -0.05083027 -0.03682359 -0.028749516
-0.03575204 -0.024190992 0.18343039 -0.010173076 0.06293573 0.21724479 0.07318451 0.02193744
0.11122034 0.02935855 -0.06438933 -0.04154359 -0.21665876 -0.16961369 -0.0551282 -0.17428726
-0.060394548 -0.006292735 -0.08840112 -0.0104268575 0.024241742 0.019743998 0.0256722 -0.0020845442
0.00540708 0.009819521 0.00069140026 0.0021886178 0.0042903856 -0.013462705 -0.014082735 0.0077470336
-0.008443501 -0.022244085 -0.010019238 -0.001548569 -0.037227236 -0.011454426 0.04614435 0.05013769
0.03756665 0.07053323 0.10436943 0.066267364 0.05270519 0.068419464 0.025855754 -0.018597255
-0.0035897738 0.008164899 -0.0043705893 -0.0074539417 -0.022740185 -0.019013906 -0.040624846 -0.03991453
0.0038111145 0.008665733 0.007120017 0.0076503283 0.012309955 0.004884693 0.0024917666 0.01014057
0.00388334 0.009184081 0.037140314 0.039151754 0.020672737 0.03638953 0.003827015 -0.029182395
-0.047216523 -0.032074805 0.0034590743 0.018364722 -0.03480676 0.0024396451 -0.042889927 -0.03336854
0.17364024 0.087596156 0.15435567 0.19503626 0.14490621 0.1679217 0.024197137 -0.0801829
0.026038056 -0.09116576 -0.11736961 -0.08474323 -0.023738177 -0.0051816213 -0.004114515 -0.0050529772
0.019131443 -0.018639904 -0.018537393 -0.022739936 -0.05015964 -0.0794346 -0.085073374 -0.029050136
-0.048820913 0.017651299 -0.041758485 0.3012184 0.23756199 0.40016103 -3.1442178e-36 -6.014408e-36
3.0411278e-36 -5.4625636e-36 -5.102358e-36 -5.4592475e-36 -1.8003981e-36 -3.3715853e-36 -3.2457506e-36 0.12074052
0.20901053 0.23365808 0.1849833 0.09290189 0.0032749423 0.114849515 0.025533644 0.025084471
-5.8343837e-36 -5.4702947e-36 -5.706389e-36 9.506862e-36 -9.4280695e-36 -1.0012495e-35 -5.9560517e-36 -5.4277878e-36
-5.3077286e-36 -0.008734477 -0.014944796 -0.010644659 -0.011078049 -0.018218568 -0.010749127 -0.01703609
-0.022229604 -0.008187679 0.00016973825 0.007890055 0.0019754404 0.013566427 0.04119031 0.015366333
0.003333066 0.02052213 0.0026158534 0.09723458 -0.0101525895 0.07112784 0.0119357845 -0.02242399
0.09671415 -0.050128397 -0.046073902 -0.03873218 0.072232835 0.03310771 0.07036167 -0.1122264
-0.09203098 -0.006111153 -0.013135871 -0.05085512 -0.09520316 -2.0979489e-36 1.8169432e-36 1.8077814e-36
-1.8868953e-36 -3.5197496e-36 -1.9083246e-36 -1.9282007e-36 -1.8626637e-36 -1.8225208e-36 -9.120025e-36 -1.6324309e-35
-1.7276208e-35 1.7392977e-35 1.6684904e-35 1.7025693e-35 -9.132619e-36 -9.0188226e-36 9.818872e-36 0.028919244
-0.0125229405 0.0788951 -0.10128792 -0.110870264 -0.031073837 0.2019642 0.112197384 0.099416524
0.01953082 0.020190667 0.015552834 0.04333171 0.04996433 0.033387795 0.020594653 0.026973313
0.024533264 0.13177416 0.08032476 0.08436863 0.06921477 0.02532191 -0.042590093 0.10385
0.06313473 0.04805699 -3.5923524e-36 3.4168358e-36 -3.5178398e-36 1.9766457e-36 1.8929911e-36 -1.9616993e-36
-2.1534141e-36 -1.0635557e-36 -1.1122515e-36 -4.7825975e-31 1.4224153e-33 8.534984e-35 -1.2564644e-31 2.3932413e-29
-1.3395255e-33 -1.2660262e-34 8.4287795e-35 -8.7807316e-35 0.16575243 0.2081705 0.21254098 -0.031562667
00000000: 822a 9a3c b6a9 283c 9f28 c83c b8ff 2d3d
00000010: 5e59 363d b63c 023d 9bdd 113d faf5 c63c
00000020: 8177 9a3c 1e79 d7bc 59ab 16bd e872 0cbd
00000030: fa97 19bd 6733 50bd 55d4 16bd 1b84 ebbc
00000040: bb70 12bd 302c c6bc 2dd5 3b3e f9ac 26bc
00000050: 73e4 803d 6b75 5e3e c3e1 953d 25b6 b33c
00000060: 7dc7 e33d 5881 f03c 8ede 83bd 9d29 2abd
00000070: cbdb 5dbe 36af 2dbe 1cce 61bd 5c78 32be
00000080: 4660 77bd 4a33 cebb a50b b5bd 69d5 2abc
00000090: 9e96 c63c 2abe a13c 814e d23c d99c 08bb
000000a0: e02d b13b 0ee2 203c 163f 353a ea6e 0f3b
000000b0: 5d96 8c3b ad92 5cbc 46bb 66bc d4da fd3b
000000c0: 9c56 0abc 3a39 b6bc bb27 24bc 5af9 caba
000000d0: 967b 18bd 58ab 3bbc dc01 3d3d 2e5d 4d3d
000000e0: 7ddf 193d ba73 903d a4bf d53d 2fb7 873d
000000f0: 66e1 573d 811f 8c3d 72cf d33c 4559 98bc
00000100: 6942 6bbb 12c6 053c 2937 8fbb 3240 f4bb
00000110: a049 babc 0dc3 9bbc 3d66 26bd 6b7d 23bd
00000120: e4c3 793b b8fa 0d3c 084f e93b 9baf fa3b
00000130: b2af 493c c60f a03b e84c 233b a224 263c
00000140: a27f 7e3b d478 163c 7120 183d 975d 203d
00000150: df59 a93c 300d 153d a8ce 7a3b eb0f efbc
00000160: 1d66 41bd df60 03bd a3b1 623b 9d71 963c
00000170: 8891 0ebd 74e2 1f3b 59ad 2fbd 73ad 08bd
00000180: bfce 313e 9d65 b33d 6a0f 1e3e 96b7 473e
00000190: 4b62 143e abf3 2b3e 1339 c63c ef36 a4bd
000001a0: c34d d53c 1db5 babd 7a5f f0bd dc8d adbd
000001b0: 9176 c2bc 97ca a9bb 0ed3 86bb 7293 a5bb
000001c0: 8bb9 9c3c b6b2 98bc bbdb 97bc 1a49 babc
000001d0: 3274 4dbd 9cae a2bd f33a aebd 8dfa edbc
000001e0: 70f8 47bd 7599 903c f20a 2bbd 4c39 9a3e
000001f0: 7343 733e e8e1 cc3e 80bd 8584 1bd3 ff84
00000200: f35a 8104 0d5a e884 c207 d984 f135 e884
00000210: 3329 1984 5069 8f84 180f 8a84 ce46 f73d
00000220: db06 563e 1044 6f3e 436c 3d3e 5943 be3d
00000230: 6aa0 563b 3936 eb3d ef2b d13c f37d cd3c
00000240: d02a f884 3cae e884 13b9 f284 4830 4a05
00000250: 4b83 4885 35f1 5485 a957 fd84 60df e684
00000260: 0cc4 e184 0d1b 0fbc 05db 74bc f066 2ebc
00000270: b580 35bc 1b3f 95bc 1b1d 30bc 458f 8bbc
00000280: dc1a b6bc 9d25 06bc c4fb 3139 4a45 013c
00000290: 6476 013b b845 5e3c 2cb7 283d 12c3 7b3c
000002a0: 916f 5a3b 071e a83c bd6e 2b3b ec22 c73d
000002b0: 0c57 26bc 79ab 913d 4f8e 433c 84b2 b7bc
000002c0: 1112 c63d 6f53 4dbd fdb7 3cbd a2a5 1ebd
000002d0: cfee 933d f39b 073d c719 903d f4d6 e5bd
000002e0: bd7a bcbd 1140 c8bb d637 57bc 754d 50bd
000002f0: e0f9 c2bd 4879 3284 8591 1a04 fec9 1904
00000300: f184 2084 aeb6 9584 a157 2284 7e08 2484
00000310: 3975 1e84 fd0a 1b84 24f6 4185 ff96 ad85
00000320: 50b6 b785 30f4 b805 a16c b105 580c b505
00000330: b53a 4285 24cf 3f85 06d3 5005 0de8 ec3c
00000340: 052d 4dbc c193 a13d 0a70 cfbd f30f e3bd
00000350: 8f8e febc b4cf 4e3e bec7 e53d e49a cb3d
00000360: 19ff 9f3c e666 a53c 50d1 7e3c 977c 313d
00000370: 66a7 4c3d a4c1 083d 1eb6 a83c 23f7 dc3c
00000380: fcf9 c83c ceef 063e 4f81 a43d 76c9 ac3d
00000390: 79c0 8d3d e56f cf3c f372 2ebd 4faf d43d
000003a0: c84c 813d 68d7 443d 41cd 9884 0c56 9104
000003b0: e2a1 9584 8827 2804 b209 2104 07e2 2684
000003c0: 3531 3784 62f4 b483 633d bd83 4434 1b8d
000003d0: db56 ec08 17e6 e206 3119 238c 19b4 f20f
000003e0: 1d91 de88 a448 2887 4d13 e006 906e e986
000003f0: 01bb 293e a62a 553e 58a4 593e db47 01bd
