model/bolo_de_morango.onnx (onnx, 302121 bytes, 16 tensors)

fc.weight f4 [2, 256]
-0.056340333 0.00016739454 -0.10339625 -0.069320545 -0.11058666 -0.1423855 -0.033882234 -0.042398058
-0.021121928 0.012913247 -0.04277869 0.048054185 0.015554033 0.045157563 -0.032551587 -0.031433206
0.06489183 0.08032941 0.04704015 0.09983384 0.0076862043 0.15369155 0.05455177 0.10824762
0.029400215 0.00078196323 0.0015555155 -0.030266762 0.0049794274 -0.055864412 -0.0077651944 -0.0153611265
0.09792876 0.059509624 0.11991697 0.10460919 -0.007717808 -0.035358686 0.030402595 0.017051654
0.019318586 -0.029445257 0.094044 0.106558435 0.0075745042 0.0077231266 0.017682001 -0.01469835
0.042574707 0.026925974 0.08767385 0.026491143 0.08615671 0.10647035 0.07775393 0.12100782
0.09868674 0.060788345 0.10401416 0.11458935 -0.022636447 0.0106418375 -0.040511414 0.014778539
0.087537766 0.12878682 -0.06463289 -0.027147116 -0.010189764 -0.075498715 0.05594302 -0.009433728
0.009792501 0.011692239 -0.01543269 -0.0035504722 -0.050940037 -0.11442918 -0.021318559 -0.027092686
0.025141696 0.08867294 -0.014016447 0.055358157 -0.01350985 -0.00015460986 0.025802435 -0.009461457
0.03618312 -0.15225841 0.044501826 -0.087804236 -0.061479885 -0.14336446 0.0033957919 -0.118039936
0.00818355 1.5055891e-05 0.0014893236 0.0012863909 0.00393294 -0.0040003113 -8.153075e-05 0.00013886658
0.008288354 0.020997973 -0.006844551 -0.005490569 -0.015665092 -0.018301282 0.046326544 -0.052702338
0.009095117 0.029667143 -0.025201796 -0.0228516 -0.07737317 -0.11561173 -0.06414997 -0.12339399
0.042348355 -0.007069777 0.06032996 -0.008566809 -0.03988356 -0.03756474 0.021458874 0.0037924696
0.009978593 -0.00671296 -0.0074146027 -0.011463448 0.0068181753 0.12326036 0.074050665 0.12703449
0.09115414 -0.027116632 0.073003136 -0.07768527 0.0872595 0.13248183 -0.028955694 0.11246636
0.017988017 0.048913103 0.017869571 -0.014934992 0.026501853 0.035438135 -0.033314046 -0.033525106
-0.023050273 0.011225724 0.0016180305 0.031023351 0.09216016 0.09963816 0.087221965 0.0619225
0.08225226 0.10370491 0.08916273 0.07481127 0.07854073 0.045449983 0.0789305 -0.008592505
-0.13466814 -0.1321257 -0.026006805 -0.050728146 0.002989474 -9.35734e-05 -0.007201837 0.00031055845
0.11837745 0.042144194 0.08838566 0.09057893 -0.036452103 0.03911705 -0.037926637 0.04514181
-0.10867959 -0.014875268 -0.13764618 -0.05913402 -0.0020222634 -0.053421933 0.018630339 0.008760974
-0.050029077 0.043140326 -0.043031942 0.017494649 0.06727784 0.09255241 -0.03279355 -0.036041915
0.06393058 0.03840671 0.12625311 0.14046915 0.014537719 0.0047408408 -0.00092852674 -0.00046749238
-0.07632823 -0.10819216 -0.11451742 -0.052104656 0.034101844 0.055062097 -0.0068149935 0.12149805
-0.04951053 -0.12225375 -0.0774407 -0.06541505 -0.05367995 -0.06675571 0.018068621 -0.056589883
0.014929681 -0.027201602 -0.022740573 -0.00012957276 -0.03158032 0.083846584 -0.067479424 -0.0035340548
-0.041109785 -0.06301919 0.07592607 0.010242668 -0.02717599 0.04107198 -0.025667781 0.008245516
-0.017847788 0.04331195 0.08931639 0.13414735 0.09209106 0.047384918 0.04774003 -0.021591505
-0.052176625 -0.15340456 -0.025022462 -0.115785025 -0.032047614 -0.07047124 -0.11932544 -0.12763946
00000000: 1fc5 66bd a186 2f39 6ac1 d3bd eef7 8dbd
00000010: 427b e2bd 81cd 11be 19c8 0abd 96a9 2dbd
00000020: e507 adbc 1592 533c b538 2fbd 77d4 443d
00000030: 58d6 7e3c 23f7 383d d054 05bd 1bc0 00bd
00000040: 02e6 843d bf83 a43d 2cad 403d af75 cc3d
00000050: 8edc fb3b 5161 1d3e ad71 5f3d eeb0 dd3d
00000060: b8d8 f03c aafc 4c3a 70e2 cb3a 00f2 f7bc
00000070: 772a a33b 15d2 64bd 2c73 febb 3cad 7bbc
00000080: e08e c83d 5dc0 733d 0797 f53d 583d d63d
00000090: aae5 fcbb 45d4 10bd dd0e f93c e9af 8b3c
000000a0: 0342 9e3c 2e37 f1bc 249a c03d 4f3b da3d
000000b0: 8c33 f83b 4812 fd3b d8d9 903c 59d1 70bc
000000c0: d162 2e3d dc93 dc3c 598e b33d f403 d93c
000000d0: ee72 b03d 200d da3d 743d 9f3d f3d2 f73d
000000e0: 461c ca3d 33fd 783d 6005 d53d d2ad ea3d
000000f0: 1270 b9bc 1a5b 2e3c 4cef 25bd af21 723c
00000100: 0047 b33d b1e0 033e 405e 84bd a163 debc
00000110: f8f2 26bc 129f 9abd 8224 653d ec8f 1abc
00000120: ba70 203c ce90 3f3c 65d9 7cbc 0aaf 68bb
00000130: 80a6 50bd d959 eabd 42a4 aebc 7bf1 ddbc
00000140: f5f5 cd3c 299a b53d 3da5 65bc 3cbf 623d
00000150: 6b58 5dbc c51e 22b9 a15f d33c 3a04 1bbc
00000160: c034 143d a1e9 1bbe 8c47 363d b5d2 b3bd
00000170: 55d2 7bbd 22ce 12be ef8b 5e3b ecbe f1bd
00000180: 4c14 063c 8f98 7c37 6835 c33a 1e9c a83a
00000190: e4df 803b 0b15 83bb 7dfb aab8 b79c 1139
000001a0: e0cb 073c f103 ac3c 4148 e0bb 3bea b3bb
000001b0: 1454 80bc 92ec 95bc e7c0 3d3d 68de 57bd
000001c0: b003 153c 8208 f33c ff73 cebc 4733 bbbc
000001d0: d375 9ebd d8c5 ecbd 0f61 83bd fdb5 fcbd
000001e0: 7875 2d3d 97a9 e7bb 8c1c 773d cd5b 0cbc
000001f0: f25c 23bd 7cdd 19bd 85ca af3c 158b 783b
00000200: 417d 233c 64f8 dbbb 32f6 f2bb 30d1 3bbc
00000210: 006b df3b ed6f fc3d e0a7 973d 5415 023e
00000220: 06af ba3d b323 debc ab82 953d 7419 9fbd
00000230: 1cb5 b23d 51a9 073e 7e34 edbc c354 e63d
00000240: 9b5b 933c 1b59 483d 3563 923c e6b1 74bc
00000250: 6a1a d93c 9427 113d 4f74 08bd 9f51 09bd
00000260: edd3 bcbc 19ec 373c 1814 d43a af24 fe3c
00000270: 77be bc3d 170f cc3d 6ea1 b23d 73a2 7d3d
00000280: df73 a83d 3d63 d43d f39a b63d a736 993d
00000290: f6d9 a03d c329 3a3d 50a6 a13d 94c7 0cbc
000002a0: 72e6 09be f64b 07be 390c d5bc 51c8 4fbd
000002b0: 0deb 433b d63c c4b8 63fd ebbb 73d2 a239
000002c0: e06f f23d 649f 2c3d 8a03 b53d 7281 b93d
000002d0: cd4e 15bd 3339 203d f658 1bbd 9ee6 383d
000002e0: 6893 debd 65b7 73bc 1ff3 0cbe 8436 72bd
000002f0: f387 04bb f5d0 5abd a79e 983c 308a 0f3c
00000300: 4aeb 4cbd e9b3 303d 4342 30bd f050 8f3c
00000310: f7c8 893d 1e8c bd3d 8852 06bd b0a0 13bd
00000320: 09ee 823d 5b50 1d3d 7f48 013e 25d7 0f3e
00000330: 9d2f 6e3c 0e59 9b3b 6068 73ba c419 f5b9
00000340: fa51 9cbd da93 ddbd 1c88 eabd b16b 55bd
00000350: 60ae 0b3d cb88 613d 4f50 dfbb f8d3 f83d
00000360: 8ecb 4abd 2d60 fabd 3b99 9ebd 53f8 85bd
00000370: 82df 5bbd 38b7 88bd a504 943c cbca 67bd
00000380: 9f9b 743c e5d5 debc 704a babc ecdd 07b9
00000390: 5e5a 01bd c2b7 ab3d a732 8abd 9a9b 67bb
000003a0: bc62 28bd 3510 81bd 217f 9b3d ddd0 273c
000003b0: 2fa0 debc 183b 283d 3d45 d2bc 3318 073c
000003c0: 8635 92bc df67 313d 83eb b63d ec5d 093e
000003d0: 3d9a bc3d b016 423d 0d8b 433d abe0 b0bc
000003e0: 28b7 55bd 1616 1dbe e8fb ccbc b320 edbd
000003f0: 5c44 03bd 3a53 90bd e560 f4bd ebb3 02be

fc.bias f4 [2]
0.0035711725 0.07387416
00000000: 550a 6a3b 564b 973d

onnx::Conv_80 f4 [16, 3, 7, 7]
-0.120896764 -0.17193021 -0.056321982 0.06030365 -0.06486527 0.11722788 -0.04617969 -0.16362238
-0.10011261 0.091737136 0.108341284 -0.028419152 -0.0714576 0.043068316 -0.14613678 0.045213886
0.026519364 -0.14350693 0.07687169 0.056625333 0.08102207 0.061526094 0.01933736 0.009116306
-0.045148943 -0.076199524 -0.026228199 0.05948922 -0.027190426 -0.13967276 0.029935403 -0.10983017
0.047122847 0.025591647 0.03188846 -0.112406075 -0.048613288 0.07908106 -0.10346136 -0.07658456
-0.11580389 0.023032373 -0.08780483 0.048172377 -0.14711103 -0.077180505 -0.07769276 -0.094738275
0.022607932 0.030636396 -0.072768204 -0.180803 -0.053144306 -0.13430321 -0.101051964 -0.17168461
-0.10610774 -0.021355538 0.0584057 -0.16561973 0.021161268 -0.1366624 0.08124248 -0.022949168
-0.007826688 -0.12726024 -0.020935588 -0.14457819 -0.15799327 0.03871888 -0.008658133 -0.08605275
0.03776141 -0.04784353 -0.07569815 0.014642747 -0.12962106 0.04652666 0.06030943 -0.053881127
0.17583473 0.19507737 -0.036981445 0.03550017 0.11974186 0.004193024 0.030244526 0.0532422
-0.015350707 -0.020563317 -0.08066418 0.014368425 0.07996458 0.03478842 0.13729815 0.19381423
0.19258082 0.18417618 -0.18059443 -0.09840175 -0.14284591 -0.06981942 -0.14781862 -0.22168131
-0.050922398 -0.059367534 -0.016480805 -0.112430595 -0.0639445 -0.09750618 -0.12879905 -0.18271591
-0.043701954 0.014841069 -0.10764968 -0.13044766 0.03095956 0.051970784 -0.06644961 0.03277266
0.07053549 -0.00030190675 0.0635463 0.037720595 -0.0066225254 0.14382137 0.055934776 0.14411078
0.11626131 0.12816873 0.13827698 0.14159244 0.14948352 0.17055114 -0.05342029 -0.05071344
0.20103878 0.04312142 -0.024922034 0.06253722 0.065651886 0.14878279 0.108121626 -0.020290438
0.08556269 0.13415086 0.17921185 0.02938419 -0.012425864 0.086209 -0.0057379478 0.09527189
0.010274865 0.03443045 -0.077473946 -0.0009987348 -0.064131066 0.06488551 0.20538072 0.22802974
0.14209619 0.025782097 -0.15817021 -0.011451948 0.16443864 0.2852961 0.26456097 0.18650228
0.15452987 -0.020151345 -0.087344795 -0.025823131 0.049762536 0.21014813 0.08925584 -0.020782989
0.0050799516 -0.0008683165 0.05441292 -0.02926751 -0.03260913 -0.19534615 -0.1412818 -0.13664049
-0.19017029 -0.1946642 -0.21089044 -0.21538344 -0.2938769 -0.17538409 -0.07974414 0.057425186
-0.0612666 -0.02661635 -0.183987 0.050514597 -0.096109174 -0.0554553 -0.06128889 -0.22500576
0.0050585726 -0.13928734 -0.14542767 -0.097898915 0.11187258 0.069905765 0.18883978 0.16057141
0.20304815 0.033911254 -0.086827256 0.030319538 -0.05036682 0.19402838 0.32099378 0.37613767
0.026316023 -0.08093506 -0.16734277 -0.10836813 0.22306965 0.23280153 0.33992377 0.063327916
-0.049496062 -0.026232472 -0.17142071 -0.010317222 -0.0026307276 0.08448988 0.007429054 -0.19584313
-0.08845488 -0.021596938 -0.0081666615 -0.24146536 -0.18346483 -0.023380488 -0.118800595 -0.20224094
-0.275664 -0.1479027 0.02417538 -0.07621568 -0.19187452 -0.042730637 0.11012541 -0.2185252
0.07445823 0.06043811 0.020553377 -0.15748481 -0.05673439 0.12354796 0.068477795 0.013553877
00000000: b998 f7bd 790e 30be e1b1 66bd f600 773d
00000010: 15d8 84bd 2c15 f03d ea26 3dbd a08c 27be
00000020: d707 cdbd aee0 bb3d 09e2 dd3d 48cf e8bc
00000030: 5d58 92bd 6768 303d e1a4 15be 3232 393d
00000040: 233f d93c 7bf3 12be e86e 9d3d f7ef 673d
00000050: e6ee a53d c902 7c3d 6269 9e3c 8f5c 153c
00000060: 19ee 38bd 7f0e 9cbd 85dc d6bc f8aa 733d
00000070: 75be debc 6006 0fbe 173b f53c a4ee e0bd
00000080: e303 413d 93a5 d13c 799d 023d 2835 e6bd
00000090: ba1e 47bd 40f5 a13d 8de3 d3bd 5ed8 9cbd
000000a0: 972a edbd 63ae bc3c 05d3 b3bd 6650 453d
000000b0: 46a4 16be d010 9ebd 621d 9fbd 2406 c2bd
000000c0: 4534 b93c 2ef9 fa3c 7f07 95bd 6c24 39be
000000d0: d8ad 59bd c886 09be 55f4 cebd 17ce 2fbe
000000e0: 044f d9bd cff1 aebc d13a 6f3d 3898 29be
000000f0: 655a ad3c 3af1 0bbe 7562 a63d e5ff bbbc
00000100: 823b 00bc 8250 02be 1c81 abbc 4e0c 14be
00000110: fdc8 21be b097 1e3d d8da 0dbc 6d3c b0bd
00000120: b5ab 1a3d 94f7 43bd a207 9bbd 22e8 6f3c
00000130: 62bb 04be bd92 3e3d 0507 773d 75b2 5cbd
00000140: 050e 343e 5dc2 473e db79 17bd a068 113d
00000150: 383b f53d a265 893b 5ec3 f73c 7e14 5a3d
00000160: 8881 7bbc 6774 a8bc 4333 a5bd 8b69 6b3c
00000170: 78c4 a33d 4d7e 0e3d e397 0c3e 3d77 463e
00000180: e833 453e ae98 3c3e bfed 38be db86 c9bd
00000190: 3346 12be 7cfd 8ebd c45d 17be 6d00 63be
000001a0: 0194 50bd 5f2b 73bd c102 87bc 0342 e6bd
000001b0: 56f5 82bd 52b1 c7bd e6e3 03be e119 3bbe
000001c0: d200 33bd f427 733c 6f77 dcbd 1294 05be
000001d0: e79e fd3c 51df 543d bc16 88bd a03c 063d
000001e0: e974 903d 3d49 9eb9 9024 823d e980 1a3d
000001f0: c501 d9bb e945 133e dd1b 653d c791 133e
00000200: 691a ee3d aa3e 033e 7b98 0d3e 9cfd 103e
00000210: 3512 193e f5a4 2e3e 3ccf 5abd e5b8 4fbd
00000220: 1cdd 4d3e 16a0 303d 4b29 ccbc 8413 803d
00000230: 7f74 863d 845a 183e df6e dd3d 2238 a6bc
00000240: 7e3b af3d d85e 093e 5083 373e 1db7 f03c
00000250: da95 4bbc 588e b03d 6505 bcbb e91d c33d
00000260: e857 283c f206 0d3d a9aa 9ebd fbe7 82ba
00000270: 2657 83bd b2e2 843d 534f 523e a180 693e
00000280: aa81 113e fa34 d33c 5ff7 21be f4a0 3bbc
00000290: 9a62 283e 5512 923e 8974 873e 74fa 3e3e
000002a0: 143d 1e3e 6f14 a5bc d4e1 b2bd 088b d3bc
000002b0: cdd3 4b3d 1231 573e c4cb b63d 1641 aabc
000002c0: b975 a63b bc9f 63ba 15e0 5e3d 6bc2 efbc
000002d0: 2791 05bd d208 48be 2dac 10be 7ceb 0bbe
000002e0: 00bc 42be 0d56 47be aaf3 57be 7a8d 5cbe
000002f0: 0877 96be e397 33be e550 a3bd ac36 6b3d
00000300: b0f2 7abd 880a dabc 1767 3cbe 65e8 4e3d
00000310: e3d4 c4bd 1925 63bd 0f0a 7bbd e967 66be
00000320: 62c2 a53b 57a1 0ebe feea 14be 3a7f c8bd
00000330: 741d e53d c12a 8f3d 375f 413e d56c 243e
00000340: dbeb 4f3e 87e6 0a3d 7dd2 b1bd ae60 f83c
00000350: 704d 4ebd 60af 463e 4c59 a43e 1e95 c03e
00000360: b394 d73c 48c1 a5bd e75b 2bbe 1cf0 ddbd
00000370: 5f6c 643e 8663 6e3e 7d0a ae3e 11b2 813d
00000380: 62bc 4abd 7be5 d6bc e988 2fbe 9109 29bc
00000390: 4968 2cbb 0809 ad3d 6c6f f33b 1a8b 48be
000003a0: d527 b5bd 10ec b0bc 76cd 05bc b242 77be
000003b0: 34de 3bbe 7088 bfbc ba4d f3bd 4018 4fbe
000003c0: d523 8dbe ce73 17be 720b c63c f716 9cbd
000003d0: c17a 44be 5206 2fbd 6e89 e13d 12c5 5fbe
000003e0: 8e7d 983d f48d 773d 8e5f a83c b343 21be
000003f0: 5262 68bd b606 fd3d 163e 8c3d 1511 5e3c

onnx::Conv_81 f4 [16]
0.57424206 -0.17383818 -1.4793862 0.18441077 -0.2720891 0.03164735 0.515274 1.1307045
-0.1038869 -0.26863196 -0.26925975 0.38193747 -0.61489075 1.3082306 -1.005142 0.99722916
00000000: 8701 133f a302 32be 875c bdbf 2dd6 3c3e
00000010: 434f 8bbe a7a0 013d ffe8 033f edba 903f
00000020: a8c2 d4bd 218a 89be 6adc 89be 4f8d c33e
00000030: 7b69 1dbf 1a74 a73f 7ea8 80bf 694a 7f3f

onnx::Conv_83 f4 [32, 16, 3, 3]
-0.051544826 -0.04905346 -0.053399995 -0.04896659 -0.05918265 -0.07186374 -0.06713349 -0.03515013
-0.04215472 0.016504599 0.021441124 -0.016514927 -0.008737015 -0.015865633 0.022625977 -0.07842597
0.036287747 -6.0827675e-05 0.0032033166 0.01641243 -0.0653285 0.015267256 -0.008250455 -0.0799186
-0.043138992 -0.0065311147 0.023354178 -0.007867923 0.025101801 -0.043512322 -0.030606175 -0.0126002235
0.042091332 -0.048025228 -0.009417441 -0.008937942 -0.07371668 -0.11927565 -0.11207364 -0.0029674305
0.037175383 -0.08810474 0.038872313 0.0419643 0.0659226 0.012999039 -0.0006973818 -0.0535835
-0.039848033 -0.0130604245 -0.025875855 -0.05738653 0.012179991 0.026871284 -0.0029992955 -0.04624698
-0.019305483 -0.041901357 0.01609018 0.0032597536 -0.026140042 -0.013565611 0.015212115 -0.05677936
-0.017649816 -0.08715024 -0.014472895 -0.009296918 -0.04014821 0.011229483 0.0445855 -0.024655217
-0.043626465 0.060625196 -0.02206962 0.022935666 -0.0069759064 0.017982341 0.010375034 0.059282206
0.05945836 0.07785021 -0.04105374 -0.040078368 0.02384612 -0.042863842 0.05892754 0.054690573
0.013705469 0.023748133 -0.03190347 -0.04250378 -0.037293907 -0.025759889 -0.015082866 -0.04552817
-0.034242377 -0.0013219522 -0.067584135 0.01355123 0.0104550095 0.010511971 -0.0024475849 -0.06322318
-0.0067088148 0.010993232 -0.041780952 -0.026921825 0.08788603 0.04562188 -0.012420501 0.056142133
0.095370315 -0.018628048 0.06822191 0.10073622 0.01750173 -0.026810212 -0.04543433 -0.030927889
-0.02221174 -0.030316072 -0.06331907 -0.002044116 0.03784711 -0.009254267 0.045352884 -0.0142122125
-0.011039505 0.0018607094 -0.020073548 -0.00772071 -0.035024237 -0.040309526 0.003659376 0.0005430482
0.045335885 0.059211787 0.009344202 -0.0073301517 0.03332845 0.020830208 -0.030698117 0.00018786259
-0.04231367 0.04217025 -0.023634769 0.009633326 -0.03406483 0.018325036 0.09179976 0.029109785
0.039750498 0.096619286 0.06371388 -0.01095229 0.02070893 0.036819473 0.05384487 -0.021387558
-0.09538346 -0.05374079 0.04652771 -0.000507404 -0.037511893 -0.04649954 0.020385893 -0.0050751525
-0.018705934 -0.033924237 0.040501066 -0.04382638 0.035105605 -0.0069838897 -0.04453395 -0.03539699
0.045653094 -0.013257928 -0.005067742 -0.024232747 0.075803295 -0.06299218 0.03701925 -0.07508448
0.025453437 -0.075029336 0.03635565 -0.04318098 -0.105560206 0.015943509 -0.04103551 -0.04365043
0.036196556 -0.08211124 -0.026425272 -0.044824056 0.013142653 -0.065481044 -0.0058080824 0.075955786
0.027096305 0.033110607 0.050098132 0.031508673 0.03472903 -0.001620246 0.021437516 0.019988054
-0.037154496 -0.06943579 -0.03238199 -0.018876549 -0.06727237 0.021308776 -0.05848332 -0.014084259
0.07879022 0.04556966 0.04457704 0.028287297 0.06657418 -0.0070007597 -0.044669222 -0.029025285
-0.0276689 -0.025363566 -0.030323718 0.04465369 0.020706289 0.043351866 -0.08066034 0.020374563
0.028707862 0.06905007 0.07962824 -0.009303762 0.06265636 0.04918752 -0.07419461 -0.087342344
-0.0762481 -0.12164732 -0.1154037 0.09297037 -0.002529561 0.03145113 -0.008469414 0.05093797
0.060289104 0.12509161 0.09722301 0.048643943 -0.00083276175 -0.0513904 -0.040774327 0.007966519
00000000: ab20 53bd 48ec 48bd f4b9 5abd 3191 48bd
00000010: 8269 72bd 4c2d 93bd 497d 89bd 95f9 0fbd
00000020: 6daa 2cbd a734 873c 4ca5 af3c 504a 87bc
00000030: b225 0fbc a5f8 81bc 1d5a b93c cc9d a0bd
00000040: 76a2 143d 3821 7fb8 bcee 513b 5c73 863c
00000050: f3ca 85bd 8323 7a3c eb2c 07bc 5dac a3bd
00000060: 83b2 30bd f602 d6bb 4351 bf3c 76e8 00bc
00000070: 4ba2 cd3c fa39 32bd cdb9 fabc 2b71 4ebc
00000080: f667 2c3d 1ab6 44bd 9c4b 1abc 7270 12bc
00000090: c5f8 96bd cb46 f4bd dd86 e5bd 3979 42bb
000000a0: 3745 183d 4270 b4bd 9338 1f3d c2e2 2b3d
000000b0: 6e02 873d ecf9 543c 80d0 36ba 5f7a 5bbd
000000c0: b137 23bd 64fb 55bc 9af9 d3bc 230e 6bbd
000000d0: 968e 473c 2b21 dc3c d48f 44bb 796d 3dbd
000000e0: 8826 9ebc c2a0 2bbd 8ecf 833c 97a1 553b
000000f0: a423 d6bc 4c42 5ebc 3c3c 793c 7991 68bd
00000100: 5996 90bc d37b b2bd b91f 6dbc 1a52 18bc
00000110: 7372 24bd defb 373c 499f 363d bdf9 c9bc
00000120: aab1 32bd 2052 783d 59cb b4bc 94e3 bb3c
00000130: 2596 e4bb b44f 933c 0cfc 293c e6d1 723d
00000140: 9c8a 733d ee6f 9f3d f727 28bd 3729 24bd
00000150: f058 c33c ff91 2fbd 015e 713d 3903 603d
00000160: e78c 603c 728b c23c 37ad 02bd 7218 2ebd
00000170: 7fc1 18bd 6706 d3bc 201e 77bc bf7b 3abd
00000180: bc41 0cbd 5b45 adba 8d69 8abd fa05 5e3c
00000190: 7d4b 2b3c 673a 2c3c a967 20bb 287b 81bd
000001a0: 9ed5 dbbb f51c 343c 8122 2bbd 298b dcbc
000001b0: 97fd b33d 02de 3a3d 5b7f 4bbc 4bf5 653d
000001c0: 8351 c33d d999 98bc eeb7 8b3d cb4e ce3d
000001d0: ca5f 8f3c 17a1 dbbc 5919 3abd 7c5c fdbc
000001e0: 65f5 b5bc 6959 f8bc 6ead 81bd 93f6 05bb
000001f0: 9205 1b3d 369f 17bc f2c3 393d 57da 68bc
00000200: 0adf 34bc 0ce3 f33a 4871 a4bc 02fe fcbb
00000210: 9375 0fbd 9a1b 25bd 24d2 6f3b 595b 0e3a
00000220: 1fb2 393d 0f88 723d 6c18 193c c531 f0bb
00000230: 6a83 083d 1da4 aa3c 9e7a fbbc fbfc 4439
00000240: 1951 2dbd b6ba 2c3d b49d c1bc 19d5 1d3c
00000250: 9087 0bbd 631e 963c 8301 bc3d a577 ee3c
00000260: 6bd1 223d 55e0 c53d 6c7c 823d 3c71 33bc
00000270: c6a5 a93c 04d0 163d 708c 5c3d f634 afbc
00000280: 6758 c3bd 4d1f 5cbd d793 3e3d 4e03 05ba
00000290: 12a6 19bd 4d76 3ebd 5100 a73c 774d a6bb
000002a0: 303d 99bc 24f4 0abd 72e4 253d 4a83 33bd
000002b0: e5ca 0f3d 1dd9 e4bb 3b69 36bd 6ffc 10bd
000002c0: bdfe 3a3d c837 59bc 4d0f a6bb c183 c6bc
000002d0: c23e 9b3d 0b02 81bd 7fa1 173d e4c5 99bd
000002e0: ba83 d03c fba8 99bd a9e9 143d 8ade 30bd
000002f0: f32f d8bd f69b 823c da14 28bd cbca 32bd
00000300: d742 143d f029 a8bd d079 d8bc 6e99 37bd
00000310: 4854 573c ed1a 86bd ba51 bebb b58e 9b3d
00000320: 12f9 dd3c fd9e 073d b333 4d3d 3d0f 013d
00000330: 0740 0e3d 6f5e d4ba bb9d af3c fdbd a33c
00000340: 502f 18bd 5a34 8ebd faa2 04bd fea2 9abc
00000350: 19c6 89bd be8f ae3c 358c 6fbd aac1 66bc
00000360: c45c a13d 40a7 3a3d 6a96 363d c3ba e73c
00000370: 0b58 883d a166 e5bb 13f7 36bd 6fc6 edbc
00000380: e4a9 e2bc 41c7 cfbc 7269 f8bc cae6 363d
00000390: 3ca0 a93c ba91 313d 4031 a5bd 8ee8 a63c
000003a0: c02c eb3c 206a 8d3d 2114 a33d ce6e 18bc
000003b0: fa51 803d da78 493d 58f3 97bd 8be0 b2bd
000003c0: f727 9cbd 3b22 f9bd c658 ecbd 4067 be3d
000003d0: fec6 25bb e6d2 003d 4cc3 0abc 55a4 503d
000003e0: b5f1 763d 0418 003e dc1c c73d df3e 473d
000003f0: b24d 5aba bd7e 52bd fb02 27bd 0186 023c

onnx::Conv_84 f4 [32]
0.4945751 -0.28349227 0.26553732 0.50148505 -0.24214047 0.543918 -0.50830853 0.37433594
0.100878306 -0.07941041 0.31998894 0.13849908 -0.28250208 -0.23346224 0.29024178 0.2354789
0.6325617 0.14695163 0.15884307 0.38320842 -0.28453445 0.024925463 0.35237753 -0.12541927
0.21163717 0.31336254 0.4518773 0.45164117 0.7401324 -0.013700191 -0.36123893 -0.008712178
00000000: f338 fd3e e625 91be 82f4 873e 5361 003f
00000010: acf3 77be 363e 0b3f 8220 02bf f6a8 bf3e
00000020: 4999 ce3d eda1 a2bd 97d5 a33e b4d2 0d3e
00000030: 1da4 90be ba10 6fbe 929a 943e 6121 713e
00000040: 90ef 213f 7d7a 163e c2a7 223e e533 c43e
00000050: 80ae 91be 7c30 cc3c d46a b43e e96d 00be
00000060: 6ab7 583e 0e71 a03e 765c e73e 833d e73e
00000070: 5179 3d3f c476 60bc 4ff4 b8be 86bd 0ebc

onnx::Conv_86 f4 [32, 32, 3, 3]
-0.061088614 -0.06850171 -0.042424034 -0.048984494 -0.078250945 -0.056022193 0.007200534 -0.050420724
-0.034052886 0.020455234 -0.02457703 -0.002474413 0.036615815 -0.021718398 0.07445314 -0.0078802155
0.008624608 -0.016284008 0.05632752 -0.009156197 -0.06797075 -0.009962911 0.049178682 0.018508734
0.012593143 0.068281 0.089250065 -0.013106342 0.025278617 -0.021140466 0.007732256 0.057945695
-0.0131172575 0.07541407 0.06498852 -0.056716632 0.03300553 -0.019431228 0.07860588 -0.011972409
0.064773925 0.035555054 0.0025953988 0.045818813 0.13268611 0.022177702 -0.025785848 -0.040736847
-0.012299444 -0.08853486 -0.089812055 -0.026009664 -0.05854334 -0.059498783 0.0025701725 0.06258917
0.010050652 0.012347256 0.01967463 0.05285204 -0.048361503 0.057480093 0.057157047 -0.053538114
0.002598148 0.012724806 -0.048563838 -0.03402347 -0.05836442 0.03526695 0.06045848 0.060016327
0.01802706 0.048570752 0.07532582 -0.025039673 0.002335325 0.03883634 -0.034183927 0.017570522
0.05044027 -0.015400138 -0.048438653 0.03302789 0.026486851 -0.004623989 -0.009719845 0.045876812
-0.0019788123 -0.01042145 0.023884444 0.028161298 0.014643965 -0.02865345 0.018813454 0.050749637
-0.010949898 0.027429705 0.07566256 0.002893169 -0.0034220505 0.021694977 0.06845647 0.058012217
0.05614719 0.021888506 0.02254091 0.012536042 0.031092208 -0.009701479 -0.009764509 -0.046567656
-0.070229635 -0.08870144 -0.05931763 -0.054198746 -0.011702321 -0.07301564 -0.12953201 -0.037004706
-0.040032003 -0.0718962 -0.03230736 0.100111715 0.040747657 0.02286586 0.033244748 -0.054875
0.013816959 0.0057616592 -0.03354203 -0.0058882725 -0.015785411 0.01509508 0.059196133 0.016267175
-0.004125144 0.034858633 0.0048002107 -0.0148774395 -0.035317782 -0.050763346 -0.05458922 -0.059706718
-0.0015972062 -0.025407132 -0.12397124 0.07610971 0.027093943 -0.1528271 0.012571439 -0.017873498
-0.029775798 -0.059885032 -0.0140592875 -0.009280516 -0.019153384 0.026052337 0.034398936 -0.034842595
0.004019757 -0.0037658191 -0.026033936 0.066028014 0.03826188 -0.019437172 0.046803918 0.029032795
-0.021427702 0.016050858 0.025696583 -0.0005535908 0.078454144 0.041552838 -0.054599725 -0.005993018
-0.018775057 -0.03126603 -0.03458099 -0.015099309 -0.04124025 0.06416148 -0.040028293 0.036343444
-0.011895376 0.041818354 -0.08361974 -0.05661617 -0.1396264 -0.014949103 -0.025500102 -0.008931163
-0.07306254 -0.061179645 -0.023715882 -0.031087602 -0.067090444 -0.014996846 0.023134679 0.011250255
-0.006113028 0.013622067 -0.03512438 -0.050074104 -0.0137783615 -0.029421207 -0.023076337 -0.05267929
-0.040863186 -0.0012094937 -0.045436744 0.0050339075 -0.090606265 0.014350424 -0.0044941553 -0.05729645
0.010616144 0.02326897 -0.005601192 -0.0027624096 0.019824494 -0.01370878 0.009682105 0.011707999
0.009585778 -0.07228042 -0.050569497 -0.03542417 -0.049065184 -0.042533644 -0.051927127 -0.061773933
-0.06516146 -0.0019993416 -0.05988554 -0.064289756 -0.07770054 0.011318691 -0.014353072 -0.029408783
-0.0025615366 0.033850297 0.00961638 0.016658382 -0.014222413 -0.03648939 0.025218483 -0.025232457
-0.04657108 0.045053475 0.01022451 -0.05184517 0.024533935 0.011330931 -0.0056698676 0.05721677
00000000: 0e38 7abd a04a 8cbd d3c4 2dbd f7a3 48bd
00000010: 0842 a0bd 8777 65bd 75f2 eb3b f685 4ebd
00000020: 0a7b 0bbd bc91 a73c c555 c9bc c329 22bb
00000030: 77fa 153d c8ea b1bc e37a 983d 051c 01bc
00000040: 3a4e 0d3c 0a66 85bc b0b7 663d e003 16bc
00000050: 4034 8bbd 7a3b 23bc 966f 493d a19f 973c
00000060: 7853 4e3c e9d6 8b3d bdc8 b63d fcbb 56bc
00000070: 1a15 cf3c c52e adbc dd5e fd3b 7758 6d3d
00000080: c4e9 56bc b172 9a3d b418 853d b34f 68bd
00000090: ce30 073d 3d2e 9fbc 1ffc a03d ec27 44bc
000000a0: 31a8 843d 2da2 113d 9117 2a3b 82ac 3b3d
000000b0: dede 073e 03ae b53c d83c d3bc aedb 26bd
000000c0: 9b83 49bc c451 b5bd 62ef b7bd 3812 d5bc
000000d0: 24cb 6fbd ffb4 73bd 5770 283b c02e 803d
000000e0: 7dab 243c 254c 4a3c b12c a13c 617b 583d
000000f0: b616 46bd 3f70 6b3d 821d 6a3d c84a 5bbd
00000100: b145 2a3b b47b 503c e0ea 46bd 325c 0bbd
00000110: 880f 6fbd 1474 103d 50a3 773d aed3 753d
00000120: 7cad 933c 20f2 463d 6c44 9a3d 0020 cdbc
00000130: 410c 193b db12 1f3d 7204 0cbd 0ef0 8f3c
00000140: 759a 4e3d dc50 7cbc 9c67 46bd 4148 073d
00000150: f4fa d83c d584 97bb fc3f 1fbc 53e9 3b3d
00000160: f6ae 01bb bbbe 2abc 4fa9 c33c 86b2 e63c
00000170: 3eed 6f3c a4ba eabc ac1e 9a3c dade 4f3d
00000180: 3367 33bc 43b4 e03c f9f4 9a3d 529b 3d3b
00000190: 7b44 60bb aab9 b13c e832 8c3d 389e 6d3d
000001a0: 99fa 653d 864f b33c b7a7 b83c f963 4d3c
000001b0: 16b5 fe3c f4f2 1ebc 52fb 1fbc babd 3ebd
000001c0: 8ed4 8fbd 1aa9 b5bd 0bf7 72bd 81ff 5dbd
000001d0: 17bb 3fbc 3989 95bd 0aa4 04be 3f92 17bd
000001e0: 99f8 23bd 513e 93bd b954 04bd 5f07 cd3d
000001f0: 04e7 263d 2f51 bb3c a52b 083d 9cc4 60bd
00000200: 8760 623c 4dcc bc3b 5e63 09bd 69f2 c0bb
00000210: 6850 81bc 5b51 773c a577 723d bd42 853c
00000220: 372c 87bb edc7 0e3d 164b 9d3b 81c0 73bc
00000230: 61a9 10bd 3aed 4fbd f298 5fbd 088f 74bd
00000240: 5959 d1ba 9e22 d0bc a2e4 fdbd 68df 9b3d
00000250: 1ef4 dd3c b57e 1cbe 70f8 4d3c 716b 92bc
00000260: 60ec f3bc 024a 75bd ed58 66bc 4e0d 18bc
00000270: 8fe7 9cbc b66b d53c e6e5 0c3d 1cb7 0ebd
00000280: 2ab8 833b f6cb 76bb 1f45 d5bc b239 873d
00000290: 7db8 1c3d b43a 9fbc 77b5 3f3d 2fd6 ed3c
000002a0: 2689 afbc 177d 833c a481 d23c da1e 11ba
000002b0: 91ac a03d 4f33 2a3d f6a3 5fbd 1461 c4bb
000002c0: 26ce 99bc cf10 00bd cca4 0dbd 1863 77bc
000002d0: 89eb 28bd 1867 833d b5f4 23bd dddc 143d
000002e0: d3e4 42bc b949 2b3d d440 abbd 5be6 67bd
000002f0: 39fa 0ebe 15ed 74bc 97e5 d0bc 0354 12bc
00000300: d0a1 95bd 8297 7abd cf47 c2bc 6dab febc
00000310: b766 89bd 55b5 75bc f084 bd3c fd52 383c
00000320: cc4f c8bb 172f 5f3c 95de 0fbd 811a 4dbd
00000330: a3be 61bc be04 f1bc 960a bdbc 3dc6 57bd
00000340: 2860 27bd e087 9eba e11b 3abd 7af3 a43b
00000350: c78f b9bd 0a1e 6b3c b543 93bb afaf 6abd
00000360: 56ef 2d3c 919e be3c 348a b7bb 8b09 35bb
00000370: fa66 a23c ca9a 60bc b1a1 1e3c e8d2 3f3c
00000380: ab0d 1d3c c207 94bd f621 4fbd ef18 11bd
00000390: 93f8 48bd c237 2ebd 8ab1 54bd aa06 7dbd
000003a0: 5f73 85bd 6307 03bb 8a4a 75bd 59aa 83bd
000003b0: 7621 9fbd 0872 393c 2629 6bbc b0ea f0bc
000003c0: 74df 27bb 9ca6 0a3d 058e 1d3c 2977 883c
000003d0: 2005 69bc e675 15bd fe96 ce3c 4cb4 cebc
000003e0: 51c1 3ebd fe89 383d b484 273c 9a5b 54bd
000003f0: 64fb c83c 5fa5 393c 4cca b9bb 225c 6a3d

onnx::Conv_87 f4 [32]
0.29521036 0.33901644 0.8711774 0.2465909 0.63915414 0.2603844 0.6842207 -0.1794788
0.22243315 0.38247156 -0.044890106 0.7283563 -0.050188027 -0.40792316 -0.49607545 0.09719482
0.08477923 -0.43418416 -0.2757006 0.43551147 0.08770698 -0.23418677 0.029932985 0.4857591
0.5072258 0.66415596 0.56424826 1.089316 0.14846641 -0.1536339 0.36244196 0.018035464
00000000: d025 973e 9093 ad3e 7b05 5f3f 5382 7c3e
00000010: 9b9f 233f 1b51 853e 1629 2f3f 4ac9 37be
00000020: 84c5 633e 50d3 c33e b0de 37bd 8f75 3a3f
00000030: f691 4dbd 4edb d0be 9afd fdbe 140e c73d
00000040: bca0 ad3d 634d debe a128 8dbe 5cfb de3e
00000050: b89f b33d a8ce 6fbe 0536 f53c 6bb5 f83e
00000060: 8dd9 013f 2006 2a3f 9372 103f b56e 8b3f
00000070: 9407 183e 3552 1dbe fe91 b93e 1cbf 933c

onnx::Conv_89 f4 [32, 16, 1, 1]
0.065986924 0.11557418 -0.10687432 -0.052195296 0.14404288 -0.03943002 0.09511968 0.11981791
0.094673336 -0.07490489 0.07949475 -0.006580365 -0.13901685 -0.014668137 -0.104814894 0.10944534
-0.34608313 0.47480917 -0.23013091 0.011198402 -0.38625658 -0.17487882 0.06857698 0.12883164
0.2072162 0.22438325 -0.009186544 -0.026692154 -0.28946194 -0.04872825 -0.27521163 -0.1321027
-0.21359505 0.2663866 -0.14386019 0.1055336 -0.28560245 -0.06528554 0.14398693 -0.28526378
-0.274969 -0.25579107 -0.24793233 -0.15277559 -0.32793662 0.14844094 0.0076448307 -0.17492655
0.16268185 0.038657732 -0.26306924 0.24820256 -0.16841699 -0.27795285 -0.21483825 0.06858009
-0.17023523 -0.16446577 0.24122204 0.15768202 -0.057401214 -0.21093254 0.128698 0.14334305
-0.014533112 -0.033092536 -0.083730936 0.218805 0.34859258 -0.08660769 -0.21056028 0.34573647
0.21549293 -0.30085546 -0.12210003 0.30603224 0.0021736056 -0.41000172 -0.123577274 0.27638108
0.22860676 -0.2893737 -0.23546758 -0.016941257 -0.17777282 0.058800183 -0.0701507 -0.09388649
0.07352529 0.24137314 -0.104534075 0.29691976 -0.015593499 0.10452854 0.041254323 0.26720968
0.12612392 0.07531491 0.07516803 0.12703872 -0.082571805 0.121784724 0.08571612 -0.16904588
0.058274828 0.09533615 0.10726321 0.11278556 0.011458112 0.06820556 0.07034804 -0.15810081
0.25810897 -0.21563563 0.009784229 -0.08689791 -0.08659348 0.22961168 -0.1709863 -0.2700692
-0.21105051 -0.16188653 -0.25102404 -0.041559193 -0.09255081 -0.031403918 0.12780774 0.19615029
-0.09259783 -0.05076602 -0.045638658 0.106491216 -0.11379666 -0.09080982 0.056423895 0.05316947
-0.10604183 -0.1419605 0.028976928 0.08892435 0.17531313 0.15350951 -0.115365505 -0.005360459
0.16846804 0.19011359 0.11992023 0.23484138 -0.0040551415 0.09668491 0.05054682 -0.025278125
-0.12630704 0.16407739 -0.008587767 0.04779467 -0.16754927 0.1610787 -0.14386912 -0.089904845
0.08469454 0.030086275 0.2389683 -0.13477863 -0.16326064 0.22961304 -0.00029201256 0.32744232
0.18955421 0.14122775 3.6431415e-05 -0.045694396 0.12585136 0.1628191 -0.18014961 -0.0686171
-0.23291819 -0.029401217 -0.23519796 -0.0574477 0.16648118 -0.0870628 0.10848899 0.010444098
0.09243768 -0.10825789 0.22268368 0.029394152 0.28455138 0.15365309 -0.11298412 0.068493076
0.020888675 0.06922444 0.078086756 0.0055507594 -0.10000421 -0.029815638 0.019561324 -0.09686147
0.06711118 0.12926142 0.07421859 0.12573591 0.10358701 0.09227112 0.02274382 0.10177781
0.18458907 0.18658848 -0.10857529 0.19260155 -0.10115911 -0.07876621 -0.02027794 0.022579411
-0.12729418 -0.043462105 -0.1503421 0.25209695 0.1456573 -0.046929203 0.15685675 -0.14058611
0.077756934 0.19001007 -0.25027594 -0.07885338 -0.24986045 -0.1256278 0.26720694 0.14236183
0.1085932 -0.0055631916 0.07134605 0.28654355 0.016894221 -0.04196364 0.26247767 0.26632777
0.17203748 -0.03101619 0.117611736 0.20837967 -0.08634823 -0.08042118 -0.05741647 0.099444024
-0.17579854 0.07558637 -0.12647974 -0.10240804 0.13506848 -0.14411096 0.06935427 -0.060661428
00000000: 2724 873d 28b2 ec3d ece0 dabd bcca 55bd
00000010: fa7f 133e 5f81 21bd 1bce c23d 1863 f53d
00000020: 18e4 c13d bc67 99bd 25ce a23d 1aa0 d7bb
00000030: 6f5a 0ebe a052 70bc 31a9 d6bd e124 e03d
00000040: cf31 b1be 301a f33e 70a7 6bbe 8179 373c
00000050: 6cc3 c5be 6f13 33be 1672 8c3d 71ec 033e
00000060: 7c30 543e b9c4 653e 2983 16bc 81a9 dabc
00000070: 5b34 94be 4697 47bd 8ae8 8cbe ee45 07be
00000080: a9b8 5abe d363 883e 1650 13be 0022 d83d
00000090: 7c3a 92be 6db4 85bd 4f71 133e 180e 92be
000000a0: bdc8 8cbe 0cf7 82be f9e1 7dbe 3471 1cbe
000000b0: 4fe7 a7be e700 183e 7d81 fa3b f21f 33be
000000c0: 1296 263e 9257 1e3d 03b1 86be d028 7e3e
000000d0: 8175 2cbe d64f 8ebe 8ffe 5bbe b873 8c3d
000000e0: 2552 2ebe b769 28be e902 773e 6577 213e
000000f0: 891d 6bbd b3fe 57be 69c9 033e 85c8 123e
00000100: 4a1c 6ebc 0a8c 07bd 207b abbd 6b0e 603e
00000110: ba7a b23e 5f5f b1bd 1d9d 57be 5f04 b13e
00000120: 2eaa 5c3e ba09 9abe 950f fabd 42b0 9c3e
00000130: 0d73 0e3b bfeb d1be 1516 fdbd d281 8d3e
00000140: e417 6a3e ca28 94be 6a1e 71be 64c8 8abc
00000150: 140a 36be 76d8 703d 2cab 8fbd 8f47 c0bd
00000160: 6d94 963d 852a 773e f615 d6bd de05 983e
00000170: e07b 7fbc 0f13 d63d 4bfa 283d b5cf 883e
00000180: a126 013e b43e 9a3d b2f1 993d 7016 023e
00000190: 681b a9bd 456a f93d ef8b af3d 5d1a 2dbe
000001a0: 96b1 6e3d 993f c33d d0ac db3d 1efc e63d
000001b0: ceba 3b3c 5baf 8b3d a212 903d 2ee5 21be
000001c0: dc26 843e 96cf 5cbe 084e 203c 88f7 b1bd
000001d0: ec57 b1bd 531f 6b3e 0817 2fbe 8346 8abe
000001e0: a01d 58be 95c5 25be 3986 80be f939 2abd
000001f0: 478b bdbd 65a1 00bd 08e0 023e 9fdb 483e
00000200: eea3 bdbd 08f0 4fbd 9aef 3abd 1118 da3d
00000210: 390e e9bd 80fa b9bd be1c 673d 3bc8 593d
00000220: 752c d9bd 185e 11be 0661 ed3c f81d b63d
00000230: 4985 333e 9931 1d3e c044 ecbd caa6 afbb
00000240: e382 2c3e 23ad 423e bd98 f53d 427a 703e
00000250: fee0 84bb bd02 c63d 2f0a 4f3d 1214 cfbc
00000260: a256 01be e703 283e b5b3 0cbc 58c4 433d
00000270: 0992 2bbe d1f1 243e 6d52 13be 0820 b8bd
00000280: 5574 ad3d 7e77 f63c 1bb4 743e 6903 0abe
00000290: cc2d 27be ae1f 6b3e 4319 99b9 85a6 a73e
000002a0: 801a 423e 029e 103e efcd 1838 0c2a 3bbd
000002b0: 2edf 003e 0dba 263e 2479 38be 1f87 8cbd
000002c0: 1b82 6ebe d2da f0bc bcd7 70be 484e 6bbd
000002d0: 0b7a 2a3e fb4d b2bd 7a2f de3d b91d 2b3c
000002e0: f74f bd3d 50b6 ddbd 3107 643e 01cc f03c
000002f0: b8b0 913e 3c57 1d3e 3864 e7bd 1946 8c3d
00000300: ba1e ab3c 8bc5 8d3d f3eb 9f3d 25e3 b53b
00000310: 02cf ccbd ed3f f4bc 123f a03c 4e5f c6bd
00000320: 9671 893d 1b5d 043e ebff 973d eac0 003e
00000330: 6d25 d43d a4f8 bc3d 3f51 ba3c e270 d03d
00000340: eb04 3d3e 0d11 3f3e b95c debd 5739 453e
00000350: 822c cfbd 2e50 a1bd ec1d a6bc 75f8 b83c
00000360: 6859 02be 5205 32bd 48f3 19be da12 813e
00000370: 3027 153e d638 40bd 0e9f 203e cef5 0fbe
00000380: 073f 9f3d 0092 423e 2b24 80be e27d a1bd
00000390: 6bdb 7fbe 93a4 00be 59cf 883e 4dc7 113e
000003a0: 1d66 de3d 6f4b b6bb e11d 923d d6b5 923e
000003b0: c065 8a3c 11e2 2bbd 7963 863e 1d5c 883e
000003c0: 982a 303e aa15 febc 6cde f03d 7b61 553e
000003d0: 57d7 b0bd dcb3 a4bd 882d 6bbd 4fa9 cb3d
000003e0: 8804 34be 07cd 9a3d e883 01be 4ebb d1bd
000003f0: 644f 0a3e d391 13be 9d09 8e3d 1e78 78bd

onnx::Conv_90 f4 [32]
-0.18763678 0.3476224 0.96654814 0.007920738 -0.17595986 -0.17974082 -0.40241826 0.4061555
0.068119735 -0.35318688 -0.49853128 -0.15664071 -0.41660565 -0.13549475 -0.51325023 -0.01809792
0.4619341 -0.5021441 0.08176796 -0.06657682 -0.01062798 -0.32425112 -0.19080244 -0.3181031
0.14817488 -0.009482233 0.04073044 0.13504794 0.05578277 0.16918366 -0.33379066 0.101694554
00000000: db23 40be 90fb b13e b36f 773f fcc5 013c
00000010: d22e 34be fa0d 38be c409 cebe 9df3 cf3e
00000020: 5c82 8b3d e9d4 b4be 7e3f ffbe 6c66 20be
00000030: 564d d5be 23bf 0abe 5e64 03bf 1742 94bc
00000040: a082 ec3e 848c 00bf f675 a73d 6e59 88bd
00000050: fb20 2ebc 3e04 a6be b761 43be 69de a2be
00000060: 28bb 173e 5e5b 1bbc f6d4 263d 024a 0a3e
00000070: 797c 643d 7b3e 2d3e 9ce6 aabe 3c45 d03d

onnx::Conv_92 f4 [64, 32, 3, 3]
-0.0048384718 -0.0028224778 -0.0061668274 -0.0018518395 -0.0015737596 -0.0030114928 0.0011176775 0.004521539
-0.00057459687 0.002837032 0.0038377573 -0.0007586101 0.008866961 0.010441683 0.0031950758 0.0067068716
0.019066026 0.0026068573 0.015918916 0.003980696 -0.012657809 0.03030928 0.023766296 0.005820062
0.023455128 0.028980235 0.0044486173 0.001687986 0.009770881 0.011729708 0.0027048427 0.007049725
0.0016887083 -0.00487044 -0.010721322 -0.016688779 0.0042404667 -0.0024363399 -0.0029085588 0.000102089085
-0.004471461 -0.0039531286 0.0077294684 0.0034597996 -0.005199381 -0.0022386143 -0.0043744748 -0.0021990216
0.004456756 0.002643314 0.0035821218 -0.0022198537 8.3615705e-05 0.007967677 0.010513509 0.014581431
0.02073886 0.0039777057 -0.0014491281 0.0013720492 -0.0051679215 -0.0073701027 -0.00068670453 -0.0038589493
0.011158517 -0.01122662 0.007486817 0.026094113 0.01167054 0.011799821 0.015588649 0.003642112
0.0027884375 0.003132028 0.0048750755 0.00035113326 -0.00047646143 -0.0018549304 0.004116355 -0.0024520631
-0.007797684 0.0018275643 0.00054029387 0.00010041447 0.001781647 0.00066329114 0.0038564454 0.00029634425
-0.00020985738 -0.0015853215 0.0046175863 0.004614133 0.010655694 -0.002217131 0.0013398434 0.008335219
0.0031699964 -0.00042428065 0.009526665 0.003658907 0.0031134288 0.00926126 0.0011640645 0.0034226805
0.006362682 0.006502108 0.005025205 0.0059580165 0.0029128268 -0.000732665 0.008017808 -0.0052182465
-0.007163698 -0.0036720594 -0.0051429844 -0.0037861213 0.003246889 -0.0035889514 -0.0020244378 0.0009157331
0.013555796 -0.0021664877 0.011442391 0.0049264054 0.0014240891 0.0043925485 -0.004986489 -0.0055940044
0.002916532 -0.0057514524 -0.0050673885 -0.0061063366 -0.00020657676 -0.0010182017 0.0022399987 -0.000107936976
0.0010892844 0.0053618145 -0.0012093219 0.0007384076 0.0054481034 -0.0011123283 -0.0013915976 0.0049092313
0.0018209898 -0.0021561345 -0.0054921643 0.008113871 0.0037489822 -0.003465135 0.012304018 0.0069608795
-0.0024457688 0.0006462351 -0.0029257594 0.011083764 0.0029785533 7.890244e-06 0.003862075 0.001000508
-0.002075869 0.000633728 0.0006059085 -0.002824391 -0.004927669 -0.004042718 -0.0018303493 -0.00023727184
0.0003523666 -0.00047525283 0.0067580985 0.004754317 -0.0008700784 0.0031951265 -4.6439625e-05 -0.004399921
-0.003137508 0.018675901 0.003364903 0.006960933 -0.011040351 -0.0046098516 0.0008800529 -0.005142251
0.00017030453 0.008283314 -0.0015627858 -0.002706528 0.0037570877 -0.0017881327 -0.0058023646 -6.9153764e-05
-0.0026799678 -0.004094212 -0.0016426443 0.0021863892 -0.00616993 -0.00061705324 0.009693667 0.013296437
0.0067931386 -0.00076342304 -0.00022945179 -0.00476139 -0.0010526933 -0.0020713906 0.00039795705 -0.002782943
-0.006245549 -0.010494874 -0.004198392 -0.012309804 -0.013231823 0.012041259 0.016305579 0.0068443166
0.0107764825 0.015590882 0.021094235 0.015655749 0.0141936075 0.02191419 0.0069940705 0.0012981321
-7.5390904e-05 0.005140176 0.007747762 0.0048757484 -0.004053621 -0.0010184194 -0.00502047 -0.0045418357
2.0170613e-05 0.0021262094 -0.0021453376 0.00035595126 0.00066626474 0.0037034866 0.0060686674 0.007818129
0.0047114263 0.009630355 0.004308171 -0.0018284111 0.0020177716 0.0021248558 -0.0035462216 -5.1687693e-05
-0.0023606014 0.009368736 0.0032349748 0.00056626723 -0.00311051 0.0013613333 0.0006129496 0.00017242282
00000000: 0b8c 9ebb 52f9 38bb 1913 cabb 6cb9 f2ba
00000010: 9c46 ceba 775c 45bb 097f 923a 6b29 943b
00000020: 8ba0 16ba 80ed 393b e282 7b3b 76dd 46ba
00000030: bb46 113c 9813 2b3c 7a64 513b 51c5 db3b
00000040: 5b30 9c3c cfd7 2a3b 6368 823c 8070 823b
00000050: b362 4fbc 2b4b f83c 89b1 c23c 38b6 be3b
00000060: f824 c03c f567 ed3c b5c5 913b 693f dd3a
00000070: 0c16 203c f62d 403c bb43 313b 6101 e73b
00000080: a657 dd3a 3698 9fbb 7ca8 2fbc e8b6 88bc
00000090: 9df3 8a3b 00ab 1fbb 859d 3ebb a918 d638
000000a0: 5585 92bb 3f89 81bb 7b47 fd3b cebd 623b
000000b0: 925f aabb b7b5 12bb c157 8fbb 761d 10bb
000000c0: fb09 923b 733b 2d3b 08c2 6a3b f77a 11bb
000000d0: d75a af38 dc8a 023c da40 2c3c f4e6 6e3c
000000e0: 8be4 a93c 6a57 823b acf0 bdba 55d6 b33a
000000f0: ab57 a9bb e780 f1bb f603 34ba 6de6 7cbb
00000100: 36d2 363c dbef 37bc f953 f53b 52c3 d53c
00000110: cb35 3f3c 0954 413c 8867 7f3c 80b0 6e3b
00000120: 38be 363b b642 4d3b 19bf 9f3b 4f18 b839
00000130: 92cd f9b9 2321 f3ba 7de2 863b cbb2 20bb
00000140: b783 ffbb e28a ef3a 82a2 0d3a 9c95 d238
00000150: 2786 e93a b7e0 2d3a 6bbc 7c3b a75e 9b39
00000160: 290d 5cb9 90ca cfba 1f4f 973b 2732 973b
00000170: 3895 2e3c 494d 11bb af9d af3a 7190 083c
00000180: b7bf 4f3b fc71 deb9 bb15 1c3c 46ca 6f3b
00000190: ab0a 4c3b 8abc 173c 8693 983a 0d4f 603b
000001a0: 0c7e d03b a30f d53b 7aaa a43b 773b c33b
000001b0: 20e5 3e3b 5110 40ba 205d 033c d3fd aabb
000001c0: 74bd eabb efa6 70bb 7b86 a8bb 9320 78bb
000001d0: c2c9 543b 9d34 6bbb 6eac 04bb cf0d 703a
000001e0: 2119 5e3c a2fb 0dbb de78 3b3c af6d a13b
000001f0: 80a8 ba3a 5eef 8f3b b465 a3bb e94d b7bb
00000200: 4a23 3f3b ae76 bcbb 560c a6bb aa17 c8bb
00000210: 879c 58b9 2e75 85ba f1cc 123b 395c e2b8
00000220: 52c6 8e3a 29b2 af3b 1c82 9eba b291 413a
00000230: 0186 b23b 8bcb 91ba 4466 b6ba 9edd a03b
00000240: 47ae ee3a ef4d 0dbb 9df7 b3bb 0bf0 043c
00000250: 7cb1 753b 5217 63bb cb96 493c 1718 e43b
00000260: 3149 20bb 1a68 293a 19be 3fbb ad98 353c
00000270: d533 433b 5760 0437 de1a 7d3b 7a23 833a
00000280: 4d0b 08bb c420 263a d5d5 1e3a 6b19 39bb
00000290: 4978 a1bb c778 84bb 55e8 efba 2dcc 78b9
000002a0: d8bd b839 5b2b f9b9 0a73 dd3b 1aca 9b3b
000002b0: f915 64ba 5465 513b 2bc8 42b8 362d 90bb
000002c0: a69e 4dbb 34fe 983c b485 5c3b 8a18 e43b
000002d0: 97e2 34bc 3d0e 97bb 5ab3 663a 5480 a8bb
000002e0: c693 3239 bdb6 073c 64d6 ccba 0160 31bb
000002f0: 7939 763b c75f eaba c321 bebb a506 91b8
00000300: 66a2 2fbb bd28 86bb ff4d d7ba 8649 0f3b
00000310: 202d cabb bec1 21ba 30d2 1e3c 4dd9 593c
00000320: fa98 de3b 7420 48ba ff98 70b9 6f05 9cbb
00000330: 87fa 89ba 2bc0 07bb e4a4 d039 0962 36bb
00000340: 76a7 ccbb b1f2 2bbc aa92 89bb 0faf 49bc
00000350: 4aca 58bc b348 453c 4793 853c 4a46 e03b
00000360: d88f 303c e670 7f3c d1cd ac3c 7c40 803c
00000370: 4e8c 683c 6385 b33c 842e e53b 1626 aa3a
00000380: 2f1b 9eb8 ec6e a83b f0e0 fd3b bec4 9f3b
00000390: 3dd4 84bb 7c7c 85ba c182 a4bb aed3 94bb
000003a0: 1034 a937 e057 0b3b cb98 0cbb f89e ba39
000003b0: 45a8 2e3a 32b6 723b acdb c63b 9c17 003c
000003c0: 4f62 9a3b a3c8 1d3c 8f2b 8d3b 4ca7 efba
000003d0: 973c 043b 2a41 0b3b ba67 68bb 3dcb 58b8
000003e0: 52b4 1abb 547f 193c df01 543b 8d71 143a
000003f0: b3d9 4bbb c46e b23a 5aae 203a 66cc 3439

onnx::Conv_93 f4 [64]
-0.14954455 -0.44866908 -0.08710607 -0.0050447905 -0.170834 -0.071966514 0.0205682 -0.08272624
0.0030910466 -0.10540731 -0.023353167 -0.3232207 -0.05463902 0.16321641 -0.30824548 -0.22319926
-0.23132695 -0.027277058 0.15256473 -0.060821965 -0.1965703 -0.24003762 0.01696751 -0.10063425
0.63278013 -0.16556615 0.15210287 -0.083296165 -0.034522485 0.039153658 0.086329214 -0.25808027
0.014314949 -0.24480048 0.16933891 -0.48440123 -0.3559452 0.13365024 -0.3520526 -0.23682053
-0.22656614 -0.30106404 -0.008153205 0.38274473 0.21082036 0.42616856 0.15735713 -0.073134586
-0.16400608 0.005905826 -0.05372467 -0.32200605 0.79740554 -0.011559036 -0.05467918 -0.06905036
0.036612608 -0.17876492 0.10228771 -0.07255541 -0.046688158 -0.045252748 -0.26968217 0.022034805
00000000: 3522 19be f4b7 e5be ab64 b2bd c54e a5bb
00000010: 1cef 2ebe 2e63 93bd a47e a83c 606c a9bd
00000020: 2893 4a3b cadf d7bd 244f bfbc 2f7d a5be
00000030: 2acd 5fbd 3422 273e 5ad2 9dbe 598e 64be
00000040: f9e0 6cbe 2374 dfbc ee39 1c3e 7420 79bd
00000050: ba49 49be 6ccc 75be 73ff 8a3c 5419 cebd
00000060: e1fd 213f 2c8a 29be dbc0 1b3e 2e97 aabd
00000070: 7367 0dbd 965f 203d 5fcd b03d 1923 84be
00000080: 3f89 6a3c faac 7abe 2e67 2d3e 7003 f8be
00000090: 733e b6be 9cdb 083e 3d40 b4be 1581 72be
000000a0: f400 68be 1125 9abe 0595 05bc 1ef7 c33e
000000b0: 4be1 573e c432 da3e 3a22 213e 96c7 95bd
000000c0: 36f1 27be a985 c13b 660e 5cbd fadd a4be
000000d0: c522 4c3f 1c62 3dbc 47f7 5fbd 466a 8dbd
000000e0: 1af7 153d 270e 37be 387c d13d ee97 94bd
000000f0: 153c 3fbd f25a 39bd c813 8abe 5682 b43c

onnx::Conv_95 f4 [64, 64, 3, 3]
-0.0024667867 -0.031838052 -0.0005645414 -0.0015397866 -0.02872347 -0.007888237 -0.020397188 -0.026754206
-0.015188675 -0.0016607342 -0.0739859 0.06442992 -0.08517418 -0.098133445 -0.09713235 -0.0406729
-0.113097034 -0.122199915 -0.015385134 0.074741945 -0.13037656 -0.0019327279 0.038108274 -0.15360762
-0.064798534 -0.010332986 -0.1344305 -0.0062338663 -0.0032572479 -0.0005784341 -0.0072708204 -0.0031720523
-0.0013888552 -0.006640418 -0.004198434 -3.3860964e-05 0.1265147 0.10994108 0.005720099 -0.030375974
0.028923001 -0.08622663 0.056005083 0.052826196 -0.08419083 0.29975718 0.10324916 -0.035735432
0.2632237 -0.0012268458 -0.14361256 0.1603538 -0.123706326 -0.10468166 0.0067766556 0.018118747
0.040468726 -0.0013777283 0.018371731 0.053856526 -0.038513865 -0.004269711 -0.0021023066 -0.03430568
-0.03749282 -0.009447307 -0.023036689 -0.033441704 -0.03975667 -0.012412585 -0.05206706 -0.029351892
-0.09529009 -0.11107017 -0.12124811 -0.031657692 -0.06739247 -0.056907453 0.014500747 0.046829496
0.020432498 0.017147409 -0.027803453 -0.05093906 0.0032230099 -0.048767317 -0.06502841 0.006892776
-0.028123982 -0.061585356 -0.01613571 -0.032888502 0.088856064 -0.020352576 -0.03412999 0.115689635
0.0018040005 -0.0009617897 0.062773205 -0.043367185 0.063058 0.008531953 0.04690557 0.24970423
0.15075994 0.11965936 0.051346593 0.2550056 -0.0030868417 -0.01051914 -0.025908729 0.0044320105
0.0020392488 -0.0017306826 -0.011375272 0.000645648 -0.023126416 -0.011828631 -0.0034315041 -0.007087895
-0.03158359 0.0062364554 -0.015752183 0.07005356 0.05781006 0.008741313 -0.0155643085 0.029266665
0.024351228 0.019820929 -0.11190321 0.060120642 0.19719808 0.18836886 0.0759958 0.1415421
0.095733486 -0.017423179 0.030947257 0.08162045 0.024386277 -0.00058000424 0.02941369 -0.0031097915
-0.0070601557 -0.025092034 0.03147502 0.034817316 -0.025297968 0.042758506 0.015822476 0.022945715
0.009383476 -0.018212859 -0.04393808 0.05306958 -0.0074841552 0.0328829 0.0668832 0.024499971
-0.040941317 -0.008910724 -0.019817574 -0.007458517 0.03298351 -0.040409993 -0.025310013 -0.027367968
0.0017264029 -0.0040805372 0.110181935 -0.01549114 -0.025069388 0.006266101 0.012521678 0.009233766
-0.018944465 0.016279422 0.04396452 0.0011685151 0.04795507 0.020667503 0.03401588 -0.058186166
-0.19469862 -0.15399447 -0.09277949 -0.09938557 -0.05674445 -0.030521616 0.10872078 0.054704994
0.098124966 0.17106128 0.11732695 0.054136775 -0.01822401 0.14886944 0.07866932 0.068869606
-0.028019061 -0.017047983 0.08824755 -0.06239069 0.04326797 0.020343324 -0.065567665 -0.0892159
0.014513997 0.08535433 -0.0014619953 0.078619674 0.20860098 -0.00033339075 0.052670587 0.17726885
-0.14792962 -0.054753985 0.16225107 -0.23078084 -0.047751322 0.1407525 -0.11488774 0.09272711
0.13961278 -0.05523975 -0.05791593 -0.014419492 -0.07394027 -0.06723327 0.0045170393 -0.03543404
-0.0087916 0.021689363 -0.07598128 -0.023011504 0.08323081 0.014761512 -0.06563612 -0.000753535
-0.07646609 -0.091251604 -0.09025807 0.08938756 0.07742949 0.059128918 0.10874492 -0.037220452
-0.043661848 0.11317216 -0.06530531 -0.050825126 -0.012053794 0.043791223 0.10100021 -0.031580012
00000000: d0a9 21bb 9e68 02bd bbfd 13ba aad2 c9ba
00000010: 7c4d ebbc aa3d 01bc 0118 a7bc a32b dbbc
00000020: ecd9 78bc feac d9ba eb85 97bd d5f3 833d
00000030: cd6f aebd 30fa c8bd 53ed c6bd a098 26bd
00000040: 6b9f e7bd f343 fabd ee11 7cbc 4e12 993d
00000050: 6f81 05be 9653 fdba 6c17 1c3d 514b 1dbe
00000060: 18b5 84bd af4b 29bc 26a8 09be 7645 ccbb
00000070: 8d77 55bb 0ea2 17ba 1040 eebb 35e2 4fbb
00000080: 3f0a b6ba dd97 d9bb 0493 89bb ef05 0eb8
00000090: 128d 013e ca28 e13d ab6f bb3b 09d7 f8bc
000000a0: eeef ec3c 9697 b0bd 9665 653d 4860 583d
000000b0: 3e6c acbd c679 993e 4c74 d33d 515f 12bd
000000c0: 42c5 863e 1dce a0ba 2c0f 13be c933 243e
000000d0: be59 fdbd 5763 d6bd b50e de3b c46d 943c
000000e0: 89c2 253d e494 b4ba 5080 963c a998 5c3d
000000f0: b7c0 1dbd efe8 8bbb dac6 09bb 1d84 0cbd
00000100: 1292 19bd e1c8 1abc 70b7 bcbc 2bfa 08bd
00000110: e4d7 22bd 285e 4bbc 4544 55bd 6173 f0bc
00000120: 7327 c3bd c278 e3bd ee50 f8bd 7fab 01bd
00000130: 1005 8abd ca17 69bd 8b94 6d3c 49d0 3f3d
00000140: 0e62 a73c b978 8c3c 11c4 e3bc 7aa5 50bd
00000150: 2239 533b 3dc0 47bd 9d2d 85bd ccdc e13b
00000160: 4464 e6bc ed40 7cbd 092f 84bc 18b6 06bd
00000170: 2bfa b53d 72ba a6bc e3cb 0bbd b0ee ec3d
00000180: 3674 ec3a 9d20 7cba 3d8f 803d caa1 31bd
00000190: 8d24 813d 9bc9 0b3c 0e20 403d 77b2 7f3e
000001a0: d060 1a3e f70f f53d ce50 523d 1890 823e
000001b0: 9c4c 4abb 7958 2cbc 8b3e d4bc 663a 913b
000001c0: eba4 053b 12d8 e2ba 595f 3abc b440 293a
000001d0: 9c73 bdbc e0cc 41bc 16e3 60bb 9341 e8bb
000001e0: cb5d 01bd 2e5b cc3b b90a 81bc 3e78 8f3d
000001f0: 3eca 6c3d b937 0f3c 7101 7fbc a5c0 ef3c
00000200: 3a7c c73c 805f a23c 832d e5bd 1041 763d
00000210: 4bee 493e c4e3 403e b0a3 9b3d 6af0 103e
00000220: eb0f c43d 0ebb 8ebc 1a85 fd3c 9f28 a73d
00000230: bbc5 c73c 6d0b 18ba fbf4 f03c a5cd 4bbb
00000240: e158 e7bb cf8d cdbc f3eb 003d 9a9c 0e3d
00000250: af3d cfbc 8b23 2f3d 239e 813c a7f8 bb3c
00000260: 27bd 193c 2233 95bc 6bf8 33bd 7d5f 593d
00000270: a53d f5bb 38b0 063d 0ffa 883d 2ab4 c83c
00000280: 15b2 27bd 49fe 11bc 7758 a2bc 9366 f4bb
00000290: b819 073d f384 25bd f256 cfbc ca32 e0bc
000002a0: 7848 e23a 07b6 85bb 11a7 e13d 8dce 7dbc
000002b0: 515e cdbc dd53 cd3b b927 4d3c 3949 173c
000002c0: 6c31 9bbc 6c5c 853c 2414 343d dc28 993a
000002d0: 896c 443d e54e a93c 3c54 0b3d 9e54 6ebd
000002e0: 135f 47be bab0 1dbe 2c03 bebd a98a cbbd
000002f0: de6c 68bd 7808 fabc 00a9 de3d 5812 603d
00000300: bef5 c83d b02a 2f3e 1d49 f03d 86be 5d3d
00000310: 854a 95bc 3b71 183e 611d a13d 820b 8d3d
00000320: 3b88 e5bc 36a8 8bbc 22bb b43d 618d 7fbd
00000330: c139 313d 0ba7 a63c 5748 86bd d3b6 b6bd
00000340: 1ecc 6d3c 40ce ae3d 6ca0 bfba 5a03 a13d
00000350: 7f9b 553e f3ca aeb9 1dbd 573d f785 353e
00000360: dd7a 17be b745 60bd 2525 263e d051 6cbe
00000370: e496 43bd 6c21 103e 434a ebbd b6e7 bd3d
00000380: a7f6 0e3e 1343 62bd 4139 6dbd bc3f 6cbc
00000390: ff6d 97bd 99b1 89bd ac03 943b 4923 11bd
000003a0: a50a 10bc e4ad b13c 139c 9bbd 9f82 bcbc
000003b0: ea74 aa3d 45da 713c 3b6c 86bd e188 45ba
000003c0: 419a 9cbd 1fe2 babd 39d9 b8bd d310 b73d
000003d0: 5a93 9e3d 2a31 723d a8b5 de3d 7974 18bd
000003e0: c4d6 32bd cec6 e73d cabe 85bd 022e 50bd
000003f0: 477d 45bc 6d5e 333d 33d9 ce3d 0b5a 01bd
