model/cacto.onnx (onnx, 302121 bytes, 16 tensors)

fc.weight f4 [2, 256]
000000 3b c6 be bd 58 3d fa bc 9f 64 12 be 04 86 b8 bd
       -0.09315153 -0.03054683 -0.14296196 -0.090099365
000010 ff e2 08 be 24 cf 0b be 97 7f 93 bd fb 60 6e bd
       -0.13367842 -0.13653237 -0.0720207 -0.058197957
000020 bd 2d 73 bd 36 d5 1c bd 97 74 8e bb d1 0f 67 3d
       -0.05936979 -0.03828927 -0.0043473947 0.056411568
000030 40 f7 9b 39 da cf bc 3a d9 48 13 bb 67 81 d0 ba
       0.0002974812 0.0014405206 -0.002247384 -0.0015907706
000040 94 0c 45 3a 01 6b 0a bc 62 1f 5d 3d ab 2e 70 3d
       0.0007516828 -0.008448363 0.053985007 0.058638256
000050 a9 e1 65 3d 9f ef 29 3e 44 f1 22 3d b3 58 a5 3d
       0.05612341 0.16595314 0.03978087 0.08073559
000060 f6 ca 59 3d a2 11 1d bd d6 b1 eb 3c a6 b8 81 bd
       0.053172074 -0.038346894 0.028771322 -0.06334047
000070 25 2d 0a bd 8e 48 aa bd 12 de 50 3d 4c d7 13 3d
       -0.03373446 -0.0831462 0.050993033 0.036093995
000080 1c e4 8e bd 14 b3 9a bd 59 76 85 3d a4 d5 94 3d
       -0.06977102 -0.07553688 0.06516714 0.07267311
000090 7f b2 00 be 80 ef 01 be 63 40 7b 3d ea 7c 9e 3d
       -0.12568091 -0.12689018 0.0613407 0.07738669
0000a0 7b a1 bb bd 26 e5 f4 bd 22 9f 97 3d 15 87 aa 3d
       -0.09161659 -0.11957769 0.07403399 0.08326546
0000b0 62 0d 75 3c 8c d6 a1 bc a5 45 98 3c c8 38 fd bc
       0.014956804 -0.019755624 0.018587897 -0.030910864
0000c0 7e b4 a5 bc a4 cb b1 bd c4 2f b4 3d 13 d5 fe 3b
       -0.020227667 -0.086814195 0.08798173 0.0077768653
0000d0 6d dc 38 3e ee 42 35 3e 09 3f df 3d 1b 01 ff 3d
       0.18052836 0.17701313 0.10900695 0.12451383
0000e0 6b 3b 9f 3d 36 72 37 3d 27 f6 07 3e e2 06 10 3e
       0.07775005 0.044786654 0.13277493 0.14065126
0000f0 19 29 25 bd fc f6 f3 ba 01 43 7a bd 99 ad c9 bb
       -0.040322397 -0.0018613036 -0.061099056 -0.0061547277
000100 67 a5 a9 3c 18 67 1f 3d 15 fd a1 bd 0e 70 7f bd
       0.020708753 0.038916677 -0.079096 -0.062362723
000110 b7 5a a9 bd 16 c7 c9 bd 6f 6d 29 3d 58 25 08 3d
       -0.082692556 -0.09852426 0.04136413 0.03323874
000120 32 ed 5e 3d f6 f4 6c 3d 07 c5 6c 3c 66 7a cf 3c
       0.054425426 0.0578508 0.014451272 0.025326919
000130 ca 6a a6 bd d8 12 94 bd 1c b4 b3 bd 9b b4 1c bd
       -0.08125837 -0.07230157 -0.087745875 -0.038258176
000140 e0 66 56 b9 20 0f 4f 39 e8 71 0a ba 49 0e 4d b8
       -0.00020446954 0.00019746693 -0.00052812556 -4.8889113e-05
000150 4b 37 a7 bb 22 34 76 bb 0f c9 7c 3b a9 b2 38 3b
       -0.005103027 -0.0037567695 0.0038571989 0.0028182662
000160 63 a1 fd 3d 28 38 1a be 86 17 dc 3d f2 69 e9 bd
       0.12384298 -0.15060484 0.10746674 -0.113971606
000170 23 47 ab 3b 32 36 34 be 1e fe 3b 3d a3 83 1f be
       0.005226986 -0.17598799 0.045896642 -0.15577559
000180 b3 24 c6 bc 76 7d 5f bd 72 0b 8e bc 64 b7 cb bc
       -0.024187421 -0.05456301 -0.017339442 -0.02486772
000190 80 a4 81 bc ca ad cf bc 36 aa 24 3c 82 12 90 3c
       -0.01582551 -0.025351424 0.010050347 0.01758695
0001a0 76 4f 7d 38 68 7a d9 38 99 f0 01 b8 16 c6 89 b7
       6.0393904e-05 0.00010370166 -3.098007e-05 -1.6423914e-05
0001b0 4d e9 eb bc 0c 6b 80 bd c9 1a 88 3d 82 2e 71 bc
       -0.02879777 -0.062704176 0.06645734 -0.014720561
0001c0 cb cb c1 3c 33 a3 81 3c 1c ec 0f 3b 0c 52 7b bc
       0.023656746 0.01582489 0.00219608 -0.015339386
0001d0 37 8f 01 be 94 5a 2e be 29 ec fe 3c 2b 94 b7 bc
       -0.12652288 -0.1702674 0.03111847 -0.02240952
0001e0 5f 4e 5c 3d 2b 1a 9a bd 16 b1 6d 3d 9a cc aa bd
       0.053785678 -0.075245224 0.05803021 -0.08339806
0001f0 ee ad 83 bd de f8 7c bd a3 9a 2e 3d 04 c0 1d 3d
       -0.06429659 -0.061760776 0.04262794 0.0385132
000200 d4 a6 0b 3d 1b bd 12 bd e0 1d 6b 3c 81 21 27 bd
       0.034094647 -0.035824876 0.0143503845 -0.040803436
000210 ce 31 a2 3c d6 53 db 3d 8e 1f 2e 3d 70 56 b2 3d
       0.01979914 0.1070935 0.04251056 0.08707893
000220 72 2a 31 3e e3 7b ad 3d a5 87 f4 3d f4 fa 0d 3b
       0.17301348 0.08470895 0.11939935 0.0021664472
000230 f1 de 24 3e c7 79 22 3e 31 71 d3 3c b4 e9 ce 3d
       0.1610067 0.15866767 0.02581081 0.10103169
000240 fb 4c 8e 35 1f 04 c3 36 0b a1 f1 37 c3 54 ce b6
       1.0602229e-06 5.8119326e-06 2.880443e-05 -6.149146e-06
000250 fd 91 ca 3a b6 28 10 3b fa 5c 66 bb 1b 86 5a bb
       0.0015454885 0.0021996922 -0.0035150633 -0.0033344093
000260 4e 23 5e bd b3 3c af bc e4 86 b6 3c 73 e5 46 3d
       -0.054232888 -0.021391248 0.022281118 0.048558664
000270 6f 1f d9 3d af 7c 76 3a ac 3a bc 3d ce 52 05 bd
       0.106016986 0.00094027346 0.09190878 -0.03254967
000280 3b 59 12 3e 81 a6 1d 3e 2c 1c 05 3e 9c 58 f9 3d
       0.14291851 0.15395547 0.12999028 0.12175104
000290 40 18 ea 3d 2e 15 99 bc f2 8b be 3d 43 77 a8 bd
       0.114304066 -0.018686857 0.09304036 -0.08225872
0002a0 c6 99 40 be 4d 7c 30 be 8a 18 96 3c 3b c2 af 3c
       -0.1880866 -0.17234917 0.018322248 0.021454921
0002b0 11 a5 0f 37 7c 0d 97 b6 74 64 01 b6 c8 0f 88 b6
       8.561897e-06 -4.5017205e-06 -1.928097e-06 -4.054953e-06
0002c0 ef 02 1d 3e 9e 13 c9 3d 46 cc fb 3d c3 50 fb 3d
       0.1533315 0.09818195 0.122948214 0.122712635
0002d0 75 e6 b0 bc 22 13 16 3c d0 2e b4 bc 4f 36 26 3c
       -0.021594265 0.009159835 -0.021994978 0.010144784
0002e0 ee 9a bf bd 0a 54 95 bc 7b 35 23 be df 7a de bd
       -0.09355722 -0.01822855 -0.1593837 -0.108632796
0002f0 97 79 28 bd a6 d4 7e bd 88 4c 3a 3d b6 10 55 3d
       -0.041131582 -0.062214516 0.045483142 0.05201789
000300 0e 8b ff b9 ae d4 02 3a 79 01 a7 b9 d0 22 13 39
       -0.00048740994 0.0004990798 -0.0003185382 0.00014031981
000310 d4 e4 81 3d 49 d1 a2 3d 6b 39 0e bc 4d 18 e4 bb
       0.063424736 0.07950074 -0.008680682 -0.0069609047
000320 19 2f b6 3c 6b b8 88 bb c0 24 10 3e df 9e 19 3e
       0.022239255 -0.004172375 0.14076519 0.15002011
000330 07 14 b3 3d f9 ff 9c 3d a3 62 64 3c c6 5e c3 3c
       0.08744054 0.076660104 0.013939532 0.023848902
000340 bf 97 fa bc a3 64 ff bd 7c a7 31 bd 95 5a 7b bd
       -0.030589936 -0.12470367 -0.043372616 -0.061365683
000350 1e 47 a3 3d d3 4d 9b 3d d0 a5 2c 3d 20 47 f2 3d
       0.07972549 0.07583203 0.04215032 0.11829972
000360 e7 a8 9e bb 92 3f 07 be a4 ee 9c bd 83 92 0b be
       -0.004841912 -0.13207844 -0.076627046 -0.13630109
000370 bc c2 48 bc ae 13 08 bd 7b c6 18 3d 8e 9a a3 3b
       -0.01225346 -0.033221893 0.03729866 0.0049927896
000380 2d d6 aa 3c 91 1f af bc 8e 7d 53 3b bd b2 5d bc
       0.02085408 -0.021377357 0.0032270881 -0.013531384
000390 3e 09 8f bd 22 7c 3e 3d fc 66 f5 bd f3 d9 40 bd
       -0.06984185 0.0465051 -0.11982533 -0.047082853
0003a0 48 69 e0 bc 4f ef 6e bd 9c ab 40 3d 22 80 a3 3b
       -0.027393952 -0.05833369 0.04703866 0.00498964
0003b0 a9 5e 82 bc 36 54 52 ba 2f ef 93 bb e5 42 63 3b
       -0.015914278 -0.00080234127 -0.004514597 0.0034677323
0003c0 28 9f 85 bd f1 6e 40 bd e3 c7 29 3d 14 24 65 3d
       -0.06524497 -0.046980802 0.041450392 0.05594261
0003d0 48 a1 cf 3d 69 16 7d bd 85 fe 7c 3d 78 2b 02 be
       0.10138184 -0.06178895 0.061766166 -0.12711895
0003e0 2d 1c 09 3d e3 7a 21 be 68 59 2d 3d b9 9f fe bd
       0.033474136 -0.15769534 0.042321593 -0.124328084
0003f0 67 a3 33 bd 24 e9 a8 bd 55 25 01 be e8 f4 0b be
       -0.043857004 -0.08247593 -0.12611897 -0.13667643

fc.bias f4 [2]
000000 65 35 54 ba 64 e3 94 3d
       -0.00080951146 0.07269934

onnx::Conv_80 f4 [16, 3, 7, 7]
000000 4b bf e7 3b af ce 04 be f9 a4 ed 3c 64 3a 05 3e
       0.0070723644 -0.12969469 0.02900933 0.13010556
000010 4c 4f d4 bc 41 43 e8 3d b6 b5 df bc fd a1 cb bd
       -0.025916718 0.11340953 -0.027308326 -0.09943006
000020 69 06 b0 bd 14 51 44 3e 6a 67 3c 3e cb 8a 1d 3d
       -0.08594973 0.19171554 0.18398824 0.03846244
000030 43 b2 3f bd 59 32 79 3d 1c 06 95 bd 42 bf c7 3d
       -0.046800863 0.06083903 -0.07276556 0.097532764
000040 57 29 df 3d b1 a6 db bd 53 f8 2e 3e bc fa 3b 3e
       0.10896557 -0.10725153 0.17086916 0.18357366
000050 02 52 3e 3e f9 29 f6 3d 59 7e 57 3d 01 68 28 3d
       0.18585971 0.120197244 0.05261073 0.04111481
000060 cd f7 35 bd 29 bf 86 3c 95 db 1e 3e 62 49 5f 3e
       -0.044425774 0.016448574 0.15513451 0.21805337
000070 9b 74 60 3d d3 74 d1 bd 0b 48 92 3d f4 87 54 bd
       0.054798704 -0.102273606 0.07142647 -0.051887468
000080 2b ed 17 3e 06 f2 39 3e b7 9c 35 3e f3 34 ed bc
       0.14836566 0.18158731 0.17735563 -0.028955912
000090 77 66 21 bd 01 67 d3 3d 5f bb 8a bd 6e 56 18 bd
       -0.03940436 0.10322381 -0.067740194 -0.0371918
0000a0 22 44 b4 bc f4 2c 01 3e 1d 71 9a bc 18 9b 8d 3d
       -0.022005145 0.12614805 -0.018852765 0.069143474
0000b0 02 ed ec bd 6e f8 a8 bd bc 42 4b bd e8 53 c6 bb
       -0.11568643 -0.08250509 -0.04962419 -0.006052483
0000c0 32 8e c4 3d 84 f7 99 3d 85 a9 df bd b8 3d 08 be
       0.09597434 0.07517913 -0.10921005 -0.13304794
0000d0 b6 0b f8 bb 1a 07 00 be 8f a6 f1 bd 44 dd 27 be
       -0.0075697554 -0.12502709 -0.11799347 -0.16393
0000e0 d4 5d 73 be 3c ca 59 be 91 b2 9c bc 09 4c 65 be
       -0.23766261 -0.21268553 -0.019128116 -0.22392286
0000f0 fd 67 6d bd 1f 27 7d be fa c1 ac bc bf 48 40 be
       -0.0579605 -0.24721955 -0.021088589 -0.1877775
000100 f9 b5 54 be 6d 81 8b be 5e 07 41 be 53 4c 6d be
       -0.20772542 -0.27247182 -0.18850467 -0.23173647
000110 2b 23 50 be b3 c2 18 bc d4 bb cf bd 08 1d 5c be
       -0.20325916 -0.009323764 -0.10143247 -0.2149545
000120 85 b7 eb bd 41 56 3a be db a0 e7 bd 26 89 68 3d
       -0.11509613 -0.18196966 -0.113099776 0.05677142
000130 b4 ad 2e bd db f8 69 bc d8 ac a5 bd 08 30 26 be
       -0.042646125 -0.014280523 -0.08089608 -0.1622926
000140 75 b2 5b 3d 27 56 0a 3e 66 ac 2a 3c d6 d4 ab 3d
       0.053636987 0.13509427 0.01041708 0.083902046
000150 d6 8c 55 3d 24 bc e6 bd 1a 21 91 bd 9d 47 19 bd
       0.052136265 -0.11266354 -0.07086392 -0.03742181
000160 9c de a0 bd f5 ad e0 bc 94 44 ff bc eb d6 d7 bc
       -0.07854959 -0.0274267 -0.03116063 -0.026347598
000170 99 b0 a4 bc 50 51 8a bd 5a 2e 2a 3c b2 b3 c5 3d
       -0.02010374 -0.067537904 0.010387028 0.09653415
000180 f0 de 18 3e e5 07 28 3e d6 9a 7a 3c 95 a6 13 3d
       0.14928794 0.16409262 0.015295705 0.036047537
000190 79 ca 69 3d b2 3b 27 3e e2 bc 1f 3d 5d 90 99 bd
       0.05707786 0.16331366 0.038998492 -0.07498238
0001a0 fc 04 d9 3d 2d 26 6a bd 71 ba db bc 7f 51 c0 bc
       0.10596654 -0.057165314 -0.0268223 -0.02347636
0001b0 e3 36 66 3d 6c e4 e1 3b 9d 1b b0 bd 46 3e 06 be
       0.056204688 0.006893685 -0.08599017 -0.13109693
0001c0 8d db e7 bd 22 9a 61 bd 11 78 07 be 9d 6c 20 be
       -0.11321173 -0.055078633 -0.13229395 -0.15666433
0001d0 2c 89 6a 3d b1 a1 d4 3d 08 d6 bd bb 45 5b a8 bb
       0.057259724 0.10382403 -0.005793337 -0.0051378333
0001e0 38 03 30 3c 34 74 76 bd e7 73 34 3c a0 8a 94 3d
       0.010742955 -0.060169414 0.011013961 0.07253003
0001f0 11 db 06 3e 16 37 96 3e 43 7a b8 3c d0 0b 29 3d
       0.13169505 0.29338902 0.022519236 0.04127103
000200 32 03 b8 3c 80 36 9a 3d 6b b8 13 3e 68 48 52 3e
       0.022462461 0.07529926 0.14425819 0.20535433
000210 fb d8 76 3e 1c 3b d8 3d 3d e6 13 be 30 d2 06 be
       0.24106209 0.10558149 -0.14443298 -0.13166118
000220 e6 24 fc 3d 2f e1 2e bc 6b 46 cb bc fb 16 db 3d
       0.12311725 -0.010673805 -0.024813851 0.106977426
000230 d8 7c 19 3c 27 a1 8e 3d de 60 9d 3c 66 c1 c2 bd
       0.009368144 0.06964331 0.019211229 -0.09509544
000240 23 aa b6 3c 3d 10 e7 3d f6 ef 35 3e 16 74 13 3d
       0.022297924 0.11282394 0.17767319 0.03599938
000250 bc 34 a5 bc 72 0c 78 3d 9e 06 67 bc f7 22 a7 3c
       -0.020166747 0.060558744 -0.014100699 0.020402415
000260 b2 98 36 bd 98 26 13 bd a4 db 41 bd 6a cd 76 bd
       -0.044579215 -0.035925478 -0.047328606 -0.060254492
000270 65 10 58 bd 2d e1 fa bb e7 9b 2a 3d af 9f 64 3d
       -0.05275001 -0.0076562376 0.041652586 0.05581635
000280 0d 34 c5 3c ba db 37 bb 59 36 15 be d2 43 67 bd
       0.024072671 -0.0028054551 -0.14571513 -0.056461163
000290 39 43 ae bc d9 37 b3 3c be 86 f1 3c 1d 7e 1f 3d
       -0.021272289 0.021877216 0.029483195 0.03893863
0002a0 77 93 5c 3d 11 c5 83 bd 62 5a d0 bd 95 5d 0b be
       0.05385157 -0.06434072 -0.10173489 -0.13609917
0002b0 1e 62 a2 bd c5 ce 54 3d 99 a4 17 3d 22 f5 05 3c
       -0.079288706 0.051955003 0.037022207 0.00817612
0002c0 86 39 1d bd ab b6 2f bd cf 99 65 bc da 94 bf 3b
       -0.038384937 -0.042898815 -0.014013722 0.005846602
0002d0 e5 f8 86 3d 66 fd d6 3a 35 b4 cb bd 34 ef 39 be
       0.065904416 0.0016402423 -0.09946481 -0.18157655
0002e0 5b 56 78 be 6b e5 6c be e9 13 1e be 08 27 e1 bd
       -0.24251692 -0.23134391 -0.15437283 -0.10993773
0002f0 37 18 27 be 15 3d 15 be 07 33 3e be 11 20 be bd
       -0.16317831 -0.14574082 -0.18574153 -0.0928346
000300 bf f3 56 be 5d 3a 01 be 9e 1b 45 be f6 64 fc 3c
       -0.2099142 -0.1261992 -0.19248816 0.03080986
000310 b7 78 6f bc 4a 90 7e 3c 10 6c 0d 3d 9c b0 97 bd
       -0.014616183 0.015537331 0.034526885 -0.074067324
000320 9e fa 61 3c 5a 6b cb bd 67 7e f0 bd ce 27 38 bd
       0.013792662 -0.09932585 -0.11742859 -0.044959836
000330 59 50 5f 3d 6f d7 8f 3d 0b 15 ff 3d 2d 67 7c 3d
       0.054519985 0.070235126 0.124551855 0.061621834
000340 46 d5 5b 3d c1 f5 0a bd a2 15 24 bd 12 eb bb 3c
       0.05367019 -0.033925775 -0.040059693 0.022939239
000350 fd af 7c bc 51 a5 68 3d 9b 5f a1 3d b9 36 cf 3d
       -0.015422818 0.056798283 0.078795634 0.101178594
000360 d3 3d 10 bd 72 ac 57 bd 0f 03 95 bd 09 98 41 bd
       -0.03521521 -0.05265469 -0.07275974 -0.047264133
000370 e9 9c 85 3d 74 2d 60 3d c3 6f 00 3e 28 06 ce 3c
       0.06524069 0.054730847 0.12542634 0.02514942
000380 f6 96 c9 3c 59 3c eb 3c 32 f6 87 bd 8b 3a af 3b
       0.024608117 0.0287153 -0.06638755 0.005347555
000390 3f 54 2e 3d 66 6b f6 3d 0c 82 d7 3d 40 30 fe bc
       0.042560812 0.120322034 0.10522851 -0.031028867
0003a0 d9 64 05 3d 17 dc 88 3d e7 17 7e 3d 7a d6 9b bd
       0.03256688 0.06682604 0.062034514 -0.076092675
0003b0 df 8b da bc 85 31 b2 3d 40 f6 e3 3c 21 a3 a3 bd
       -0.026678024 0.08700851 0.027827382 -0.07990099
0003c0 bd ad 1a be 44 2a 6e bd 02 61 9f 3d 5a 1f a1 ba
       -0.15105338 -0.058145776 0.07782175 -0.0012292669
0003d0 fc 2a b5 bd a2 94 8b bd 2e de 7f 3d 46 fd 0d bd
       -0.08846089 -0.06815459 0.062467746 -0.03466537
0003e0 0e 0b 0e 3e 43 bd e7 3d 00 62 a1 3d b2 e6 9c bc
       0.13871405 0.11315396 0.0788002 -0.019152973
0003f0 d3 b8 a7 bd 98 69 56 3d f4 3a e9 3d df 6c 09 3e
       -0.08189549 0.052346796 0.113881975 0.13420437

onnx::Conv_81 f4 [16]
000000 a8 da d4 3d b6 cb 35 be f5 d1 c7 be 0a 49 3b bf
       0.10393268 -0.17753491 -0.39027372 -0.73158324
000010 28 54 54 bf 04 6a 18 bf 7b ab a7 3f f3 54 8a be
       -0.8294091 -0.59536767 1.3099207 -0.27017936
000020 12 e8 fb be ee 47 00 bf 84 25 84 3f 49 09 08 3f
       -0.49200493 -0.50109756 1.0323949 0.5313917
000030 52 2d 4b be 79 d7 ef 3e 18 cd 88 bf 6f de 62 be
       -0.19841507 0.4684408 -1.068759 -0.22155164

onnx::Conv_83 f4 [32, 16, 3, 3]
000000 14 51 17 bb f5 b3 a5 bc f9 17 32 3c e1 c2 57 bc
       -0.0023089098 -0.020227412 0.010869973 -0.013169021
000010 51 6c 43 bd 44 a1 fe bc 6b 55 dd bc a2 fb e0 bc
       -0.04771072 -0.031082757 -0.02701827 -0.027463738
000020 c8 2e a3 bc b4 90 61 3d ac 7d b2 3d b8 03 00 3d
       -0.019919768 0.05506964 0.08715376 0.031253546
000030 ea c1 4e 3c be e0 cb 3c 3f 1d 17 3d 14 61 1e bd
       0.012619475 0.024887439 0.036893126 -0.0386668
000040 14 c5 38 3d 2d f6 6b 3c 99 c6 82 3b 5b c6 13 3b
       0.045109823 0.014401955 0.00399096 0.002254865
000050 a9 91 94 ba a7 fb ef 3b f7 75 e8 3a a2 c2 1d ba
       -0.0011334914 0.0073237005 0.0017735352 -0.0006018077
000060 8d af 98 3b 07 74 3c 3b d1 d0 3f 3b 34 dc ae bc
       0.004659599 0.002875568 0.0029268751 -0.021345235
000070 42 9f 34 ba bb ac 45 3a cc 17 af bc f7 7b 23 bc
       -0.00068901863 0.00075406925 -0.021373652 -0.009978286
000080 a3 e2 74 3c e8 99 95 bc ec 10 d5 bb 41 c7 ec 3b
       0.0149466125 -0.018261865 -0.0065022614 0.0072259014
000090 41 6b 93 3c 1a 32 a8 3c c0 a6 f1 3c 27 f4 7c ba
       0.017995479 0.020531703 0.029498458 -0.00096494186
0000a0 32 e1 19 3d 1a 8f 51 3b 25 be 3e bc aa fa d5 bb
       0.03756828 0.0031976164 -0.011642014 -0.0065301256
0000b0 e4 66 67 3c b4 d6 22 3c 91 79 6f 3c 06 72 c9 3b
       0.014123652 0.0099388845 0.014616386 0.006147626
0000c0 5a 36 ab 3b a4 b1 64 3c 3c 5f 5c 3c fb 7c 1c bb
       0.005224985 0.013958368 0.01345044 -0.0023878205
0000d0 af 0c fb 3b 58 eb 64 3c 9f 61 95 3c 5b 2a 0b 3c
       0.007661424 0.013972126 0.018235026 0.008493985
0000e0 a1 1b 6b 3d 43 17 15 bd e6 d0 f6 3b b1 a4 db 3c
       0.057399396 -0.036399137 0.007532227 0.02681193
0000f0 41 db 74 bd a3 a2 1f bd 62 19 07 bc 8a a8 cf bc
       -0.05977941 -0.03897346 -0.008245798 -0.02534892
000100 ac c3 8c 3a 3e d3 0e bc 0c 61 98 bc 07 c2 03 bc
       0.0010739467 -0.008717356 -0.018600963 -0.008041865
000110 c2 ff da 39 15 a3 89 bc d1 87 93 bb a5 72 12 b9
       0.00041770755 -0.016801396 -0.0045022746 -0.00013966353
000120 7d 52 10 bd f4 1f 58 3d 82 2b 8e 3c 9c 41 8f bc
       -0.035234917 0.052764848 0.01735473 -0.01748734
000130 98 71 35 3b a8 da 19 3c 88 34 df bc 14 c0 ae 3c
       0.0027686115 0.009390511 -0.027246729 0.021331824
000140 1d 60 a3 3c 90 4d ad 3c 3a ce df bc 12 87 d9 3c
       0.019943291 0.021155149 -0.027320016 0.026553664
000150 f4 80 a1 bc b7 47 07 bd 56 a2 85 3d d5 61 d9 bc
       -0.01971481 -0.033027377 0.06525104 -0.026535908
000160 b2 d9 39 bd c5 f6 13 bb 83 28 78 3c 86 22 5b 3c
       -0.045373626 -0.0022577506 0.0151463775 0.01337493
000170 0f 1f 99 3c 34 33 55 3d f2 73 85 3d 17 c9 55 3d
       0.018691568 0.052050784 0.065162554 0.052193727
000180 8c c7 19 3d dc 65 84 3d de 86 50 3d c2 26 85 3c
       0.03754382 0.06464741 0.05090987 0.016253833
000190 4a fd 1e 3d 76 6b 03 3d 8c 3b e5 bc d4 b7 19 bd
       0.038815774 0.032084905 -0.027982496 -0.037528828
0001a0 b2 47 2f bc 02 08 b6 bc 01 b2 39 bd 22 ec d5 bc
       -0.010698246 -0.022220615 -0.045335773 -0.026113573
0001b0 42 6f ee 3c 25 7e 23 3d a5 15 87 3a 55 44 f1 3b
       0.029105786 0.039915223 0.0010306133 0.007362882
0001c0 a5 2e 9f 3c 24 0e 81 bc 92 44 ec 3b 15 6b b4 3c
       0.019431422 -0.015753813 0.0072103227 0.022023717
0001d0 f5 2a 6a bc 13 31 cf 3b c9 cf a5 3d 22 95 c6 3d
       -0.014292468 0.006322989 0.080962725 0.096964136
0001e0 ff d0 81 bd 24 8c 59 3b 96 07 0a 3d 4a 01 72 bd
       -0.06338691 0.0033195103 0.03369864 -0.05908326
0001f0 8f f0 f5 3c 9b 59 81 3d 49 64 b5 bb 3a e6 0f bc
       0.030021934 0.06315919 -0.0055356366 -0.008782918
000200 f8 b3 9a 3c 56 74 0d bc 7d 45 1b 3b 8e 24 f7 3c
       0.018884644 -0.008633694 0.0023692541 0.030168798
000210 b2 2b da bc 4c 43 50 bc b5 e7 c4 3c c3 fe 1f bd
       -0.026632164 -0.012711357 0.024036268 -0.03906132
000220 44 24 97 b9 f8 37 d3 3b 75 9f 12 bd 23 4d 17 bd
       -0.00028827984 0.006445881 -0.0357966 -0.036938798
000230 e1 c5 75 bb ea 40 38 3c ef 0d 0d 3c 06 fc 36 3d
       -0.0037501978 0.0112459455 0.008609279 0.044673942
000240 15 67 ea bc 4f 75 4b 3d f1 24 03 3d dc ef 01 bd
       -0.028613606 0.04967242 0.032017652 -0.03172289
000250 34 82 23 bd c6 ae c0 3c 4c 46 ee bc cc 84 cc bc
       -0.039919093 0.023520838 -0.029086255 -0.024965666
000260 b0 ea 89 bc 75 c5 f3 bc 13 ed 1b 3d 54 16 ea 3c
       -0.01683554 -0.02975724 0.03806789 0.0285751
000270 fc b3 86 bd d5 31 15 3d 62 4c a0 3d a8 c6 9f bd
       -0.06577298 0.036424477 0.07827069 -0.078015625
000280 4b ea 21 bd d9 66 ed 3c 5c 90 ae b9 72 26 6c 3a
       -0.03953008 0.028979706 -0.00033295422 0.00090084143
000290 89 6f d1 3b 4c 0d 8b bb 59 0f 02 3c 3d 40 91 3c
       0.00639147 -0.0042435285 0.0079382295 0.017730827
0002a0 6f e3 fd bb 2d ec 3a bb 8c d5 70 3c cd 17 18 bd
       -0.0077480595 -0.002852212 0.014699351 -0.037132073
0002b0 47 5f 95 3b 77 0c 0a 3d d7 bb ee bc bd 1f 89 bb
       0.004558477 0.033703294 -0.029142303 -0.0041846917
0002c0 86 8c 85 3d 59 76 f6 bc 4b c0 73 bc 62 e2 8a 3c
       0.06520943 -0.03008573 -0.014877389 0.01695365
0002d0 1c 55 f9 bc e0 ca fe bc c8 ac c3 3c 78 64 a3 bd
       -0.030436091 -0.031102598 0.0238861 -0.07978147
0002e0 b0 1e b2 bb b6 78 71 bb 8f cb 6b 3c 13 8b 7f 3c
       -0.005435787 -0.003684563 0.014391794 0.015597123
0002f0 45 87 46 3c bb f3 42 bb 3b a9 a8 3b a2 21 fe 3c
       0.012117212 -0.0029747325 0.005147127 0.031021897
000300 03 f2 b0 3b 0b ce 62 3a 71 e2 08 3d 67 fc b5 bc
       0.005399944 0.00086519186 0.033419076 -0.022215081
000310 98 08 f8 3b bf 61 f9 3b f8 b8 8a bc ef 0a bd bc
       0.007569384 0.007610529 -0.016933903 -0.023076503
000320 32 c8 de bc 09 20 aa 3d c8 44 9e 3a 58 7c 3c 3b
       -0.02719507 0.083068915 0.0012074942 0.0028760638
000330 cd 7b b4 3d 38 b9 18 bd d1 e2 e4 bb d6 9b 26 bc
       0.088126756 -0.037286013 -0.0069850464 -0.01016899
000340 4b d1 84 bc b3 c5 9a 3c 29 7c cd bb 36 be 92 3c
       -0.01621308 0.018893098 -0.0062709046 0.017912965
000350 0a d0 20 3d 75 68 7d 3c 11 13 e2 3b b3 98 1c 3d
       0.0392609 0.015466799 0.0068992455 0.038231563
000360 50 dd 8e 3c 27 09 f8 bc ca 68 be 3c 53 ef e9 bc
       0.017439514 -0.030277802 0.023243327 -0.028556501
000370 a6 e8 62 bd 2f 65 03 bd eb 8f 3b bd 21 a4 9c bd
       -0.055397652 -0.032078918 -0.045791548 -0.076484926
000380 0c fd 3f bd 6f ca 10 bd e0 24 88 bd 31 7e 99 3c
       -0.046872184 -0.035349306 -0.06647658 0.01873693
000390 1b 95 0c 3c f1 da 1b bd 86 bb 8d bd d9 3d 57 3d
       0.008580471 -0.038050596 -0.06920533 0.052549217
0003a0 bd e8 86 bc bc 3b 9b bc 2e 3a a2 3c 6c 8b 41 bd
       -0.0164684 -0.018949382 0.019803133 -0.047252104
0003b0 93 4f 91 3c 08 df 8c 3c 00 1c c2 bd e0 c3 6b bd
       0.01773814 0.017196193 -0.09477997 -0.057559848
0003c0 c5 01 8d bd f3 f0 ce bd c5 e4 57 bd 93 8c 79 3a
       -0.06885103 -0.10104551 -0.052708406 0.00095195434
0003d0 92 19 28 bd 93 9d 7d 3b d2 9d 8f 3b 45 d9 51 3d
       -0.04104001 0.0038698658 0.0043828273 0.051232595
0003e0 05 ac 85 3d b6 f8 ab 3a d0 b9 ac 3c 5f 9c cc 3c
       0.06526951 0.0013120386 0.021084696 0.024976907
0003f0 5e ad 07 bc d7 26 ea bc 65 9c 24 3d 95 d5 35 bc
       -0.00828108 -0.028582973 0.040188212 -0.011098285

onnx::Conv_84 f4 [32]
000000 c6 de be be 45 8e 9f 3d 2e ce 86 3e 54 0a 4f be
       -0.37279338 0.07790808 0.26329178 -0.20218784
000010 55 a0 4d bf ad 59 33 3e f6 94 43 be 64 49 aa 3e
       -0.8032277 0.17514677 -0.19099793 0.33259118
000020 a2 32 ec bc f4 03 67 3e b7 3b 0a be d1 b1 99 be
       -0.028832737 0.22560102 -0.13499342 -0.30018476
000030 ed c6 ce bd 24 23 92 be 7f 8a 99 3e 74 04 a3 3e
       -0.10096536 -0.28542435 0.29988477 0.31839335
000040 59 f8 d1 3e a9 f6 8a 3d 63 15 bd 3e 11 0c ab 3e
       0.41009787 0.06785328 0.3693038 0.33407643
000050 60 66 4e bb 9a 2f 16 3e 80 51 7b 3e 74 99 31 3e
       -0.0031494126 0.14666596 0.24542809 0.17343694
000060 10 09 83 bb 1b 25 54 3c 18 a8 34 3e 14 91 30 3e
       -0.003998883 0.0129483 0.17642248 0.17242843
000070 d8 c3 bd 3e c0 4e 04 3b cc 2f 52 3e a8 92 5b 3e
       0.3706348 0.002018854 0.20526046 0.21442664

onnx::Conv_86 f4 [32, 32, 3, 3]
000000 88 57 61 bc 09 71 8e bd 6a 52 94 bd 22 40 62 3c
       -0.013753779 -0.069551535 -0.07242282 0.013809236
000010 d0 a0 15 bd 9d eb af bc 3a 4d c2 bb 17 b7 5d bd
       -0.036530316 -0.021474654 -0.0059296163 -0.054129686
000020 30 5b 0e bd d9 29 e8 3c 48 51 65 bd 19 2a 35 bd
       -0.034754932 0.028340267 -0.05598572 -0.0442296
000030 c8 5e 81 3c 3f cb 8e bd 86 5a e4 bc 8d cb 4b 3d
       0.015792266 -0.0697236 -0.027875196 0.049754668
000040 80 b3 a9 bc 43 5f fd 3b e2 0d 90 bb 26 c4 da 3c
       -0.020715475 0.0077323033 -0.004396186 0.026704859
000050 82 37 09 3d 1f 3a a7 bc 3a c2 75 3c b6 35 55 3d
       0.033500202 -0.020413456 0.0149999205 0.052053176
000060 b5 00 91 bc 75 fa 1f 3b 11 f0 90 3c a2 9a 01 3b
       -0.017700532 0.0024410759 0.017692598 0.0019776006
000070 9b 86 41 bc 78 b8 2c 3a 79 ff 8d bb 92 72 95 bc
       -0.011811878 0.0006588767 -0.004333433 -0.018243108
000080 b8 74 b1 ba 81 6c ee bb a2 e9 99 bc 89 f4 c1 bb
       -0.0013538813 -0.0072761183 -0.018788163 -0.0059190434
000090 ed b0 e3 bc e3 dd 6b bc 5c 6f 8e bc 7e 97 d7 bd
       -0.027794326 -0.014396164 -0.017387085 -0.10526942
0000a0 3c 10 6f bd bd 2d 76 bd ed 95 2b bd 41 59 b2 bc
       -0.05836509 -0.060102213 -0.041891027 -0.021771075
0000b0 89 31 9b 3c a6 74 7f 3d 2b 5d 55 3d d7 8b 5a 3d
       0.018944519 0.062367104 0.052090805 0.053356018
0000c0 91 f2 f1 3c 23 53 49 3c 10 07 76 3c a7 4d 4a 3c
       0.02953461 0.012287888 0.015016332 0.012347615
0000d0 56 19 c9 bb 18 be 9b bb 0a 51 8c bb e5 e7 9d b9
       -0.0061370535 -0.0047528856 -0.0042821215 -0.00030118148
0000e0 4c 20 d6 ba 6e b9 e4 3b e1 55 85 3b 1d 7e c9 38
       -0.001633653 0.0069801128 0.0040690755 9.607917e-05
0000f0 4a 52 88 3c 79 79 35 3c d4 19 00 39 7f 4a ed 3c
       0.016640801 0.011076325 0.00012216653 0.028966187
000100 8e e2 11 bc 91 a0 e2 3b b6 fb dc 3c 17 de 0f bd
       -0.0089041125 0.0069161137 0.026975494 -0.03512391
000110 e2 b0 62 3c 3f 0d 4b 3d 48 8c 9b bc 0c 7d 27 3d
       0.013836117 0.04957318 -0.01898779 0.04089074
000120 bc 0d 58 bc b7 e8 8b bc 91 e3 da bb 4a ee c8 ba
       -0.013186868 -0.01707874 -0.00667996 -0.0015329805
000130 d0 91 fc bb b6 d5 28 bb 0d 39 e6 39 40 ec c3 bb
       -0.007707812 -0.0025762147 0.00043911525 -0.005979091
000140 75 e4 59 bb 2b 6a 34 3d 89 80 33 3d e1 cf 0f 3d
       -0.0033247743 0.044046562 0.043823753 0.03511036
000150 f5 d0 ce 3c 05 41 cf 3c 00 b6 94 3c 41 a0 1e 3a
       0.025246123 0.025299558 0.01815319 0.00060511014
000160 6b e8 24 bc c8 a1 91 bc c2 27 26 ba 23 79 63 3a
       -0.010065178 -0.017777339 -0.0006338322 0.00086774136
000170 53 38 ce ba ee dc 63 3b ff ae 7c 3b bf 36 b8 3a
       -0.0015733339 0.0034769136 0.0038556454 0.0014054402
000180 ef a4 0b 3c c0 33 f0 3b ff 44 d0 3b 1a 25 b5 bc
       0.00852321 0.007330388 0.006355881 -0.022112418
000190 f7 9d c0 3b c8 14 15 3c 90 a1 98 3c 6a 0c 7c 3d
       0.005878206 0.009099193 0.018631727 0.061535276
0001a0 6e 03 27 3d 8d 4a 20 3d 75 8c be 3d da 2b a3 3d
       0.040774755 0.039133597 0.09304134 0.079673484
0001b0 4b 29 f7 ba d3 ce c7 3a e2 69 c5 3b 11 14 72 ba
       -0.0018856911 0.0015244134 0.006024585 -0.00092345575
0001c0 e7 e7 51 bb de d4 ea bb 8e 66 d0 bc d5 13 e3 bc
       -0.0032029094 -0.007166489 -0.025439527 -0.027719418
0001d0 02 c1 d2 bb 39 f0 c7 bc 92 20 ec bc b4 a1 9f bc
       -0.0064316997 -0.02440654 -0.028824124 -0.019486286
0001e0 75 a9 76 bc 44 0a 37 bc 8a 47 18 bc 08 c3 1a bc
       -0.01505505 -0.011171881 -0.0092944 -0.009445913
0001f0 3d 16 26 3a c1 da 63 3a 65 12 93 bd 42 51 6b bd
       0.0006335711 0.00086919597 -0.07181243 -0.05745054
000200 6d d4 30 3c 64 93 28 bd d2 5a 0c bd f0 24 67 3c
       0.010792834 -0.041156188 -0.0342663 0.014107928
000210 8e 01 16 bd c6 18 04 bd 36 5d b0 3b ab 20 94 3c
       -0.036622576 -0.03225019 0.0053822054 0.018081984
000220 93 71 c7 3b 3f 32 b2 3c 8a cb 7a 3c b9 53 50 3b
       0.006086537 0.021752475 0.015307317 0.0031788184
000230 36 3d d1 bc da c0 bc 3c bb 01 0c bc 6b 36 35 bd
       -0.025541883 0.023041178 -0.008545334 -0.04424135
000240 62 e6 ca 3c b6 fa a0 3c 2c 36 f6 3c 85 27 df 3c
       0.024768058 0.019650798 0.030055128 0.027240524
000250 9b 2b c7 3b 5d ab 32 bc 72 96 8c 3b 48 86 b0 bc
       0.006078196 -0.010905114 0.0042903954 -0.021548405
000260 f9 00 ea bc df 6e 0a 3c 25 9a 9c ba c7 9f 3e 3c
       -0.028564917 0.008449285 -0.0011947794 0.011634774
000270 20 d2 c8 3b 92 4f cc bb 2d 9b 3d bb 8c 0c c9 3a
       0.0061285645 -0.0062350715 -0.0028931603 0.0015338822
000280 ab 02 02 bc 71 1a 26 bc e3 ff 16 3d 3f f6 47 3c
       -0.007935206 -0.01013814 0.036865126 0.012204706
000290 a6 39 29 3c ac c4 36 3d 90 db 4d 3c ff 7f ea bb
       0.010328686 0.044621155 0.012564555 -0.0071563716
0002a0 09 67 28 3d 0b 98 b3 3b 85 c9 83 bc ba bc da 3b
       0.041113887 0.0054807714 -0.016087303 0.00667533
0002b0 d4 9e bc 3b 2b 19 b9 bb 5a f3 ab bb 66 c6 09 bd
       0.0057562385 -0.005648752 -0.0052475156 -0.033636473
0002c0 ae a3 ec bc 12 c7 a7 bc b5 3c 22 bd 95 f1 ed bc
       -0.028886642 -0.020480666 -0.039608676 -0.02904586
0002d0 ea 48 cb bc 74 39 20 bd 73 38 1f bd fe 26 04 bd
       -0.024815042 -0.03911729 -0.038872194 -0.03226375
0002e0 f1 2e 41 bd b3 d6 3d bd 0f 53 02 bd b8 66 4e bd
       -0.047163907 -0.04634733 -0.031817492 -0.05039093
0002f0 f0 2b 77 bd 7a c6 6d 3c c2 a0 73 3d 52 6d 55 3d
       -0.060344636 0.0145126525 0.059479482 0.05210621
000300 ac be b5 bc 2a 67 23 bb b1 68 48 3c 57 06 a2 bc
       -0.022185646 -0.0024933317 0.012231992 -0.019778414
000310 b1 88 46 bc 5c 2c 8d bb b0 a2 7b ba cb ec 55 bc
       -0.012117551 -0.0043082666 -0.00095991325 -0.013056944
000320 16 e7 83 ba 44 65 9d bc db 77 f7 bc ef 0a 89 bc
       -0.0010063376 -0.019213326 -0.030208519 -0.016728846
000330 89 33 17 bd 61 d6 5b bd 83 4d d1 bc c4 21 c7 3c
       -0.036914382 -0.053671245 -0.025549656 0.024308093
000340 e9 88 a2 bc d5 40 40 bc f3 1e 74 3c 6a f6 e4 bc
       -0.019840674 -0.011734207 0.014899957 -0.02794953
000350 13 8c 91 bc f8 7f 02 3d 2a 89 16 bd 8d c1 9c bc
       -0.017766988 0.03186032 -0.036751904 -0.019135261
000360 cf 97 8e ba a8 ef fe b9 36 5a 54 bb e8 ee cc b9
       -0.0010878983 -0.00048625213 -0.0032402403 -0.0003908791
000370 83 f0 49 3a ea 2c 61 ba 11 93 1c 3a a9 26 fe 3a
       0.00077033805 -0.00085897616 0.00059728423 0.0019390184
000380 a9 f2 06 3a d5 2e 89 bc da 74 c5 bb 82 8f 51 3c
       0.00051478535 -0.016745964 -0.0060258927 0.012790563
000390 78 a8 c1 bb 9a 29 00 bc 91 c8 32 3c 94 9a 88 bc
       -0.0059099756 -0.007822419 0.010912077 -0.016675271
0003a0 e1 34 76 bc 46 70 9a 3c 37 95 af bb 0c 56 0f bd
       -0.015027256 0.018852364 -0.005358364 -0.03499417
0003b0 ee 94 be bc 7d b7 f7 b9 0a cf 48 bd eb 44 30 bd
       -0.023264375 -0.0004724822 -0.049025573 -0.043034475
0003c0 db 3c f7 bc 42 66 4f bd 7d 86 0a bd d8 ff 16 bd
       -0.030180385 -0.05063463 -0.033819664 -0.036865085
0003d0 ca 29 f1 bc b6 ff 80 bc 65 f8 0d bd 9f 8e 01 bd
       -0.029438872 -0.015746932 -0.034660716 -0.031630155
0003e0 dc 8a bb bc c6 f9 09 bc 13 09 4c bc 2d 4a 4b bc
       -0.022893362 -0.008421367 -0.012453335 -0.012407822
0003f0 b3 38 6d 3d 07 b7 b9 3d 0f ae 5a 3d 9e 88 59 3d
       0.0579154 0.09068113 0.05338865 0.053108804

onnx::Conv_87 f4 [32]
000000 20 06 09 bc ef 1f 86 3e de 90 f3 bd d8 19 db 3c
       -0.008363277 0.26196238 -0.118928656 0.026745722
000010 ae 05 a4 3d 88 e0 6b 3e de 74 be bc f3 f3 a7 bd
       0.08008896 0.2303487 -0.023249086 -0.082008265
000020 31 ca fe 3e 9f 98 bf 3d 2f 4a eb 3e 83 ca b1 3e
       0.49763635 0.09355282 0.45955035 0.34724817
000030 de 24 ae bd de 59 91 bd ec 8f 33 bd 4a d3 46 bc
       -0.085031256 -0.07097219 -0.043838426 -0.012135336
000040 76 b6 9f bd bc 7c cc 3e 6a c0 f3 be 14 5a b9 bd
       -0.077984735 0.39938915 -0.47607738 -0.09050384
000050 68 de a6 bd ac 0b 27 3d 20 ad 77 bc aa f1 ea 3d
       -0.081478894 0.040782616 -0.01511696 0.11471875
000060 96 7d c7 b3 e3 92 30 be f2 15 db be 7f be 9b 3e
       -9.2895036e-08 -0.17243533 -0.4279018 0.30418774
000070 94 c0 4c 3c 0f ec 50 3f 88 2c ae 3e a8 3f 04 bb
       0.012497086 0.81610197 0.3401835 -0.0020179544

onnx::Conv_89 f4 [32, 16, 1, 1]
000000 2f be 4a 3e c7 cb 55 3e f1 15 98 bc 60 31 14 bd
       0.19799112 0.20878516 -0.01856515 -0.0361799
000010 aa bd f9 3d 35 c9 47 bc 23 e0 14 3e 5d 7e bb 3c
       0.12194379 -0.012193968 0.14538626 0.022887403
000020 89 2f 90 3c af b1 de bc c6 32 72 3d c0 94 11 be
       0.017600792 -0.027184336 0.059130453 -0.142169
000030 e7 e0 d9 bd 87 d1 05 3d 76 49 08 bd 99 5f 44 3e
       -0.106386 0.032670524 -0.033273183 0.19177093
000040 9f 6e 0a be 75 67 8a 3e 57 82 92 bd 34 9f 54 bd
       -0.13518761 0.27032056 -0.071537666 -0.05190964
000050 28 9f 31 be dc f3 b8 bd be c8 24 3e 2f ec 06 3d
       -0.1734587 -0.090308875 0.16092202 0.032940086
000060 b0 b1 5b 3e ce cc 9a 3b e8 ea 7b bc 7b 3b 2f be
       0.21454501 0.0047241217 -0.01537583 -0.17112534
000070 b6 57 15 be 29 f7 a7 3d 8a e4 9b be f8 35 8c be
       -0.1458424 0.08201439 -0.304478 -0.27384925
000080 cc 52 0a be ea 0a 2d 3e 62 85 79 bc c2 7c e9 3c
       -0.13508147 0.16898695 -0.015229555 0.028501872
000090 62 83 95 bd 1f 75 2a bd f1 b4 aa 3e 63 71 ce bd
       -0.0730045 -0.0416156 0.33341172 -0.100802206
0000a0 0c f4 e9 bd 09 f0 ea bd d2 08 a9 bd c3 5d 42 be
       -0.11423501 -0.11471564 -0.082536355 -0.1898108
0000b0 6b 3c 35 bd ed 5a a5 bd a2 3a e2 3c 4c 0d 86 bd
       -0.044247072 -0.08073983 0.027615849 -0.06545505
0000c0 03 9b 03 3e 5d f5 22 bc 97 4f f8 bb 7d 19 17 3c
       0.12852101 -0.0099461945 -0.007577847 0.0092223855
0000d0 49 15 5a 3c 9b ba 2b bd 3b f7 a0 bd 49 7b e7 bb
       0.013310739 -0.041926008 -0.078596555 -0.0070642573
0000e0 bb 1e c1 bd 45 4a f2 3c b9 a6 05 3e 9d 7e 7f bd
       -0.094296895 0.02957643 0.13051881 -0.062376607
0000f0 d0 f6 03 bd 6a e3 ef bd d1 8b 2d 3d c5 b7 d3 3a
       -0.0322178 -0.11713298 0.042369667 0.001615279
000100 75 f9 dd 3c d1 30 b2 3c dc db 14 3d 4e 06 dc 3d
       0.02709649 0.021751793 0.036342487 0.1074339
000110 42 11 80 bc 26 d4 f2 bc 81 93 42 be e6 5c 56 3d
       -0.01563323 -0.029642176 -0.19001581 0.05233469
000120 fe cc 19 3e 72 8e 41 be b2 ef 40 be a1 be 3e 3d
       0.15019605 -0.18901995 -0.18841437 0.046568517
000130 8c f9 44 bc 45 35 57 be 48 4c 1b be 60 bd 61 3e
       -0.012022387 -0.21016414 -0.15165818 0.22044897
000140 09 0b 5f 3e 79 7b f5 bd 2e 23 8e bc c2 9b b9 3b
       0.21781553 -0.11986441 -0.01735076 0.0056643197
000150 56 03 a1 bc 86 1f 1f bc f3 eb 08 bd 78 7d 21 bd
       -0.019654911 -0.009712106 -0.033428144 -0.039426297
000160 82 eb df 3c 31 c7 02 3e 2f 1e a5 bd b4 b0 06 3e
       0.027333979 0.12771298 -0.08062398 0.13153344
000170 52 98 ae bc 37 7e 05 3d 61 f4 c6 3d 19 6f 0c 3e
       -0.021312866 0.03259107 0.0971458 0.13714255
000180 0d d4 b3 bc 8e 82 9b 3d 0b d0 a8 bb 36 aa 54 3c
       -0.0219517 0.07593261 -0.005151754 0.012980035
000190 8e 8d e9 3c f9 c5 74 3b 3f 02 a9 3c 44 4d a4 3a
       0.028509881 0.0037349446 0.020630954 0.0012535234
0001a0 c9 a2 64 3d 25 1b c3 3d de 00 d0 3c 7a 26 71 3c
       0.055819307 0.09526662 0.025391039 0.014718646
0001b0 c3 bf 97 3d 75 dc a6 3c c8 2c 81 3d 63 0f c6 bc
       0.074096225 0.020368794 0.063073695 -0.024177259
0001c0 23 4e 09 3b c5 2d e4 ba 3c 67 f9 37 45 8c 60 b9
       0.0020951114 -0.001740866 2.9731185e-05 -0.00021414559
0001d0 e3 43 df b9 b6 b7 d1 b8 20 d3 28 3a 63 38 3d b9
       -0.00042584454 -0.000100001154 0.00064401515 -0.0001804545
0001e0 c4 2b 93 b9 ab 2c 68 3a 09 0f 8f 3a 14 fa ad 39
       -0.00028070633 0.00088567537 0.0010914515 0.00033183454
0001f0 76 26 a8 39 10 01 9d 39 28 06 86 b9 00 ce 9c 38
       0.00032072113 0.00029946165 -0.00025563058 7.47703e-05
000200 8a 7e 38 be dc ad 22 bd d5 5f 75 bc 3b 2a 63 3d
       -0.18017021 -0.039716586 -0.014976461 0.055460196
000210 1e 43 17 be 0b 6e b3 bc 43 9d 34 3d 85 4a 3d 3d
       -0.14771697 -0.021903059 0.04409529 0.046213645
000220 3b 35 f4 bd 51 43 38 be 3e 16 85 3d 1a 3a c1 3d
       -0.119242154 -0.17994429 0.06498383 0.0943491
000230 8c d9 3d 3e 3a 57 52 3e bb 62 06 be 62 20 13 be
       0.18540019 0.20541087 -0.131236 -0.14367822
000240 ff ee ea 3d e0 6f d1 3d 50 79 76 bb 5c 5e d0 3c
       0.11471366 0.102264166 -0.003760893 0.025435619
000250 bb db 62 bd 39 01 7b bb ec 3f 9b 3d e9 91 c8 bb
       -0.055385333 -0.003830029 0.075805515 -0.0061209095
000260 69 72 44 bd c6 7a b2 3d 11 87 72 bd a5 ac 40 3d
       -0.047960673 0.087148234 -0.05921084 0.047039647
000270 ac 15 52 bc cf 18 e3 3d ac 8a 24 be 78 8d d0 bc
       -0.01282255 0.11088716 -0.16068524 -0.025458083
000280 6c 9f d1 bb f3 b2 1c 3e a0 04 80 3d 3a af 02 be
       -0.0063971784 0.15302639 0.06250882 -0.12762156
000290 c9 21 99 be 21 94 76 3d e8 a1 03 be ce 93 1b 3e
       -0.2990859 0.06019986 -0.12854731 0.15193102
0002a0 0d 82 8e 3e a9 e1 09 3d 64 cc 1a bd 13 d9 0c be
       0.27833596 0.033662472 -0.03779258 -0.13754682
0002b0 ad 3e 8e 3e 09 72 89 3e ef 1c c0 be d1 6c 97 be
       0.27782193 0.26844814 -0.37522075 -0.29575208
0002c0 25 64 9e be c9 67 a5 bb 3c 5c 82 bd eb 65 3d bd
       -0.3093578 -0.0050477725 -0.063652486 -0.046239775
0002d0 4a 17 30 3d 4e 05 81 bd 65 59 06 3e 97 cf 1f 3b
       0.04299096 -0.0629984 0.13120039 0.0024385208
0002e0 4f 24 ee bc 68 1c 56 be f0 31 e8 3d 22 85 7a bd
       -0.029070048 -0.20909274 0.1133765 -0.06116212
0002f0 09 3d 85 3e 75 49 69 3e da 7f 25 be c7 b2 5e bd
       0.2602313 0.22781928 -0.16162053 -0.054369714
000300 64 c5 38 3a c9 57 07 3e c5 e8 b2 3c 84 5d ae 3c
       0.00070484565 0.13217081 0.021839509 0.021284826
000310 b6 78 93 bc 3f 39 02 bd b6 56 00 bd a3 58 9e bd
       -0.018001895 -0.031792875 -0.031332694 -0.0773175
000320 98 8c 97 3d 54 f3 7d 3d 0d 19 3e 3e 03 1f e0 3d
       0.07399863 0.061999634 0.18564244 0.10943415
000330 1e 0d ea 3d ff 01 ae 3c 3c 23 b5 3d e6 55 c3 3d
       0.11428283 0.021241186 0.08844611 0.09537868
000340 e0 89 cf 3c dd 59 d8 3d 0e 54 74 bc 2b 66 8b 3d
       0.025334299 0.10564015 -0.014912618 0.06806596
000350 bc c3 d0 bd df 9a 82 bc 0a ab 3b bd a6 f5 db 3c
       -0.10193583 -0.015942989 -0.045817412 0.026850533
000360 c7 7a b3 bd b5 8d ff bc d2 ab 10 bd fb 39 70 3d
       -0.08763652 -0.0311955 -0.03532011 0.058649044
000370 4f be 3a 3e 0c 7f b5 bc 5b 01 17 3e cb e2 ae bd
       0.1823666 -0.022155307 0.14746611 -0.08539351
000380 02 9f c5 3d 8d d5 66 3e db 55 15 bd d0 fe e0 bd
       0.09649469 0.225424 -0.03645883 -0.109861016
000390 35 6d f7 bd b8 6c 9a bd 5a 60 7b 3e 15 e8 31 3c
       -0.120813765 -0.07540268 0.24548474 0.010858555
0003a0 77 f2 80 3c 80 d6 c0 bd 42 f0 bc 3d 69 d7 31 3e
       0.015740616 -0.09415913 0.09225513 0.17367329
0003b0 0a 80 1e 3d 43 79 ac bd 33 d3 8d 3e 4e ae 98 3e
       0.038696326 -0.08421566 0.27700195 0.29820484
0003c0 a7 3d 0f 3d 55 4b b1 bb b7 8a c1 3b ac 51 53 3d
       0.034970906 -0.0054105916 0.0059064287 0.05159156
0003d0 9b c0 82 b7 83 31 9a 3a 9c 37 c7 3b 6d b3 cc 3c
       -1.5586897e-05 0.0011764023 0.006079627 0.0249879
0003e0 43 41 8d bd e1 02 05 3d db 10 9f 3c 33 36 ec bd
       -0.06897213 0.03247345 0.019417217 -0.11533775
0003f0 55 8c c7 3c e2 b6 5d bd 1a d9 d2 3c b8 50 ba bc
       0.024358908 -0.05412949 0.025738288 -0.022743568

onnx::Conv_90 f4 [32]
000000 30 6e ae be b2 c4 04 3e ee 3a 15 3e 2c 8e 9f 3c
       -0.3406844 0.12965658 0.14573261 0.019476973
000010 f5 fc 7e 3e 16 56 6f be 01 f1 73 be 32 19 65 bc
       0.24901183 -0.23372683 -0.23822404 -0.013983058
000020 3a 0d b3 3d 0b 91 07 be 03 9e 04 3d 5a 51 0b bd
       0.08742757 -0.13238923 0.032377254 -0.03401313
000030 9a 4d c8 be dd 53 bd bd 8c 0c f8 be e0 9f 54 3c
       -0.39121705 -0.09244511 -0.48447073 0.01297757
000040 f0 01 3e 3e b4 c9 6d bc a1 2b 7b 3e 60 5c 40 be
       0.18555427 -0.014513422 0.24528362 -0.18785238
000050 63 a0 c2 3d 83 c4 60 3c 38 d9 c9 3d f0 f8 6d bc
       0.095032476 0.013718727 0.09855884 -0.014524683
000060 17 c0 c7 b3 1b 2e 0e bd 1c 15 6f be 58 c7 61 bc
       -9.3016006e-08 -0.03471194 -0.23347896 -0.013780437
000070 4e d5 96 bd 66 d6 61 be 2a f3 9b 3d 05 23 1c 3d
       -0.073649034 -0.22054443 0.07614739 0.038119335

onnx::Conv_92 f4 [64, 32, 3, 3]
000000 00 00 00 00 00 00 00 00 00 00 00 80 00 00 00 80
       0.0 0.0 -0.0 -0.0
000010 00 00 00 80 00 00 00 80 00 00 00 00 00 00 00 80
       -0.0 -0.0 0.0 -0.0
000020 00 00 00 80 00 00 00 80 00 00 00 00 00 00 00 80
       -0.0 -0.0 0.0 -0.0
000030 00 00 00 00 00 00 00 00 00 00 00 00 00 00 00 80
       0.0 0.0 0.0 -0.0
000040 00 00 00 80 00 00 00 80 00 00 00 00 00 00 00 00
       -0.0 -0.0 0.0 0.0
000050 00 00 00 00 00 00 00 80 00 00 00 80 00 00 00 80
       0.0 -0.0 -0.0 -0.0
000060 00 00 00 00 00 00 00 00 00 00 00 00 00 00 00 00
       0.0 0.0 0.0 0.0
000070 00 00 00 00 00 00 00 80 00 00 00 00 00 00 00 80
       0.0 -0.0 0.0 -0.0
000080 00 00 00 80 00 00 00 80 00 00 00 80 00 00 00 80
       -0.0 -0.0 -0.0 -0.0
000090 00 00 00 80 00 00 00 80 00 00 00 00 00 00 00 00
       -0.0 -0.0 0.0 0.0
0000a0 00 00 00 00 00 00 00 00 00 00 00 00 00 00 00 00
       0.0 0.0 0.0 0.0
0000b0 00 00 00 80 00 00 00 00 00 00 00 00 00 00 00 00
       -0.0 0.0 0.0 0.0
0000c0 00 00 00 80 00 00 00 80 00 00 00 80 00 00 00 80
       -0.0 -0.0 -0.0 -0.0
0000d0 00 00 00 80 00 00 00 00 00 00 00 80 00 00 00 00
       -0.0 0.0 -0.0 0.0
0000e0 00 00 00 80 00 00 00 80 00 00 00 80 00 00 00 00
       -0.0 -0.0 -0.0 0.0
0000f0 00 00 00 80 00 00 00 80 00 00 00 80 00 00 00 80
       -0.0 -0.0 -0.0 -0.0
000100 00 00 00 00 00 00 00 80 00 00 00 80 00 00 00 80
       0.0 -0.0 -0.0 -0.0
000110 00 00 00 00 00 00 00 00 00 00 00 80 00 00 00 80
       0.0 0.0 -0.0 -0.0
000120 00 00 00 80 00 00 00 80 00 00 00 00 00 00 00 80
       -0.0 -0.0 0.0 -0.0
000130 00 00 00 00 00 00 00 80 00 00 00 80 00 00 00 80
       0.0 -0.0 -0.0 -0.0
000140 00 00 00 80 00 00 00 80 00 00 00 80 00 00 00 00
       -0.0 -0.0 -0.0 0.0
000150 00 00 00 00 00 00 00 80 00 00 00 00 00 00 00 80
       0.0 -0.0 0.0 -0.0
000160 00 00 00 00 00 00 00 00 00 00 00 00 00 00 00 80
       0.0 0.0 0.0 -0.0
000170 00 00 00 80 00 00 00 80 00 00 00 00 00 00 00 80
       -0.0 -0.0 0.0 -0.0
000180 00 00 00 80 00 00 00 80 00 00 00 80 00 00 00 00
       -0.0 -0.0 -0.0 0.0
000190 00 00 00 00 00 00 00 00 00 00 00 80 00 00 00 00
       0.0 0.0 -0.0 0.0
0001a0 00 00 00 00 00 00 00 00 00 00 00 00 00 00 00 80
       0.0 0.0 0.0 -0.0
0001b0 00 00 00 00 00 00 00 00 00 00 00 00 00 00 00 00
       0.0 0.0 0.0 0.0
0001c0 00 00 00 80 00 00 00 80 00 00 00 80 00 00 00 80
       -0.0 -0.0 -0.0 -0.0
0001d0 00 00 00 00 00 00 00 80 00 00 00 80 00 00 00 00
       0.0 -0.0 -0.0 0.0
0001e0 00 00 00 00 00 00 00 00 00 00 00 00 00 00 00 80
       0.0 0.0 0.0 -0.0
0001f0 00 00 00 00 00 00 00 00 00 00 00 80 00 00 00 00
       0.0 0.0 -0.0 0.0
000200 00 00 00 00 00 00 00 80 00 00 00 00 00 00 00 80
       0.0 -0.0 0.0 -0.0
000210 00 00 00 00 00 00 00 00 00 00 00 00 00 00 00 00
       0.0 0.0 0.0 0.0
000220 00 00 00 80 00 00 00 80 00 00 00 80 00 00 00 00
       -0.0 -0.0 -0.0 0.0
000230 00 00 00 00 00 00 00 00 00 00 00 00 00 00 00 00
       0.0 0.0 0.0 0.0
000240 00 00 00 00 00 00 00 00 00 00 00 00 00 00 00 00
       0.0 0.0 0.0 0.0
000250 00 00 00 00 00 00 00 80 00 00 00 00 00 00 00 00
       0.0 -0.0 0.0 0.0
000260 00 00 00 00 00 00 00 00 00 00 00 80 00 00 00 80
       0.0 0.0 -0.0 -0.0
000270 00 00 00 00 00 00 00 00 00 00 00 00 00 00 00 80
       0.0 0.0 0.0 -0.0
000280 00 00 00 80 00 00 00 00 00 00 00 00 00 00 00 80
       -0.0 0.0 0.0 -0.0
000290 00 00 00 80 00 00 00 80 00 00 00 00 00 00 00 80
       -0.0 -0.0 0.0 -0.0
0002a0 00 00 00 80 00 00 00 80 00 00 00 00 00 00 00 80
       -0.0 -0.0 0.0 -0.0
0002b0 00 00 00 80 00 00 00 80 00 00 00 80 00 00 00 80
       -0.0 -0.0 -0.0 -0.0
0002c0 00 00 00 00 00 00 00 00 00 00 00 00 00 00 00 00
       0.0 0.0 0.0 0.0
0002d0 00 00 00 80 00 00 00 00 00 00 00 80 00 00 00 80
       -0.0 0.0 -0.0 -0.0
0002e0 00 00 00 80 00 00 00 80 00 00 00 80 00 00 00 00
       -0.0 -0.0 -0.0 0.0
0002f0 00 00 00 00 00 00 00 80 00 00 00 00 00 00 00 00
       0.0 -0.0 0.0 0.0
000300 00 00 00 00 00 00 00 00 00 00 00 00 00 00 00 80
       0.0 0.0 0.0 -0.0
000310 00 00 00 80 00 00 00 00 00 00 00 80 00 00 00 80
       -0.0 0.0 -0.0 -0.0
000320 00 00 00 80 00 00 00 80 00 00 00 80 00 00 00 00
       -0.0 -0.0 -0.0 0.0
000330 00 00 00 00 00 00 00 80 00 00 00 00 00 00 00 00
       0.0 -0.0 0.0 0.0
000340 00 00 00 00 00 00 00 00 00 00 00 00 00 00 00 80
       0.0 0.0 0.0 -0.0
000350 00 00 00 80 00 00 00 80 00 00 00 80 00 00 00 00
       -0.0 -0.0 -0.0 0.0
000360 00 00 00 80 00 00 00 00 00 00 00 00 00 00 00 80
       -0.0 0.0 0.0 -0.0
000370 00 00 00 00 00 00 00 80 00 00 00 00 00 00 00 80
       0.0 -0.0 0.0 -0.0
000380 00 00 00 00 00 00 00 00 00 00 00 00 00 00 00 00
       0.0 0.0 0.0 0.0
000390 00 00 00 00 00 00 00 80 00 00 00 00 00 00 00 00
       0.0 -0.0 0.0 0.0
0003a0 00 00 00 00 00 00 00 00 00 00 00 00 00 00 00 80
       0.0 0.0 0.0 -0.0
0003b0 00 00 00 00 00 00 00 00 00 00 00 80 00 00 00 80
       0.0 0.0 -0.0 -0.0
0003c0 00 00 00 00 00 00 00 80 00 00 00 00 00 00 00 80
       0.0 -0.0 0.0 -0.0
0003d0 00 00 00 80 00 00 00 00 00 00 00 00 00 00 00 00
       -0.0 0.0 0.0 0.0
0003e0 00 00 00 80 00 00 00 80 00 00 00 80 00 00 00 00
       -0.0 -0.0 -0.0 0.0
0003f0 00 00 00 00 00 00 00 80 00 00 00 80 00 00 00 80
       0.0 -0.0 -0.0 -0.0

onnx::Conv_93 f4 [64]
000000 e6 14 00 80 ec 91 82 3c 7e 1f 05 bc 70 d9 88 a8
       -7.497e-42 0.015938722 -0.008125184 -1.5193332e-14
000010 f5 1c 29 8d a2 51 d4 bd 81 98 f6 bd 0a ec a1 b2
       -5.2112e-31 -0.10367133 -0.120408066 -1.8850205e-08
000020 e4 0e 22 be f0 bc b8 3b f4 b8 cc bc ee 27 f9 bc
       -0.15825993 0.0056377575 -0.024990536 -0.030414548
000030 a1 78 c7 b5 d3 af 0a bc cd 35 79 be 73 bb 9b b9
       -1.4861763e-06 -0.008464771 -0.2433693 -0.00029703564
000040 22 0e 85 bd 87 2a c7 96 65 e3 19 3e 3f 01 85 3e
       -0.06496836 -3.2177022e-25 0.1502815 0.25977513
000050 69 f5 08 a8 d1 06 00 80 50 e2 46 bd 94 11 e4 bd
       -7.602731e-15 -2.445e-42 -0.048555672 -0.11136165
000060 0a df 06 bb ec 1c 55 bd ea d3 4c bc 35 12 56 b7
       -0.002057972 -0.052029535 -0.012501696 -1.2759633e-05
000070 64 35 99 bd 3f b6 b8 b9 21 39 61 bd b5 d3 0a 92
       -0.074808866 -0.00035231 -0.054986123 -4.380607e-28
000080 f0 f4 98 aa cd 0c 7b bd d4 83 af b7 27 8e e4 3c
       -2.7170583e-13 -0.061291505 -2.0923013e-05 0.027899815
000090 86 80 8e bc 97 3c 1a 3d fe 8f e8 bc 89 c0 04 a8
       -0.01739527 0.03765544 -0.028388973 -7.369221e-15
0000a0 52 58 67 bd f4 61 4c bc a4 64 4a bd 40 c4 02 bc
       -0.056480713 -0.012474526 -0.049412385 -0.00798136
0000b0 30 c3 9a bc a1 8c 97 ba fb 2c 73 bd b6 1b ca bc
       -0.0188919 -0.0011562296 -0.05936907 -0.024671417
0000c0 42 b8 14 be 5e 83 8b bd 3e 94 34 bc 72 4d b1 b5
       -0.14523414 -0.06812166 -0.011021672 -1.3210067e-06
0000d0 b8 dc 41 bb 1b 1e fd b8 76 5d 7a b1 cb 71 1c ba
       -0.0029581022 -0.00012069588 -3.6432914e-09 -0.0005967884
0000e0 58 a2 22 bc d5 8b 5f 3d ff dc 13 b3 de a1 bb bd
       -0.009926401 0.054576714 -3.44271e-08 -0.09161733
0000f0 89 62 da 3c 42 b6 05 be 9c c2 c5 3c 10 74 82 ba
       0.026658313 -0.13057807 0.024140649 -0.0009952802
