model/coelho.onnx (onnx, 301496 bytes, 16 tensors)

fc.weight f4 [2, 256]
00000000: 67cd e7bc c408 ae3c fd96 e0bd e710 babd
00000010: cecb cfbd 9a97 c2bd b09e 82bd fc88 33bd
00000020: 2345 1cbd 3042 1cbd 70cb 1bbd c90c 3a3d
00000030: 6489 6f3b 7e23 563d b4cb b6bd a3f5 aabd
00000040: 4699 973d 3848 843d da4c 453d e227 a23d
00000050: 2934 b53b 9c0e c83d d181 7f3d 3953 8a3d
00000060: 5a68 523d 7a1e 4d3c 5424 d2bc ffd1 8ebd
00000070: 3b78 acbb 1c8e 37bd 1d15 f53b f267 093d
00000080: faf0 9a3d 19b3 083d 9be7 073e 582b e93d
00000090: e283 57bd 4b24 98bd d08b ffbc 6ce0 1ebd
000000a0: fa50 14bd d984 bcbd 0563 713d b261 743d
000000b0: fcb3 bb3c 47cf f83c 1492 a23d 8352 d23b
000000c0: f266 863d 1415 513d 1e1a db3d 59d8 1d3d
000000d0: d58a ad3d 8556 9f3d 540b a23d cd80 bb3d
000000e0: 5ee2 8c3d 0613 073d c028 863d acfc a13d
000000f0: 1ccd 4ebd 6667 5cbc 871c 04be ee4d 46bd
00000100: 4d33 343d d9cf 543d 217a d2bd 536d c0bd
00000110: 261a e6bc 6277 87bd 5f09 453d 1495 473c
00000120: 84a8 dc3c 6547 2d3d 3998 f9bc a1c6 1c3b
00000130: ff6c 18bd 83b7 84bd f89a 37bd 68e9 50bc
00000140: 72d2 72bb 8c18 c53c cf12 7abd 1b5e c5bc
00000150: c73a 3cbd 4356 38bb 4781 f33c 863e 0ebd
00000160: eb49 b43c cf37 eebd 32ea 173c c1e0 91bd
00000170: 1f79 53bd f012 c1bd b56a 01bd 5252 eebd
00000180: 166d 563c b01d 18bd 82e3 1cbd afcd 25bd
00000190: 204d 373d f909 b9bc 5613 8b3c 2f9f 1e3d
000001a0: 9db3 193c e699 913c 7c57 32bd 81fb 79bd
000001b0: 4118 43bd fc3b 1cbc ebc2 ab3d d8a1 ccbb
000001c0: b626 0e3c 079a 853d 7d24 89bd f1a7 63bd
000001d0: 4e1c 93bd 5dc7 09be 5fc1 f73b dd41 93bd
000001e0: 8333 773d 8a09 083c 954f a83d 8162 2a3c
000001f0: 3fb5 dbbd 739b a8bd 2ede 853c 0563 143c
00000200: 39d7 033d 67da 47bc d698 c4bc 1289 d8bc
00000210: e138 3abd f00e 223d 7b5a 823d 10f0 bf3d
00000220: 5227 b03d 91d8 923c 51ca 9c3d 906d dfbc
00000230: d754 eb3d f9fc cf3d 9e8a 3f3c ff18 ce3d
00000240: 24b1 39bc 91ed 833c f58c 003c 9fdc a8bc
00000250: a35b d83c d9ef 093d 854f 86bd af23 90bd
00000260: 0aa5 8ebd 1e9a 91bc c461 2ebc cc23 0e3d
00000270: b436 6b3d b394 a33d de2c c43d 16d2 b03d
00000280: 3fc0 4f3d 7488 743d c6dd da3d 28e1 a23d
00000290: c330 9f3d 187b 4b3d 5b6e 723b 5652 a8bd
000002a0: 5eba f3bd f8c3 dabd 7cb5 f93a 8ab3 7bbc
000002b0: f016 243d a455 7cbb 1449 55bd ceac 7bbc
000002c0: a123 e03d ac4e 0c3d c524 f13d 7588 f73d
000002d0: 3828 bbbc 94f6 043d 0ebb 9bbc d230 423d
000002e0: fb82 a0bd 9b56 453c 05d4 15be 4866 a1bd
000002f0: 8565 8ebc 1bb3 45bd e8f2 303d 59d7 8c3d
00000300: d139 aabc b928 283d 7ee4 0ebd a6f9 16bc
00000310: f3b7 593d 77eb ac3d 02b3 36bd 4296 29bd
00000320: db29 503d 9081 da3b 16b9 e43d 61d3 d63d
00000330: da18 5a3d 00ec 2b3d e3de ecbc 539d 99bb
00000340: 6e2e 79bd 80b0 c9bd 2bc4 9fbd e580 59bc
00000350: 9626 603d 9db5 8d3c a1a0 923c 5796 b83d
00000360: 88b5 30bd ada9 f8bd 00e5 d7bd b50b b8bd
00000370: 9463 ecbc ffce a1bc 047b 203d 5f82 50bc
00000380: c88c 2f3d 3c11 08bd af21 d1bc 13a1 f43c
00000390: cf92 81bd dffa 023d fef0 bcbd 41a1 5ebd
000003a0: 9bf9 42bd faf7 7cbd 53ae d93d 8569 1b3d
000003b0: efcb 04bd 59e1 e33b 1128 e0bc 74d2 fbbc
000003c0: bf4c 86bd 0af9 1dbd 31c8 3d3d dfa1 873d
000003d0: 01cd de3d 0e4b 513d de7d 0f3d 2664 66bd
000003e0: ed4f 54bc 0ddd d9bd 438e fbbc c208 e7bd
000003f0: 4829 ba3c 09f2 74bc 2218 c0bd 793b d1bd
-0.028296186 0.021244414 -0.10966299 -0.09085255 -0.101462945 -0.09501572 -0.063779235 -0.04383181
-0.03815187 -0.03814906 -0.03803581 0.04542235 0.0036550397 0.05227994 -0.08925572 -0.08347633
0.074022815 0.06459087 0.048168994 0.07917763 0.0055298996 0.097684115 0.062379662 0.06754155
0.05136905 0.012519473 -0.025652088 -0.06973647 -0.005263356 -0.04481326 0.0074793235 0.033546396
0.07565494 0.033373926 0.13271944 0.1138522 -0.052616008 -0.07428797 -0.031194597 -0.038788244
-0.036210038 -0.09205026 0.058932323 0.059663482 0.022912972 0.030372275 0.079380184 0.0064185276
0.06562604 0.051045492 0.10698341 0.038536403 0.08473746 0.07780174 0.07912317 0.09155426
0.068791136 0.032977127 0.06550741 0.079095215 -0.050488576 -0.0134523865 -0.12901507 -0.048414163
0.043994237 0.05195603 -0.102772005 -0.09395852 -0.02808864 -0.06614567 0.04810464 0.012181539
0.026935823 0.042304415 -0.030468093 0.0023922103 -0.03721332 -0.064803146 -0.044825524 -0.012750961
-0.0037051705 0.024059556 -0.061053094 -0.024092725 -0.045954492 -0.0028127588 0.02972473 -0.034727596
0.022007903 -0.116317384 0.009272145 -0.071229465 -0.051629182 -0.0942744 -0.031595904 -0.11636795
0.013087532 -0.037137687 -0.038302906 -0.04047936 0.044751287 -0.022587763 0.016976994 0.038726028
0.009381202 0.01777358 -0.043540463 -0.06103087 -0.047630552 -0.009535786 0.08386787 -0.006244879
0.008676222 0.06523519 -0.06696413 -0.055580083 -0.07183133 -0.13454957 0.0075608934 -0.07190297
0.06035186 0.008303056 0.08218304 0.010399462 -0.10727929 -0.082327746 0.016341295 0.009056811
0.032187674 -0.012198067 -0.02399866 -0.026432548 -0.0454644 0.039565027 0.06364914 0.0937196
0.0860125 0.017925533 0.07655776 -0.027273923 0.11490791 0.101556726 0.011690764 0.100633614
-0.0113337375 0.016104491 0.007846107 -0.020613013 0.026410883 0.033676002 -0.06558136 -0.07038056
-0.069650725 -0.017773684 -0.010643426 0.034702107 0.057425216 0.079873465 0.0957887 0.08633821
0.05072045 0.059700444 0.10686831 0.079531014 0.077729724 0.04967794 0.0036992047 -0.08218829
-0.11900781 -0.10681909 0.0019051279 -0.01536263 0.040060937 -0.0038503194 -0.052071646 -0.015361024
0.10944296 0.034254715 0.11774591 0.12086574 -0.022846326 0.032461718 -0.019010093 0.04740984
-0.078374825 0.012044574 -0.1463166 -0.07880837 -0.017382393 -0.04826651 0.043200403 0.06877012
-0.020779522 0.04105446 -0.034885876 -0.009214794 0.053153943 0.08443349 -0.04460431 -0.041403063
0.050821166 0.006668277 0.11168115 0.10489536 0.053246357 0.041973114 -0.028914874 -0.004687944
-0.060835294 -0.09848118 -0.07801088 -0.01327536 0.0547243 0.017298514 0.01789886 0.0901305
-0.04314187 -0.12141738 -0.10541725 -0.08986608 -0.028856076 -0.019752024 0.039179817 -0.012726395
0.04285887 -0.03321956 -0.025528757 0.029861962 -0.0632683 0.03197753 -0.09225653 -0.054353002
-0.047601324 -0.061759926 0.10628953 0.03794243 -0.03242105 0.006954354 -0.027362855 -0.03074
-0.06557607 -0.03856758 0.046333496 0.06622671 0.10878945 0.05109697 0.035032146 -0.056247853
-0.012958509 -0.10637865 -0.030707484 -0.11280967 0.022724763 -0.014950284 -0.09379603 -0.10216422

fc.bias f4 [2]
00000000: b061 913c 836c 793d
0.017746776 0.0608945

79 f4 [16, 3, 7, 7]
00000000: 4725 81bd 853c e2bd 6efa adbc 8693 e03d
00000010: 3afe c63c 79e2 583e 3e2a 0a3d f9d3 d1bd
00000020: b014 84bd a997 bd3d 5c31 063e c4e8 623d
00000030: 9fdc a33c 9328 d03d bc37 c2bd 204d 523d
00000040: a45f 043d 0659 b4bd b938 1b3e cbd5 fb3d
00000050: bac0 013e de75 493d 366c e53c d745 a63b
00000060: d9af 03bd 640d b9bc d062 213d 59f4 db3d
00000070: 7aaf 4cbc ca80 b3bd 87f9 223d 7e98 aabd
00000080: 9bfb d53d 594c de3d 83bf da3d 69df ebbd
00000090: 2225 20bd 0db5 893d 6a30 aabd 7431 ddbc
000000a0: 0fe1 2fbd 1e3b ad3d dead bebd f854 253d
000000b0: 32a2 e5bd a034 1cbd 5166 ddbc 6e16 43bd
000000c0: 8a80 933d d555 06bd 4c34 d6bd 72ed 32be
000000d0: 6ae9 97bd eeed dcbd 58d4 8fbd 2246 17be
000000e0: e854 00be 7891 cabd 78cf 57bd cfcd 4dbe
000000f0: 95bf 13bc e53d 02be d078 343d c1ed afbd
00000100: 2671 d9bd 258d 32be a68b c6bd 6aab 0fbe
00000110: 67a5 2dbe 0240 2ebc 4bd6 9cbd 0f27 0dbe
00000120: 1597 84bd 8f26 f4bd e7f8 d7bd 1776 bbbc
00000130: a66a 17be 024f debc b312 84bc e0db d4bd
00000140: 72a8 823d ae6e 013e 1212 1bbd 45a8 b93c
00000150: f4e4 7ebc f0e9 9ebd 413e 68bd 3310 eabc
00000160: bc07 41bd e13b 21bd 07fc bcbd 6607 c2bd
00000170: 3aa0 2ebd cd4e 5fbd ce8d 423d eccd fe3d
00000180: 0d15 ea3d a3b0 e13d 0ca5 00be eb3c 9bbd
00000190: b59b c7bd 752c 7cbc e41c 22bd e430 d3bd
000001a0: d98b 493d f3d2 b3bc 7eef 85bc 6941 8ebd
000001b0: 6c67 40bc 1339 8e3c a42c 0bbc 5d43 a4bd
000001c0: bfe4 44bd 0de8 f4bc 1df9 bebd c9a8 b8bd
000001d0: 4d91 c53d 9d47 c73d b8d4 afbc 1512 d7bc
000001e0: a065 83b9 e925 03bd e8ae 133d 1771 2a3d
000001f0: 5ceb 273c 3fd7 1a3e ae8b a0bc 25d0 6e3d
00000200: 26a4 583d e29d 983d b816 003e 2bdb 1d3e
00000210: 40ff 293e 4c85 613c 3b3a 16be 0f83 d8bd
00000220: 9906 fd3d 0afc 1a3c 4f6c 0fbd f92b 5f3d
00000230: eb57 b3bd 1882 0f39 edad 803c 6f5f a6bd
00000240: 3793 113d 2459 a93d f6ff 0b3e 00e8 653d
00000250: 7f14 8d3d 16c7 023e 2002 833a 9977 3e3c
00000260: 1b1e 5abd 700b d63b 6eaa a7bd 4036 083d
00000270: a1e7 893c fdcf a43b 6a45 a23c e5ee 2b3d
00000280: 3572 063d 8815 dabc c33c 7fbd 835b 543d
00000290: 20c8 b03d e4c4 d53d 26e8 a83d 20b1 983d
000002a0: c302 153d aefd b4bb 0544 d63a 25f3 cebb
000002b0: ebad 693c c9c3 f53d 51b1 a13d 85ea 83bd
000002c0: 7b3c 913c f6bb b13d aebe 053e 8595 cf3d
000002d0: fc6e 0a3e 6022 4c3d 9c39 fcbd f125 d8bd
000002e0: 4737 e1bd 3ab8 d9bd c292 5abd 52e7 39bc
000002f0: 2a95 4abd fdf7 f0bd 4826 8bbd 0caa ee3c
00000300: 7c9e eebd 4fe9 4abd dbf4 d7bd 62b2 fe3d
00000310: 80b3 563c 3aa6 723d 1d4a 4b3d 2f2f ffbd
00000320: c036 4fbd b933 24be 5f57 04be 61d9 7abd
00000330: 97c7 e43d 78f7 ac3d 7907 743d 4a1b 1fbd
00000340: 62a7 2ebc 6bfd 99bd a858 8cbd c543 733d
00000350: 79d9 e53c 29b7 6e3d de2d 663d 8903 a93d
00000360: 3f5f a0bd 1e60 9abd 9dbf 87bd 2e96 1bbc
00000370: 6eb9 d43d 4e09 4f3d 6d74 e53d bb75 f2bb
00000380: 8041 a0bc 9cd2 5e3d 117c 663b 22d7 8c3d
00000390: 4530 503d 6b46 e23d 897d a03d 95c6 25bd
000003a0: 0199 973d 17a1 113e a96b ed3d 9b6b 15bd
000003b0: 730d 253a 8b59 c73d 5b34 923d 4911 843c
000003c0: ad23 86bd a8bf 93bc 6bac cb3d 7130 793c
000003d0: c6b3 8cbd fa2f e6bc 6533 793d 4d18 bdbd
000003e0: 4c3e 553d c5f5 a33c 96d6 833c 9964 6abd
000003f0: 3bb3 acbd feaf 833d c64b a93d d9ba d93c
-0.06305938 -0.110466994 -0.021237578 0.10965638 0.024291147 0.21180142 0.03373169 -0.10245509
-0.06449258 0.092574425 0.13104767 0.055397764 0.020002661 0.10163989 -0.09483287 0.051343083
0.032317773 -0.088060424 0.15158357 0.12296637 0.12671176 0.049184673 0.0280057 0.0050742435
-0.032150123 -0.022589393 0.039400876 0.10739965 -0.012493009 -0.08764799 0.03978875 -0.08329867
0.104483806 0.10854406 0.10681059 -0.115172215 -0.039097913 0.06723986 -0.083100155 -0.02700112
-0.042939242 0.08458541 -0.09310506 0.040364236 -0.11212577 -0.038136125 -0.027026327 -0.047628812
0.07202251 -0.0327967 -0.104591936 -0.1747339 -0.07417567 -0.10787569 -0.07022923 -0.14772847
-0.12532389 -0.09891027 -0.052688092 -0.20098041 -0.009017845 -0.12718923 0.04406053 -0.0859027
-0.106172845 -0.17436655 -0.096946046 -0.14030233 -0.16957627 -0.010635378 -0.07658061 -0.13784431
-0.06474129 -0.11921417 -0.10545521 -0.022883458 -0.14786777 -0.027137283 -0.016122198 -0.103935
0.06379785 0.12639877 -0.03785903 0.022663245 -0.015557516 -0.07759464 -0.056699995 -0.028572178
-0.047126517 -0.039363746 -0.09227758 -0.094740674 -0.042633273 -0.05451851 0.047498517 0.1244162
0.11429796 0.11020019 -0.1256296 -0.075799786 -0.09746496 -0.015391459 -0.039578333 -0.103120595
0.049205635 -0.021951174 -0.01634955 -0.0694607 -0.011743408 0.0173612 -0.00849453 -0.08020661
-0.04806971 -0.029895807 -0.09324858 -0.09016568 0.096468545 0.09730456 -0.021463737 -0.02625374
-0.00025061984 -0.032018576 0.036055475 0.041611757 0.010248985 0.15121172 -0.019597854 0.05830397
0.05289092 0.07451989 0.12508667 0.15415637 0.16601276 0.013764691 -0.1467065 -0.105718724
0.12354774 0.009459505 -0.0350154 0.054485295 -0.087570034 0.00013686006 0.015707934 -0.08123671
0.035540786 0.08268955 0.1367186 0.056129456 0.06888675 0.12771258 0.000999514 0.011625194
-0.053251367 0.006532125 -0.08186804 0.03325486 0.016834082 0.005029677 0.01980849 0.041975874
0.03282376 -0.026621595 -0.062313806 0.051845085 0.08631921 0.104379445 0.08247404 0.07455659
0.036379587 -0.005523405 0.0016347176 -0.006315606 0.014262657 0.12000234 0.078951485 -0.064412154
0.017729035 0.08678429 0.1306102 0.101359405 0.135189 0.04983747 -0.123156756 -0.10554112
-0.109968714 -0.106308416 -0.053362615 -0.011346655 -0.04945866 -0.1176605 -0.06794411 0.029133819
-0.11651322 -0.049538907 -0.10544749 0.124363676 0.01310432 0.059240557 0.049631227 -0.124601714
-0.050589323 -0.16035356 -0.12923954 -0.061242465 0.11170881 0.084456384 0.05957744 -0.038844384
-0.010660024 -0.07519039 -0.06852847 0.059390802 0.0280578 0.058280144 0.056196086 0.082526274
-0.07830667 -0.07537864 -0.06628344 -0.009496255 0.103869304 0.050545983 0.11203847 -0.0073992885
-0.019562483 0.05440007 0.0035169164 0.06876971 0.050827283 0.110485874 0.07836444 -0.040472586
0.0740223 0.14221607 0.115928 -0.036479574 0.00062962546 0.09733876 0.07138892 0.016121523
-0.06549773 -0.018035725 0.099449955 0.015209303 -0.068702266 -0.028099049 0.06084003 -0.09233151
0.052061364 0.020014653 0.016093533 -0.057224844 -0.08432623 0.06430052 0.08266406 0.026578354

80 f4 [16]
00000000: 7e4a 4e3f a537 a9bf c984 24bf 681f b3be
00000010: 10d7 423f c36b a83f 8163 da3e 6cf1 9bbf
00000020: 61a8 01bf cc3d 593f 084e 1a3e 418d aebf
00000030: 30d3 65bf 7976 6c3f 53da a8bf b414 373f
0.80582416 -1.3220106 -0.64265114 -0.349849 0.7610941 1.3157886 0.4265404 -1.2183051
-0.5064755 0.8485992 0.15068829 -1.3636857 -0.8977537 0.92368275 -1.3191627 0.71515965

82 f4 [32, 16, 3, 3]
00000000: e4ac 87bb 3e60 d13b 048f a1bc ab19 f3bc
00000010: 875d 39bd c01f 7dbd 9dde b8bd 088b 2bbd
00000020: 2317 80bd da06 173d 6c50 5f3d 0449 17bd
00000030: 7b78 72bc 066c 49bd 681d 2bbd b66f 84bd
00000040: 83c7 1e3d a894 c5bc 6d7c 26bd 446d 8f3c
00000050: 6cd0 3abd 875d 643c 1a3c d1bb 1bef 80bd
00000060: a022 2cbd 16bb 3c3b e233 6c3c 8ddd b4bd
00000070: 4ca7 febc b896 83bd 4bbd ebbd b16a 4dbd
00000080: 8f15 043c 5003 cabd bc35 24bc 64c9 e9bc
00000090: 0719 97bd 43a6 8cbd 721d 67bd e9ed bcbc
000000a0: fb22 8a3d 764b 11bd 6635 123c ce80 3b3d
000000b0: 7bec eb3d 3d21 253d d520 983d 1a96 56bc
000000c0: 9dfc 66bd 3d1a 7bbc cbff 2fbd 0ca5 d0bd
000000d0: f849 14bd 06f8 23bd bed8 d03c 9df0 a7ba
000000e0: d111 2f3d 3e50 dabd a2c8 583c a4c1 d43b
000000f0: 76e4 00be 4580 e4bc c5b5 19bb ab81 1ebd
00000100: 1beb 2a3d b054 2cbd 4531 45bd 293b bdbc
00000110: 0af1 83bd 02d2 d13b 4372 b13d 7738 0b3d
00000120: 47dc bdbd c3af 163c ff53 4abd 0c28 bbbc
00000130: 040e 7dbd a683 79bd 5366 6c3a d0e8 513d
00000140: 42ec 193d f3ac 3b3d f7b7 84bd af21 1abd
00000150: 22cc 3a3c 9f50 49bd 3626 833d 652b 4a3d
00000160: 4e9f 6a3c 6115 28bb ad98 a93a 121c 833d
00000170: a14a 8a3d d286 9fbc 2045 443d 126b 1bbb
00000180: 2210 36bd 8151 cd3c 8ced 0ebd 96a2 4fbd
00000190: 53fa c83b bdf6 26bc 4a59 0dbd 23ac 42bd
000001a0: 3f3d e63b 54a4 b43b c4c8 e4bc 3a83 13bb
000001b0: e4ea 223d 06f3 bb3d 234c a23d dd09 62bd
000001c0: bf6a 3c3d 1226 67bd 5ae6 efbc 6ad7 553d
000001d0: af45 52bd 4937 843c dfd8 70bb ce09 ca3c
000001e0: c0f7 6abd 7df2 d8bc 6219 5cbd 573a 96bd
000001f0: fcc6 b83c 1ad9 91bb 73fe 733c 574f e9bc
00000200: 5268 c1bc 3074 a9bc 63ee 01bd 91e0 f8bc
00000210: 54df f2bb 2dc9 25bc 0c65 ff3c 76e4 a9bc
00000220: 310e 573d c4ac 2fbd 1c8a e33c b058 be3c
00000230: 876b 1cbc 0812 293d 91a3 6bbc 4710 55bc
00000240: f0a6 cbbc 4329 1c3b 504a 08bc beed b93c
00000250: eb34 b7bb 7759 043c a560 ee3c 027e 073b
00000260: 7373 e9bb 538b 63bb efd3 c43a 9f88 1fbd
00000270: 6e10 efbc 98aa bc3b 81bc 023d eb2d 913b
00000280: 9bb6 91bc 9abb 7a3c 9dfe dabb 4186 95bc
00000290: 0c88 88bc a99e 2abd 9d82 d93c a19c 353d
000002a0: 5be8 1dbd 743c 1abd 9e7d 573c 3ea4 b03b
000002b0: cc01 783d f0fb a23b 0e90 f63b bfa8 213b
000002c0: 1515 833c 567a e63b 2d2a a8bc 2314 37bd
000002d0: 853b a93d d49a 6bbc 1d27 593d 04a3 a6bb
000002e0: aaa3 803d b221 463b b053 603d 0852 f53c
000002f0: 3621 5e3c 5148 79bc f4a3 d5bc 0fbc f23a
00000300: fc93 783c 68be d5bc 7180 bdbb 9d1a 64bc
00000310: b626 6d3c 8ea1 edbc b41d 95bc 1876 4b3d
00000320: 8f59 71bc b311 093d d89c 133d 2479 98bc
00000330: 1e66 063d 3115 ecbb e206 c5bc 6805 6cbb
00000340: ee76 1ebd 2bd8 61bd c538 00bc e4d0 3f3c
00000350: 7782 06bc 9512 e73b ed42 7bbc fcaa 053b
00000360: 68c8 4b3d 549a dc3c 4aa5 bc3c 07e2 f43c
00000370: 4466 463d feb1 cd3b 83fb a0bc 953a 6fbc
00000380: 3ca5 74bc 0582 39bd 1947 37bd 4aaf 8e3c
00000390: 1bfc 9f3c c583 4f3c eecc 27bd 14a4 9e3a
000003a0: fe06 1dbc d93c 063c 3355 803c 1bc3 6bbc
000003b0: 784d 4e3c d8aa d63c 8cfc 57bc 786e 95bc
000003c0: 19db e6bb ce69 1cbc 3cef 173c ffaf 3d3b
000003d0: 60bc 11bd 711f a2bc fdf4 c3bc 6979 e23c
000003e0: 432c 1f3d a30f e23c 67ef b23c 53a6 9c3c
000003f0: 34c8 a0bc 061c d2bc 3aac 14bd 4e70 e63b
-0.004140483 0.006389647 -0.019721515 -0.029675325 -0.04525521 -0.061797857 -0.09026835 -0.041880637
-0.06254413 0.03687177 0.054520056 -0.036934868 -0.014799233 -0.049175285 -0.04177609 -0.0646662
0.038764488 -0.024118736 -0.040646005 0.017508157 -0.045608923 0.013938314 -0.0063853385 -0.06295606
-0.04202521 0.0028798035 0.014416667 -0.0883132 -0.031085633 -0.06425232 -0.11510714 -0.050150577
0.008061781 -0.09863913 -0.010022577 -0.028538413 -0.073778205 -0.068676494 -0.056424566 -0.023062663
0.06744953 -0.035472356 0.008923864 0.045777135 0.115197144 0.0403149 0.07428137 -0.01309731
-0.056393255 -0.01532608 -0.042968553 -0.1018773 -0.036203355 -0.040031455 0.025493976 -0.0012812797
0.0427416 -0.10659836 0.013231428 0.0064928103 -0.12587151 -0.027893195 -0.002345429 -0.03869788
0.04172812 -0.04207295 -0.04814269 -0.023099499 -0.06442459 0.0064032087 0.08664372 0.033989396
-0.0927053 0.009197178 -0.04939651 -0.022846244 -0.061780944 -0.060916565 0.0009017933 0.051247418
0.03757883 0.045819234 -0.06480401 -0.03762978 0.011401208 -0.049149152 0.064037725 0.04935779
0.014320208 -0.0025647508 0.0012939178 0.06401838 0.067525156 -0.019473467 0.047917485 -0.0023714942
-0.04444898 0.025063278 -0.03489451 -0.050692163 0.0061333566 -0.010190663 -0.03450898 -0.047527444
0.007026344 0.0055127535 -0.027927764 -0.0022508637 0.03977479 0.091772124 0.07924678 -0.055185188
0.04600024 -0.05643279 -0.029284645 0.052207388 -0.051335987 0.016139643 -0.003675036 0.024662878
-0.05736518 -0.026482815 -0.053735144 -0.07335346 0.02255582 -0.0044509294 0.014892208 -0.028480215
-0.023609314 -0.020685285 -0.031721484 -0.03038052 -0.0074118767 -0.010118765 0.031176113 -0.020738821
0.05250377 -0.04288937 0.027775817 0.023235649 -0.009547121 0.04127696 -0.014382259 -0.013004369
-0.024859875 0.0023828305 -0.008318499 0.022696372 -0.005591025 0.008077971 0.029098818 0.0020674472
-0.0071243583 -0.0034720495 0.0015016774 -0.03894865 -0.029182639 0.005757641 0.031918053 0.0044305227
-0.017787268 0.015303517 -0.0066831843 -0.018252494 -0.016666435 -0.041655216 0.02655154 0.044338826
-0.03855167 -0.03765531 0.013152508 0.005390673 0.06054859 0.004973881 0.007524497 0.002466723
0.016001264 0.0070336265 -0.020527923 -0.04469694 0.082633056 -0.014380176 0.053015817 -0.005085351
0.062812164 0.0030232486 0.05476731 0.029946342 0.013557723 -0.0152149955 -0.026079156 0.0018519181
0.015172001 -0.02609177 -0.0057831337 -0.013922361 0.014474561 -0.0290077 -0.01820264 0.04967317
-0.014730825 0.033464145 0.03603825 -0.018612452 0.03281223 -0.0072046746 -0.024051134 -0.0036013965
-0.03868764 -0.055137794 -0.007826035 0.011707518 -0.008209816 0.0070517757 -0.015335781 0.0020396104
0.04975167 0.026929058 0.023028035 0.029892934 0.04843737 0.006277322 -0.01965118 -0.014601369
-0.014931973 -0.045290012 -0.04474554 0.017417569 0.019529393 0.012665694 -0.04096692 0.0012103342
-0.009584187 0.008193218 0.015665626 -0.0143897785 0.012591712 0.026204512 -0.01318277 -0.018241152
-0.0070451614 -0.00954671 0.0092733465 0.0028944013 -0.03558004 -0.019790383 -0.02392053 0.027645783
0.03886057 0.027595347 0.021842672 0.019122278 -0.019626714 -0.025648128 -0.03629706 0.0070324307

83 f4 [32]
00000000: 6344 513f a31d 84be d4ca 21be 5ed4 e03e
00000010: 5002 f83e 1821 4d3d 9087 d5be 4889 a9bd
00000020: 0537 513d 767f 043f 2e8a e5be ba63 893d
00000030: 36d5 eabe 8d3c 88bd 7a70 53bd afba 7fbe
00000040: 1758 b63e d624 ef3e fe80 ce3e 710e 30be
00000050: 468b 893e 21fa 2e3d 246b 0a3f 5663 c83d
00000060: 1a35 06bf 10a2 40bf f441 d73e 4a48 1b3f
00000070: 1554 553e 0495 87be bea2 c13e 0c60 d3be
0.81744975 -0.2580386 -0.15800029 0.43912023 0.48439264 0.05008039 -0.41704988 -0.082781374
0.05107786 0.5175699 -0.44831985 0.067084745 -0.45865792 -0.06652174 -0.051620938 -0.24973558
0.35614082 0.4670779 0.40332788 -0.17193009 0.2686407 0.04271901 0.54069734 0.09784572
-0.52424777 -0.7524729 0.42042506 0.6065718 0.20832856 -0.26480877 0.37819475 -0.41284215

85 f4 [32, 32, 3, 3]
00000000: 1be2 46bc f554 363d e009 f3ba 915e a13d
00000010: d977 f03d 8752 6a3d 0a06 a73c f76c 823c
00000020: 81fe 1eb9 a60e 32bc b5db b1bd 3b33 22bd
00000030: baab ae3d 0016 91bc fb0b e43d 7e89 413b
00000040: 2474 963c 890a 863c ef9f a53c cb55 873d
00000050: 3280 01bd 068d 87bd 5eae f33c 858c f2bc
00000060: 139a c5bc 96c3 453d 87b8 81bb 407b 813d
00000070: c271 093c 60e1 ae3d f7ce f33a 87f2 94bc
00000080: 441f bf3c 4586 0abd fb08 45bd 5ecc 83bd
00000090: e120 4b3d d984 2b3c 4424 82bc 38fd b6bd
000000a0: 1285 e3bb be1a 03be 261f b6bd 834b 53bd
000000b0: 28e9 d9bc 4b10 02bd 43e8 4a3d 597d fdbc
000000c0: c31f 573d 92f1 c8bb b208 b03b b7b7 7ebc
000000d0: 6d19 80bb 959e d83c 45cc 6f3c 5580 62bd
000000e0: aed6 b33d f439 223d 8b23 8dbd 63f6 1b3e
000000f0: af60 9a3d efd9 3e3d 2331 043e 18a3 ecbc
00000100: a3de 173d 213e 593c 07a8 2bbc 4c19 4dbd
00000110: 7fab efbd 7c19 a33c 2c19 f8bb 3881 eb3c
00000120: cbd6 2dbc 61c0 b3bc fc03 163d fcef 1e3d
00000130: e9f6 18bd df20 d8bb 12a1 c4bc 21dd 10bd
00000140: 5383 8fbd 2cab 10bd c211 85bd eca2 1cba
00000150: ec2e 813d 9357 ca3d a7b9 443c 4a68 7f3d
00000160: 9469 a63d d2b7 763d 7180 3d3b a7b3 b63c
00000170: 5fc8 113d 3170 e83b fc30 573d b79f 9f3d
00000180: e761 eb3a f25d 9bbc ba70 003d 3c2f 183d
00000190: c0d2 3b3c fb83 f1ba 3cff 4e3d 4e8e 893d
000001a0: 4535 353d bf48 273d 9c7b 1a3d 8d27 1b3d
000001b0: b803 063d 836f 03bd 9b9a ef3c ad0f 363d
000001c0: 146a b53c 5c00 213d 2429 cb3d 1bc4 553d
000001d0: 6151 193e 0682 0e3a b778 aebc 003e 73bc
000001e0: 4d67 8fbc 50a7 093d b3e7 9c3c 60a7 493d
000001f0: 92b1 8a3d 61ec 093d eca2 b53c 5a38 fe3c
00000200: 9b86 363e d7f6 023d 4716 513d 2bae f63d
00000210: f172 edbd 6b1e c23b e493 80bc afc8 9fbd
00000220: abc7 3ebd 491c a43c 804c 04bd b436 983c
00000230: 3ccc 81bd ffaf 12bd 7a45 b5bd f6b2 c9bd
00000240: b510 2e3d 673c 0a3d 225c 28bc 4c01 023e
00000250: 56b5 e53d 5bdd 593c 0bee d239 04dd 1dbd
00000260: 759a a03c 48aa f53b 7805 a13a e6dc 61bc
00000270: 2638 8a3d 1dc5 163d 74d6 aa3c bdfb a13c
00000280: 8e74 0bbd 0a09 13bd 81fa 7dbd e040 33bb
00000290: d6de 08bd 2c77 97bb bfea 153d 876b 3ebd
000002a0: fa1a 24bd 8bab 293c 6556 67bc 80d0 bc3c
000002b0: d7cc 063d 9bac 2a3d 986c bfbc 6416 8fbd
000002c0: 3bad 74bd 784f 813d 7d4c 62bd 3638 19bd
000002d0: 5de3 d1bd 2425 f53c 2118 4ebd 28a6 c3bc
000002e0: 5905 a8bd 937a c93c 6525 fcbc eab2 103c
000002f0: e0c8 bcbd bafd 533d 2988 6d3d d5ad 923b
00000300: d7bf 0cbd cac6 53bb 5d10 0f3d 46c1 593c
00000310: 7347 5dbd 5586 12bd 7569 45bd 3d1d c73c
00000320: 150f 1c3c e224 55bd 236a a2bc 9445 21bb
00000330: 68d8 9cbd 6e26 c0bc 5964 67b9 d5e4 8bbc
00000340: d6fd 713d 762c 3a3d 1bbc 56bd 874d e63d
00000350: bac5 7d3c 2482 eebc 7b0d 873c 981f 313d
00000360: b2aa 02bd 38ce 2f3d 27c8 4abc 3bbc 05be
00000370: c33c fabb 610e b0bd 2dcb fdbd f27e adbd
00000380: 2398 fb3b 1d29 13be c716 e6bd 5ff0 12be
00000390: a839 c4bd 6e0c aebd 20db 14be 6101 a23c
000003a0: f429 99bc 6912 013c 089c e0bc 93d5 debc
000003b0: 7f59 08bd ea85 c63c c0bb f1bb 83a9 24bd
000003c0: 00a9 c4bc 6831 ab3c a996 2ebd e838 81bd
000003d0: 3e5d a6bd a033 8ebc f55e 56bd 91f9 34bd
000003e0: dabb bb3c 5e26 bd3d bb0b 413d 55b2 703d
000003f0: 0e2e f03c b6e5 2c3c 6283 75bc edd6 f03c
-0.012138869 0.044514615 -0.0018542372 0.07879365 0.11741609 0.05720761 0.020388622 0.0159211
-0.00015162864 -0.01086775 -0.08684484 -0.03959964 0.08528848 -0.017710686 0.111350976 0.0029531415
0.018365927 0.016362445 0.020217864 0.066081606 -0.031616397 -0.06618695 0.02974623 -0.02960802
-0.02412132 0.04828223 -0.003958765 0.06322336 0.008388938 0.085390806 0.0018601109 -0.018182052
0.023330338 -0.033819456 -0.048104268 -0.06435464 0.049591903 0.010468685 -0.015886433 -0.089350164
-0.0069433535 -0.1280317 -0.0889266 -0.051585685 -0.026600435 -0.03175382 0.04953791 -0.03094356
0.052520525 -0.006132313 0.0053721303 -0.015546731 -0.003909281 0.026442805 0.014636104 -0.05529817
0.08781181 0.03960605 -0.06891545 0.15230708 0.07537972 0.046594556 0.12909369 -0.028886363
0.037077557 0.013259442 -0.010477073 -0.050072953 -0.11702632 0.019909613 -0.00757136 0.02874814
-0.010610293 -0.02194232 0.036624894 0.038803086 -0.037344847 -0.0065957154 -0.024002586 -0.035367135
-0.0700747 -0.035319492 -0.06497528 -0.0005975205 0.06307778 0.09879985 0.012007154 0.062355317
0.08125606 0.0602339 0.0028915668 0.022302462 0.03559148 0.0070934524 0.05253695 0.07794135
0.0017958254 -0.018965695 0.031357504 0.03715442 0.011463821 -0.0018426174 0.05053638 0.067165956
0.044240255 0.04084086 0.03771554 0.037879515 0.03271839 -0.032088768 0.029248526 0.044448543
0.022145309 0.039306983 0.09919956 0.052188974 0.1497245 0.0005436245 -0.021297796 -0.014846325
-0.017505312 0.033606827 0.019153452 0.049231887 0.0677215 0.033672694 0.022172414 0.03103273
0.17824785 0.031973686 0.051046636 0.12044939 -0.11594189 0.0059240363 -0.01569552 -0.07801949
-0.046577137 0.020033019 -0.03229952 0.018580772 -0.06337783 -0.035812374 -0.08851142 -0.09848587
0.0424964 0.03374901 -0.010275872 0.12695807 0.11216228 0.013297404 0.00040231677 -0.038540855
0.0196049 0.0074971057 0.0012284955 -0.013785576 0.06748991 0.036809076 0.020854212 0.019773358
-0.034046702 -0.035897292 -0.062006477 -0.00273519 -0.033415638 -0.0046223607 0.036600824 -0.046489265
-0.04006479 0.01035584 -0.014119719 0.02304864 0.032910194 0.041668516 -0.023367211 -0.069866925
-0.059735518 0.063139856 -0.055248726 -0.037407123 -0.10248444 0.029924937 -0.05031598 -0.02388294
-0.08204145 0.02459458 -0.03077955 0.008831719 -0.09218001 0.051755644 0.05799118 0.004476289
-0.03436264 -0.0032314532 0.034927715 0.013290709 -0.054023217 -0.03577264 -0.048196275 0.024305934
0.00952508 -0.052037127 -0.019826 -0.0024608122 -0.07658464 -0.023455825 -0.00022067259 -0.017076889
0.059079967 0.045452558 -0.052425485 0.11245256 0.015489036 -0.02911479 0.01648592 0.04324302
-0.03190107 0.042921275 -0.012376822 -0.13060085 -0.007636638 -0.085964926 -0.12392268 -0.084714785
0.007678048 -0.14371152 -0.11234813 -0.14349507 -0.095813096 -0.084984645 -0.14536715 0.019776048
-0.018696763 0.0078779245 -0.027418151 -0.02720145 -0.033288475 0.024233777 -0.007377118 -0.04020072
-0.024006367 0.020897582 -0.04262415 -0.06309682 -0.08123253 -0.017358601 -0.05233665 -0.044183318
0.022916723 0.092358336 0.047130328 0.05876382 0.029318836 0.010552814 -0.014984937 0.02939936

86 f4 [32]
00000000: 58b2 ce3d c49c d53e 557a 0ebe 232a 3b3d
00000010: b608 f43e 765c 1e3f 8e22 803e b362 8a3e
00000020: 16de 42bd fde1 323e a02b 543e 83ad ae3e
00000030: 27b9 8a3e 99f5 2fbf 082b a33e 71cb 163f
00000040: 26e6 05be d622 a2bd 0207 ffbe ae9e 4cbe
00000050: 505e afbe 2374 3f3d 562c e23e 6b38 cd3e
00000060: 349a 323e b336 823e 0eca 833d 095e 063f
00000070: d6c0 043e 9ca9 72be 989d 32bc 2675 c7bd
0.1009261 0.41721165 -0.13913853 0.04569448 0.47662896 0.61859834 0.25026363 0.27028427
-0.04757508 0.1746902 0.20719767 0.34116754 0.27094385 -0.6873413 0.31868768 0.58904177
-0.13076076 -0.07916801 -0.49810034 -0.19982406 -0.34251642 0.046741616 0.4417445 0.40082106
0.17441636 0.25432357 0.06435023 0.52487236 0.12964186 -0.23697513 -0.010901831 -0.09739141

88 f4 [32, 16, 1, 1]
00000000: ddb7 823e e963 e63e ec5e afbe a75a fbbc
00000010: ef0b b93e 43c8 91bd 5e04 973e 46f8 b83e
00000020: 0581 633e 44b3 9fbe 4b0e 953d 516f 58bb
00000030: 17ef 66be 1d7e 323d 3ce6 3ebe 56ab ee3e
00000040: e343 83be 8d79 043f fa23 48bd 0af0 133d
00000050: 3bdb 91be 68ce 01be 4d95 923d 7e2b a53e
00000060: d148 a83e 9122 693e cc0a 8bbe 8d08 7dbc
00000070: dc7c e8be 93fc 4e3d acdc 8bbe 5cab c4be
00000080: e6fd c9bd b478 993d 73c1 adbc acaa e33c
00000090: f4b7 1dbe c398 443d 7754 213e 9511 4abd
000000a0: 438b cebd b7cd 3cbd 9cfc 4fbe 13bd 69bd
000000b0: 005c cfbd 1ee1 de3d 22f2 70bd 36e3 86bd
000000c0: 55a3 af3d b1af 313c 5b8b 28be 3cbb f83b
000000d0: 9263 22bc 9049 bfbd b845 e7bd db16 243d
000000e0: a0f1 61bd 2deb 71bd 200b a83d b0e7 fa3c
000000f0: 2c06 52bd 44df bdbd a9de 433d 67a5 ad3c
00000100: 479e a63d ad35 2b3c 316d 3dbd 9ed2 a53e
00000110: b367 033f 3946 d0bd 3b06 a7be 8f1b 5e3e
00000120: 7f45 a63e 51a7 ecbe 50ba c7bd 6aff 6a3e
00000130: 63e5 1fbd 6155 cabe d56d 1fbe 1ebc fa3e
00000140: 9b1b b03d d3eb d1be 50c7 bbbd b7d1 ad3e
00000150: 4460 73be a6c9 3d3d b444 243d a840 5fbe
00000160: e403 b03c fd70 9e3e e80b 5cbe e266 c43e
00000170: 01cf a13d 1136 823e 92f7 853e 2bc8 033e
00000180: bc0c fb3d c20f f13d 9e2a 203e fc92 4b3e
00000190: f6a5 0fbe 7cdc 673e f4c3 203e af85 77bd
000001a0: 6f3d de3d 2378 9c3e 980e eebd 6050 2f3e
000001b0: 97db 403c ad81 283e fe08 3c3e f892 40be
000001c0: f39a 753e d798 b0be b5a5 243d f3aa 5bbc
000001d0: 7fd6 c1bb 9d8e 643e 9567 36be 8927 c3be
000001e0: 565e 5dbe e71a 30be f0fb b5be 2836 1d3e
000001f0: 7b29 87bd 42d0 30be 3c41 393e 28c0 2a3e
00000200: 51ee 96bc 1fd0 05be 7213 03bd 53a5 d33d
00000210: e4b0 9ebd a949 8abd 22ef 1c3e 0c66 633d
00000220: ecbd 2bbe 50ed 15be 65c6 7e3c 1283 fc3d
00000230: b7ed 5a3e 4f06 9b3e 50d6 66be 14dd b0bd
00000240: 2fb1 d23e 5ccc 233f f75f 773e f081 bc3e
00000250: e46a 9cbc 859b dd3e 0b56 143e c3d2 ff3d
00000260: ebd4 f6bd 5a82 823e 4692 a53d 8255 613e
00000270: 7438 5bbe fd9e cd3e a85e a1be df13 8abe
00000280: 5220 873d 4a51 793d 43f9 f53d bfa0 103d
00000290: 3e91 1fbe d67c 123d ccb5 c13d 3cd5 273e
000002a0: 839f 1c3e c30a 9c3d 8ab7 e7bd 9776 89bd
000002b0: 7713 883d d5da 253e d510 0ebe bca6 70bd
000002c0: b067 7bbe 8898 a6bc 47ba 7dbe b7b4 573c
000002d0: dc51 273e e355 b7bd c852 363e ecf0 67bd
000002e0: 9c95 d73b 69f3 3bbe 5a86 3b3e 89c6 913c
000002f0: 4eff 4b3e 718e 8c3e 5113 0abe 158c c93d
00000300: 6f8f af3c 611f 973d f1aa 023e c1b2 353e
00000310: 263e c2bd 4af6 aabc 4cb1 df3d 162d 6cbd
00000320: 293a 933d dfc9 f03d 5138 823d b612 b23d
00000330: 741f 093e d98c f83d 6e10 ca3d d6a2 d23d
00000340: f72e 203e 16ea 4b3e 5ff0 b1bd ca9e 503e
00000350: c46c 8cbe b1f7 06be 1739 00be 5a34 98bc
00000360: 98a0 00be c506 95bc 238e 26be fee1 913e
00000370: 276f 353e 05b7 fdbd 1813 a73e cdad 89be
00000380: cd83 2c3d 5aa8 283e e3f2 3abe 353d cabd
00000390: cc43 71be 354b 38be 1b3a 503e b810 373e
000003a0: 59b6 173e 906d d1bd e1c5 f53d 53fb 1b3e
000003b0: 100b 283d 8a0c 10be 8df7 683e 4867 463e
000003c0: bec8 8d3e 7cbd c33b d1b0 5c3e 538f c13e
000003d0: faf4 783a d4ca 67be 0914 023c 2d79 893e
000003e0: 985a 49be b76e 333e b6e5 21be 9e19 66be
000003f0: 47ca 3f3d 9396 8ebe fbf7 073e 2cb6 2f3d
0.25530902 0.449981 -0.34252107 -0.030682875 0.36141917 -0.07118275 0.2949552 0.36126918
0.22217186 -0.31191456 0.07278117 -0.0033025334 -0.22552143 0.043577302 -0.18642515 0.46615094
-0.2563773 0.5174797 -0.048862435 0.03611759 -0.28487572 -0.12676394 0.07157383 0.32259744
0.32868055 0.22767092 -0.27156675 -0.015443933 -0.4540776 0.050533842 -0.27316797 -0.38411987
-0.098628804 0.074937254 -0.021210408 0.027791344 -0.15402204 0.047997247 0.15754877 -0.049333174
-0.10085156 -0.046094622 -0.20311207 -0.05706508 -0.101249695 0.108827814 -0.058824666 -0.06586306
0.08576075 0.010845111 -0.1645941 0.0075906795 -0.009911435 -0.09340203 -0.11292595 0.04006086
-0.055162072 -0.05906217 0.08205247 0.030628055 -0.051275417 -0.092711 0.047819767 0.021197034
0.08135658 0.010449809 -0.04624671 0.3238725 0.5133011 -0.10169644 -0.3262194 0.216902
0.32474896 -0.46221402 -0.09752333 0.22948995 -0.03903712 -0.39518264 -0.15569241 0.48971647
0.08599015 -0.41000232 -0.09168875 0.33949062 -0.23767191 0.046334885 0.040104583 -0.21802008
0.02148623 0.30945578 -0.21488917 0.38359743 0.07900811 0.25431874 0.26165444 0.12869327
0.12258288 0.11770584 0.15641257 0.19880289 -0.14028153 0.22642702 0.1569975 -0.060430225
0.10851561 0.30560407 -0.11623877 0.17120504 0.011771104 0.16455717 0.18362805 -0.18806064
0.2398489 -0.34491608 0.040197093 -0.013407457 -0.0059154625 0.22320028 -0.17812951 -0.381161
-0.21618018 -0.17197762 -0.35543776 0.1535269 -0.06599709 -0.17266944 0.18091291 0.16674864
-0.018424185 -0.13067673 -0.032000966 0.103342675 -0.07748583 -0.06752331 0.15325597 0.05551724
-0.16771668 -0.14641309 0.015550231 0.12329687 0.21379744 0.3027825 -0.22542691 -0.08635917
0.41150805 0.639837 0.24157701 0.36817884 -0.019093938 0.43282714 0.14485948 0.124913715
-0.1205233 0.25490075 0.0808454 0.22005275 -0.21408254 0.4016036 -0.3151753 -0.26968285
0.065979615 0.06086854 0.120104335 0.03530955 -0.15582749 0.035763584 0.09458503 0.16389936
0.15295224 0.0761924 -0.11314304 -0.06712072 0.066443376 0.16196759 -0.13873608 -0.05875276
-0.24551272 -0.020336404 -0.2477809 0.013165644 0.1633982 -0.089519285 0.17805016 -0.056626245
0.006579114 -0.18354572 0.1831297 0.017794864 0.1992161 0.27452424 -0.13483931 0.09841172
0.0214307 0.07379032 0.12760521 0.1774397 -0.0948451 -0.020869393 0.109224886 -0.057660185
0.071888275 0.11757254 0.06358398 0.08694975 0.13390905 0.121362396 0.09866415 0.10284965
0.15642916 0.19913515 -0.08688425 0.20373073 -0.27426732 -0.13180424 -0.12521778 -0.01857965
-0.12561262 -0.018191705 -0.16265158 0.2849273 0.17718183 -0.12388424 0.32631755 -0.26890412
0.042117883 0.16470471 -0.18256716 -0.098749556 -0.23561019 -0.17997439 0.20334665 0.17877471
0.14815654 -0.102259755 0.12000633 0.15232591 0.041026175 -0.14067283 0.22750683 0.19375336
0.27692217 0.005973516 0.21551825 0.3780466 0.00094969536 -0.22635967 0.007939347 0.26850262
-0.19663465 0.17522703 -0.15810284 -0.2247071 0.046823766 -0.27849254 0.13278191 0.042898342

89 f4 [32]
00000000: af32 62bf aa22 f73d a653 a73e 4547 2b3e
00000010: 3241 c8be 3083 c1be 3ecf 47bf d2b4 103f
00000020: 6195 813d ec09 aebf 5c89 9abe 43b7 bcbd
00000030: 840a 2dbf bc94 2b3c 019c c3be 4c42 9cbe
00000040: 9068 c43e e315 02bf ae47 353e be6e 083e
00000050: 5430 28be 4ed4 e53b f514 0ebf a057 37be
00000060: ca91 683e 81d4 35bc 6e30 2abe 3857 273f
00000070: c00d 1a3b 1c2c 8b3d 314e bdbe ef1a 153f
-0.8835859 0.120671585 0.32681006 0.16726406 -0.3911224 -0.377954 -0.780506 0.5652591
0.0632732 -1.3596778 -0.30182922 -0.09214642 -0.6759417 0.010472473 -0.3820496 -0.3051933
0.38361025 -0.50814646 0.17703125 0.13323495 -0.16424686 0.007013834 -0.5550073 -0.1790452
0.22711864 -0.011098028 -0.16620037 0.6536746 0.002350673 0.067955226 -0.36973718 0.5824422

91 f4 [64, 32, 3, 3]
00000000: f425 4b3d 51b3 053d 3944 913c ec85 62bc
00000010: 7029 15bd db6d 1bbc 6be9 51bd 6838 10bd
00000020: 1495 a9bc 23de b73a 6bc3 77bb b305 a83b
00000030: e319 54bd d347 10bd 873e 8fbb d877 debb
00000040: 2212 fb3b 7aa7 c0bc 2aef 693c b727 2f3c
00000050: 4999 043c 3483 0dbc 9262 91bc 4fec 7ebc
00000060: 57b0 f43b ceb1 ad3a 0445 92bb 3fd3 a63b
00000070: dd82 77bc 7ea5 82bb 884a ba3b e0be 59bc
00000080: 8a5a 6dbb ad4c bc3c 94c2 71bb 9037 393c
00000090: 7fcb 843c ca10 29bc fa1e 0c3d c3a3 0fbb
000000a0: f3f5 d4bc 7564 b33c e1e3 033d a3fd 4c3c
000000b0: 2522 ca3c 8c13 6f3c a3a1 cc3b c06e 78bb
000000c0: f6d8 183d 9bf4 b33c 4fc7 ea3c 0374 673b
000000d0: 8295 98ba 12f9 3b3d c09c 6bbb eb46 9f3a
000000e0: 87bd 9cbb 8c3b c83c b6c9 d93a 1ffb bdbb
000000f0: 2ab8 9c3c f751 a5bc e73a 93bb 1aaa 5f3b
00000100: 79cc 49bc 5228 e5bc 7496 8cbb 094d 10bc
00000110: 03a5 3ebc 6ae9 ec3c 07a8 e038 5556 a3bb
00000120: 02fb 82bb df60 10bc 2391 5a3c e2af 85bc
00000130: e727 80bc f62c 20bb d782 9a3b 9800 873c
00000140: 0aea bb3b 815d 093c 60e6 ec3b 61f2 87bc
00000150: 6ae7 3dbc 3e9b 7cbc 399b bfbb 8437 79bc
00000160: d160 edbc a09f 66bd c71e 593d cc5c 6f3c
00000170: 30b7 ec3b 6918 1c3d 3f59 113d 5c5a 7e3c
00000180: 535c 063d 5d2e 62bc 407d 8e3c 1715 b0bc
00000190: 73d9 9bbc c6a9 d4bb cbbb 23bc f3aa b6bb
000001a0: cdf3 3fbc b140 b3bb 7874 3b3c f012 0abc
000001b0: 0c97 fe3b e5c6 a4bb f81a 9fbb 6868 7f3a
000001c0: 37fe e3bb ee94 90bc b380 95bb ccf2 40bc
000001d0: 8411 9cbb beaf 90bb c255 7b3c e614 78bc
000001e0: f44d 8c3b 3e10 ecbc 96e7 343c 2dd4 d6bc
000001f0: ebca c2bc 8623 4bbc 21a5 94bb d974 0a3c
00000200: 2d84 223b d59d b3bb 7660 d0bb d56b 18bc
00000210: 2987 0ebc c7a1 56b9 d7f3 533c a9fe 003d
00000220: 8e45 b73c 8c8b 52bc cd6b 003d 97e4 d33c
00000230: 9e75 143c b059 b63c d622 e43b 3a95 db3c
00000240: 64a3 97bb f069 8aba 93dc 033c 59f8 e8bb
00000250: bf10 84bc 93be 3e3b 865c 27bb e37f 37bc
00000260: 1fbc e3b9 748d 5e3c 7d0f d9ba 498d dd3c
00000270: 885f b73b d1a1 d1bb 252c abba 5279 263c
00000280: ad7d 6dbc 49f2 423c 7ff8 183d b2c6 183c
00000290: 5419 323c f4bd 073d df9b de3a 2dda 1dbc
000002a0: 84b6 fc3c 65dd db3b f4ad 353b 21e9 e4bb
000002b0: 30c8 fdbc 8e7a 3abc 3f2a 90ba d0aa a2bc
000002c0: ea34 823c f23a 50bc 9681 d2bc f56b 34bc
000002d0: ecdd fe3c 4cd2 743b a29d 5d3b 9935 ca3c
000002e0: 5d5e bf3c 9fd7 b7bc dce9 5b3d 58a8 0b3d
000002f0: b95a c0b9 5406 55bb 736f 663b 7ced 0f3b
00000300: 759e cc3b 04fd 89bb f081 cdbb dac5 533b
00000310: 9650 14bc 3b47 12bc 3d45 913c 8646 d6bc
00000320: 5807 a7bc ae69 aabb d42d 5abc fcc6 79bc
00000330: 6f55 a6bb ff38 6fbc 7b61 3d3a 19e6 093c
00000340: 4c79 45bc 89e4 9fba 3900 ac3c ab0a b4bc
00000350: 9319 c9bb ad74 933c d5a4 8dbb d371 72bc
00000360: c77d 9f3c f235 b73b 6612 983b 7e3d 5d3c
00000370: 60ec 853a 7006 a3bb 0db5 653c e3a3 ddbb
00000380: f9c4 893b b3fe 153c ea9c 7dbc 2744 973c
00000390: f574 22bc bb8f 53bc 4919 35bb 06d7 18bd
000003a0: 7500 fcbc dcbb b8bc 0f83 273b fc00 b0ba
000003b0: da6d afbc 5bfb 18bc 3162 f83b d4a2 55bc
000003c0: b44c 07bd 181f 9abc ee93 ba3c 6fd3 a4bc
000003d0: 787b febb 542a b03b 4aab 0dbd bbce 0f3b
000003e0: 76a9 9e3c 6907 68bc 6a59 0cbd 9017 aebc
000003f0: 6e15 2b3d c4a1 263d c4c7 b83c aebf 9c3c
0.04959674 0.032641713 0.017732726 -0.013825875 -0.03641647 -0.009486641 -0.051247995 -0.035210043
-0.020700969 0.0014027994 -0.0037805687 0.0051276325 -0.0517825 -0.035224747 -0.0043714675 -0.006789189
0.0076620737 -0.023517359 0.014278213 0.010690621 0.008093187 -0.008637238 -0.017747197 -0.01555927
0.0074673104 0.0013251842 -0.0044637937 0.0050911005 -0.015106884 -0.0039870134 0.0056851543 -0.013290137
-0.0036217296 0.02298578 -0.003688966 0.011304751 0.016210316 -0.010318944 0.03420923 -0.0021917678
-0.025996184 0.021898488 0.032199744 0.012511644 0.024674485 0.014592063 0.0062448545 -0.003790781
0.037316285 0.021967223 0.02865949 0.003531695 -0.0011641236 0.04589183 -0.0035951585 0.0012151873
-0.0047833356 0.024442457 0.0016615901 -0.005797758 0.019130785 -0.020180685 -0.0044931057 0.0034128488
-0.0123168165 -0.027973328 -0.0042903963 -0.008807429 -0.011636022 0.028919894 0.0001071245 -0.004984657
-0.0039972076 -0.008812158 0.013340267 -0.016319219 -0.015644027 -0.0024440861 0.0047153044 0.016479775
0.0057346867 0.0083841095 0.0072296113 -0.016595067 -0.011590818 -0.015417872 -0.0058473614 -0.01521099
-0.02897683 -0.056304574 0.053007867 0.014609527 0.007223986 0.038109217 0.035485502 0.015524473
0.03280289 -0.013804999 0.017393708 -0.021494431 -0.019024586 -0.006489965 -0.009993504 -0.005574578
-0.0117158415 -0.0054703583 0.0114413425 -0.008427367 0.007769471 -0.005028593 -0.00485551 0.0009743036
-0.006957795 -0.01764914 -0.0045624613 -0.011776637 -0.00476283 -0.0044154814 0.0153402705 -0.015141701
0.0042817537 -0.028816339 0.0110415425 -0.02622422 -0.0237784 -0.012398606 -0.0045362865 0.00845071
0.0024798021 -0.0054814615 -0.0063591553 -0.009303053 -0.008699217 -0.00020468897 0.012936554 0.031492863
0.022372033 -0.012850653 0.031352807 0.025865836 0.009061245 0.022259563 0.0069621606 0.026804555
-0.004627632 -0.0010560136 0.008048194 -0.0071096835 -0.016121266 0.002910529 -0.0025537326 -0.011199924
-0.00043436975 0.01358353 -0.0016560402 0.02704491 0.005596105 -0.006397464 -0.0013059421 0.010160761
-0.0144952955 0.011898586 0.03734636 0.009324716 0.0108702965 0.033140138 0.0016983709 -0.009634537
0.030848749 0.006709742 0.0027722092 -0.006985799 -0.030979246 -0.011381758 -0.0010998918 -0.01985684
0.015894372 -0.012709366 -0.025696557 -0.011012067 0.03111168 0.0037356792 0.003381588 0.02468376
0.023360426 -0.022441683 0.053689823 0.034096092 -0.00036688687 -0.0032504993 0.0035161644 0.002196162
0.0062444755 -0.00421107 -0.0062715933 0.0032313974 -0.009052416 -0.0089281155 0.01773321 -0.026156675
-0.020389244 -0.0052005863 -0.01331659 -0.0152451955 -0.0050761024 -0.014600991 0.00072243036 0.008416676
-0.012052845 -0.0012198846 0.0209962 -0.021977743 -0.006137082 0.017999971 -0.004322628 -0.014797646
0.019469155 0.0055911476 0.004640865 0.01350343 0.001021754 -0.0049751326 0.014020217 -0.0067639216
0.004204389 0.009154963 -0.015479306 0.018465115 -0.00991558 -0.012912686 -0.002763348 -0.037314437
-0.030761937 -0.022550516 0.0025560295 -0.0013428028 -0.021414686 -0.009337272 0.0075800647 -0.0130393095
-0.033032134 -0.018813655 0.022775616 -0.02012035 -0.0077661835 0.0053761397 -0.034587182 0.002194329
0.019367915 -0.014161923 -0.03426496 -0.02125147 0.041768484 0.040681615 0.022556193 0.019134369

92 f4 [64]
00000000: 28a6 5d3c 7a8d c6bc df2d 4dbd eb01 49bd
00000010: c2ea 6cbd 387f 5dbd 52e5 cc3d 541d f6bb
00000020: d490 3e3d c433 3d3d 7935 92bd d82c da3d
00000030: f018 c83c c2f3 30be a485 8d3d b5a7 cebd
00000040: bcb7 75bc 32a9 0ebe 2246 193e 4e5f f1bd
00000050: f4ab f83c 2372 f0bc 2bb0 0c3e 1d30 9bbe
00000060: 4725 9abd 87f2 cd3e c49e 1abc a682 8f3e
00000070: 683e 523c 8f3f 95bd fe6a 013e 2522 623e
00000080: dad1 933b 663e 97bc 38d0 51bf c738 2abe
00000090: 5967 b8bc 4897 cdbb bedc 1bbd c0ce 9bbe
000000a0: bc02 1cbe 063d a3be 52ef 173d 9437 7fbe
000000b0: 12d3 26bd 3c95 2e3e 727a a2bd 70bc 333c
000000c0: 009a 813e 04fd 263d 769f 4fbd 2004 a03d
000000d0: a656 2b3f c315 08bd 2505 56be 4a59 2b3e
000000e0: 5509 86be 6697 70bd a936 2f3d 6f86 39be
000000f0: c381 64be fc95 1bbe c8a5 ddbd de5d fcbc
0.013528384 -0.024237383 -0.050092574 -0.049074095 -0.05784107 -0.054076403 0.10004677 -0.0075108204
0.046524838 0.046191946 -0.07139105 0.106530845 0.024425954 -0.17280486 0.069102556 -0.10090581
-0.014997419 -0.1393173 0.1496816 -0.11785756 0.030355431 -0.0293513 0.13739078 -0.30310145
-0.07526641 0.40224096 -0.009437267 0.28029364 0.012832262 -0.072875135 0.1263847 0.22083338
0.0045111002 -0.018462371 -0.8195834 -0.16623221 -0.022510218 -0.0062741376 -0.038052313 -0.30431175
-0.15235418 -0.31882495 0.037093468 -0.24923545 -0.040728636 0.17049116 -0.07933511 0.01097022
0.25312805 0.04076864 -0.050689183 0.07813287 0.6692909 -0.03322388 -0.209004 0.1673328
-0.26178995 -0.058738135 0.042776737 -0.18117689 -0.22315125 -0.15193933 -0.10822636 -0.030806478

94 f4 [64, 64, 3, 3]
00000000: f263 943d 4503 ba3d c7f1 8d3d 60ee 903d
00000010: f9af 5d3d 6d07 4e3d 14a4 c6bc fd8f 26bd
00000020: bbc8 58bc dfa7 a33a ba58 02bc 90cb 84bb
00000030: efca 94ba f3a7 1cbc 6130 debb de82 2bba
00000040: 56ad 13bc 5d2d dcbb 646a ceba 68f6 9038
00000050: 0196 c53a b156 3639 6851 0e3a e27c 3838
00000060: 8f14 2bbc d837 4abc ddb9 3abc 3b86 00bc
00000070: 6218 2e3b c070 d13c ac98 5fbb fde5 e1bb
00000080: 2977 2d3c 02f1 80bc 84fd 4cbc d5c0 20bb
00000090: f8ab d5bc a998 993d 898a 413d b6fa e9ba
000000a0: 38fa 043c 3085 e7bd 1031 89bb 493a e5bc
000000b0: 2312 0a3d 7e4d 103c 7511 453c a4cd 413c
000000c0: 4251 5cbb ab90 c1b9 4add 243c 24fd 91bc
000000d0: 85fc 9abc d184 6fbc 1d89 c5bc d30c 01be
000000e0: 6c90 37bd 07bf 323d b065 fdbc 6c75 b43d
000000f0: d24c 363d 6e5c b8bc 1c88 5d3d e8a2 e23a
00000100: e119 943b 827f 983b fa2a 8a3b 8eec a23a
00000110: 976b 21ba 08e9 d23b 14f4 11bb 337f 9538
00000120: b502 bdbc 2113 2f3d 685b ad3c 2bc6 85bd
00000130: 25a2 89bd 3b6c 7dbd d81d 7abd e5bf aebd
00000140: 6043 23bd d39c 963d acd8 ad3c 4310 ba3c
00000150: 1413 383d e686 a0bc a538 bebd 2235 893c
00000160: 3de9 8b3b afea 233c 78ae 9d3a 3df5 5a3c
00000170: ea1b 703c 489d 3c3c 0baf f03c 3d7e 363d
00000180: fd09 2c3a 4f70 adbb 53bb 4f3d a9d9 4e3d
00000190: ebb3 163d b3cc e93c 193a 9ebb fc27 07bd
000001a0: 1d60 023c 9201 14bd ab73 b9bc e504 363d
000001b0: 3a37 aabb a232 68ba 0345 c53c d78e 8dbb
000001c0: 0912 9dbc d323 8abb 5462 c93c 30fa b0ba
000001d0: 215b 68bb 1da7 1ebc 5216 b03c 72dc 2f3d
000001e0: b5ee bf3d ec36 973d 30b6 1f3d 61b8 843d
000001f0: 7ec7 4d3d 6ece 063e 503d c0bb 7c57 bdbc
00000200: d2f5 af3d 9253 91bc 343e c1bb cf62 943c
00000210: 2c37 903b acac 0ebc 9770 2dbc fb3f 3cbd
00000220: 02b3 02bc d560 afbc 66e4 f23c e405 663d
00000230: f674 aa3b c9ea 9f3c f6ec 383d 0355 de3c
00000240: e74c b8bd b74e 44be 38f5 90bd 048f 533e
00000250: 1cf0 c8bb 3fd7 f8bb b381 a33d 0972 ac3d
00000260: e09b 903d 5dd2 ed3a fbf5 d6bb 7477 d13c
00000270: 63a1 193b 8de7 d2bb 3707 543d 74ca f9bc
00000280: dad2 ebbc 7c65 f73b 8707 8f3d 8f06 b33c
00000290: 925e 1b3e c200 043d 5e71 a5bb 5a7c cc3b
000002a0: 651d 89bd 309b b6bd 776b 8eba e5c5 d13d
000002b0: 89c9 3f3d a191 f03c 32ef 933c 2273 e3bd
000002c0: 4a1d ba3d f549 cabc f75a 8f3d 9bd0 ecbb
000002d0: 002d 48bb 2eba 81bc 569c 0d3d 9ab6 1abc
000002e0: db3c 84bc ba21 973c a27a 19bd 9947 11bd
000002f0: 445b 3abc a61b 5fbd 9960 9ebd 95ec 81bc
00000300: 6c32 f0bc e966 8bbd 8720 08b9 028d ffbc
00000310: ce25 0ebd ea1d 31bb 7b0e 0c3c 3340 34bc
00000320: 0eae a03c a498 e9bc 686d 55bd 502a 72bd
00000330: 0d60 093c 2ff6 c1bc 6fb1 d2bc ad6e 103b
00000340: ed4d febb 0d58 41bc cac6 f63c 81d6 013e
00000350: 91b7 a73d 7781 973d d6eb 3b3d 9fbd ad3d
00000360: 077f 35bd 9963 8ebd 6d4d 10bc f60e 133d
00000370: fbcf 143b 5187 2e3c 4a00 a53d 9555 04bc
00000380: 4092 b0bd 7a07 61bd 83a9 acbc c07f b93d
00000390: b608 d3bd 3ace cdbd f540 cebc 54b6 bfbd
000003a0: 90c8 05be de91 f4bd a5c6 253a 84e6 713d
000003b0: b7c0 483d fcba 8d3d fafd a13d a249 ffbc
000003c0: df8f 643e 4671 233e 3993 103e 3d56 103d
000003d0: 4a22 683c 80be e83d 87a5 07b9 b100 6a3b
000003e0: 3a6c 563d 1a88 c1bb bad2 02bc 16ff 0a3d
000003f0: ca14 ccba 1c01 78bc d764 f83c 7e64 77bc
0.072456256 0.09082655 0.06930881 0.070767164 0.0541229 0.05030005 -0.02424816 -0.04066466
-0.013231452 0.0012485943 -0.007955724 -0.004052587 -0.0011351983 -0.009561527 -0.0067806696 -0.0006542633
-0.0090134945 -0.006719275 -0.001574826 6.912352e-05 0.0015074612 0.00017389168 0.00054290006 4.3985325e-05
-0.010441913 -0.012342416 -0.011396852 -0.007844503 0.0026564826 0.025566459 -0.00341181 -0.006893872
0.010587492 -0.015739921 -0.012511615 -0.0024529 -0.026082978 0.07499821 0.047251258 -0.0017851207
0.008116297 -0.113047004 -0.004186757 -0.027981894 0.033708703 0.008807538 0.012028088 0.011828814
-0.003361777 -0.00036919615 0.010062525 -0.017820902 -0.018919239 -0.014619068 -0.024113232 -0.12602548
-0.044815466 0.04363921 -0.030932277 0.08811459 0.044506855 -0.022505011 0.054084882 0.0017290981
0.0045196866 0.004653872 0.004216549 0.0012430118 -0.0006157695 0.006436471 -0.0022270726 7.128566e-05
-0.02307258 0.042742852 0.02116175 -0.06531938 -0.0672038 -0.061870795 -0.061063617 -0.08532695
-0.039859176 0.073541306 0.021221481 0.022712832 0.04494007 -0.019595575 -0.09288148 0.016748969
0.0042697475 0.010004683 0.0012030145 0.013364133 0.014655093 0.011512108 0.029380342 0.044553984
0.00065627677 -0.0052929292 0.050715756 0.050500546 0.036792677 0.028539991 -0.004828703 -0.032997116
0.0079574855 -0.03613431 -0.022638163 0.04443826 -0.005194572 -0.00088576425 0.024080759 -0.0043200064
-0.019173639 -0.0042156964 0.02458302 -0.0013502296 -0.0035454708 -0.009683398 0.021495018 0.042934842
0.09371702 0.073835224 0.038992107 0.0648048 0.05023908 0.13164684 -0.005866684 -0.023113005
0.085918084 -0.017740045 -0.005897308 0.018113522 0.0044011083 -0.00870816 -0.010585926 -0.045959454
-0.007977249 -0.021408478 0.029649924 0.05615796 0.005201931 0.019521134 0.04514786 0.027140146
-0.08999043 -0.19170652 -0.07078022 0.20660025 -0.006132139 -0.0075940187 0.079837225 0.08420188
0.07060981 0.0018144358 -0.006560085 0.025569655 0.0023442141 -0.0064362944 0.051764693 -0.030492045
-0.028787065 0.0075499397 0.069838576 0.021853713 0.15172794 0.032227285 -0.005048915 0.00624041
-0.0669506 -0.089163184 -0.0010865767 0.102428235 0.04682306 0.029366316 0.018058393 -0.11105944
0.09087618 -0.024693469 0.06999772 -0.007227016 -0.00305444 -0.015835848 0.03457292 -0.00944295
-0.0161423 0.0184487 -0.037470467 -0.03546867 -0.0113742985 -0.054469727 -0.07733268 -0.015859881
-0.029320918 -0.06806738 -0.00012982088 -0.031195167 -0.034704022 -0.0027025887 0.008548374 -0.011001634
0.019614246 -0.028515168 -0.05210629 -0.059122384 0.008384717 -0.02367696 -0.025719373 0.0022038624
-0.0077607543 -0.011800778 0.030124087 0.12679483 0.081893094 0.0739774 0.045879208 0.08483433
-0.044310596 -0.069525905 -0.008807522 0.03590294 0.0022706974 0.010652379 0.08056696 -0.008077045
-0.08621645 -0.05493877 -0.021076923 0.090575695 -0.10304396 -0.100491 -0.025177458 -0.09360948
-0.1306479 -0.119418845 0.0006323851 0.059057727 0.049011912 0.0692043 0.0790977 -0.03116304
0.22320507 0.15961179 0.14118661 0.035238493 0.014168331 0.1136446 -0.00012936267 0.0035705979
0.052349307 -0.005906117 -0.007984811 0.033934675 -0.001557016 -0.015136983 0.030321522 -0.015099643
