model/coelho.onnx (onnx, 302121 bytes, 16 tensors)

fc.weight f4 [2, 256]
000000 3a 4e 39 be ce 44 32 be 08 c8 1e be 96 58 10 be
       -0.18096247 -0.1740906 -0.15505993 -0.14096293
000010 06 0d 7c be 2b 2e 7d be 43 15 31 be 6d 2f 1f be
       -0.24614343 -0.24724643 -0.17293267 -0.15545435
000020 b9 f6 c9 ac 6e fb c9 ac c5 fa c9 ac 46 00 ca ac
       -5.7401553e-12 -5.740678e-12 -5.7406046e-12 -5.7412157e-12
000030 c4 56 47 25 20 b9 ad 24 2f f1 1b a5 22 a1 96 a5
       1.7289896e-16 7.5340404e-17 -1.3525823e-16 -2.613004e-16
000040 2e 42 81 85 2e 42 81 85 2e 42 81 85 2e 42 81 85
       -1.2155412e-35 -1.2155412e-35 -1.2155412e-35 -1.2155412e-35
000050 a4 b6 74 b9 9b 65 81 b9 f0 11 8e b9 25 1f 95 b9
       -0.00023337692 -0.000246805 -0.00027097715 -0.000284427
000060 aa db cd a0 43 34 7b a0 96 8f a6 a0 0d 2f 41 a0
       -3.4873712e-19 -2.1277819e-19 -2.821651e-19 -1.6363304e-19
000070 6b 02 00 80 b3 01 00 00 6b 02 00 80 b3 01 00 00
       -8.67e-43 6.1e-43 -8.67e-43 6.1e-43
000080 55 95 2c 35 cf 95 1f 35 28 d8 2c 35 03 55 21 35
       6.42923e-07 5.9450116e-07 6.438954e-07 6.010088e-07
000090 7f 2b 13 be e3 49 0a be 7b 00 a0 3d a7 5c bb 3d
       -0.14372061 -0.13504748 0.07812592 0.091485314
0000a0 7c 69 82 b4 8a d6 83 b4 80 88 83 b4 c7 e4 84 b4
       -2.4291137e-07 -2.455675e-07 -2.4499968e-07 -2.4753373e-07
0000b0 10 01 00 00 10 01 00 00 10 01 00 00 10 01 00 00
       3.81e-43 3.81e-43 3.81e-43 3.81e-43
0000c0 2c 08 6f bd 94 95 d1 bc f4 5d 03 3e 3c 31 21 3e
       -0.058357403 -0.02558402 0.12828809 0.15741438
0000d0 81 b3 5b 82 ae b3 5b 82 cc b3 5b 82 e4 b3 5b 82
       -1.6141094e-37 -1.6141144e-37 -1.6141178e-37 -1.6141205e-37
0000e0 ec 7e 1f 00 ec 7e 1f 00 ec 7e 1f 00 ec 7e 1f 00
       2.892431e-39 2.892431e-39 2.892431e-39 2.892431e-39
0000f0 6a a7 e2 a0 6a a7 e2 a0 6a a7 e2 a0 6a a7 e2 a0
       -3.8396675e-19 -3.8396675e-19 -3.8396675e-19 -3.8396675e-19
000100 a8 1a 07 3d fe 00 98 3d 0d 7b 79 be 08 5e 51 be
       0.032984406 0.07422064 -0.24363346 -0.20446026
000110 e6 9f 0f 1d 18 6f 85 1d 53 37 cc 1d dc 2d 05 1e
       1.9008558e-21 3.5319675e-21 5.4055554e-21 7.050445e-21
000120 4a 1d 00 80 4a 1d 00 80 4a 1d 00 80 4a 1d 00 80
       -1.0507e-41 -1.0507e-41 -1.0507e-41 -1.0507e-41
000130 5f 61 00 80 5f 61 00 80 5f 61 00 80 5f 61 00 80
       -3.493e-41 -3.493e-41 -3.493e-41 -3.493e-41
000140 d8 08 00 00 5e 0b 00 00 31 0d 00 00 ef 0f 00 00
       3.173e-42 4.078e-42 4.732e-42 5.716e-42
000150 49 de 20 ba af 27 1f ba eb db 1d ba d3 99 1b ba
       -0.00061366387 -0.0006071282 -0.0006021845 -0.00059357024
000160 65 25 00 00 9f 24 00 00 d1 23 00 00 54 25 00 00
       1.3415e-41 1.3137e-41 1.2849e-41 1.3391e-41
000170 49 ba 84 be 6b ea 87 be 85 2b 4b be 69 44 4e be
       -0.25923374 -0.26546034 -0.1984082 -0.20143284
000180 8a ca 0a 00 8a ca 0a 00 8a ca 0a 00 8a ca 0a 00
       9.91012e-40 9.91012e-40 9.91012e-40 9.91012e-40
000190 41 1c 01 80 3d 1c 01 80 54 24 01 80 cb 22 01 80
       -1.01971e-40 -1.01965e-40 -1.04868e-40 -1.04317e-40
0001a0 04 fe f7 06 21 23 6c 06 58 35 86 86 e5 82 70 87
       9.3284316e-35 4.4412475e-35 -5.048358e-35 -1.809406e-34
0001b0 a7 e3 74 bd bb 00 6f bd 42 b3 1a 3d 0c 2a 20 3d
       -0.05978742 -0.058350306 0.03776861 0.0391026
0001c0 a7 37 30 23 96 37 30 23 bc 30 30 23 7a 31 30 23
       9.552764e-18 9.55275e-18 9.551299e-18 9.551456e-18
0001d0 5b 82 0a be 5b 1a 17 be 21 35 86 3b 85 59 ac bb
       -0.13526289 -0.14756148 0.004095689 -0.005259695
0001e0 4e e3 91 3e 39 86 03 3e f1 32 9f 3e bb 42 08 3e
       0.28493732 0.1284417 0.31093553 0.13306706
0001f0 b6 09 bd bd 6d 8f ae bd ec f9 53 3d b6 cd 7b 3d
       -0.09230368 -0.0852345 0.051752016 0.061475478
000200 84 12 00 00 84 12 00 00 84 12 00 00 84 12 00 00
       6.642e-42 6.642e-42 6.642e-42 6.642e-42
000210 33 00 84 3d 3d ca 32 3e 75 20 5d 3e d4 41 a1 3e
       0.064453505 0.1745996 0.21594413 0.31495535
000220 95 b2 40 3e 6d c4 e1 3d 21 5f 2e 3e 41 96 94 3d
       0.18818124 0.11023793 0.17028476 0.07255221
000230 b7 5e 84 3d 59 17 ae 3d 08 cd 12 be c1 70 e5 bd
       0.06463378 0.08500547 -0.14336026 -0.11203147
000240 0c 9d f6 a6 0c 9d f6 a6 0c 9d f6 a6 0c 9d f6 a6
       -1.7112247e-15 -1.7112247e-15 -1.7112247e-15 -1.7112247e-15
000250 72 d2 1d 3d 26 34 67 3d 4d cf bd bd 8b 19 99 bd
       0.038530774 0.056446217 -0.09268055 -0.07475575
000260 b8 12 00 80 40 1c 00 80 b3 21 00 80 64 25 00 00
       -6.715e-42 -1.0134e-41 -1.2089e-41 1.3413e-41
000270 ed f4 56 10 32 f7 56 10 e0 e9 56 10 53 ed 56 10
       4.2392742e-29 4.239449e-29 4.238423e-29 4.2386886e-29
000280 13 04 03 bd 97 fd f0 3c 44 9f 34 3e c1 e5 6e 3e
       -0.031986307 0.029417796 0.1763888 0.23329832
000290 ff fd f0 a0 94 fa f0 a0 45 e1 f0 a0 83 0a f1 a0
       -4.0825662e-19 -4.08234e-19 -4.0806652e-19 -4.0833944e-19
0002a0 ea bf a0 be 4d 01 96 be 65 df 3e 3d 81 48 88 3d
       -0.3139642 -0.29297867 0.046599764 0.06654454
0002b0 38 11 03 80 38 11 03 80 38 11 03 80 38 11 03 80
       -2.81683e-40 -2.81683e-40 -2.81683e-40 -2.81683e-40
0002c0 db 75 af 3e db fe 3e 3e 94 85 a7 3e 55 fa 33 3e
       0.34269604 0.18651907 0.327191 0.17575963
0002d0 0b 22 00 80 47 26 00 80 50 12 00 80 c1 04 00 80
       -1.2212e-41 -1.3731e-41 -6.569e-42 -1.705e-42
0002e0 33 78 1a bd d8 07 25 3d 3d 18 a5 be db 76 8a be
       -0.037712287 0.040290684 -0.32245055 -0.27043805
0002f0 22 ff 96 bd a9 a7 93 bd 28 a5 39 3d 21 9e 54 3d
       -0.073728815 -0.07209713 0.04532352 0.051908616
000300 54 fe e4 8d 3e fe e4 8d 89 fe e4 8d 7c fe e4 8d
       -1.4112812e-30 -1.4112791e-30 -1.4112862e-30 -1.411285e-30
000310 af ad 2e 80 af ad 2e 80 af ad 2e 80 af ad 2e 80
       -4.286739e-39 -4.286739e-39 -4.286739e-39 -4.286739e-39
000320 58 73 1e bd f0 ef 58 3b cd 8f 22 3e 31 ed 55 3e
       -0.03868422 0.0033101998 0.15875168 0.20891263
000330 26 69 46 bb 92 f8 49 bb 3b 8f 52 bb 85 f4 55 bb
       -0.0030275076 -0.0030818325 -0.003212883 -0.0032646966
000340 10 be 0b be 5c c5 10 be 1b e1 c1 bd ef ea aa bd
       -0.13646722 -0.14137787 -0.094667636 -0.08345591
000350 43 fb 01 80 c2 08 02 80 9c f7 01 80 10 02 02 80
       -1.81971e-40 -1.86813e-40 -1.80661e-40 -1.84411e-40
000360 fc 97 a9 ae 5b ab bf ae d2 80 b7 ae 4a be e8 ae
       -7.712228e-11 -8.716113e-11 -8.3447596e-11 -1.0583941e-10
000370 37 c3 e7 28 0f 40 22 29 1b b6 04 29 cc b7 37 29
       2.5730813e-14 3.6026788e-14 2.946784e-14 4.079358e-14
000380 14 43 06 a5 14 43 06 a5 14 43 06 a5 14 43 06 a5
       -1.1645374e-16 -1.1645374e-16 -1.1645374e-16 -1.1645374e-16
000390 33 5a 8a 3c 18 9c a3 3d af 92 40 be 43 19 15 be
       0.016888713 0.07988757 -0.18805955 -0.14560418
0003a0 1f 96 e3 b6 e6 f1 2c b7 c3 9c df 36 5e 2c 25 37
       -6.7826036e-06 -1.030832e-05 6.6641674e-06 9.845096e-06
0003b0 01 13 f9 37 01 13 f9 37 01 13 f9 37 01 13 f9 37
       2.9691962e-05 2.9691962e-05 2.9691962e-05 2.9691962e-05
0003c0 b4 19 00 00 b4 19 00 00 b4 19 00 00 b4 19 00 00
       9.22e-42 9.22e-42 9.22e-42 9.22e-42
0003d0 8e bb 0a 3e 56 29 b0 3d 9e fd ea 3d bf af 4c 3d
       0.13548109 0.08601634 0.11474155 0.049972292
0003e0 64 4c 1f be ae 11 26 be 11 80 98 3d 5b 96 95 3d
       -0.15556484 -0.16217682 0.07446302 0.07304069
0003f0 ef cb c9 3c 58 5c 29 3d 83 cb 1a be 28 d1 04 be
       0.024633376 0.04134783 -0.15116696 -0.12970412

fc.bias f4 [2]
000000 65 47 1c bc 7e 17 7b 3d
       -0.009538506 0.0613017

onnx::Conv_80 f4 [16, 3, 7, 7]
000000 17 69 98 bd e6 d4 8c 3b c3 d1 69 3d b8 ee 93 3d
       -0.07441919 0.0042978404 0.05708481 0.07223266
000010 13 d7 2d 3d 4f 73 a1 3d e9 be 53 3d 6e c1 a1 bd
       0.04244144 0.078833215 0.051695738 -0.07898222
000020 e3 39 88 bc 4f 0a ff 3c 30 8d 87 3d 51 12 2f 3d
       -0.016629165 0.031132845 0.06618726 0.042742077
000030 42 5c 32 3d 02 1b f1 3d 9c 31 6e bd d8 04 ac bc
       0.043545015 0.117727295 -0.05815278 -0.020998403
000040 9a 4f 84 3b 92 c9 3b 3d 4c 93 a0 3d df 96 96 3d
       0.0040378096 0.04584653 0.07840595 0.07352995
000050 77 0e fb 3d 97 b7 e6 bc 57 d8 84 bd cd f8 82 bd
       0.12258618 -0.028163714 -0.06486576 -0.06395111
000060 c9 1a 52 bc 02 f1 f4 3c 45 d7 11 3d 22 71 7b 3d
       -0.012823769 0.029900078 0.035605688 0.06138719
000070 0e 74 41 bd f1 44 d7 bd ba 72 ea bd a7 36 aa bd
       -0.04722982 -0.105111964 -0.114476636 -0.08311205
000080 ec 54 36 3c 9b af af 3c 52 74 0d 3d c7 0c b7 bc
       0.011128645 0.02144604 0.03453476 -0.02234496
000090 9f c0 9d bd b9 1e a6 bd 89 b5 ab bd 1e 51 21 3c
       -0.07702755 -0.08111329 -0.083842345 0.009846
0000a0 f3 1a 00 3d 93 ce 10 3d 3a f7 18 3d af 47 bf bc
       0.0312757 0.035353255 0.03734515 -0.023349611
0000b0 5d 22 46 bd cd 45 88 bd e4 65 b2 bc 7f be 74 ba
       -0.048372615 -0.066539384 -0.0217771 -0.00093362475
0000c0 ce d3 66 3c ab 2d e7 bd 37 cc 32 bd cd 7d ed bb
       0.014088584 -0.11288007 -0.043651786 -0.0072476626
0000d0 e7 ee 07 3c 97 f3 b8 bc a2 35 d9 bc 9d ae 24 bd
       0.008296705 -0.02257709 -0.026514832 -0.040205587
0000e0 9c 39 98 bd 31 d0 b4 bc 1e 16 11 3c 1e 78 34 3c
       -0.07432863 -0.02207193 0.008855371 0.011014966
0000f0 ab bc 38 bb b8 63 10 bd b3 2a 55 3d b1 ce b2 bc
       -0.0028188627 -0.03525135 0.052042674 -0.021827074
000100 52 0d 22 bc 42 d4 9e bb 81 db a5 3c 49 f7 e7 bc
       -0.009890871 -0.0048470804 0.02024627 -0.028316157
000110 da 4c 8b bd 74 09 dc 3b 74 31 3b 3d a3 e3 97 3b
       -0.06801768 0.006714994 0.04570146 0.0046352907
000120 27 f9 34 bc 41 8b 99 bb 89 f4 12 bd b3 f6 b2 bd
       -0.011045731 -0.00468579 -0.03587774 -0.087384604
000130 6b f8 8b bd ba cb 7c 3d f2 53 78 3c 97 6e b8 bc
       -0.06834491 0.061717726 0.015156733 -0.02251367
000140 7a a5 bd bc 39 8b e6 bc 40 41 d5 bd 3e fb a2 bd
       -0.023150194 -0.028142558 -0.10412836 -0.07958077
000150 6c 01 d1 3d c7 16 2f 3d 9d 16 ea 3c 08 bc 1e bc
       0.10205349 0.04274633 0.028575236 -0.009688385
000160 73 f9 ee 38 45 07 3f bd 5e e7 96 bd 07 65 0b 3e
       0.00011395188 -0.046637792 -0.073683485 0.13612758
000170 00 42 a9 3d 99 a1 87 3d c5 5b 02 3c e5 aa 6a bb
       0.082645416 0.06622619 0.00795645 -0.0035807427
000180 8a d0 0f bd 32 c0 54 bd 30 05 65 be 45 53 dd bd
       -0.035110988 -0.051941104 -0.2236526 -0.10806898
000190 ac d4 04 bc 69 a8 88 3d 80 d4 b9 3d 1a dc cd 3d
       -0.008107346 0.06672747 0.09073734 0.10051747
0001a0 76 ca db 3d 34 36 5e be 7a 4d 0c be 7e 8a 53 bd
       0.10731976 -0.21700364 -0.1370143 -0.05164575
0001b0 fd b2 2c 3d 4f ec 93 3d 30 85 a7 3d 90 80 fe 3d
       0.042162884 0.07222807 0.081797004 0.12426865
0001c0 57 26 3a be 49 58 0f be 46 85 99 bd 0a f7 df 3c
       -0.18178688 -0.13998522 -0.07496123 0.027339477
0001d0 da e8 aa 3d 5e c5 b1 3d 30 df f6 3d 6f 1f ec bd
       0.08345194 0.08680223 0.120542884 -0.11529433
0001e0 95 b2 06 be 59 cb d2 bd 65 9f 86 bc 93 7b 59 3d
       -0.13154061 -0.10292692 -0.016433427 0.053096365
0001f0 8e c4 59 3d 01 50 c8 3d fb 72 8b bd d3 56 d6 bd
       0.053165965 0.097808845 -0.0680904 -0.10465779
000200 f8 ad ef bd 47 db 7f bd 6a 3b 00 3d ca 2f 3a 3d
       -0.11703104 -0.06246498 0.03130666 0.04545573
000210 8f 17 8c 3d 3d dc 01 3d 9f 09 25 bd be 72 84 bd
       0.06840431 0.031704176 -0.04029238 -0.06467198
000220 33 69 5c bd c5 fc 10 3d 46 3c 67 3d 29 b4 65 3d
       -0.053811263 0.03539731 0.056453966 0.056080017
000230 9e 63 eb 3d 75 f7 32 3d 90 32 56 3c 8f 0c 2c bd
       0.1149361 0.043693025 0.0130735785 -0.042004164
000240 07 79 ec 3a 0f 7c f4 3c 3f 6b 27 3d 23 fc eb 3c
       0.001804144 0.029844312 0.040873762 0.028806752
000250 f6 9b 6f 3b 93 3e 92 3c 21 0e f2 bc 61 86 e6 bb
       0.0036561466 0.017852103 -0.029547753 -0.007035062
000260 95 c1 7a bc 00 08 a1 bb 3c fb 30 3e 52 9f 42 3e
       -0.015304943 -0.0049142838 0.17283338 0.19006088
000270 bc 27 55 3e 94 73 2a 3e 7b de ec 3d f7 8b b0 3d
       0.20815939 0.16645652 0.11565872 0.08620446
000280 04 97 4c 3d a7 e3 a9 3d c7 10 74 3d 33 15 cd 3d
       0.049948707 0.08295374 0.059586313 0.10013809
000290 61 93 92 3d e4 6f 6d 3d ca 85 4b 3d a8 94 f3 ba
       0.071570165 0.057968035 0.049688138 -0.0018583732
0002a0 76 67 28 3d da 5d 8d bd e0 a2 e5 bd 8b 72 ba bd
       0.041114293 -0.069026664 -0.112127066 -0.091038786
0002b0 19 ad 8e bc 46 8f 40 3d 36 eb 96 3d 5b 97 65 bc
       -0.017416524 0.047011636 0.07369082 -0.014013137
0002c0 d6 a5 22 bd 47 f4 38 bd 59 4f 3a bd 5f 33 96 bc
       -0.039708935 -0.045154836 -0.045485828 -0.018335043
0002d0 54 b1 89 ba ff fb fd 3c da 31 18 bd 12 31 77 bc
       -0.0010505118 0.03100395 -0.037156917 -0.015087383
0002e0 01 a9 2a 3c 57 0c 95 3b 8c 4b d0 3c de ba ac bc
       0.01041627 0.00454859 0.025426649 -0.021085199
0002f0 1c 15 7e bd 25 95 c2 bd a9 a0 90 bd a3 56 14 bd
       -0.06203185 -0.09501103 -0.070618935 -0.036215436
000300 df 14 5c bd 7e bb 14 bd bf d3 8f bd 62 7e 30 bd
       -0.05373084 -0.03631162 -0.07022809 -0.043089278
000310 b9 fd ed 3c 23 5a d0 3b 16 46 17 bc dc e3 7c bd
       0.029051648 0.0063584014 -0.009233018 -0.06174074
000320 c1 4b 24 bd e7 23 81 bd b4 a2 56 bd 88 cf 0d 3e
       -0.040111307 -0.06305676 -0.05240126 0.13848698
000330 b4 e3 1c 3e fc cb 2d 3e be a9 04 3e a9 1e 65 3d
       0.15321237 0.16972345 0.12955377 0.055937443
000340 68 2e 0a 3d 17 65 d5 3a 4e 97 0d 3b be cd 0b bd
       0.033735663 0.0016280737 0.0021605077 -0.034131758
000350 98 4e d6 bc 5b 43 07 bd e5 ab c6 bc e5 b6 a1 3a
       -0.026160523 -0.03302322 -0.024251888 0.0012337832
000360 18 ef 70 bd 04 47 21 bd 79 ab 46 be eb ef 81 be
       -0.058821768 -0.039374366 -0.19401349 -0.25378355
000370 61 e7 3e be fb 6a ab bd 9d 4c bb 3b 25 f2 1a 3d
       -0.18642952 -0.08370014 0.00571592 0.037828583
000380 d6 15 57 3b d5 91 8c bd 6d 1b ee bd d2 71 df bd
       0.0032819412 -0.06863753 -0.11626325 -0.109103814
000390 92 3c 86 bd d3 35 a0 bc d1 a2 26 3d 8f ab 8d 3d
       -0.065545216 -0.019556915 0.040682618 0.06917488
0003a0 b4 6f 9e 3d 62 89 c4 3d b8 6f 9b 3d bc 7c 62 3d
       0.077361494 0.09596516 0.07589668 0.055294737
0003b0 f0 4d 8e 3c 38 db c9 3b 2c 28 d9 3d e5 2a ae 3d
       0.017371148 0.006160166 0.10603365 0.08504275
0003c0 e7 c9 8e 3d 30 91 71 3d 72 7e 9e 3d b3 d7 26 3d
       0.069721036 0.058976352 0.07738961 0.04073305
0003d0 90 49 94 3c 03 63 40 3d cc 15 32 3d d6 aa 2a 3c
       0.018101484 0.046969425 0.04347782 0.010416707
0003e0 65 68 41 3c 20 ff b2 3c a2 76 3a 3d 91 49 95 3d
       0.011804675 0.021850169 0.045523293 0.07289422
0003f0 7f 92 07 3e 66 2b 2e 3e d0 09 56 3e 69 4f 31 3e
       0.13239478 0.17008743 0.2090218 0.17315449

onnx::Conv_81 f4 [16]
000000 b8 5c 98 3e ce 57 cd bd 21 79 05 00 1a a7 af 3e
       0.2975824 -0.10026513 5.0263e-40 0.34307176
000010 c6 4d 3a bf 26 04 b5 3e da 90 bc 3d b8 fa 0a bc
       -0.7277492 0.35354728 0.09207316 -0.008482628
000020 76 1a 01 3e 8f c6 e9 3d e0 69 4d 3e 24 35 0d b6
       0.1260775 0.11414825 0.2005992 -2.104157e-06
000030 14 1e 5d be e0 9d 10 3e aa 7e af 3d e2 e1 a7 3e
       -0.21593505 0.14122725 0.08569081 0.32789522

onnx::Conv_83 f4 [32, 16, 3, 3]
000000 a6 3c cf 3d ad a9 4b 3e 87 d9 21 3e 3f 38 92 bd
       0.1011899 0.19888945 0.15805636 -0.07139634
000010 16 b4 f6 3b 2b 1f 94 3d 15 ea 13 be 04 a3 0f be
       0.007528792 0.07232507 -0.14444764 -0.1402703
000020 92 39 2e bd 5f ae 28 3e 5a d4 16 3c a5 90 dc bd
       -0.042535372 0.16472767 0.009205902 -0.10769776
000030 f9 38 42 3d 4b c1 8d bc b6 6a 64 bd 7c 03 b8 3d
       0.047417615 -0.017304083 -0.05576583 0.089850396
000040 c3 a5 8b 3c b9 0c 80 bd 8e de 00 80 9b aa 00 00
       0.017046815 -0.06252427 -7.9838e-41 6.1202e-41
000050 d7 61 00 00 ca 73 00 00 a2 37 00 00 ab 65 00 80
       3.5098e-41 4.1537e-41 1.9957e-41 -3.6472e-41
000060 f4 b5 00 00 6e de 00 80 15 79 00 00 23 15 2a 3e
       6.5272e-41 -7.9793e-41 4.3436e-41 0.16609626
000070 9d d1 aa 3d b9 30 4d 3d 0a 64 3e 3d b7 db 84 bc
       0.08340762 0.050095294 0.046482123 -0.01621805
000080 22 84 5e bd 1b 2d 91 bc 88 ec 8e bd 55 6a fa bd
       -0.05432523 -0.017721703 -0.069787085 -0.122273125
000090 f3 3e 35 bd 2e b1 d1 bc 5f e7 45 bd 64 93 4b bc
       -0.044249486 -0.025597181 -0.048316356 -0.012425277
0000a0 fd db 36 bc 10 c7 85 bd f9 0f 5f 3c d7 17 12 bc
       -0.011160848 -0.06532109 0.013614648 -0.008916817
0000b0 95 3b 6e bd cf 9d ac 3d 54 d6 bc 3a 44 01 f2 bb
       -0.05816229 0.08428537 0.0014407136 -0.007385405
0000c0 35 96 c3 bc 81 4b 61 bd 6e 4b 12 bc 11 63 3c 3c
       -0.023875335 -0.055003647 -0.008929117 0.011498229
0000d0 79 54 2b bd 69 15 f5 bc d3 4b c5 3a a1 40 a2 3d
       -0.041828606 -0.029917436 0.0015052505 0.07922483
0000e0 07 63 1a 3e 59 26 b6 bd ff 42 b2 3c bb 57 33 3d
       0.15076838 -0.08894033 0.021760462 0.04378484
0000f0 51 1b 35 bd b3 95 84 3c 99 6f 2e bb c6 35 20 3e
       -0.044215504 0.016184663 -0.002661681 0.15645513
000100 3f 8b b0 ba cd bb b5 bd e8 c6 ee 3d e5 19 80 bd
       -0.0013469233 -0.08873711 0.11659032 -0.06254939
000110 b2 18 fd bd 6a 60 26 3e 9a a9 9c 3c 3f 60 44 bd
       -0.12358226 0.16247717 0.019123841 -0.04794335
000120 6e bd 66 bd df 5a 82 bc ba bc 07 3d 61 5f b4 bd
       -0.056332998 -0.015912471 0.033138968 -0.088072546
000130 93 bf 44 bd 69 f3 dd 3c fb 66 52 3c da 9e 28 bd
       -0.048034262 0.027093606 0.012841935 -0.041167118
000140 d4 2b b9 3b 0c 56 6a bd f5 c7 7d bd 81 18 a6 bc
       0.0056509767 -0.057210967 -0.061958272 -0.020275356
000150 85 00 ff bc 95 0e 97 bc de fe 1d 3c 75 d2 8b 3d
       -0.031128177 -0.01843957 0.009643285 0.06827251
000160 d6 ac 76 3d 5c 8c 5a 3d 4b d4 75 3d 15 90 9d 3c
       0.060223423 0.053356513 0.06001691 0.019233743
000170 b6 39 39 bd 8a 4b 59 3d 75 6e 86 3a e8 67 dd bc
       -0.045221053 0.053050555 0.0010256307 -0.027027085
000180 80 56 44 3d a0 c3 d3 3c 76 8d 80 bd a8 0e 00 80
       0.047934055 0.025850117 -0.062769815 -5.258e-42
000190 4f 20 00 80 12 26 00 00 ab 06 00 00 3e 24 00 00
       -1.159e-41 1.3657e-41 2.392e-42 1.3001e-41
0001a0 f1 15 00 80 8b ff 79 04 f1 02 00 00 6c 2c 00 80
       -7.871e-42 2.9387149e-36 1.055e-42 -1.5936e-41
0001b0 02 ec fa 39 6c 0e 03 bd fd 49 f4 bd e0 4f e2 3c
       0.00047859555 -0.031996176 -0.11928175 0.027625978
0001c0 0d 8b e4 ba eb 15 f8 bc f4 d3 b0 3d 9f f3 2e 3d
       -0.001743646 -0.030283889 0.08634177 0.042712804
0001d0 bf 70 5a bd e0 c7 4a 3d 45 2f 63 3b 31 80 c6 3d
       -0.05333018 0.049507022 0.0034665626 0.09692419
0001e0 74 99 95 3b ac 17 59 bd 26 1e 3c 3d 3a 08 99 bd
       0.004565412 -0.05300109 0.04592719 -0.07472272
0001f0 04 2d bb bd 7a 3b e7 bc 31 ce fe 3c e4 70 18 bd
       -0.091394454 -0.028226603 0.03110418 -0.037217036
000200 75 fb 5a bd 75 0d f3 3c 62 00 3a bd ba 08 fd bb
       -0.053462464 0.029669503 -0.04541052 -0.0077219876
000210 d8 f2 b1 3d d1 38 e9 3b 13 5f 31 3d eb a3 15 bd
       0.08688897 0.0071173687 0.04330356 -0.036533277
000220 b4 51 f3 bc c5 be c2 ba 22 68 fd bc bb 49 1d bc
       -0.029702045 -0.0014857879 -0.030933443 -0.009600098
000230 2b 63 97 3c c0 ea 15 bd 9f 35 ed bc d1 69 a2 ba
       0.018479904 -0.03660083 -0.028956233 -0.0012391155
000240 71 dc 8c bd e9 0f 4c bc 45 54 b2 bd 29 6f fd bc
       -0.06877983 -0.012454965 -0.087074794 -0.030936794
000250 b2 3c 06 3c d8 9d 9a bd 5e b6 19 bc 86 16 26 3d
       0.008193182 -0.075496376 -0.009381859 0.040548824
000260 db 1e 06 bd 0c 45 23 bd 7b 89 64 bd 1f 03 c6 bc
       -0.03274427 -0.03986077 -0.055795174 -0.02417141
000270 9f 86 97 bc 90 7f 13 bd 53 33 bf bc 87 99 22 3c
       -0.01849681 -0.036010325 -0.023339903 0.009924299
000280 88 b1 d7 bc 1d 3c 82 bc 1c 46 00 80 d1 2a 00 00
       -0.02632977 -0.015897805 -2.515e-41 1.536e-41
000290 04 7e 00 00 63 55 00 00 c8 c1 00 00 1e 32 00 80
       4.5206e-41 3.0631e-41 6.9516e-41 -1.7979e-41
0002a0 c3 48 00 00 1b 88 00 00 13 06 00 80 a9 14 1c bc
       2.6102e-41 4.8825e-41 -2.179e-42 -0.00952641
0002b0 6e 02 3f bb ed 08 3c 3c ad 18 0e bd e3 13 e8 bc
       -0.0029145735 0.011476737 -0.0346915 -0.028329795
0002c0 42 ea 59 bc c3 f5 9b bc 29 b0 21 bc 0f cd 8b 3c
       -0.01330048 -0.019038087 -0.00986866 0.017065553
0002d0 c7 59 95 3b fa d3 eb 3b 7a a3 71 bc 24 1e 94 3c
       0.0045578214 0.0071969004 -0.0147484485 0.018080778
0002e0 bd cf 1c 3d de 36 32 bc 55 8b 05 3d 83 7a 9a 3d
       0.038284052 -0.010877339 0.03260358 0.075428985
0002f0 ca a9 b1 3c 9a d4 72 bd bc f5 82 3b fa 71 19 3d
       0.021687407 -0.059284784 0.003996579 0.037462212
000300 54 38 75 bd 97 90 99 3b 13 62 a0 3c de 83 84 bd
       -0.05986817 0.004686426 0.019578015 -0.06470464
000310 d1 f5 d6 3b d2 0e 1a 3a 90 69 24 3d 09 f6 c9 bb
       0.0065600653 0.0005876842 0.040139735 -0.006163363
000320 30 a8 58 bd 32 1d 7c 3d 0a 6c 18 3c d9 84 f5 bc
       -0.05289477 0.06155128 0.009303102 -0.029970573
000330 28 c1 80 3d e3 06 82 3c 84 ff 95 3c b8 2b 2e bc
       0.06286842 0.015872424 0.018310316 -0.010630541
000340 ed da fe 3c 0c b7 6c 3d 64 16 5a bd cd 46 11 3c
       0.031110251 0.057791755 -0.05324401 0.008866978
000350 9c d1 5a 3d 85 9b c8 bd cb db aa bc 87 f8 09 3d
       0.053422555 -0.09795288 -0.020856759 0.03368428
000360 20 07 96 3d e9 85 3d 3d d6 51 e9 bc c9 3e 37 3d
       0.07325578 0.046270285 -0.028481405 0.04473761
000370 7e e3 68 3c 76 60 3c bd 7d 02 ad 3d b8 86 19 3d
       0.014214395 -0.04599043 0.0844774 0.037481993
000380 c1 cf b9 bc 83 db 41 3d ef 32 b9 3c b8 11 97 bc
       -0.022682073 0.047328483 0.022607295 -0.018441066
000390 2b 06 3b 3c 52 12 65 3c 85 e0 22 3b 31 f8 11 bd
       0.011415045 0.013981419 0.0024853062 -0.035637084
0003a0 12 da 19 3b 24 a5 0a 3d a3 6b e3 bc 88 88 09 bd
       0.0023475927 0.033848897 -0.027761286 -0.033577472
0003b0 a3 79 c5 bc 68 b4 08 bd eb b2 af bc ea 7c 8c bc
       -0.024105852 -0.033375174 -0.02144762 -0.017149407
0003c0 1d 95 af bc 7c 76 37 bc e0 4b 52 bc 4d 0a 00 00
       -0.021433407 -0.0111976825 -0.012835473 3.695e-42
0003d0 21 16 00 00 7a 22 00 80 19 16 00 00 cd 2b 00 80
       7.938e-42 -1.2368e-41 7.927e-42 -1.5713e-41
0003e0 a2 00 00 80 71 2a 00 80 55 02 00 00 0a 20 0f 00
       -2.27e-43 -1.5225e-41 8.37e-43 1.389026e-39
0003f0 23 94 1d bd 73 c5 73 bd 9f 2e 47 bd 66 b1 0f 3b
       -0.038471352 -0.059514474 -0.048628446 0.0021925806

onnx::Conv_84 f4 [32]
000000 f3 33 09 bd 1b fe 15 3d b9 84 09 00 dd 64 81 3e
       -0.03349681 0.036619287 8.74131e-40 0.25272265
000010 b4 45 a2 be 20 24 d9 ba 8b c8 43 bd 4b 0f c4 3e
       -0.31693804 -0.0016566552 -0.047798675 0.38292918
000020 9c d8 de b3 b4 b9 09 bd 19 02 f3 b1 1e 4f 08 be
       -1.03770816e-07 -0.033624366 -7.0724693e-09 -0.13311431
000030 62 ea d7 3d b6 f9 76 b7 ac 96 1b 00 1c e2 37 bd
       0.10542752 -1.4720883e-05 2.533609e-39 -0.04489337
000040 58 bc ec be 69 c3 ed b5 5b 5f 49 3e df 10 04 00
       -0.46237445 -1.7714748e-06 0.19665281 3.73394e-40
000050 fa 4a 12 3e 0f a9 4a be 19 10 da 3d 6a fc 08 91
       0.14286414 -0.19791053 0.10647602 -1.080629e-28
000060 fd 72 38 3e d8 78 05 be c3 cd 3f b8 b2 2d 00 00
       0.18012615 -0.1303438 -4.572958e-05 1.6392e-41
000070 75 95 13 b8 9f 34 08 00 df 99 3f bd 75 11 59 bd
       -3.5186724e-05 7.53561e-40 -0.046777602 -0.052995164

onnx::Conv_86 f4 [32, 32, 3, 3]
000000 b7 d9 76 be 66 7e e7 bd 66 8e bc 3c c9 49 c1 be
       -0.24106489 -0.113034055 0.02301712 -0.37751606
000010 9f 0d 92 bd 77 49 9b 3d 82 37 c5 be db b3 ad bd
       -0.07131504 0.07582372 -0.38518912 -0.0848157
000020 6d e4 51 bd a0 66 65 3e 26 8d eb 3d 6b 11 da 3c
       -0.051243234 0.2240243 0.11501531 0.026619634
000030 65 1d 52 3e 06 58 e4 39 f2 79 80 bd 2a 2e 90 3e
       0.20519026 0.0004355313 -0.06273259 0.2816022
000040 46 f6 61 3d a3 db 17 bb aa c6 03 80 f7 c1 02 00
       0.055166505 -0.0023171685 -3.46774e-40 2.53252e-40
000050 f5 77 01 00 48 d2 02 80 7c 62 04 80 48 5f 01 80
       1.34868e-40 -2.59106e-40 -4.02672e-40 -1.26016e-40
000060 bf c7 00 00 3e 54 00 00 ac 7b 01 80 c4 92 df bd
       7.1655e-41 3.022e-41 -1.362e-40 -0.10916665
000070 bb f6 cf bc d6 6c 31 be 7e 0b 79 bd 06 99 71 3d
       -0.025386205 -0.17326674 -0.060801975 0.058983825
000080 15 f4 cc bd ba e7 50 be 95 05 72 3d 00 53 35 bc
       -0.100074925 -0.20400897 0.059087355 -0.011067152
000090 00 fb 69 bb 18 46 d5 3d 23 47 ab 3d d4 02 a7 ba
       -0.0035702586 0.1041376 0.083631776 -0.0012741932
0000a0 d1 7c 7c 3d 20 da 2c 3c 56 71 86 bb 77 93 20 3c
       0.06164247 0.010550052 -0.004102866 0.009800783
0000b0 51 f2 ec bc 6f 61 dc 39 c2 9d a9 ba 61 35 0f 3a
       -0.02892414 0.00042034264 -0.0012940692 0.0005462971
0000c0 80 f6 c3 b7 d3 05 da ba 55 90 6f ba bc 08 6f ba
       -2.3360597e-05 -0.0016633816 -0.00091386336 -0.0009118428
0000d0 87 5b 04 bb 3f 2a e7 ba 1e db a5 3e 5c 95 34 3e
       -0.0020196156 -0.0017636492 0.32393736 0.17635101
0000e0 56 7b b1 3a 27 4b 04 3e 01 61 77 bd d8 17 0a be
       0.0013540785 0.12919293 -0.060395245 -0.13485658
0000f0 9c bd 0e 3e de d6 16 be d0 f6 61 be ab 7b 2f be
       0.13939518 -0.14730403 -0.22066808 -0.1713702
000100 d3 76 0e be 02 a8 fe bd 17 0d c9 bd 65 d4 c4 3c
       -0.13912515 -0.12434389 -0.0981695 0.024027059
000110 94 8b 0a 3e 1b c2 2a be 47 74 08 3e e1 7d af 3d
       0.13529807 -0.16675608 0.13325606 0.08568931
000120 96 3c 00 80 1e bc 00 00 56 ab 00 80 ae a1 00 80
       -2.1734e-41 6.7484e-41 -6.1464e-41 -5.8e-41
000130 40 6d 00 80 3f 83 00 00 bf 7b 00 00 75 47 00 00
       -3.9192e-41 4.7082e-41 4.4392e-41 2.5634e-41
000140 62 63 00 80 c1 68 ba 3d 2d 4b 1f 3d 2b d8 c7 bd
       -3.5652e-41 0.091020115 0.038890053 -0.09758028
000150 9d 48 df 3d c8 63 4d 3d bd 9d ad bd a3 0a 1b 3d
       0.10902522 0.050143987 -0.08477352 0.03785194
000160 ec fd 01 3d 05 5c a9 bc c3 17 00 00 25 56 00 00
       0.0317363 -0.020673761 8.524e-42 3.0903e-41
000170 90 22 00 80 7a 57 00 00 f2 2b 00 80 49 1a 00 00
       -1.2399e-41 3.138e-41 -1.5765e-41 9.43e-42
000180 69 0e 00 80 1a 2c 00 80 8b 30 00 80 c6 54 98 be
       -5.17e-42 -1.582e-41 -1.7414e-41 -0.29752177
000190 57 02 6e 3c f7 c4 0e 3b f4 53 55 be 58 49 be 3d
       0.014526925 0.002178488 -0.20832807 0.09291333
0001a0 c9 48 16 3d 50 d2 3e bd 2d 51 e5 3d ba 36 df 3d
       0.036690507 -0.04658729 0.11197124 0.1089911
0001b0 eb 7f a7 3d f6 12 a7 3b b2 b4 e2 bd 0a 9b 92 3d
       0.08178695 0.005098696 -0.11069621 0.071584776
0001c0 a9 7d 77 bc 41 50 14 be 58 6f 08 3b 17 3f 79 bd
       -0.015105643 -0.1448374 0.002081832 -0.060851183
0001d0 b8 70 ae bd 4a 77 00 80 57 3b 00 80 84 3c 00 00
       -0.08517593 -4.2793e-41 -2.1287e-41 2.1709e-41
0001e0 55 5c 00 80 2d 18 00 80 32 b1 00 00 fe d0 00 00
       -3.3122e-41 -8.673e-42 6.3566e-41 7.4972e-41
0001f0 bc 4f 00 80 bf 46 00 00 76 88 01 80 95 b3 00 00
       -2.8603e-41 2.5379e-41 -1.40788e-40 6.4422e-41
000200 8b 0f 02 00 3a 66 01 00 9b 47 01 80 f8 c7 01 80
       1.89247e-40 1.28507e-40 -1.17523e-40 -1.63571e-40
000210 34 94 03 00 2e 13 04 00 18 60 01 80 37 1a 1c 3c
       3.28672e-40 3.74222e-40 -1.26307e-40 0.0095277345
000220 e9 66 54 3c 45 26 02 3c 86 52 6b 3b e6 1d 0b 3c
       0.012963989 0.0079436945 0.0035907342 0.008491015
000230 e4 d6 c9 3a 52 4c b6 3a 7b a7 99 3c 97 32 65 3c
       0.0015399125 0.0013908243 0.018756619 0.013989112
000240 16 44 1e be fc d8 67 bb 7a e1 a8 3d 94 36 35 be
       -0.1545566 -0.0035377136 0.08246131 -0.17696601
000250 8a fe 0a 3d c4 68 ae 3d fc 5c a0 be 41 da 6f bd
       0.033934154 0.08516076 -0.3132094 -0.058557753
000260 03 e0 6e bd 0e 28 00 00 6a a6 00 00 51 4f 00 00
       -0.058319103 1.4369e-41 5.9698e-41 2.8453e-41
000270 93 30 00 00 fa 29 00 80 77 79 00 00 89 80 00 00
       1.7425e-41 -1.5058e-41 4.3573e-41 4.611e-41
000280 6a 07 00 80 f2 a5 00 00 84 49 42 be 70 36 66 be
       -2.66e-42 5.953e-41 -0.18973356 -0.22481704
000290 0c 86 0a be a6 32 90 bd 2e fb 40 be 7d ba e7 bd
       -0.13527697 -0.070409104 -0.18845817 -0.11314867
0002a0 57 2b 12 3d cc 89 1d bd 77 22 08 3d 65 cb 00 80
       0.035685863 -0.03846149 0.033235993 -7.2964e-41
0002b0 62 8c 01 80 e1 16 00 00 b6 ed 00 80 e6 0c 02 00
       -1.42195e-40 8.207e-42 -8.5275e-41 1.88298e-40
0002c0 57 3a 00 00 80 02 01 00 9a 1f 01 80 f0 23 01 80
       2.0928e-41 9.2732e-41 -1.03172e-40 -1.04727e-40
0002d0 49 19 c7 3c 9c dd 93 3d 2e 1f f6 bc cc f2 bb 3d
       0.02430405 0.07220003 -0.030044165 0.09177169
0002e0 a7 72 17 bd c9 f7 bc bd f0 aa 00 bd 3c c9 13 bd
       -0.036974575 -0.09226949 -0.03141302 -0.036080584
0002f0 43 b9 19 be 32 38 a1 3d 3f e1 15 3d 33 fc 2a be
       -0.15012078 0.078720465 0.036591765 -0.16697769
000300 e7 b4 f7 bc f6 89 2e be 45 2e 32 be ef 9c d6 bd
       -0.030237628 -0.17044815 -0.17400463 -0.104791515
000310 ef 2f 94 bd 08 17 f1 bd a5 07 48 3e 1b 8f 9d 3e
       -0.07235705 -0.11771971 0.19534166 0.30773243
000320 79 6a 8e 3e a2 69 da 3d d1 75 2b 3d ba c8 81 3d
       0.27815607 0.10664679 0.041860405 0.06337114
000330 ac ca 55 3d 4c a3 14 3c 01 02 89 bd 9f eb 32 0f
       0.052195236 0.009072136 -0.06689835 8.8214565e-30
000340 a0 1f b4 8d 72 f9 23 8f 03 a8 31 0f b7 12 71 85
       -1.110097e-30 -8.084562e-30 8.759132e-30 -1.1335203e-35
000350 5e ae 38 8f 61 b9 73 0e 37 92 23 8d 85 23 9c 8e
       -9.105482e-30 3.004132e-30 -5.0404253e-31 -3.8491173e-30
000360 29 a2 8f bd 3e d0 23 3d 39 40 6b bd b3 ee 01 be
       -0.070133515 0.039993517 -0.057434294 -0.12688713
000370 d4 18 32 bd 17 ec 17 be bf db 0e be f2 16 c7 bc
       -0.04348071 -0.14836155 -0.13951014 -0.024302933
000380 af 49 c3 ba dc b7 0c be 9c c3 da bd d2 80 b1 bc
       -0.0014899279 -0.13742012 -0.10681841 -0.021667872
000390 65 66 79 bd 2d 86 0e bc 0a fd 7f 3d 9d 66 f7 bd
       -0.060888667 -0.008698982 0.062497176 -0.12080119
0003a0 eb 32 79 bd 3b 68 cf 3b ff 89 89 12 13 3b dd 8f
       -0.060839575 0.006329564 8.679934e-28 -2.1815037e-29
0003b0 65 50 7c 8f 26 85 7f 12 4f e8 a1 88 fb 8a 27 91
       -1.2440043e-29 8.062793e-28 -9.7444505e-34 -1.3216804e-28
0003c0 98 ee a7 0d a0 29 a0 90 8a fb 81 91 de fc 00 80
       1.0349609e-30 -6.3173006e-29 -2.0507634e-28 -9.0712e-41
0003d0 8b b3 01 00 1b 1a 01 00 d1 82 00 80 8e 49 02 80
       1.56243e-40 1.012e-40 -4.6928e-41 -2.10057e-40
0003e0 60 ae 01 00 a3 2e 01 00 a2 1d 01 80 5f 03 00 00
       1.5439e-40 1.08566e-40 -1.02466e-40 1.21e-42
0003f0 65 26 6c 12 51 32 4e 12 64 ca 97 91 8e a8 b7 92
       7.4515794e-28 6.506416e-28 -2.3948332e-28 -1.1590476e-27

onnx::Conv_87 f4 [32]
000000 00 9b 2c 3e 5c 02 b2 3d 88 d1 bf 3c c1 64 43 bb
       0.16856003 0.08691856 0.023415342 -0.0029814693
000010 94 3c c1 ba 84 5c 19 be 6e eb 10 ae 52 6e 98 3c
       -0.0014742785 -0.14976698 -3.2950913e-11 0.018607292
000020 8a 49 01 bb f0 f4 9b 3e 6b cb ea ab 00 f4 88 ba
       -0.001972767 0.3046031 -1.668316e-12 -0.0010448694
000030 9b 5f f2 ba be 0d 7b ac d4 cf 4d af 28 34 0e b0
       -0.0018491627 -3.5676874e-12 -1.8718477e-10 -5.173342e-10
000040 83 73 15 bb 14 98 77 3c 3c d5 85 bd 74 79 02 3e
       -0.0022804446 0.015111942 -0.06534812 0.12741643
000050 0c df 11 3e 70 b7 b8 3d c2 5e 4a 3e 5a 9d 05 bd
       0.14245242 0.09019363 0.1976271 -0.032620765
000060 2e 57 23 a7 3c 3e cd 3c 02 9e 34 a2 30 20 8f bc
       -2.2668054e-15 0.02505409 -2.4478198e-18 -0.017471403
000070 a8 d8 d3 3d 5f 8e 67 bb 3c 28 53 3d 08 9a 85 3b
       0.10344058 -0.0035332663 0.051552042 0.0040772

onnx::Conv_89 f4 [32, 16, 1, 1]
000000 30 d6 9e 3c b8 6b f7 bb a1 3e 00 00 91 bd 86 bc
       0.019389242 -0.007550683 2.2467e-41 -0.016447814
000010 41 e3 d9 3c f3 25 2f bc 22 87 21 bd 35 ad 53 3a
       0.02659762 -0.0106902 -0.039435513 0.0008074821
000020 c4 32 80 bb 42 9c 13 bd f7 da 5b bb ae 15 00 00
       -0.0039123017 -0.03603769 -0.0033547261 7.777e-42
000030 5b 76 b4 bb b9 2f 0d 3d 88 f5 4a bd 0c d5 c7 3b
       -0.005507273 0.03446934 -0.049550563 0.006098395
000040 2d 2a d4 bd 8d e5 ec 3d cf 16 01 80 81 90 2d 3d
       -0.10359607 0.11567221 -1.00018e-40 0.042374138
000050 18 9c 06 be 42 55 b0 3c 94 fd 73 3d 71 0a 8f 38
       -0.13145483 0.02152503 0.059568003 6.820716e-05
000060 39 f5 9e 3c 4b 41 33 3d 55 b2 bb 3c 6c 08 00 00
       0.01940404 0.04376344 0.022912184 3.021e-42
000070 ca 44 b8 bd 52 7e 37 3c 54 c1 f7 bd bf 67 7f bd
       -0.089974955 0.011199551 -0.12097421 -0.0623548
000080 02 30 5a 38 93 2a 63 39 a3 11 00 00 61 c3 05 b9
       5.201996e-05 0.00021664267 6.327e-42 -0.00012756653
000090 b1 bb 09 b9 25 4b b2 39 9a 26 73 39 72 4d 24 3a
       -0.00013135259 0.00034006793 0.00023188666 0.0006267644
0000a0 f6 b6 04 39 51 d5 0d b9 bb 55 03 3a 16 0a 00 80
       0.00012656659 -0.00013526274 0.0005010028 -3.618e-42
0000b0 5c b4 89 37 1f de a2 3a e9 0a 86 3a a2 36 09 38
       1.6415659e-05 0.0012425816 0.001022664 3.2714226e-05
0000c0 73 41 99 3c 0a 06 38 3c e8 6f 00 80 cb 12 cf ba
       0.018707966 0.011231909 -4.0144e-41 -0.0015798447
0000d0 9e 1c c7 3b 0a 93 08 3b 20 e0 e3 ba 3c d1 c2 bb
       0.0060764095 0.0020839595 -0.001738552 -0.005945353
0000e0 40 09 29 3c 46 5f a7 3a 37 7b 03 3c f4 13 00 00
       0.010317147 0.0012769483 0.008024982 7.158e-42
0000f0 c7 da f4 3b b2 b1 65 3c 4d bc 29 3c 7e a6 71 3a
       0.0074723694 0.014019417 0.010359836 0.00092182297
000100 43 3d 86 af cc 0b d6 b3 4f 14 00 80 31 5f 62 32
       -2.4417987e-10 -9.9672974e-08 -7.285e-42 1.3176575e-08
000110 a7 f9 35 b5 69 15 59 34 f0 8f 5d b7 f9 89 0a 37
       -6.7791046e-07 2.0217489e-07 -1.320614e-05 8.257565e-06
000120 f1 3a 81 b7 a8 b9 39 35 68 a3 10 ae 1e 05 00 00
       -1.5405445e-05 6.9188036e-07 -3.2886943e-11 1.836e-42
000130 a3 3f 3e b0 40 c4 0d b5 5b b7 5a 33 4e 38 f6 31
       -6.921203e-10 -5.2812175e-07 5.092384e-08 7.1659434e-09
000140 0d 59 54 3e 35 65 d3 be 24 80 00 00 e2 06 14 3d
       0.20737095 -0.41288152 4.5968e-41 0.036139376
000150 18 28 2a bf 97 d1 ff 3d a0 66 ad 3c a6 0f 7c be
       -0.6646743 0.12491148 0.0211671 -0.24615344
000160 16 3d 04 be 17 75 d2 3e 2b 7e 2d bd de 09 e9 2a
       -0.12913927 0.41104957 -0.04235665 4.139596e-13
000170 fc 0a 04 3e c7 b9 c0 3d a4 ce b8 3d ac 5e 09 3e
       0.12894815 0.09410434 0.090237886 0.1341502
000180 00 00 00 00 78 91 db 8c 00 00 00 80 83 1a 00 00
       0.0 -3.3829843e-31 -0.0 9.51e-42
000190 9c 93 23 07 00 00 00 80 00 00 00 80 47 a7 17 9b
       1.2306136e-34 -0.0 -0.0 -1.2544477e-22
0001a0 00 00 00 00 d2 fc f5 20 00 00 00 80 00 00 00 00
       0.0 4.1671917e-19 -0.0 0.0
0001b0 00 00 00 80 a6 8c 1b 9a 00 00 00 80 00 00 00 80
       -0.0 -3.2166864e-23 -0.0 -0.0
0001c0 d9 b9 d3 3d 28 ab b9 bd e7 13 02 80 6b 8e fd 3d
       0.10338182 -0.090658486 -1.9081e-40 0.1238068
0001d0 83 07 43 be 26 d7 ee 3d b9 03 e9 bc 8a 19 f9 3c
       -0.19045834 0.1166213 -0.028444158 0.030407686
0001e0 f5 4f c1 bd f1 f9 16 bc 60 8d 3d be 27 df d9 0a
       -0.09439079 -0.009214864 -0.18510962 2.098028e-32
0001f0 50 f1 93 bd 88 1b 22 be 89 fc 26 3e 1a 4f 8f 3e
       -0.07223761 -0.15830815 0.16307272 0.27990037
000200 b7 d6 3a 34 d5 c5 97 37 86 40 00 80 b0 33 42 34
       1.7400713e-07 1.8092725e-05 -2.3147e-41 1.8086462e-07
000210 f5 49 aa 38 4b b6 33 b3 eb 6b 89 37 66 b3 39 b7
       8.120007e-05 -4.184248e-08 1.6381926e-05 -1.1068629e-05
000220 dd 96 b4 36 1f 5c 09 b9 cf e0 37 b5 57 1a 00 80
       5.381981e-06 -0.00013099656 -6.849995e-07 -9.449e-42
000230 f6 06 16 36 8d 04 f5 b6 a0 2f 48 b7 39 c2 01 af
       2.2355794e-06 -7.3020988e-06 -1.19320175e-05 -1.1801483e-10
000240 72 bf c5 3d b8 4e 2b be bc 53 01 80 37 9e 77 3d
       0.09655656 -0.16729248 -1.21874e-40 0.06045362
000250 1e 03 b6 bd 0e ad 46 bd c8 f2 68 bd ef 66 f1 bd
       -0.08887313 -0.04850488 -0.05687216 -0.11787211
000260 d9 68 ed bd f9 3f a6 3b c4 9c 8a bc 02 93 8e 16
       -0.11592264 0.005073544 -0.016920455 2.3034112e-25
000270 03 76 0f bd 53 b9 c6 bd 06 a1 7d be bc 05 ab 3d
       -0.035024654 -0.097033165 -0.24768457 0.08350703
000280 00 00 00 80 00 00 00 80 00 00 00 80 00 00 00 80
       -0.0 -0.0 -0.0 -0.0
000290 00 00 00 80 00 00 00 80 00 00 00 80 00 00 00 00
       -0.0 -0.0 -0.0 0.0
0002a0 00 00 00 80 00 00 00 00 00 00 00 80 00 00 00 80
       -0.0 0.0 -0.0 -0.0
0002b0 00 00 00 00 00 00 00 00 00 00 00 00 00 00 00 80
       0.0 0.0 0.0 -0.0
0002c0 72 d1 16 b4 f3 b2 55 36 02 19 00 00 48 76 12 ae
       -1.4046034e-07 3.1843635e-06 8.971e-42 -3.330161e-11
0002d0 d7 9d a4 35 c6 bd bc b0 20 f6 bc ae 11 c6 40 36
       1.226489e-06 -1.3732737e-09 -8.592971e-11 2.872552e-06
0002e0 9e 64 68 b0 da 66 11 b1 7a 52 c1 b5 ea 1f 00 00
       -8.4544094e-10 -2.1158741e-09 -1.4403624e-06 1.1449e-41
0002f0 c3 ec e6 b5 0c 35 a6 b5 b2 17 ae 35 ce 29 fe a7
       -1.7205242e-06 -1.2383402e-06 1.2970906e-06 -7.0544487e-15
000300 36 8d c2 35 e3 22 69 b7 da 29 00 80 f5 a3 48 36
       1.4495224e-06 -1.3896005e-05 -1.5014e-41 2.9897758e-06
000310 1c f6 6e 38 ae 85 ca b5 27 2a 9b 37 53 a1 29 b7
       5.697283e-05 -1.5089079e-06 1.8497069e-05 -1.0110746e-05
000320 70 23 16 36 1c cf 1b 34 dd 2d e9 b5 2e 12 00 00
       2.237237e-06 1.4510846e-07 -1.7373201e-06 6.522e-42
000330 90 7e ab 35 27 cc 51 b7 15 cd 2b b7 a9 8b b4 b1
       1.2777327e-06 -1.2504904e-05 -1.0240144e-05 -5.254567e-09
000340 00 00 00 00 00 00 00 00 00 00 00 80 00 00 00 80
       0.0 0.0 -0.0 -0.0
000350 00 00 00 00 00 00 00 00 00 00 00 80 00 00 00 00
       0.0 0.0 -0.0 0.0
000360 00 00 00 80 00 00 00 00 00 00 00 80 00 00 00 00
       -0.0 0.0 -0.0 0.0
000370 00 00 00 80 00 00 00 80 00 00 00 80 00 00 00 00
       -0.0 -0.0 -0.0 0.0
000380 00 00 00 80 01 00 00 00 07 00 00 00 01 00 00 80
       -0.0 1e-45 1e-44 -1e-45
000390 08 00 00 80 01 00 00 80 01 00 00 00 06 00 00 00
       -1.1e-44 -1e-45 1e-45 8e-45
0003a0 3d 01 00 00 40 01 00 00 00 00 00 80 03 00 00 00
       4.44e-43 4.48e-43 -0.0 4e-45
0003b0 01 00 00 00 00 00 00 80 01 00 00 80 01 00 00 80
       1e-45 -0.0 -1e-45 -1e-45
0003c0 00 00 00 00 31 16 00 80 00 00 00 80 00 00 00 00
       0.0 -7.961e-42 -0.0 0.0
0003d0 08 39 00 80 00 00 00 80 00 00 00 80 3a 3c 44 0f
       -2.0459e-41 -0.0 -0.0 9.675145e-30
0003e0 00 00 00 80 f0 19 8a 00 00 00 00 80 00 00 00 80
       -0.0 1.2682603e-38 -0.0 -0.0
0003f0 00 00 00 00 00 00 00 80 00 00 00 00 00 00 00 00
       0.0 -0.0 0.0 0.0

onnx::Conv_90 f4 [32]
000000 de b4 b8 3c 78 77 44 bd 16 0a b6 3c f6 c1 d4 bc
       0.022547182 -0.047965497 0.022221606 -0.025971394
000010 34 71 c0 ba f8 07 68 bc 6e eb 10 ae 38 cd 79 3d
       -0.0014682175 -0.014162056 -3.2950913e-11 0.060986727
000020 94 6f 00 bb 69 9b 3b 3e 6b cb ea ab 36 23 89 ba
       -0.0019597756 0.18321003 -1.668316e-12 -0.0010462764
000030 44 ca f2 ba be 0d 7b ac d4 cf 4d af 28 34 0e b0
       -0.0018523415 -3.5676874e-12 -1.8718477e-10 -5.173342e-10
000040 95 a3 19 bb 43 24 79 3c ae f6 0f bd 5d ec ae 3d
       -0.002344345 0.015206399 -0.03514736 0.085411765
000050 d8 99 90 bd 5d 5e 15 be 0a 03 88 bd 3a a2 56 3d
       -0.07060593 -0.14586778 -0.06641205 0.052400805
000060 2e 57 23 a7 bf 04 b9 3d 02 9e 34 a2 a0 1e f2 3d
       -2.2668054e-15 0.09034108 -2.4478198e-18 0.118222475
000070 fe b9 75 bc 2c ae 7a bb 6c de 00 3e 1a a9 83 3b
       -0.014997957 -0.0038250787 0.12584847 0.004017961

onnx::Conv_92 f4 [64, 32, 3, 3]
000000 00 00 00 80 00 00 00 80 00 00 00 00 00 00 00 80
       -0.0 -0.0 0.0 -0.0
000010 00 00 00 00 00 00 00 80 00 00 00 80 00 00 00 00
       0.0 -0.0 -0.0 0.0
000020 00 00 00 80 00 00 00 80 00 00 00 00 00 00 00 80
       -0.0 -0.0 0.0 -0.0
000030 00 00 00 80 00 00 00 80 00 00 00 00 00 00 00 00
       -0.0 -0.0 0.0 0.0
000040 00 00 00 80 00 00 00 00 00 00 00 00 00 00 00 80
       -0.0 0.0 0.0 -0.0
000050 00 00 00 00 00 00 00 80 00 00 00 80 00 00 00 00
       0.0 -0.0 -0.0 0.0
000060 00 00 00 80 00 00 00 80 00 00 00 00 00 00 00 00
       -0.0 -0.0 0.0 0.0
000070 00 00 00 00 00 00 00 80 00 00 00 80 00 00 00 80
       0.0 -0.0 -0.0 -0.0
000080 00 00 00 00 00 00 00 80 00 00 00 00 00 00 00 00
       0.0 -0.0 0.0 0.0
000090 00 00 00 80 00 00 00 00 00 00 00 80 00 00 00 80
       -0.0 0.0 -0.0 -0.0
0000a0 00 00 00 00 00 00 00 00 00 00 00 00 00 00 00 80
       0.0 0.0 0.0 -0.0
0000b0 00 00 00 00 00 00 00 80 00 00 00 00 00 00 00 80
       0.0 -0.0 0.0 -0.0
0000c0 00 00 00 00 00 00 00 00 00 00 00 80 00 00 00 80
       0.0 0.0 -0.0 -0.0
0000d0 00 00 00 80 00 00 00 80 00 00 00 00 00 00 00 00
       -0.0 -0.0 0.0 0.0
0000e0 00 00 00 80 00 00 00 00 00 00 00 80 00 00 00 00
       -0.0 0.0 -0.0 0.0
0000f0 00 00 00 80 00 00 00 00 00 00 00 00 00 00 00 80
       -0.0 0.0 0.0 -0.0
000100 00 00 00 00 00 00 00 80 00 00 00 80 00 00 00 00
       0.0 -0.0 -0.0 0.0
000110 00 00 00 80 00 00 00 00 00 00 00 80 00 00 00 80
       -0.0 0.0 -0.0 -0.0
000120 00 00 00 00 00 00 00 00 00 00 00 80 00 00 00 80
       0.0 0.0 -0.0 -0.0
000130 00 00 00 00 00 00 00 00 00 00 00 80 00 00 00 80
       0.0 0.0 -0.0 -0.0
000140 00 00 00 00 00 00 00 80 00 00 00 00 00 00 00 80
       0.0 -0.0 0.0 -0.0
000150 00 00 00 80 00 00 00 80 00 00 00 80 00 00 00 80
       -0.0 -0.0 -0.0 -0.0
000160 00 00 00 00 00 00 00 80 00 00 00 80 00 00 00 80
       0.0 -0.0 -0.0 -0.0
000170 00 00 00 80 00 00 00 00 00 00 00 80 00 00 00 00
       -0.0 0.0 -0.0 0.0
000180 00 00 00 00 00 00 00 00 00 00 00 80 00 00 00 80
       0.0 0.0 -0.0 -0.0
000190 00 00 00 00 00 00 00 80 00 00 00 80 00 00 00 00
       0.0 -0.0 -0.0 0.0
0001a0 00 00 00 00 00 00 00 80 00 00 00 00 00 00 00 00
       0.0 -0.0 0.0 0.0
0001b0 00 00 00 80 00 00 00 80 00 00 00 00 00 00 00 00
       -0.0 -0.0 0.0 0.0
0001c0 00 00 00 80 00 00 00 00 00 00 00 80 00 00 00 80
       -0.0 0.0 -0.0 -0.0
0001d0 00 00 00 00 00 00 00 80 00 00 00 80 00 00 00 80
       0.0 -0.0 -0.0 -0.0
0001e0 00 00 00 00 00 00 00 80 00 00 00 00 00 00 00 80
       0.0 -0.0 0.0 -0.0
0001f0 00 00 00 00 00 00 00 00 00 00 00 80 00 00 00 80
       0.0 0.0 -0.0 -0.0
000200 00 00 00 00 00 00 00 00 00 00 00 80 00 00 00 00
       0.0 0.0 -0.0 0.0
000210 00 00 00 80 00 00 00 00 00 00 00 00 00 00 00 00
       -0.0 0.0 0.0 0.0
000220 00 00 00 80 00 00 00 00 00 00 00 80 00 00 00 80
       -0.0 0.0 -0.0 -0.0
000230 00 00 00 00 00 00 00 00 00 00 00 00 00 00 00 80
       0.0 0.0 0.0 -0.0
000240 00 00 00 00 00 00 00 80 00 00 00 80 00 00 00 00
       0.0 -0.0 -0.0 0.0
000250 00 00 00 80 00 00 00 00 00 00 00 00 00 00 00 80
       -0.0 0.0 0.0 -0.0
000260 00 00 00 80 00 00 00 00 00 00 00 00 00 00 00 80
       -0.0 0.0 0.0 -0.0
000270 00 00 00 80 00 00 00 80 00 00 00 80 00 00 00 80
       -0.0 -0.0 -0.0 -0.0
000280 00 00 00 00 00 00 00 80 00 00 00 80 00 00 00 00
       0.0 -0.0 -0.0 0.0
000290 00 00 00 00 00 00 00 00 00 00 00 00 00 00 00 00
       0.0 0.0 0.0 0.0
0002a0 00 00 00 00 00 00 00 80 00 00 00 00 00 00 00 80
       0.0 -0.0 0.0 -0.0
0002b0 00 00 00 80 00 00 00 00 00 00 00 00 00 00 00 00
       -0.0 0.0 0.0 0.0
0002c0 00 00 00 80 00 00 00 80 00 00 00 00 00 00 00 80
       -0.0 -0.0 0.0 -0.0
0002d0 00 00 00 00 00 00 00 80 00 00 00 80 00 00 00 00
       0.0 -0.0 -0.0 0.0
0002e0 00 00 00 80 00 00 00 00 00 00 00 00 00 00 00 80
       -0.0 0.0 0.0 -0.0
0002f0 00 00 00 80 00 00 00 00 00 00 00 80 00 00 00 00
       -0.0 0.0 -0.0 0.0
000300 00 00 00 80 00 00 00 80 00 00 00 00 00 00 00 80
       -0.0 -0.0 0.0 -0.0
000310 00 00 00 00 00 00 00 00 00 00 00 80 00 00 00 80
       0.0 0.0 -0.0 -0.0
000320 00 00 00 80 00 00 00 00 00 00 00 00 00 00 00 80
       -0.0 0.0 0.0 -0.0
000330 00 00 00 80 00 00 00 80 00 00 00 00 00 00 00 80
       -0.0 -0.0 0.0 -0.0
000340 00 00 00 00 00 00 00 00 00 00 00 80 00 00 00 80
       0.0 0.0 -0.0 -0.0
000350 00 00 00 00 00 00 00 00 00 00 00 00 00 00 00 00
       0.0 0.0 0.0 0.0
000360 00 00 00 00 00 00 00 80 00 00 00 80 00 00 00 00
       0.0 -0.0 -0.0 0.0
000370 00 00 00 00 00 00 00 00 00 00 00 00 00 00 00 00
       0.0 0.0 0.0 0.0
000380 00 00 00 00 00 00 00 80 00 00 00 00 00 00 00 00
       0.0 -0.0 0.0 0.0
000390 00 00 00 00 00 00 00 00 00 00 00 80 00 00 00 80
       0.0 0.0 -0.0 -0.0
0003a0 00 00 00 00 00 00 00 80 00 00 00 80 00 00 00 00
       0.0 -0.0 -0.0 0.0
0003b0 00 00 00 80 00 00 00 00 00 00 00 80 00 00 00 00
       -0.0 0.0 -0.0 0.0
0003c0 00 00 00 80 00 00 00 80 00 00 00 00 00 00 00 80
       -0.0 -0.0 0.0 -0.0
0003d0 00 00 00 00 00 00 00 00 00 00 00 00 00 00 00 80
       0.0 0.0 0.0 -0.0
0003e0 00 00 00 00 00 00 00 00 00 00 00 00 00 00 00 00
       0.0 0.0 0.0 0.0
0003f0 00 00 00 00 00 00 00 80 00 00 00 00 00 00 00 00
       0.0 -0.0 0.0 0.0

onnx::Conv_93 f4 [64]
000000 40 65 00 80 bb 52 00 80 6d 25 00 80 6f 04 01 80
       -3.6322e-41 -2.9678e-41 -1.3426e-41 -9.3426e-41
000010 dc 37 00 00 87 22 00 00 75 b6 00 00 d0 0a 00 00
       2.0039e-41 1.2386e-41 6.5453e-41 3.879e-42
000020 29 72 00 00 6e 6f 00 80 5b 90 00 00 bc d7 00 80
       4.0953e-41 -3.9973e-41 5.1785e-41 -7.7391e-41
000030 bd 65 04 9f 39 52 00 80 c7 30 00 00 ff 59 00 00
       -2.8036243e-20 -2.9496e-41 1.7498e-41 3.2285e-41
000040 98 56 00 80 eb 4b 58 b9 83 47 09 3e 17 db 00 00
       -3.1064e-41 -0.00020627647 0.13406186 7.8595e-41
000050 6c 58 bb 3d 6e 91 00 80 d5 46 27 b7 54 4f ed 3b
       0.091477245 -5.217e-41 -9.9704675e-06 0.0072421227
000060 68 84 57 be 4d 24 00 80 63 4f 93 bd bb c0 00 80
       -0.21046603 -1.3022e-41 -0.07192876 -6.9139e-41
000070 85 f1 00 80 eb a6 00 00 17 3b 00 80 e1 66 00 00
       -8.6641e-41 5.9879e-41 -2.1197e-41 3.6906e-41
000080 8f 72 00 00 04 6c 00 00 4a 7e 00 00 c7 5f 69 9d
       4.1096e-41 3.8749e-41 4.5304e-41 -3.0886809e-21
000090 91 0a 00 00 71 ee 00 00 48 7a 36 8f b8 43 00 00
       3.79e-42 8.5537e-41 -8.996843e-30 2.4293e-41
0000a0 6f 13 00 00 68 ab da bb 23 56 00 00 c6 85 00 00
       6.971e-42 -0.0066732652 3.09e-41 4.7989e-41
0000b0 81 40 00 00 41 21 00 80 43 68 00 80 64 07 66 be
       2.314e-41 -1.1929e-41 -3.7402e-41 -0.22463757
0000c0 65 14 00 00 c8 64 00 00 d0 3e 5d bd 67 88 70 b9
       7.316e-42 3.6154e-41 -0.05401498 -0.00022938997
0000d0 78 4f 00 00 6c d2 00 00 32 be 00 80 cc 71 00 00
       2.8508e-41 7.5485e-41 -6.8229e-41 4.0823e-41
0000e0 d7 5a 00 00 57 24 00 80 83 41 9d b2 14 c5 c2 bd
       3.2587e-41 -1.3036e-41 -1.8306997e-08 -0.09510246
0000f0 d0 1c 00 80 a5 81 00 00 78 5c 00 80 c0 68 00 00
       -1.0336e-41 4.6508e-41 -3.3172e-41 3.7577e-41
