model/coelho..onnx (onnx, 302121 bytes, 16 tensors)

fc.weight f4 [2, 256]
000000 97 87 f9 bc 51 a3 fb 3c 85 26 96 bd ec b4 13 bd
       -0.030460162 0.030717524 -0.07331566 -0.036061212
000010 50 dc 68 bd 2e d3 71 bd c4 3b 12 bd aa de 9c bc
       -0.05685073 -0.059039287 -0.03570153 -0.019149143
000020 0f 05 dc bc 50 48 09 bd 25 0f 68 bd 0c f6 3f 3d
       -0.02685788 -0.03351623 -0.056655068 0.046865508
000030 ec 9f b3 bc 11 3e 1e 3d 49 70 6c bd 5e 7f 43 bd
       -0.021926843 0.03863341 -0.05772427 -0.04772889
000040 bb 0b 87 3d d9 c8 55 3d b9 fa e5 3c c1 3a 67 3d
       0.06594034 0.052193496 0.028073655 0.056452516
000050 59 ad b7 bc 3e 7a a9 3d d9 b5 47 3d 56 5a 5d 3d
       -0.022421526 0.08275269 0.048757408 0.05404123
000060 22 0b 5f 3d d6 63 03 3b 8a 16 02 bb 09 89 6d bd
       0.054453976 0.002004852 -0.001984986 -0.057992015
000070 d3 8d 22 3c 3f 88 2c bd 12 6e e1 3b be 1f 71 3d
       0.009921509 -0.042122122 0.0068795765 0.058868162
000080 f1 ae 08 3d 8e 32 f3 ba 30 e0 9c 3d 8e 32 90 3d
       0.033369962 -0.0018554495 0.07659948 0.070408925
000090 7c 4d ac bc ed 48 1d bd 39 f4 25 bc 54 ab ac bb
       -0.021033041 -0.038399626 -0.010129028 -0.0052694473
0000a0 32 b3 04 3c 1c ae 7e bd 98 b6 9b 3d 38 b7 aa 3d
       0.008099364 -0.062177762 0.07603186 0.083357275
0000b0 ac 5c 97 bc 98 4d 2a bc ca 72 2b 3d de 70 4b bd
       -0.018476807 -0.010394476 0.04185752 -0.049668185
0000c0 c6 c7 18 3d de 6e dd 3c 5d af a7 3d aa 0b 82 3b
       0.037299894 0.027030405 0.08187745 0.0039686756
0000d0 a4 25 50 3d e4 26 7d 3d a9 01 37 3d 02 28 a8 3d
       0.050817147 0.061804667 0.044679318 0.08210756
0000e0 55 0b 88 3d 84 00 03 3c f2 98 8c 3d a9 19 8b 3d
       0.066427864 0.007995728 0.068651095 0.06792004
0000f0 18 75 30 bd b2 82 35 bc 29 dd a3 bd f3 66 bd 3a
       -0.04308042 -0.0110785235 -0.08001167 0.0014450237
000100 0f 20 28 3d c5 1a 68 3d 41 f1 9b bd 41 7d 5f bd
       0.0410462 0.056666154 -0.07614375 -0.05456281
000110 e8 9f 87 3b 5f b0 fc bc d5 b0 4e 3d 51 12 9c 3c
       0.0041389354 -0.030845819 0.05046161 0.019051703
000120 8d 27 e8 3c 15 ee 42 3d 1b 0b 0d bd 65 07 31 3c
       0.028339172 0.047590334 -0.03443442 0.010804986
000130 4a 03 c9 bc e4 50 3b bd d5 89 05 bd 00 39 bd 3c
       -0.024537701 -0.04573144 -0.03260215 0.023098469
000140 ec 42 3f bc 0b cb 06 3d e1 6b 31 bd 7f e6 89 3c
       -0.01167367 0.03290848 -0.043315772 0.016833542
000150 1b df 42 bd ad 3a 3d 3c 48 9c 1e 3d 8f ee 56 bd
       -0.04757605 0.011549634 0.03872326 -0.0524736
000160 4b a1 52 3d cd fb af bd cc 89 fa 3c 15 21 27 bd
       0.051423352 -0.08592949 0.030583285 -0.040803034
000170 7d 40 16 bd 5e 78 8e bd 45 1c 94 bb bf 07 a7 bd
       -0.036682595 -0.06956552 -0.0045199716 -0.08155774
000180 0e b6 3e 3d a2 32 ac bc e6 cc 17 3c 3b f9 4b bb
       0.04656034 -0.021020237 0.00926516 -0.0031123895
000190 87 d8 6a 3d 7e 5b fb bc 7f 8e b7 bc 10 b9 fc 3c
       0.057335403 -0.030683275 -0.022406815 0.030849963
0001a0 41 2e 8e 39 15 51 a2 3c 98 6a ac bc 13 dd 07 bd
       0.00027118812 0.019814054 -0.021046922 -0.033169817
0001b0 c7 dd 0c bd af 3c cd 3c 44 1d a6 3d 2c ae e3 bc
       -0.03439119 0.02505335 0.08111051 -0.027793013
0001c0 03 b3 2f bb 2b 3a 97 3d 76 69 49 bd 9a ca d8 bc
       -0.002680958 0.073841415 -0.04917284 -0.026463795
0001d0 c9 e1 f8 bc 2c 2b c0 bd b8 1b 30 3c 20 cd 90 bd
       -0.0303811 -0.093832344 0.010748796 -0.070703745
0001e0 0a 2c d7 3c 80 c3 a6 bb 13 df 58 3d 33 ae c2 bb
       0.026266117 -0.0050892234 0.052947115 -0.0059411763
0001f0 4e 0d aa bd ce 6f 54 bd 4f 44 97 3c 8a 39 15 3c
       -0.08303319 -0.051864438 0.01846519 0.009107957
000200 81 8a 55 3d a9 85 12 bd 19 50 fd bc cc 4a 19 bd
       0.05213404 -0.035772 -0.030921983 -0.037424847
000210 59 90 38 bd 99 22 1e 3d 71 78 85 3d 40 c7 a1 3d
       -0.045059536 0.038607214 0.06517113 0.07899332
000220 11 de 6f 3d 52 ad 62 bc c6 a0 99 3d 31 91 26 bd
       0.05856139 -0.013835268 0.07501368 -0.04066581
000230 aa 6d 88 3d d3 55 83 3d 6e e4 08 bd 4b 8f a4 3d
       0.06661542 0.06412854 -0.033420973 0.080351435
000240 e7 6c 18 bd 68 9d 29 3c aa 1d 0e 3d 3e 0b 43 bc
       -0.037213232 0.01035247 0.03469626 -0.011904536
000250 3c 80 54 3c 8a 42 bd 3c f5 d8 27 bd 0a a0 1f bd
       0.012970027 0.023103017 -0.04097839 -0.038970985
000260 d5 83 39 bd 02 5e 02 3d 95 fd 87 bc cf e0 2e 3d
       -0.04529174 0.031827934 -0.01660041 0.042694863
000270 b1 0c 03 3d c7 17 6f 3d eb d1 8f 3d 0e 7b 74 3d
       0.031994525 0.058372285 0.070224606 0.059687667
000280 25 14 cd 3c 3b 5f 47 3d 12 71 9e 3d 3a 89 82 3d
       0.02503402 0.048674803 0.0773641 0.0637383
000290 bf 85 8b 3d 0c 16 ea 3c fb 22 a8 3d e0 73 e5 bc
       0.068126194 0.028574966 0.08209797 -0.028009355
0002a0 bf f1 c8 bd dc 52 9c bd d3 65 3b 3b 28 4b 14 bc
       -0.098117344 -0.07632992 0.0028594628 -0.009051122
0002b0 f4 1f 19 3d 77 d5 ce bc d6 37 82 bd bd cd bd ba
       0.03738399 -0.025248272 -0.06358306 -0.001448087
0002c0 ef bd 99 3d 4d 16 0f bb d8 a5 a6 3d 9d d0 bb 3d
       0.0750693 -0.002183336 0.08137101 0.09170649
0002d0 12 79 28 bd 0e 4c ee 3c 4d 76 10 bd d3 34 48 3d
       -0.041131087 0.029089 -0.03526907 0.048878502
0002e0 b6 ee 91 bd 15 99 ac 3c 59 1a bd bd e4 39 a9 bc
       -0.071256086 0.021069089 -0.09233541 -0.020657487
0002f0 93 32 76 3c 16 6a ca bc 6d bd 13 3d 20 f3 98 3d
       0.015026706 -0.024708789 0.036069322 0.074682474
000300 62 72 49 bd ac 00 82 3d df 2a 3b bd 47 44 13 3b
       -0.04918135 0.063477844 -0.045695182 0.0022471116
000310 80 b4 30 3d 34 ac a6 3d ed ff 02 bd 96 f6 e8 bc
       0.04314089 0.08138314 -0.03198235 -0.028437894
000320 a3 11 8a 3c da 31 72 bc 03 54 87 3d b0 75 a2 3d
       0.016854113 -0.014782393 0.06607821 0.07932603
000330 28 7d 30 3d e8 c4 ad 3c f4 1d f8 bc 75 81 c0 3a
       0.04308811 0.021212056 -0.03028772 0.0014687019
000340 c8 c8 9e bc ee d8 6a bd c5 92 9c bd 29 d7 2a ba
       -0.01938285 -0.057335787 -0.076451816 -0.0006517047
000350 5d b2 73 3c 14 96 af bc 85 3a 64 bc ed a8 aa 3d
       0.014874068 -0.021433868 -0.013929968 0.08333001
000360 15 68 84 3b 3d 96 a6 bd b9 a7 8b bd 98 a1 41 bd
       0.004040728 -0.081341244 -0.068191 -0.04727325
000370 21 58 a4 bc ab af 85 3b 26 25 7b 3d 22 54 e8 3b
       -0.020061554 0.004079779 0.061314724 0.0070901075
000380 3d d3 49 3d 8e ba 6a bd f3 e3 43 bd cf 89 1b 3d
       0.04927372 -0.05730682 -0.04782481 0.03797322
000390 3a d0 67 bd b1 f1 e6 3c 78 e0 8d bd a9 18 67 bd
       -0.056595065 0.02819142 -0.0692758 -0.056420002
0003a0 9c 8c 35 bd 98 26 69 bd 0f f8 c1 3d eb a0 85 3c
       -0.04432355 -0.05692157 0.094711415 0.016312083
0003b0 37 68 3f bd 33 75 4d 3c ab 4d 21 bd 66 cc 39 bd
       -0.046730246 0.0125401495 -0.03938071 -0.045360945
0003c0 3d a4 4d bd a3 cf 44 bc 27 3d 70 3d de 6e a1 3d
       -0.050205458 -0.012012395 0.05865207 0.07882474
0003d0 ed 25 b2 3d 6f 89 a5 3c 45 ca 9d 3d 4c 28 be bc
       0.0869864 0.020207135 0.077045955 -0.023212574
0003e0 db a9 38 3c c8 ff a4 bd 48 a5 8c bb f2 0c 98 bd
       0.011270965 -0.08056599 -0.004292164 -0.07424344
0003f0 f1 bb 26 3c 7c 7e 28 bd 17 09 5c bd 9c fa 85 bd
       0.010176645 -0.04113625 -0.053719606 -0.065419406

fc.bias f4 [2]
000000 20 71 8f 3c 89 9e 85 3d
       0.017509997 0.06524379

onnx::Conv_80 f4 [16, 3, 7, 7]
000000 53 32 0c be 99 8e 3c be 50 61 0a bd 8d 82 04 3e
       -0.13691072 -0.18413772 -0.03378421 0.12940426
000010 5d 1b d4 bd 2b 3d 81 3e 43 56 69 3d 06 78 5e be
       -0.10356782 0.2524198 0.05696703 -0.21725473
000020 46 0c 8c bd 68 bc 6f 3e e4 bb 62 3e a9 0f cb bc
       -0.068382785 0.23411715 0.22141987 -0.02478774
000030 94 df 28 bd da c9 69 3e ad 61 3f be 79 c3 4c 3e
       -0.041228846 0.22830907 -0.18689604 0.19996442
000040 e1 7a 1e 3e 93 bc 28 be 16 61 45 3e d0 96 49 3e
       0.15476562 -0.16478185 0.19275317 0.19686437
000050 e6 6e 9b 3e 85 e8 2f 3e 6b e4 1f 3e 14 9c f1 3d
       0.30358046 0.17178543 0.15614478 0.11797348
000060 8c 45 cd bb 01 24 b5 bd bf 52 84 3d 95 cc 93 3e
       -0.006264394 -0.08844758 0.06461095 0.2886702
000070 68 6d 43 bb ce 1b 1a be 6f 77 c8 3d 2b 88 2a be
       -0.002981985 -0.15049669 0.09788405 -0.16653506
000080 08 49 f7 3d 80 df 1a 3e 7b d4 5a 3e 05 73 1c be
       0.120744765 0.15124321 0.21370117 -0.15278251
000090 b3 ee 88 3c b1 f9 4a 3e ec 19 13 be 5d 61 a6 bd
       0.016715383 0.19821812 -0.14365357 -0.08124039
0000a0 bc d6 bc bd a0 30 4a 3e d6 61 c3 bd 94 e6 60 3e
       -0.09220645 0.19745111 -0.09540145 0.21962959
0000b0 78 d1 25 be 3c 44 5f bd 48 65 3a bd b8 27 17 bc
       -0.16193187 -0.054508433 -0.045506746 -0.009225778
0000c0 8e 2b 75 3e 32 08 53 3d 2b 41 49 bd c1 9a 61 be
       0.23942396 0.051521488 -0.049134415 -0.2203169
0000d0 0a cf d6 bb 41 ce 53 be fc eb d5 bd 4d 74 0b be
       -0.0065554427 -0.20684148 -0.10445401 -0.13618584
0000e0 2c 90 7c be 14 7d f3 3b af 98 2f 3e 31 66 6f be
       -0.24664372 0.007430682 0.17148088 -0.23378827
0000f0 00 34 9d 3d 16 84 10 be c9 a6 ae 3e a8 33 27 be
       0.07675934 -0.14112887 0.34111622 -0.16328299
000100 ca 21 14 bc c8 a7 42 be f3 32 0e bc b3 6f 87 be
       -0.009041259 -0.19009316 -0.008679139 -0.26452407
000110 29 a8 76 be 66 be 4f 3e d3 4e 03 be ad 20 26 be
       -0.24087586 0.20287475 -0.12823038 -0.16223402
000120 52 42 38 3d 05 91 c0 bd 98 6d 3b be 4d 3b 17 3d
       0.044985123 -0.0940266 -0.18303525 0.036921788
000130 c3 68 ed bd 42 7b 7f bd ab 42 08 3d dd 66 3d be
       -0.11592247 -0.062373407 0.033266705 -0.1849627
000140 a6 e6 3d 3e db 4b 5c 3e 0a be c1 bd c2 57 e9 3d
       0.18545017 0.21513312 -0.09460075 0.113936916
000150 e1 a1 18 3d 54 52 72 bd e0 1f 24 bd 9b d1 90 bc
       0.037263755 -0.059160545 -0.04006946 -0.017678073
000160 da 28 0b be 64 90 a3 bd 24 9d d7 bd 97 6b 0c be
       -0.13589802 -0.07986525 -0.10528019 -0.13712917
000170 54 4f 66 3d d6 64 2f bd a6 8b fa 3d b4 61 5d 3e
       0.056227997 -0.042820774 0.12233667 0.21619302
000180 da 29 89 3e dd 4c a4 3e f3 e2 a1 be 38 06 b9 bd
       0.26789743 0.32089892 -0.3161846 -0.09034389
000190 5a 6d 33 be fb 2b 3d bc f6 28 39 be b1 67 92 be
       -0.17522183 -0.01154613 -0.18082032 -0.28594735
0001a0 d5 22 d6 3d 3b 63 21 be f7 9b 05 3d f2 b1 10 be
       0.104558624 -0.1576051 0.032619443 -0.14130381
0001b0 7b a4 c4 bc 5c 52 b5 bd ad 5b d2 bd 10 2b 1b be
       -0.024004212 -0.088535994 -0.10271392 -0.15153146
0001c0 86 0a 5b be 2b 99 e9 3c 72 0d 3b be 0e e0 59 be
       -0.21390733 0.028515419 -0.18266848 -0.21276876
0001d0 77 44 0c 3d f7 3b ad 3d 00 d3 76 bd 2a 4a f3 bd
       0.03424498 0.08458703 -0.06025982 -0.1187938
0001e0 bf b6 80 3d 7d d3 80 bd 22 49 4f 3d 83 68 60 bd
       0.06284856 -0.06290338 0.050606854 -0.05478717
0001f0 66 96 ca bd 13 a9 7e 3e 95 3d 00 be 2a 62 f4 3d
       -0.098919675 0.24869184 -0.12523492 0.11932786
000200 fe 88 05 3d 2a cb 66 3d 1b c1 66 3d 29 40 ec 3d
       0.03260135 0.056346096 0.056336503 0.11535675
000210 21 61 4d 3e fe 9c 3e 3d 16 06 60 be 35 ac 7c be
       0.20056583 0.04653644 -0.21877322 -0.24675067
000220 50 a6 36 3e 56 5d e0 bd d5 be 2f be 9c 47 43 3d
       0.1783688 -0.109553024 -0.1716264 0.047675714
000230 11 7a d8 bd e5 4f 1e 3e 39 12 59 3d 27 ad 2f be
       -0.10570157 0.15460165 0.052995894 -0.17155896
000240 a6 3f 6d 3c ba db 1a 3e f7 ea 8e 3e f5 07 df 3c
       0.014480507 0.15122882 0.2791364 0.027225474
000250 2b 28 be ba 41 bb b2 3d 6d 1a c9 bd c7 14 bd bc
       -0.0014507821 0.08727122 -0.098194934 -0.023081196
000260 84 36 a9 bd 80 19 16 3b d1 0e b4 bd 7b 9d 4c ba
       -0.08262351 0.0022903383 -0.087918885 -0.0007805449
000270 5e cd 75 bd 0c 78 fa bc dc 0d 00 3d b3 fa c3 3d
       -0.060010307 -0.030574821 0.031263217 0.095693015
000280 ac da d4 3d 53 ec cf 3c a3 0c 16 be 63 6a a6 b9
       0.10393271 0.025381243 -0.14653258 -0.00031741252
000290 af 65 c4 3d 13 1b ce 3d b3 63 92 3d 23 57 c5 3d
       0.09589707 0.10063758 0.07147922 0.09635761
0002a0 8d 0a fa 3d 9a a1 1d bd c3 6b 8f bd 5b 14 91 bd
       0.12209044 -0.038484193 -0.07002976 -0.070839606
0002b0 36 b0 82 bd ab 5a f6 3d 9f e1 8d 3d ad 9d 8b bd
       -0.06381266 0.12029012 0.069277994 -0.06817184
0002c0 8e 4f b7 ba 5e ee ad 3d 21 fa 3f 3e 8b e5 df 3d
       -0.0013985501 0.084927306 0.1874776 0.10932454
0002d0 1d 03 fc 3d 72 2f 14 bd 8a c9 38 be f5 95 2b be
       0.12305281 -0.03617806 -0.18045631 -0.16756423
0002e0 6b 08 1e be 19 43 f8 bd 4a f4 84 bd 50 ae 6f bd
       -0.15432899 -0.12122173 -0.06491907 -0.058515847
0002f0 96 db 1b be 8d c3 55 be 86 ed 0e be 25 ea 34 3d
       -0.15220484 -0.20875378 -0.13957796 0.04416861
000300 fe 55 fe bd 63 a2 4c bd 40 80 53 be e6 5a a9 3d
       -0.124187455 -0.04995955 -0.20654392 0.082692906
000310 9c 4b dd bb d6 6e 03 3d f6 7b 58 b9 8a f1 6e be
       -0.006753398 0.032088123 -0.00020645544 -0.23334327
000320 84 c8 66 3b 9f 4f ee bd 2f 82 5f bd 89 c6 8a bd
       0.0035214731 -0.1163628 -0.054567512 -0.06776149
000330 a8 7e 01 3e f5 ef a0 3d 5d 2f 0b 3e 1c 47 e2 3c
       0.12645972 0.07858268 0.13592286 0.027621798
000340 aa 53 f1 3d cb 09 52 3d fa 5e a5 bd 58 51 bb 3c
       0.11783536 0.05127887 -0.08074756 0.022865936
000350 dd 44 a2 bd db cf 99 3d a4 62 bd 3d 38 99 31 3e
       -0.07923291 0.075103484 0.0924733 0.17343605
000360 47 71 66 bd bd 26 00 be 32 a4 57 be 36 44 1c be
       -0.056260373 -0.12514777 -0.2105873 -0.15260395
000370 d4 09 e6 3d 6e 9c 2c 3d 4b 7c 35 3e e3 dc cf 3a
       0.11232343 0.04214137 0.17723195 0.0015858676
000380 f1 e4 cb bd e9 61 1c bd de 8f 14 be a1 1f 2e 3c
       -0.099557765 -0.038179312 -0.14508006 0.010627658
000390 a3 a7 a3 3a 3e 89 ef 3d c4 2a d2 3d 4d 00 31 be
       0.0012485873 0.11696099 0.10262063 -0.17285271
0003a0 5b 8f 4e bc 17 06 ea 3d 8b ec ee 3d 3f a4 00 be
       -0.012607421 0.11426943 0.11666211 -0.12562655
0003b0 3c 65 a2 bd 10 3f c8 3d 47 8f 21 bc 0b 15 df bd
       -0.07929465 0.09777653 -0.00986082 -0.108926855
0003c0 e6 48 3d be a7 78 8f bd b8 b6 de 3d 99 74 5c bd
       -0.1848484 -0.070054345 0.108746946 -0.053822134
0003d0 ad e5 45 be 65 53 3e 3d 2b 8d 52 3e ea 71 c7 bd
       -0.19325896 0.04646625 0.20561664 -0.09738524
0003e0 32 13 3f 3e 40 83 2e 3e 53 18 2d 3e 47 6e 08 3d
       0.18659666 0.17042255 0.1690381 0.033308294
0003f0 18 d1 fc 3a 23 77 3b 3e 62 01 3a 3e d1 77 06 3e
       0.0019288389 0.18307166 0.1816459 0.13131644

onnx::Conv_81 f4 [16]
000000 27 3c c0 3e ff 7c 5e bf 10 31 a9 bc 8e 08 e4 bf
       0.37545893 -0.8690948 -0.020653278 -1.7815111
000010 4f 9c 07 3f 37 e9 dd bf ce 6c 92 3f 4a 3f d5 bf
       0.52972883 -1.7336797 1.1439455 -1.6659939
000020 a9 55 43 3f aa c5 3d 3f 60 27 99 3f a7 d2 d1 bf
       0.7630258 0.74129736 1.1965141 -1.6392411
000030 79 9e b0 3f 99 79 1e 3f ec 26 da bf b2 aa 91 bf
       1.3798362 0.61904293 -1.7043128 -1.1380217

onnx::Conv_83 f4 [32, 16, 3, 3]
000000 86 af 24 3b 11 48 b9 3b fc 23 a7 bc 89 cd c9 bc
       0.0025129034 0.005654343 -0.0204029 -0.02463414
000010 99 72 82 bd 16 c5 fa bd 34 de 9c bd 2e 8d ee bc
       -0.06369514 -0.122446224 -0.076595694 -0.029120054
000020 f0 87 c9 bd c5 85 cb 3d d2 7d 50 3d 09 c3 16 be
       -0.09840381 0.09937624 0.05090124 -0.14722838
000030 40 7a 60 3c bc c7 be bd 27 de b7 bd 34 35 18 be
       0.013701022 -0.0931544 -0.08977919 -0.14864045
000040 a4 3d 0f 3d 4c e5 ba bd eb 5c c4 3c fa 75 d5 3d
       0.034970894 -0.09125766 0.023970088 0.10422893
000050 70 b0 92 bc 34 95 fd 3c 79 d9 ee 3c 73 55 99 bd
       -0.017906398 0.030954935 0.029156433 -0.07487001
000060 9c 86 8e bd cd af ff 3c 9b 0a e5 3d f8 e8 a8 bd
       -0.069592685 0.031211758 0.111836635 -0.0824756
000070 56 80 de bc a1 e2 f9 bd dd 95 08 be de d4 ad bd
       -0.027160805 -0.12201429 -0.13338418 -0.08487867
000080 9b 1f 36 3c 38 c6 b0 bd dc 1a b6 bc ff 17 df bc
       0.011115934 -0.08631557 -0.022229604 -0.027233122
000090 db 1d 39 bd e8 04 8a bd 5e b3 e2 bc 09 5d da 3c
       -0.045194488 -0.06739217 -0.02767342 0.02665569
0000a0 ae 44 1a 3e 1f b5 52 bd 71 47 9f 3d 3b c2 9b 3d
       0.15065262 -0.05144226 0.07777298 0.07605406
0000b0 f2 89 1e 3e f0 f7 c1 3d 33 38 db 3d b6 a4 bd bd
       0.1548231 0.094711185 0.107040785 -0.09259932
0000c0 10 a5 ae bc ce 1d 0a 3c 4f fe 5e bd fd 1c 00 be
       -0.021318942 0.008429958 -0.054441746 -0.12511058
0000d0 7c b0 ac bc 4f 31 82 3b 2d c4 f1 3d db 09 86 3c
       -0.021080248 0.003973163 0.11804996 0.016362121
0000e0 56 14 a2 3d b8 9a df bd 15 6f 42 3d 80 59 38 3d
       0.07914035 -0.10918182 0.047469217 0.04500723
0000f0 c4 e1 13 be a0 d7 c2 bd 4b 37 fa bc 2a 28 45 bd
       -0.14441592 -0.095137835 -0.030543944 -0.048134007
000100 9c 0d 6c 3d f0 0b be bd 20 d0 7e bd 42 a3 41 b9
       0.057630166 -0.09279621 -0.062210202 -0.00018466733
000110 51 24 89 bd 36 0c bd bc a8 78 cc 3d 04 c1 8e 3a
       -0.0669638 -0.023077112 0.09983951 0.0010891263
000120 98 cc de bd 3d f4 ae 3d 26 00 a6 3b 9d a7 83 3c
       -0.10878867 0.085426785 0.0050659357 0.016071135
000130 b7 53 e8 bd 2b 22 0b bd ba d9 66 3c 20 cc 4f 3d
       -0.11344092 -0.033968132 0.014089996 0.05073178
000140 71 b0 b2 3c 84 d0 cf 3d 87 00 75 bd 94 64 fc bc
       0.02181265 0.10147193 -0.059814956 -0.030809678
000150 00 c3 50 bc 4e f4 bb bd 30 90 e6 3d 26 a1 6e 3d
       -0.012741804 -0.09177457 0.1125797 0.058259152
000160 47 1c 2e 3c 7c 47 b6 3c 2d 6f e3 bb f5 93 61 3d
       0.010626859 0.022250883 -0.0069407434 0.055072743
000170 78 80 f1 3b 9d 58 84 bc 5c 8f b4 3d a8 ac 9f 39
       0.007370051 -0.016155535 0.08816406 0.00030455482
000180 b4 c3 f8 bd 23 db 28 3d 86 4d a6 bd 92 4f 2a 3a
       -0.121467024 0.04122461 -0.08120255 0.0006496842
000190 e1 d3 9e 3c 02 bc e2 bc 90 06 82 3c c4 43 bc bd
       0.019388141 -0.02767754 0.01587227 -0.09192613
0001a0 3a 0d 06 3b ae c3 58 3d f7 e2 1f bd ea a3 67 3b
       0.002045466 0.05292099 -0.03903481 0.0035345503
0001b0 e0 1a bf 3d 1e 09 ca 3d cc db 6e 3d 78 ab 8f bd
       0.09331298 0.0986502 0.058315083 -0.07015127
0001c0 3b fe 89 3d 8a a7 f0 bd 49 e2 69 bd 38 a1 fb 3c
       0.06737944 -0.117507055 -0.057100568 0.030716524
0001d0 3c c1 07 be 79 92 cf 3d fd 0f 67 3d 38 8a 8e 3d
       -0.13257307 0.10135359 0.056411732 0.06959957
0001e0 15 fa bb 3c 01 30 9d 3c f2 8c 83 bd fd ab c6 3c
       0.022946397 0.01918793 -0.064233676 0.024251932
0001f0 c0 1e 1c 3e 79 3f 30 3d 3d 94 b9 3d a5 6a b6 bc
       0.15246105 0.043029282 0.09061477 -0.022267649
000200 e8 24 30 bd e0 c4 9f 3c 42 f9 bc bc f8 d9 46 bd
       -0.043003947 0.019503057 -0.023068074 -0.048547715
000210 9e 46 7d 3c 5f 78 8f 3b 9f 57 1c 3d c9 36 0d bd
       0.015458731 0.004378363 0.0381695 -0.034476075
000220 05 c1 20 3d 2e 5c 12 3a ad 69 06 3d bc 6f 06 bd
       0.039246578 0.0005583194 0.032815624 -0.032821402
000230 34 d1 2e bc 16 62 72 3d 58 af 91 bd 98 52 16 bd
       -0.010669995 0.059175573 -0.07113522 -0.03669986
000240 f1 73 84 bd eb 88 6c 3d fd c9 52 bd 9c f1 e3 3c
       -0.064674266 0.057747763 -0.051462162 0.02782517
000250 31 00 87 bd f6 98 03 3d de a1 4c 3d d1 8b cf bc
       -0.065918334 0.032128297 0.049959056 -0.025335224
000260 92 18 70 bc 8a 40 c6 3d db 7b b7 3d 30 f9 ce bd
       -0.0146542955 0.096802786 0.089591704 -0.101061225
000270 32 7f 52 bd ed 36 c8 3c dd e0 80 3d fd b5 ad 3d
       -0.051390834 0.024440253 0.06292889 0.08481977
000280 91 06 5c bd 97 48 e3 ba f7 77 fa 3c d4 32 92 bd
       -0.0537172 -0.0017340359 0.030574782 -0.07138601
000290 14 06 c6 bd 0b e9 b0 bd 77 f5 c9 3d 11 8c d8 3d
       -0.09669128 -0.086381994 0.09861272 0.105735905
0002a0 db 65 98 bd e3 c4 de bd 8c 72 e2 3d 4f 22 56 bd
       -0.074413024 -0.10877397 0.11057004 -0.052278813
0002b0 cb e6 eb 3d 49 37 61 bd d5 e6 07 bd 59 0d 1c bd
       0.1151863 -0.054984365 -0.033179123 -0.038098667
0002c0 d6 eb 26 3d 43 d2 09 bd 46 61 8d bd 50 a0 0d be
       0.040752254 -0.033647787 -0.06903319 -0.13830686
0002d0 d1 01 20 3e d0 eb 5a bd 82 c2 ff 3d 7d d4 ac bd
       0.15625693 -0.053447545 0.12488271 -0.084389664
0002e0 27 7a 05 3e d1 5c 04 bd 1b d5 44 3d 19 e9 df 3c
       0.13034879 -0.03231508 0.048054796 0.02733283
0002f0 ec 52 13 bd d4 b2 87 bd 53 a5 6e bd 76 74 df 3c
       -0.035967752 -0.06625906 -0.058263134 0.027277213
000300 8d 0c 96 3d 92 1a 81 bd 74 86 d6 3d 0a 44 d2 bd
       0.073266126 -0.06303896 0.10474864 -0.10266884
000310 74 1c f5 3d 7c 62 13 bd 00 e9 3f bd 2a 27 ee 3d
       0.11968318 -0.035982594 -0.046853065 0.11628564
000320 1c 60 df bc 4b d8 1c 3e e5 9c fc 3d 8b 69 c2 bc
       -0.027267508 0.15316884 0.12334613 -0.023731967
000330 16 8e 46 3e 79 ee 3d 3d 6a 3c 42 3d 43 f0 0d bc
       0.19390139 0.046370003 0.047420897 -0.00866324
000340 71 96 ad bd 42 92 eb bd fe 72 2f bd 35 c9 2d bc
       -0.0847596 -0.11502506 -0.042834274 -0.0106070535
000350 47 b3 eb bd 8a 01 8d 3d f6 ff 79 bd 6f c2 74 bc
       -0.11508804 0.06885059 -0.06103512 -0.014938935
000360 60 d0 35 3e 8f 1a 8e 3d fc 3a d5 3c 21 22 05 3e
       0.1775527 0.069386594 0.026029103 0.130013
000370 61 70 0e 3e de 00 25 bc 6d 75 55 bc 00 21 de bc
       0.13910057 -0.010071008 -0.013028485 -0.027115345
000380 fa 96 53 bd 56 5b e5 bd f8 1f 5c be 7a 09 34 bd
       -0.051657654 -0.111990616 -0.2149657 -0.04395435
000390 8b 78 da 3d a4 ec ab 3d 76 df fb bd 4c c8 d9 3d
       0.10667523 0.08394745 -0.12298481 0.10633907
0003a0 f9 e5 55 3d 5b 4e fa 3d 4e 7a 34 bd 87 77 a9 bd
       0.052221272 0.12221976 -0.04406195 -0.08274751
0003b0 66 42 96 3d de b1 94 3c e6 84 d6 bd 41 d1 a2 bd
       0.07336883 0.01815122 -0.10474567 -0.07950068
0003c0 7e 21 1a bd ac 44 54 bd ea be ba bb bd 36 41 3d
       -0.037629597 -0.051823303 -0.0056990283 0.047171343
0003d0 b5 b7 92 bd 7d 5b 3f b9 3c a2 bb bd 1c b4 07 3e
       -0.071639456 -0.00018249261 -0.09161803 0.132523
0003e0 33 1b fa 3d 61 0c df 3d 46 01 de 3d 1a 9f c5 3c
       0.12212219 0.10891033 0.10840087 0.024123717
0003f0 8b 41 e4 3c fb d3 ec bd c3 0b 0a be 4c 1a 04 3e
       0.027863285 -0.115638696 -0.13481049 0.12900656

onnx::Conv_84 f4 [32]
000000 6b 4f fd 3e 38 c2 a0 bf eb 57 28 be d1 fe d6 3e
       0.49474654 -1.2559271 -0.16439788 0.41991284
000010 4a 09 0d 3f d2 28 3b 3f 5f 6c aa bf 85 9c 41 3f
       0.550923 0.7310916 -1.3314322 0.75629455
000020 fa 30 42 bf a3 14 19 3f 4f 58 15 be 94 83 60 be
       -0.7585598 0.59797114 -0.14584468 -0.21925193
000030 2b 57 a7 be 64 91 56 bf 0c 9f 8a be 21 01 f0 be
       -0.3268369 -0.838156 -0.27074468 -0.4687586
000040 10 a5 c7 bc f4 8e 3b bf 73 4d 34 3f ec 7f 8d 3f
       -0.0243707 -0.73265004 0.7043068 1.1054664
000050 34 66 9b 3d 99 c8 77 3f 84 71 af 3e b4 63 5b be
       0.07587853 0.9679046 0.34266293 -0.21424752
000060 64 ab bb 3d d5 5f bc be 56 f8 e3 3e 60 9e df 3b
       0.091635495 -0.36791864 0.44525403 0.0068242997
000070 c8 21 31 3f 3e c2 73 3e d9 3c 6b 3f ef 4c b3 be
       0.6919217 0.23804566 0.9188972 -0.35019633

onnx::Conv_86 f4 [32, 32, 3, 3]
000000 bc 98 99 bd 5a aa 71 bc dc 10 58 bc d5 82 4e bb
       -0.07499835 -0.014750088 -0.013187613 -0.0031511087
000010 5f c1 1a bb 7b 79 f2 3b 1f 3a 14 ba e1 76 49 bd
       -0.0023613793 0.0073997355 -0.00056544127 -0.049185637
000020 85 9d d5 bc 89 6e a7 3d 9b 3e 84 3b 09 9c 12 3d
       -0.026076088 0.0817538 0.0040357835 0.035793338
000030 6a b7 d8 3d 2b e2 4f bc 45 f1 98 3d 87 cf 9f 3d
       0.105818585 -0.0126882 0.074678935 0.078032546
000040 d7 91 8d 3d e2 54 6c b9 93 04 4e 3d c9 e5 0e 3d
       0.06912582 -0.00022538335 0.05029733 0.03488711
000050 fd 5f ab bc 67 9a 35 bd 28 73 8e 3c 1a f2 c8 3c
       -0.020919794 -0.044336703 0.017388895 0.024529506
000060 81 fd 4a bc f9 7f fa 3b 36 28 6d 39 67 b7 cc bc
       -0.012389542 0.00764465 0.00022617061 -0.024989797
000070 61 9a 02 bd fb 35 1b 3c 55 0d 22 bd 75 56 6b 3c
       -0.03188551 0.009473319 -0.039563496 0.014363875
000080 5d 13 9f 3c c5 4c 50 bd 26 6c 1c bc f9 da 35 bd
       0.019418413 -0.050854463 -0.009547269 -0.04439828
000090 41 ea 38 3d a3 af a8 3c 79 b1 d9 3c 7d 9d 0f bc
       0.045145277 0.020591563 0.026573883 -0.0087655755
0000a0 8b 5e 78 3d ae f2 6c bd 14 55 2e bd 50 0b 04 bc
       0.06063704 -0.057848625 -0.042561606 -0.008059338
0000b0 9e 11 f9 3c 59 d2 3f bd e3 d9 c5 bb 3c c2 1b bd
       0.030403908 -0.046831463 -0.006037937 -0.038027033
0000c0 05 0f c4 bb 85 8e 22 bd f8 8b 6c bd 98 f7 52 bd
       -0.005983236 -0.0396867 -0.057750672 -0.051505655
0000d0 c9 7f 8a bc e8 88 11 3b 28 9e a5 3c b3 d9 ad bc
       -0.016906636 0.0022206847 0.020217016 -0.021221971
0000e0 74 d1 6a bc 51 84 b3 3c a7 79 c6 bc d3 be ce 3c
       -0.014332164 0.02191368 -0.02422793 0.025237476
0000f0 29 ad cd 3c 4d ea 16 3d 4d 72 0b 3d 8a aa d0 bb
       0.025106983 0.03684454 0.034044553 -0.006367986
000100 4e 3d 99 3c 34 0e 79 3d 79 fd ad 39 ae 0a 09 bd
       0.01870599 0.06080456 0.00033185983 -0.03345745
000110 9b 17 18 bd c6 14 76 3c 01 55 3e bc b9 70 b2 3c
       -0.037131887 0.015019601 -0.011616946 0.021782266
000120 e0 6b a8 3d 89 1e 4d 3d 2f 2a 91 3d f4 eb 1d 3d
       0.082237005 0.05007795 0.07088124 0.0385551
000130 32 26 09 bd a2 cc 82 3b b2 e5 02 3c d2 45 09 3b
       -0.03348369 0.0039916793 0.007989334 0.0020946157
000140 e0 37 77 bb 49 c1 bf bc 06 e2 92 bd 42 da 7e bc
       -0.0037722513 -0.023407595 -0.07172017 -0.015554966
000150 5b 03 1a bd 13 3e 95 bc 2b 4d 74 bd b9 84 6d bc
       -0.037600856 -0.018218076 -0.059643906 -0.014496976
000160 ee ec 0c bd 17 36 a3 bd bd 1c e5 3c bb dc d0 3b
       -0.03440564 -0.07969301 0.027967805 0.0063739694
000170 1a 19 3e 3d ed 85 a5 bb 39 82 ee bb 19 9c bc 3c
       0.046410657 -0.0050513656 -0.0072787073 0.023023652
000180 46 10 ae 3c c6 17 b0 bc 4d 16 42 3d 9e 57 ae 3c
       0.021247994 -0.021495711 0.04738455 0.021282014
000190 85 61 13 3d 07 21 02 3d c0 58 3d 3d da 5e a8 3d
       0.035981674 0.03176978 0.046227217 0.082212165
0001a0 6d 77 6e 3d 66 fe 4a bc 26 e3 69 3c 27 02 28 39
       0.058219362 -0.012389755 0.014275348 0.0001602253
0001b0 86 8f 1b 3d b4 7d 50 3d 7e 40 97 3d b1 fc 20 3d
       0.03797867 0.05090113 0.07385348 0.039303485
0001c0 72 66 dd 3c bb 38 80 bc 44 67 2f 3d c7 09 98 3c
       0.027026389 -0.015652051 0.04282309 0.01855935
0001d0 71 5e 52 3d d6 3f 64 3d ba 83 36 bc 19 88 6e ba
       0.051359598 0.05572494 -0.0111398045 -0.00090992596
0001e0 03 44 94 3b 10 bc 82 3d be 43 30 3c b8 37 81 3d
       0.004524709 0.06383526 0.0107583385 0.06309456
0001f0 e9 04 90 3d af 28 9a 3c 63 ec 2d 3d b7 5f cf bc
       0.070321865 0.018818228 0.042461764 -0.025314195
000200 2e ad 91 3d dc d4 cf 3c ec ec ce bc 83 75 8f 3c
       0.071131095 0.025370054 -0.025259458 0.017512089
000210 80 dc 7d ba 05 65 83 3d 82 30 05 3d 15 51 85 bc
       -0.0009684041 0.06415752 0.032516964 -0.016274014
000220 81 37 9d 3c 15 d2 7c 3c da 69 9b bd b0 73 4a 3d
       0.019191505 0.015430947 -0.07588549 0.049426734
000230 03 91 4e bd 72 1c 89 bc 30 4b e5 bc 63 53 43 bd
       -0.050431263 -0.016737197 -0.027989954 -0.047686946
000240 f2 32 28 bb bb 82 eb 3c 1e 6d ab bc 2a a6 63 3d
       -0.0025665131 0.02874886 -0.020926055 0.05557839
000250 aa ed 0b 3d bb c1 96 bd df 22 59 3c ca 74 cf bc
       0.0341622 -0.0736117 0.013252943 -0.025324244
000260 ae 79 bc 3b fb 68 d7 bd fe 96 a2 bd cc 2a 7a bd
       0.00575181 -0.1051807 -0.07938956 -0.06107597
000270 51 be 48 bc c7 75 0b bd b9 14 0a bd ad 93 bf bb
       -0.012252406 -0.034047868 -0.03371117 -0.0058464617
000280 fd dd 61 bd 35 b7 06 bd 5d 47 9b bd 56 e2 15 3c
       -0.055143345 -0.032889564 -0.07581971 0.009148201
000290 f2 9d bf 3a 09 f2 3b bd b8 f3 a9 3c bd 95 5e bd
       0.0014619215 -0.04588512 0.020746097 -0.05434202
0002a0 d0 5d 0b bd c2 22 27 3d e4 ca a2 3c 77 f5 10 bd
       -0.034025013 0.040804632 0.019872136 -0.035390344
0002b0 a2 8e 9b 3c c7 75 ff 3c d7 25 6b bd 8e 2f 08 bd
       0.018988911 0.03118409 -0.057409134 -0.033248477
0002c0 45 42 d8 ba 8b 34 d2 3b 9a 89 d8 bc 97 58 a8 3c
       -0.0016499242 0.006414955 -0.026432801 0.020550055
0002d0 93 2a 74 bd 81 d8 12 bc 47 fe 8d bd 43 9d 7d bb
       -0.059610914 -0.008962751 -0.06933265 -0.0038698472
0002e0 ee 50 6d bd ed 9b 35 3d 47 8e 3c bd d0 27 b0 3b
       -0.05793851 0.044338156 -0.046034124 0.00537584
0002f0 06 e9 53 bc ac f6 01 3c a1 5e 11 3d 8d 6b 24 bc
       -0.012933975 0.007932346 0.035490636 -0.010035408
000300 99 47 9b bd fb 3d 42 bd 3f af e5 3b 32 78 c9 3b
       -0.075820155 -0.04742239 0.0070094164 0.0061483616
000310 48 af 68 bd 92 bd d1 bc 4b 60 90 3c cf 00 9a 3d
       -0.056807786 -0.02560309 0.017624041 0.075196855
000320 2f ef 96 3c 4b 14 2b b8 b9 bf 85 bc 11 39 88 bc
       0.018424599 -4.0788476e-05 -0.016326772 -0.016628774
000330 1f 21 e6 3b d0 88 d6 3c dc 9f dc 3c 77 87 6f bc
       0.0070229913 0.026188284 0.026931696 -0.0146197
000340 50 3c e5 bc 28 be 6d 3b 8b 69 be 3b 6d 53 28 3d
       -0.02798286 0.0036276672 0.0058109215 0.041095186
000350 94 2c 46 bd 6a f8 47 3d 1a 47 c9 bc 59 c4 4b bc
       -0.048382357 0.04882089 -0.024570037 -0.01243695
000360 d9 27 b4 3c cc 66 0b 3d 4f 0e e2 3b bc 9b 15 bd
       0.021991657 0.03403358 0.0068986784 -0.036525473
000370 65 c7 24 3c 7b b5 18 bd 68 eb f2 bc 77 65 4a bd
       0.010057305 -0.03728245 -0.029653266 -0.04941317
000380 f5 15 ca bc 61 26 01 bd 51 6e ef 3b 32 81 d8 bc
       -0.024668673 -0.03153074 0.007306852 -0.026428793
000390 16 04 9a bd eb 7d 1f bd d7 b9 2a bd d2 22 40 bc
       -0.075203106 -0.038938444 -0.041681137 -0.011727052
0003a0 8c a4 b1 bc 4f 81 fb 3c 14 70 8b bd 21 41 81 bd
       -0.021684907 0.030701308 -0.068084866 -0.063112505
0003b0 12 ec 9d bd dd 2b 95 bc 7e c3 6a bb a2 26 f4 bc
       -0.077110425 -0.018209392 -0.0035822089 -0.029803578
0003c0 aa 9c 97 bd e3 29 11 3c ca 2c 60 bd f2 d9 7e bd
       -0.07402928 0.008860084 -0.054730214 -0.062219568
0003d0 3c e4 76 bd 24 1f 3a bd 0d fe bd bc 97 46 d9 bc
       -0.060276255 -0.045439854 -0.02319243 -0.026522918
0003e0 95 5c 03 bd 1b f0 63 3c d3 0b 72 3d 63 45 b6 bc
       -0.032070715 0.013912226 0.059093308 -0.022249883
0003f0 fc 7c c1 3c 03 48 ee 3c b4 b4 c6 3c 9e 29 c8 3c
       0.023619168 0.029087072 0.024256088 0.024433907

onnx::Conv_87 f4 [32]
000000 32 8e 4e bd 92 e9 ab be 91 02 b1 be 1b 0c 8c 3e
       -0.050428577 -0.33576638 -0.3457227 0.27352986
000010 38 04 8f 3e f7 f3 03 3f bd 9b 19 3f c0 a2 86 3e
       0.27932906 0.51544136 0.6000326 0.26296043
000020 67 e8 04 3f 16 cc 28 3e e9 eb 55 3f 12 a8 08 3f
       0.5191712 0.16484103 0.83563095 0.53381455
000030 38 f5 1e 3e 1a b3 8f bf ec ee f3 3d f3 22 7e 3e
       0.15523231 -1.1226532 0.11910805 0.2481802
000040 ae a8 dd 3e dc 4f bd 3b 71 c7 e9 be 23 2e 5d 3d
       0.43292755 0.0057773422 -0.45659974 0.053999078
000050 04 dc 0d be ee 3b 73 be c6 ab b6 3e 0b 94 32 bf
       -0.1385346 -0.2375333 0.35677928 -0.69757146
000060 df d2 d3 3e f6 19 13 be f4 90 44 3e c3 73 b1 3f
       0.4137182 -0.14365372 0.1919592 1.3863453
000070 98 75 08 be 76 4c d4 3e 50 63 d9 bd dd d1 ad be
       -0.13326108 0.41464585 -0.106146455 -0.33949175

onnx::Conv_89 f4 [32, 16, 1, 1]
000000 53 f2 91 3e c0 b8 dd 3e 37 7b d4 be 1a fb b4 bd
       0.2850519 0.43305016 -0.41500255 -0.08836956
000010 8f 14 cb 3e 1c 6b d8 bd cb 1e d6 3e e5 f0 9f 3e
       0.39664122 -0.105673045 0.41820368 0.31238475
000020 cb 20 52 3e b0 64 91 be ae 93 31 3e 73 48 94 bd
       0.20520322 -0.2839713 0.17341492 -0.07240381
000030 96 02 a8 be 97 41 22 3e 30 f0 b3 be 40 1e be 3e
       -0.32814473 0.15845333 -0.35144186 0.37132454
000040 d3 5d 5e be 7f 0b fd 3e 07 05 71 be 03 ea ee 3d
       -0.21715479 0.49422833 -0.23537074 0.11665728
000050 c3 0d a6 be 7d 9a d5 bd af d8 2a 3e 8f 48 a0 3e
       -0.32432374 -0.10429857 0.1668422 0.31305358
000060 36 70 84 3e 3f bb df 3d 78 ad bf bd 45 43 b8 bc
       0.2586686 0.10924386 -0.093592584 -0.022493014
000070 f3 76 99 be fb 2f c3 3d b2 9f b3 be 16 5c 16 be
       -0.29973564 0.09530636 -0.35082775 -0.14683565
000080 e6 ea 4e be 90 6d 5f 3e 02 d5 e7 bd 85 be 29 3e
       -0.20206794 0.21819139 -0.11319925 0.16576584
000090 d9 50 a3 be 58 f6 87 bd 76 72 89 3e 6a e7 64 be
       -0.3189762 -0.06638783 0.2684514 -0.22353902
0000a0 a4 97 4b be 1b c4 80 be 40 2d 6c be 71 ab 1d be
       -0.19882065 -0.25149617 -0.23064137 -0.15397431
0000b0 1e 0b 90 be 7e ac cc 3d 8d 70 59 bd eb 3c 5b be
       -0.28133482 0.09993838 -0.053085852 -0.21409957
0000c0 d0 13 71 3e 21 b0 55 bd 20 ae c2 be 02 4f 3e 3e
       0.23542714 -0.052169923 -0.38023472 0.18584827
0000d0 63 14 e9 bd b5 e8 95 be 77 1b 7f be 16 8a 0d 3d
       -0.113808416 -0.29279104 -0.24912821 0.034555517
0000e0 74 55 ca bd a6 04 18 be d5 3d 9f 3e 55 27 0c 3d
       -0.0987958 -0.14845523 0.31101862 0.034217197
0000f0 44 9c 8d bc 74 da 78 be 6a a6 21 3d f9 17 ac 3d
       -0.017286427 -0.24302083 0.039465345 0.0840301
000100 eb 8b 02 bd 05 ca 61 bd 1a 93 89 3c 40 ea 91 3e
       -0.031871717 -0.0551243 0.016793776 0.2849903
000110 76 72 ad 3e 1e 60 98 bd 4a 18 55 be 79 57 75 3e
       0.3387639 -0.07440208 -0.20810047 0.2395915
000120 be 3b 27 3e 14 5c a8 be f3 4e e2 bd 06 07 4c 3e
       0.16331384 -0.3288275 -0.110502146 0.19924554
000130 f1 42 20 bc 10 bd a4 be 1a c3 10 be 5f 44 8f 3e
       -0.009781585 -0.32175493 -0.14136925 0.2798185
000140 d3 aa d1 3e c4 50 e9 be b2 26 74 be a1 34 00 3e
       0.4095064 -0.45569432 -0.23842886 0.12520076
000150 ab 7d 97 be 44 69 c5 3d 4c e3 dd bd c7 00 87 be
       -0.29588065 0.096392184 -0.10834369 -0.2636778
000160 65 9e 62 3d c7 1f e5 3e f4 56 27 be 6f e9 16 3f
       0.055326838 0.44750807 -0.16341764 0.5894994
000170 68 8a ef 3d 60 97 ea 3d ab fe b3 3e 8d f5 b5 3e
       0.11696321 0.11454654 0.35155234 0.35538903
000180 d8 a1 b1 3e 87 2b 90 3e 8c 07 10 3e e1 0c 4c 3e
       0.3469379 0.2815821 0.14065379 0.19926788
000190 af 09 0c be 96 70 a4 3e 43 80 90 3e 57 b5 85 be
       -0.13675569 0.32117146 0.28222856 -0.26114914
0001a0 24 e2 69 3e 4f a8 c3 3e d5 ae 38 3e 2d f1 15 3e
       0.22840172 0.38214347 0.18035443 0.14642783
0001b0 9e 61 ec 3d d8 78 8a 3e b7 ba 73 3e 96 ca 21 be
       0.115420565 0.2704532 0.23801695 -0.15799937
0001c0 cb b0 16 3f 3d 4e 2b bf ef bc 27 3d 57 b8 0c be
       0.58863515 -0.6691626 0.040951665 -0.13742195
0001d0 49 69 ef bd 99 45 e4 3e e2 b4 b6 be 75 0a 49 bf
       -0.116900034 0.4458435 -0.35684878 -0.7853158
0001e0 3e 96 46 be a3 bc b1 be 26 45 19 bf e2 d6 69 3e
       -0.1939325 -0.3471423 -0.5987114 0.22835878
0001f0 e9 41 a2 bc 58 e7 69 be eb e5 b0 3e 00 4a e4 3d
       -0.019806819 -0.22842157 0.34550413 0.11146927
000200 6a 4b 0a be ec 70 36 be cd 40 46 3a 7a b3 42 3e
       -0.1350533 -0.17816514 0.00075627567 0.19013777
000210 c8 89 0a be cf 82 2f be c1 13 5a 3e fa 24 8b 3d
       -0.13529122 -0.17139743 0.21296598 0.06794162
000220 72 75 10 be 2c 34 a3 be cd a5 a2 3d 02 96 82 3e
       -0.14107302 -0.3187574 0.0794178 0.25505072
000230 52 d6 a1 3e a5 d6 a4 3e 44 3d 8b be d1 1b 21 be
       0.31608826 0.3219501 -0.2719518 -0.15733267
000240 22 1f c8 3e bc 2b c0 3e 1f 67 4e 3e 72 1a d0 3e
       0.39086252 0.37533367 0.20156525 0.40645176
000250 d3 df 54 3c bd 33 66 3e ee 33 1e 3e 7b ae 15 bc
       0.012992817 0.22480674 0.15449497 -0.009135838
000260 ac ee 3d be f6 e3 91 3e fb e6 b1 bc 5c 56 ef 3d
       -0.18548077 0.28494233 -0.021716585 0.116863936
000270 6e 3e 22 be c9 b0 98 3e 65 20 ac be cd b3 77 be
       -0.15844128 0.29822376 -0.33618465 -0.24189682
000280 cd 04 a4 3d 33 2b cd 3d d4 2d c0 3e 98 c0 b7 bc
       0.08008728 0.10018005 0.37534964 -0.022430703
000290 4d b1 43 be 89 5c c8 3d 4e 25 b0 3d 75 f9 8f 3e
       -0.19110604 0.09783275 0.08600865 0.28120008
0002a0 b8 18 62 3e 83 75 7a 3e ce 6e 2a bd f6 40 6b bd
       0.22079742 0.2445889 -0.041609578 -0.057435
0002b0 30 c6 f5 3d 57 45 1e 3e c3 82 90 be 43 61 32 be
       0.12000692 0.15456139 -0.28224763 -0.17419915
0002c0 99 c2 97 be 65 e6 71 3c 3a d7 79 be 34 a1 7b bd
       -0.29640654 0.014764403 -0.24398509 -0.061433032
0002d0 ed f8 de 3d 5c 48 16 be 8f 8a 66 3e 23 81 f6 bc
       0.108873226 -0.1467604 0.22513793 -0.030090874
0002e0 e2 31 3b 3c 53 7b 90 be 1f 71 6b 3e 56 f2 4f 3d
       0.011425467 -0.2821909 0.22992371 0.05076822
0002f0 4d d8 7b 3e aa 40 93 3e 55 75 2e be 8e 39 cc 3d
       0.24594231 0.28760272 -0.17036946 0.09971915
000300 06 20 18 3e 91 b9 1b 3e f9 c5 e6 3e 35 09 65 3e
       0.14855966 0.15207507 0.45072916 0.22366793
000310 bf 75 fe bd 66 ee 82 bd 8b f9 c4 3d 6f 14 8a be
       -0.12424802 -0.06393127 0.09617909 -0.26968715
000320 e7 a9 03 3e f1 9e c1 3e 53 9c 80 3e 2c 09 99 3e
       0.12857781 0.37816575 0.25119266 0.2988981
000330 3b 10 f7 3e c9 62 58 3e 7d 59 86 3e 7c a7 ba 3d
       0.4825457 0.21131434 0.2624015 0.09113976
000340 d6 e7 1a 3e 9f 78 5f 3e d4 92 8a be 3a 22 a9 3e
       0.15127501 0.21823357 -0.27065146 0.33033925
000350 a0 c3 ea be 2b 6f 5c be 82 61 77 bd ce ad 6b 3d
       -0.45852375 -0.21526782 -0.060395725 0.0575388
000360 70 0b 1f be c1 05 52 bd 5d 6a 76 be 06 fd ae 3e
       -0.15531707 -0.05127502 -0.24064012 0.34177417
000370 4a 90 c1 3e 21 ff 0b be 2c 93 b2 3e 67 39 b1 be
       0.37805396 -0.13671543 0.34877908 -0.34614107
000380 8f 01 17 3e 19 e1 1c 3e d7 dc 49 be bb 3d 1d be
       0.14746688 0.15320243 -0.1971315 -0.1535558
000390 67 cb e3 be cf c3 d4 be ea f2 18 3f 0c fb 5a 3e
       -0.4449112 -0.4155564 0.5974566 0.2138483
0003a0 29 23 5a 3e 98 07 00 be 97 ef 62 3e a7 40 19 3f
       0.21302475 -0.12502897 0.22161709 0.59864277
0003b0 72 b9 6b bb e9 2c 91 be 45 ee 39 3f 63 0e 33 3e
       -0.0035968688 -0.28354576 0.72629195 0.17485957
0003c0 ad d5 a5 3e 86 d1 2e 3e 93 1c 8d 3e 79 4c df 3e
       0.32389584 0.17072114 0.27560863 0.43613032
0003d0 61 92 8d bd 42 4a ab bd a8 ba 2e 3e 37 18 c8 3e
       -0.06912685 -0.08363773 0.17063391 0.39080974
0003e0 17 b0 bc be 7f fe 62 3e c8 54 2d 3c 72 1f 3e be
       -0.36853096 0.22167395 0.010579295 -0.18566683
0003f0 e6 2e 7f 3e a6 b7 83 be 91 65 01 3e 0d 05 aa ba
       0.24920234 -0.2572605 0.12636401 -0.0012971476

onnx::Conv_90 f4 [32]
000000 40 40 65 bf 0e 81 8e 3d 93 2d 8a 3f 1b e4 ec 3e
       -0.8955116 0.06958209 1.0795158 0.4626778
000010 90 22 f5 bd f0 8d 3d bf 90 4f f2 bf 81 3e ae 3f
       -0.11969483 -0.74044704 -1.893053 1.3612825
000020 96 58 09 3e bb dd 94 bf 01 79 3c bf 93 85 0f bd
       0.13412699 -1.1630167 -0.7362214 -0.035039496
000030 b3 7a fe bf e1 14 6a 3e 8d c8 63 bf 14 dc 72 bf
       -1.9881195 0.22859527 -0.8897789 -0.9486706
000040 d7 b2 a2 3f 20 94 96 bf d6 b5 01 3f 75 b8 48 3e
       1.2710828 -1.1763954 0.50668085 0.19601615
000050 08 c9 55 be 3a c5 63 be c6 84 df be 75 ae 50 bf
       -0.20877469 -0.22243205 -0.43655986 -0.815162
000060 1e c9 33 3e dc 7b bf bd a0 f8 26 be c3 14 9f 3f
       0.17557189 -0.09349796 -0.1630578 1.2428211
000070 c0 b9 a3 3e f1 c5 82 3e 81 ae a6 be 49 33 6f 3f
       0.31977654 0.25541642 -0.3255501 0.9343763

onnx::Conv_92 f4 [64, 32, 3, 3]
000000 fe 7d e9 38 19 2a 74 3c e5 a2 06 bd a6 da 88 3c
       0.00011133774 0.014902615 -0.032870192 0.016705822
000010 91 a3 c8 bc 63 a9 9b bc 84 13 da bc 82 d3 5f 3d
       -0.024492057 -0.019001668 -0.026620634 0.05464507
000020 9d 7a 41 3d 99 65 70 bc a8 39 9f bc 60 55 37 3c
       0.047236074 -0.01467266 -0.019436672 0.011189789
000030 a7 17 14 bd ba e8 87 bc 35 27 64 3c 37 2a f3 bc
       -0.03615537 -0.016590465 0.013925363 -0.029683216
000040 f6 88 b5 3a e7 11 92 bc af 7a db 3c 5c ce f8 ba
       0.0013850022 -0.017830802 0.026791899 -0.0018982398
000050 2e d0 51 bc e1 f8 2c 3c f5 6e 5a 3b da c0 d9 bc
       -0.012805982 0.010557384 0.0033330296 -0.026581217
000060 18 63 c9 bc a4 74 19 bb ef e5 9e bc d3 94 75 3b
       -0.024583384 -0.002341547 -0.01939675 0.003747274
000070 96 6f 38 3c e9 24 70 bc 52 ec 55 bc 78 ed f3 3b
       0.011257073 -0.014657238 -0.013056831 0.00744408
000080 a8 5c ad 3c d4 88 e1 38 fc 7e 0b bd 1c bb fa bc
       0.021162346 0.00010754322 -0.03405665 -0.030606799
000090 0f 0b 03 3d ae c4 db 3c 0e 54 0a 3d 32 08 81 bb
       0.03199297 0.026827183 0.033771567 -0.0039377445
0000a0 c7 a6 cf ba c4 53 27 bc f5 b0 01 3d ce 5e 25 3d
       -0.001584255 -0.010212842 0.0316629 0.040373616
0000b0 c8 e7 9a 3b fa 2b aa bc 57 fe b1 bc e7 99 47 bc
       0.0047273375 -0.020772923 -0.021727724 -0.012182689
0000c0 29 81 cf 3c e2 ae 6b 3c 6f a6 09 3b a4 23 ea bc
       0.025330143 0.014384957 0.0021003743 -0.028581448
0000d0 57 62 6d bc 84 72 7a 3c c2 76 ee bc 3a 63 07 3b
       -0.014488778 0.015286092 -0.029109363 0.002065851
0000e0 ce b0 77 3c 2a fa 38 3c ee 0f ef 3a 6d 0c cf b9
       0.015117837 0.0112901125 0.0018239 -0.00039491375
0000f0 b1 5e c2 bc 67 2c b3 bc 2c 2c fc bb 20 77 fd bb
       -0.023726793 -0.021871759 -0.0076956954 -0.007735148
000100 9c 91 fd 3c 43 4c a2 bc 7f 1c ee bb 85 7b 13 3d
       0.030953221 -0.019811755 -0.0072665806 0.03600647
000110 df 9a ed 3c 29 f9 87 3c 6b c4 22 3c b8 e4 0a bc
       0.029004512 0.016598301 0.009934525 -0.008477382
000120 12 3f 79 bc f0 44 1e bc 22 cd 9c 3b 0c e3 2b bd
       -0.015212791 -0.009659991 0.004785196 -0.041964576
000130 24 73 5f bc be 6c 62 3c e8 d5 8b bb 94 5e 5f 3a
       -0.0136382915 0.0138198715 -0.004267443 0.0008520868
000140 28 f1 3a bb 33 ee c0 3b 56 88 4e 3c d9 e3 91 bc
       -0.0028525088 0.0058877706 0.012605747 -0.017808842
000150 6e f2 e4 bc 7c c5 b8 bc e6 78 d4 3c 03 1d 8a 3c
       -0.02794763 -0.022555105 0.025936555 0.016859537
000160 d6 b0 82 3c bd 74 15 bc d0 69 1f 3c 10 d4 67 bb
       0.015953463 -0.009122071 0.0097298175 -0.0035374202
000170 ae ba 95 ba ec 7b 3f bb 21 f4 5f ba 8f 30 1d bc
       -0.0011423433 -0.002921815 -0.0008543153 -0.009594097
000180 db 3d 0b 3d 93 a0 13 bc 92 7f 3a 3c 93 8f fd bc
       0.033994537 -0.009010452 0.011382954 -0.03095225
000190 2b d3 bd bc eb df da 3b 61 ce aa bb 29 56 5e 3c
       -0.023171982 0.006679525 -0.0052125906 0.013570347
0001a0 ca 2a 99 3c 23 b7 c7 bc 1b 04 4d bc 5c af 89 bc
       0.018697161 -0.024379319 -0.012513186 -0.01680725
0001b0 87 3f 4c 3b 93 d3 89 bc 3a bb be 3b 47 3f 0a bc
       0.0031165795 -0.01682452 0.005820659 -0.008437938
0001c0 51 b4 20 bd 2b 72 d4 bc ae a1 2d bb a9 d6 f2 bc
       -0.039234463 -0.025933346 -0.0026494074 -0.029643374
0001d0 e0 24 c7 3b 3d c1 04 3b fc a4 e7 3b 0d 06 09 bc
       0.006077394 0.002025678 0.007069228 -0.008363259
0001e0 dd e3 87 3a 22 b5 1a bd ee b7 a4 3c 30 46 c0 bb
       0.0010367591 -0.037770398 0.020107236 -0.005867742
0001f0 d0 76 8a bc 00 68 b0 bb af 2e 87 bc 8b fb 1f 3c
       -0.016902357 -0.0053834915 -0.016501753 0.009764562
000200 d3 72 09 bb b5 f7 cd bc e8 dd d0 bc aa 3e 10 bc
       -0.0020972982 -0.02514253 -0.025496438 -0.008804003
000210 a9 6e b1 bc 58 27 3f bc 87 56 e6 3a b5 c1 67 3c
       -0.021659212 -0.011667095 0.0017573395 0.014145304
000220 67 20 c6 3c b2 ef bc 3b e0 f8 eb 3b fa 75 61 3c
       0.024185373 0.0057658786 0.007201299 0.013761038
000230 dc f8 95 bc d8 bc ba 3c 29 ec 84 3c f5 d8 24 3c
       -0.018307142 0.022795126 0.016225891 0.010061492
000240 87 78 14 3b b1 62 ab 3c 18 9b 5b 3b 89 15 86 bc
       0.0022654848 0.020921083 0.003350919 -0.01636769
000250 f3 65 80 bc 77 08 cd bb 41 9a 6d bc f2 fc e4 bc
       -0.015673613 -0.0062571126 -0.014502109 -0.027952645
000260 6e 1d 8b bc 7e 95 03 bd 9e 1c d4 bc 44 fb 8b 3c
       -0.016981807 -0.03212499 -0.025892552 0.017087586
000270 31 72 0b bd 88 7c 15 bc 85 c1 fc bc a7 d1 cb bc
       -0.03404445 -0.009123929 -0.030853996 -0.024880243
000280 8a 4b 45 bc 6f 1f 0f 3c 9a 59 8a 3c 24 9f b6 bc
       -0.012041936 0.008735522 0.016888428 -0.022292681
000290 0c 07 85 bc cc e3 ce 3c fd d7 55 bb 1a d6 d6 3b
       -0.016238712 0.025255106 -0.003262996 0.0065562846
0002a0 b9 a2 7a 3c 4e 5e 37 bc e9 32 b1 3c 8c 22 e3 3c
       0.015297585 -0.011191918 0.021630721 0.027726434
0002b0 03 d9 1c bc b0 f2 aa 3a 1f 0c b2 3b fc c7 3b bc
       -0.009573224 0.0013042297 0.005433574 -0.011461254
0002c0 48 00 15 3a c9 09 52 3c 1a 6d 69 bc fa 96 8f bc
       0.0005683941 0.012819716 -0.014247203 -0.017528046
0002d0 54 89 1c 3a 96 e5 05 3c 95 fa f3 3c 02 62 bb 3c
       0.0005971391 0.008172413 0.029782573 0.022873882
0002e0 61 e6 84 3d 2f 38 89 3b 48 fe 50 3c 5c ce 69 3c
       0.06489254 0.004187606 0.012755938 0.014270391
0002f0 3d 01 bd bb e9 62 e7 3a ad 81 ea b8 12 46 79 bb
       -0.00576797 0.0017653379 -0.000111821435 -0.003803615
000300 8d a4 08 3d 14 1f 46 3c 02 ac c0 3c a4 80 e6 3b
       0.033360053 0.012092371 0.02351952 0.007034378
000310 0f fd 9d bc f3 3a 17 ba 81 e0 03 3d 40 db d9 3c
       -0.019285707 -0.0005768977 0.032196525 0.026593804
000320 d6 68 33 3c 36 a1 4a 3c 5e 95 2c 3d 00 00 ea 3c
       0.010950288 0.012367537 0.042134635 0.028564453
000330 a5 70 0e 3c bd 92 2c 3c 96 92 3f 3c 32 bf e9 bc
       0.008693849 0.010533032 0.011692664 -0.028533552
000340 1e 97 3f bc f9 da 8a bc f4 ba 23 3b 23 98 bd bc
       -0.011693744 -0.016950117 0.002498326 -0.023143834
000350 37 1d 87 bc ad 99 9e 3b 41 a7 81 3c 8f 22 d3 bc
       -0.016493423 0.004840097 0.015826823 -0.025773315
000360 9f c3 24 bc 46 da d9 bc 57 03 b1 3b df a8 2c 3c
       -0.010056405 -0.026593339 0.0054020095 0.010538309
000370 1f b0 3b bc 62 3d 61 bb bd 9e 0a ba 5b 43 4a 3c
       -0.011455565 -0.0034368862 -0.0005287936 0.01234516
000380 08 2d a5 3c 89 26 3b bc c9 e5 db bc 3a 7a 43 3c
       0.020163074 -0.011422762 -0.026842969 0.011930997
000390 2f 5f d5 bc c8 90 cd 39 3d c8 62 3c f6 21 50 bb
       -0.026046364 0.00039208517 0.013841686 -0.0031758524
0003a0 4d 6d 4a 3d 44 14 05 bc 59 4b 77 3c a4 c2 f2 3b
       0.049420644 -0.0081225075 0.015093648 0.007408457
0003b0 68 9c 78 bb c3 09 89 3c 66 5e f4 3c 11 1c db bb
       -0.0037935022 0.016728288 0.029830169 -0.0066866954
0003c0 ce 65 e2 3b 9f 6e 51 3c 8f 65 bd 3c 7b f9 65 3c
       0.0069091087 0.012782722 0.023119716 0.014036532
0003d0 ab cb 06 3d a5 43 8e 3c 28 a8 19 bc 6a 5d d2 3c
       0.032909077 0.01736624 -0.0093784705 0.025679309
0003e0 6d 72 e1 3c ae 72 28 bc c7 69 23 bd 13 ee 21 bc
       0.027520383 -0.010281248 -0.0398958 -0.0098834215
0003f0 ce 15 e2 bc 04 4f 55 3c 55 90 1d bc 8e af 0f bc
       -0.027598288 0.013019327 -0.009616931 -0.008769883

onnx::Conv_93 f4 [64]
000000 fd 16 84 bc 9f f6 01 3f 8b c7 1e be 27 f2 de 3e
       -0.016124243 0.5076694 -0.15505807 0.43544123
000010 e1 08 45 be 90 7f 8b 3f bf 24 0d 3e 5f 4a 88 3e
       -0.19241668 1.0898304 0.13783549 0.2661924
000020 b8 c4 05 3e c8 72 2e bc b8 2c 0d 3e 0e ec 83 3e
       0.13063323 -0.010647483 0.1378659 0.25766033
000030 9d 42 ae 3e da 7e 25 3f 0d 27 3a 3f cb bc 95 bd
       0.34035197 0.64646685 0.72715837 -0.073114
000040 90 63 9f be 59 62 39 be 57 ee 93 3e f1 70 05 3e
       -0.31130648 -0.18103923 0.28892776 0.13031365
000050 3e 05 b5 3d f0 ce 82 3b b4 e0 8c bc 51 9f eb 3e
       0.088388905 0.003991954 -0.01719699 0.46019986
000060 7e c8 78 bd b9 49 57 bf f8 0d 9d 3e d4 57 17 3e
       -0.06073808 -0.84096867 0.3067472 0.14779598
000070 7c 90 ff 3e 9a 6c c1 3c 1d b7 1d 3f 26 0f a6 3d
       0.4991492 0.023611356 0.61607534 0.08108358
000080 76 e9 b5 3e 01 2d 22 3e 0c 32 73 3d 9a 82 15 3f
       0.3552968 0.1583748 0.0593739 0.5840241
000090 e2 08 41 bd b3 8e 32 bd 94 0c 24 bd f7 8a 19 bf
       -0.047127612 -0.04359312 -0.040051058 -0.5997767
0000a0 7a 30 be 3e b2 0e da be 90 9b 71 3e b9 6e 3a be
       0.3714636 -0.42589337 0.23594499 -0.182063
0000b0 55 58 05 3f e4 01 44 3e b5 0c 44 3d 69 04 16 bf
       0.5208791 0.19141346 0.04786368 -0.5860048
0000c0 33 f6 25 3e b5 df bf 3e e1 bb 5c 3e 0b 64 0a 3e
       0.16207199 0.37475362 0.21556045 0.13514726
0000d0 b3 a5 7f bc 92 75 14 be 89 fb 1b 3e 0d be 1b 3f
       -0.015603471 -0.14497975 0.15232672 0.6083687
0000e0 73 bb e1 be a2 48 af 3e 9c 5e 62 3c 96 2a 56 be
       -0.44088325 0.34235102 0.013816502 -0.20914683
0000f0 be 82 e4 bd 27 63 23 bd b0 db 4d bd 53 b2 c9 3e
       -0.111577496 -0.03988948 -0.05025834 0.39393863
