model/item_que_pessoa_normalmente_usa_em_suas_calcas.onnx (onnx, 302121 bytes, 16 tensors)

fc.weight f4 [2, 256]
000000 66 59 35 bb 79 e3 32 bd 62 f1 14 bc 68 10 a2 3d
       -0.0027671694 -0.043673966 -0.009090753 0.079132855
000010 99 a4 ae bd c0 ff 96 3c d8 c9 a6 bd 88 8b 64 bc
       -0.08527488 0.018432498 -0.081439674 -0.0139492825
000020 48 f4 05 3d 4c 27 a4 3d af f5 a6 bc e5 03 b2 bc
       0.032703668 0.08015308 -0.020380823 -0.021730373
000030 44 a2 9b 3d 72 dd de 3c 30 0c 10 3d 10 a1 97 3d
       0.07599309 0.027205203 0.035167873 0.07403767
000040 d8 d3 cd bd 36 ad 16 bd ba 0f 69 bd 0d 94 2d 3d
       -0.100501716 -0.03678628 -0.056899764 0.04237752
000050 8e 9c 66 bd 4e 01 7a bd e3 dd c0 bd 3d cf ad bd
       -0.056301646 -0.0610364 -0.094173215 -0.08486793
000060 e5 6a 3f 3d bc 17 4f 3d 44 ef 84 3c 93 f6 94 3c
       0.046732802 0.050559744 0.016227372 0.018183982
000070 f1 db f9 b9 c6 c2 94 3d 10 98 28 3d 78 b3 79 3d
       -0.0004765685 0.072637126 0.041160643 0.06096217
000080 b6 5d d8 3d f2 d4 98 3d bb dd 6b 3d 2d 68 13 bd
       0.10564749 0.07462491 0.057584506 -0.03598802
000090 97 d0 bc bd e7 c8 12 bc 29 6a 23 3d 38 7b 77 bd
       -0.09219473 -0.008959032 0.039896164 -0.060420245
0000a0 30 8f b6 3c 26 bd 5e 3d 02 e7 0b 3d 2e fa a9 bd
       0.022285074 0.054379605 0.034155853 -0.08299671
0000b0 ad 9e 39 3c 29 54 5b bc e3 87 09 3d c3 e1 27 3d
       0.011329335 -0.013386765 0.033576857 0.040986788
0000c0 6f 45 19 bb 27 fe 99 3d b2 4a 49 3b 5e 89 8a bb
       -0.0023387333 0.07519179 0.0030714688 -0.004227801
0000d0 a9 8e 09 bd 42 9e 7d 3d 60 cf 99 bd 23 48 b3 bd
       -0.033583317 0.061918505 -0.07510257 -0.08753993
0000e0 68 85 ac bd a2 0b 88 bd 1a ec 02 bd 9d 00 a0 bc
       -0.08423883 -0.06642844 -0.031963445 -0.019531542
0000f0 4f 84 51 bd 18 65 31 bc 84 70 af bc 7e 3d 6d 3d
       -0.05115157 -0.010827325 -0.021415956 0.05791997
000100 fb e0 f8 3c c7 c2 87 3d 64 90 69 3d d5 0d a4 3d
       0.030380717 0.06628948 0.057022467 0.08010451
000110 cb 5f 49 3d d4 68 e4 3d 06 32 29 3d 0f 39 ed bc
       0.04916362 0.11152807 0.04130747 -0.028957872
000120 fb a2 b2 bd 18 22 30 bd c8 46 80 3c e3 47 cd 3c
       -0.08722492 -0.043001264 0.015658751 0.025058692
000130 1e eb 6e 3c 50 a4 bb 3c 08 5d 7b bd d2 fb 5e 3d
       0.0145824235 0.022905499 -0.06136802 0.054439373
000140 c0 54 f8 3c f3 27 12 3c 8d 3c 97 bc c3 2e 92 3d
       0.03031385 0.008920657 -0.01846149 0.07137825
000150 45 fb f3 bb b4 ca 0b 3d 8c 24 6f 3d 10 fe e1 bc
       -0.007445725 0.03412886 0.058384463 -0.027586967
000160 38 70 b6 bd ac 72 9a bc 9c 4c dd b8 e7 57 36 3d
       -0.08908123 -0.018853508 -0.00010552371 0.044517424
000170 14 6c c3 bc 5f 71 cc 3c 4a e7 86 3d 7e 21 b4 3a
       -0.023855247 0.024956403 0.06587084 0.0013742892
000180 e2 0b 2e bd 8a 16 b0 bc 4b 5e a5 3d ad e0 b5 3c
       -0.0424918 -0.021495122 0.080746256 0.02220186
000190 cc 65 4f 3c 56 61 05 bd d1 9e a4 3c b5 35 ae 3d
       0.012658548 -0.03256353 0.02009526 0.085063376
0001a0 80 3e 84 bd 89 64 9b bd b5 82 05 3c 9e fa bd 3c
       -0.064572334 -0.07587535 0.008148839 0.023190793
0001b0 49 c3 92 3d 5a 55 2d bc 58 4c f0 bc 49 4c 97 3c
       0.07166154 -0.010579431 -0.029333279 0.018468993
0001c0 59 be 9a 3c 1a 24 05 3d ba 28 df bc 92 ee b2 bd
       0.018889593 0.032505132 -0.0272411 -0.0873691
0001d0 23 84 61 3d 20 6f 47 3d 3f 00 ba bc e6 fc f4 3c
       0.055057656 0.04868996 -0.022705195 0.029905748
0001e0 8d 36 38 3d 5e e3 39 bd ff cb e0 3d 91 10 b3 bc
       0.0449739 -0.04538285 0.10976409 -0.021858485
0001f0 cc ae 8d 3d 12 6a ea 3d ad 7f a9 3d 3e 9c 74 3d
       0.069181055 0.114460126 0.08276305 0.059719317
000200 46 0e 4f 3d 69 a2 58 3d 8a eb 6a 3d 35 73 80 bc
       0.05055072 0.05288926 0.057353534 -0.015679935
000210 56 0a c0 bd 8f a4 4f ba f7 84 93 bd 1c 7c b4 3c
       -0.093769714 -0.00079209445 -0.072030954 0.022031836
000220 4d 1b 8d 3c 11 d5 e9 bc bb 4b 23 3d 91 14 be 3d
       0.017224932 -0.02854398 0.039867144 0.092812665
000230 cd d8 80 bd f7 46 18 bc aa 7b be bd 7e d3 8d ba
       -0.062913515 -0.009294263 -0.09300931 -0.0010820476
000240 23 7d 7d ba e2 2b 91 bd e2 b3 67 3d 43 a2 2b 3d
       -0.0009669831 -0.07088448 0.056568034 0.04190279
000250 bc ec a0 bd 86 bb 51 3a 94 44 eb bd 05 8d 5e bd
       -0.078576535 0.00080006605 -0.114876896 -0.054333705
000260 1c 3e 98 bd 09 b0 d3 bd 06 70 69 bd e9 08 86 bd
       -0.074337214 -0.103363104 -0.0569916 -0.06544668
000270 c3 34 e8 bb 5d b5 1b bb 50 0e 6b bd 9a 66 c6 3b
       -0.007086368 -0.0023759224 -0.057386696 0.0060547115
000280 e7 c8 cf 3b dc 81 53 3d 3b 8e 98 bc 43 21 47 bd
       0.006341088 0.051637515 -0.018622508 -0.048615705
000290 00 7f 41 bd a1 53 27 bd c7 bd a9 bb 03 64 8c 3b
       -0.047240257 -0.04085124 -0.005180094 0.0042843833
0002a0 d8 db 89 bd ab 9a c5 bd de ad c6 bc 2f 88 9d bb
       -0.06731385 -0.09648641 -0.024252828 -0.004807494
0002b0 22 6a a6 3d 4c 0b 76 bd f3 ff e9 3a b2 e7 95 bc
       0.08125712 -0.060069367 0.0017852768 -0.018298957
0002c0 ac 10 ae 3d c3 46 3b bc 6a d2 34 3c 51 b2 3a bd
       0.08499274 -0.011430445 0.011036495 -0.045580212
0002d0 5d c7 8a bd 5b 0c e5 bc be 30 97 bd ec 96 c9 bd
       -0.06776307 -0.027959993 -0.07382344 -0.09843239
0002e0 47 71 4e 3d aa 1e 52 3c eb 1e 94 bc df 55 94 3d
       0.050401 0.012824694 -0.01808115 0.07242941
0002f0 19 21 c5 bd 15 14 64 bd 78 d6 5d 3d fc 0e 44 3d
       -0.096254535 -0.055683214 0.05415961 0.047865853
000300 21 ad 07 3d f7 b7 49 bd 1e 02 c5 3c 63 76 c3 bc
       0.033124093 -0.04924771 0.024048861 -0.023860162
000310 13 54 65 bc fb 19 a6 bd df 9e c7 bc 29 62 a7 3d
       -0.013997096 -0.08110424 -0.024367748 0.081730194
000320 2d 9d 95 bd e2 c9 7d bd 37 19 40 3c 20 1b b3 3a
       -0.073053695 -0.06196011 0.011724762 0.00136647
000330 a5 18 75 bd 1f 43 89 3d 1b 3b 35 bd 8d 5c d7 3c
       -0.059837956 0.067022555 -0.04424582 0.026289249
000340 ea 2d 91 3d 2b 89 ab 3d 7a a9 0e bd 38 2d be bc
       0.070888355 0.08375772 -0.034829594 -0.023214921
000350 0b 3b e0 bc d6 b6 fd 3c b1 e7 c4 3d 3c a3 f0 3d
       -0.027371904 0.030970972 0.09614504 0.117498845
000360 a1 c5 96 3d 60 0a 6e 3d eb 04 23 3d 94 bc 78 bd
       0.073619135 0.058115363 0.039799612 -0.060726717
000370 44 bd 05 3d f1 a7 98 3d 16 19 6e 3d 6f f6 0e bd
       0.0326512 0.07453907 0.058129393 -0.034902986
000380 22 70 ec bc 84 b2 81 bd 9e 68 95 bd 97 0a d6 bd
       -0.028862063 -0.06332877 -0.07295345 -0.104512386
000390 ed 23 80 3d 57 c0 ab 3d 9c 29 a0 3d ef 1c fe 3c
       0.06256852 0.08386295 0.07820436 0.031019656
0003a0 47 d2 73 3d 1c 80 03 3e 3d 18 00 3d 38 b0 ac 3b
       0.059526708 0.12841839 0.031273115 0.0052700303
0003b0 be 2f 37 3d ae 2c 68 bd ca 26 ac 3d 3c 3e 89 bd
       0.044723265 -0.056683235 0.08405836 -0.067013234
0003c0 45 89 9e bd dd b7 9c bd dc 0b 25 3d cc ce 2c bd
       -0.07741026 -0.07652257 0.040294513 -0.042189404
0003d0 58 ac 2d 3d 94 94 df 3c 2d 9f 36 3d de 68 af 3d
       0.042400688 0.027292527 0.044585396 0.08564924
0003e0 a0 5a a1 3d a7 21 0f bd a2 8c ba 3d 83 3c cc bc
       0.078786135 -0.034944203 0.09108855 -0.024931198
0003f0 0c b4 1e 3c 79 cd a2 bd 55 a0 02 bd 3d 31 8a bb
       0.009686481 -0.07949347 -0.031891186 -0.0042172954

fc.bias f4 [2]
000000 9d b1 ca bc 43 0f 90 3c
       -0.024742896 0.017585402

onnx::Conv_80 f4 [16, 3, 7, 7]
000000 74 ec 11 3e 79 a1 88 3e ae 2f 06 3e ea a0 42 3e
       0.14250356 0.26685694 0.13104126 0.19006696
000010 46 f1 37 3c c0 c6 68 3d 89 72 13 3e 46 7b 50 3e
       0.011226958 0.056830168 0.1439916 0.20359525
000020 30 1b cc bd c6 1e 2d be 4a a9 1b 3e 00 85 10 3c
       -0.09966123 -0.1690627 0.15201297 0.008820772
000030 d7 27 48 be b5 88 0e be 8e 89 93 bd 73 1b 20 bc
       -0.19546448 -0.13919337 -0.07203971 -0.009772169
000040 a6 79 10 3d 97 01 90 bd 7a 8e 7e 3e 7b 6f 24 3d
       0.035272263 -0.07031553 0.24859038 0.04014538
000050 f7 98 d8 3b 41 e5 ac bd 5a 63 77 3e e4 80 a4 bd
       0.0066100317 -0.08442164 0.24158993 -0.080323964
000060 41 26 0b 3e 12 a5 0a 3e a8 2c 9a be ab 0e ac be
       0.13588811 0.13539532 -0.30112195 -0.3360494
000070 3a 2c 61 be 1a ac 43 3e 95 4c 09 3e 2d 1e 24 bd
       -0.21989527 0.1910862 0.1340812 -0.04006784
000080 d5 9d 5c 3e 61 b9 80 be a6 89 69 be aa 81 8f 3d
       0.21544583 -0.25141433 -0.22806415 0.07007153
000090 3e 75 0a be b9 8f 84 3e 54 21 b4 3d b8 f0 83 3e
       -0.13521287 0.25890902 0.08795419 0.2576959
0000a0 7b 5a 90 be 86 59 10 be bc f6 7a be d2 f5 60 3e
       -0.2819403 -0.1409665 -0.24508184 0.21968773
0000b0 13 c1 b9 3d ab f6 a9 3e 25 f8 c3 bc bd 4b dd 3d
       0.09070029 0.33196005 -0.023922035 0.108054616
0000c0 dd c0 9e 3d e8 56 f6 bd 9f a8 4b be 18 d2 7c bd
       0.077516295 -0.12028295 -0.19888543 -0.0617238
0000d0 69 0b 50 be 10 1e 74 be 76 74 70 3e f9 9e 25 3e
       -0.20316853 -0.23839593 0.23481926 0.16173925
0000e0 7c 61 4f 3e b3 56 49 3e 73 29 6a 3e 23 84 3f 3d
       0.20252031 0.1966198 0.22867374 0.046756875
0000f0 cd 45 60 bc e0 9d 1e be ab 46 45 be e7 66 9f 3e
       -0.013688517 -0.15489912 -0.19265239 0.31133196
000100 23 44 2e 3e 3a 7d 0f 3e a4 8f 19 bd 1c 21 13 3e
       0.1701818 0.14012614 -0.037490502 0.14368099
000110 0a ee b7 3d ae ff f0 bd 64 93 18 be 4f ff a7 bd
       0.08980949 -0.11767517 -0.14899975 -0.08202993
000120 4a 67 52 3d c6 57 4e be 6f be 20 be 70 39 0d be
       0.051368035 -0.2015067 -0.15697645 -0.13791442
000130 eb 92 c0 be 83 06 96 be 20 c9 72 3c 33 d2 87 3e
       -0.3761209 -0.29301843 0.01481846 0.26527557
000140 40 e3 3a 3e 10 08 59 3d a3 53 0d be 28 68 c8 be
       0.18250751 0.052986205 -0.13801436 -0.39141965
000150 c4 3d 17 bd ae a3 00 3e ad 68 fb 3d b0 5c 81 3e
       -0.03692414 0.12562439 0.12275825 0.25266027
000160 02 9d ce 3d 5a 93 82 be 17 7f 78 be e3 74 1b 3e
       0.100885406 -0.25503045 -0.24267231 0.15181307
000170 c5 24 a7 bd 73 d6 66 3e 1a ae 31 bd 1a 0d 23 3e
       -0.0816131 0.22542743 -0.043378927 0.15922967
000180 34 89 41 be fe 15 b8 be da 03 30 3e 44 22 81 be
       -0.18899995 -0.3595428 0.17188969 -0.25221455
000190 ce 21 50 bd 30 9a 48 be 5c fb 01 be cc 5b 4d be
       -0.05081349 -0.19590068 -0.12693542 -0.20054549
0001a0 6b ac 5e 3e 7b 3c 54 be 61 e2 c0 bd 34 55 1d 3e
       0.2174546 -0.20726196 -0.09418178 0.15364534
0001b0 eb bd 5a be 00 38 e1 bd 7f a7 41 be 49 11 96 bd
       -0.2136151 -0.10997009 -0.18911551 -0.07327516
0001c0 8e fc 1f 3e ba 46 6b be 33 b8 73 be 2a b2 40 be
       0.15623686 -0.22976199 -0.23800735 -0.18817964
0001d0 73 dd 69 be d5 2a 17 bc 16 12 9f be da e1 e0 bd
       -0.22838382 -0.009226521 -0.31068486 -0.10980578
0001e0 3b c8 5f 3e 2c 57 c3 bd ed c5 30 3d 6c 02 ba bc
       0.21853726 -0.09538111 0.043157507 -0.022706233
0001f0 de 4e b4 bc ea f7 d2 be 4e 3c 3f bd bd 98 b1 3d
       -0.022010263 -0.41204768 -0.04668837 0.08671711
000200 bf c9 2e 3e 83 4a ab 3e 22 91 99 3c b5 53 68 3d
       0.17069148 0.33455285 0.018745963 0.056720454
000210 4a ca 45 be f1 19 3e bd 74 cb 4b 3e a4 c0 7d 3d
       -0.19315448 -0.04641146 0.1990183 0.061951295
000220 6a bf 31 bd d4 57 b2 bd 1a 70 93 be 1b 12 61 be
       -0.043395437 -0.08708158 -0.28796464 -0.21979563
000230 8a dd 35 bc d0 28 2c bd 57 79 15 be 91 fb 52 bc
       -0.011100182 -0.04203111 -0.14597069 -0.012877361
000240 6d be bd bc 99 ad 60 3e ce bb 34 be 02 92 7c bd
       -0.023162091 0.21941222 -0.17649767 -0.06166268
000250 4b 37 22 bd aa f7 78 3d f1 37 90 3c 3c ef c1 bd
       -0.039603513 0.060783066 0.0176048 -0.094694585
000260 e1 75 07 3d 94 fe 86 bd 5e c7 71 3d 67 15 4d bd
       0.033071402 -0.06591526 0.059028022 -0.05006924
000270 d8 55 98 bd d2 8c b7 bc 86 44 2f 3d 09 98 21 be
       -0.074382484 -0.022406016 0.04278996 -0.15780653
000280 98 48 86 3c e0 f4 1b 3e 66 1d d4 bd ea 48 48 3c
       0.016392037 0.15230131 -0.1035717 0.012224415
000290 43 ee 70 3d c6 c4 c9 bc ea 77 14 be 37 3a 0a be
       0.058820974 -0.024629962 -0.14498869 -0.1349877
0002a0 a0 5a 67 3d 10 ba b8 3d 97 58 cd bc 2f e2 43 bd
       0.05648291 0.090198636 -0.025066657 -0.047823127
0002b0 a6 3f 25 3b 7d 51 fb 39 72 3a 94 bd 3a f9 24 3e
       0.002521494 0.00047935164 -0.0723771 0.16110697
0002c0 60 b1 04 3e ca 8b 4c bd 37 6e 71 3d 2b bd 18 3e
       0.12958288 -0.049938 0.058943 0.14915912
0002d0 ae e4 d1 bc 08 36 0d bb 7f 0b 82 bd 97 16 26 3e
       -0.025621738 -0.0021547098 -0.06349849 0.16219555
0002e0 71 7f 17 3e 8e a4 83 bd 56 9b f2 3d 8b 9a 3e bd
       0.14794709 -0.06427871 0.11846034 -0.046534102
0002f0 d3 8c bc bd 63 02 a3 bd 0e a5 35 3e 6e 12 3e 3d
       -0.092065476 -0.079594396 0.17738745 0.046404295
000300 f3 ce f9 3d cc ab 11 3e ec 87 93 bd 10 6c eb 3d
       0.121976756 0.14225692 -0.072036594 0.11495221
000310 ad f0 8e bc cf 4d cf bd c4 17 02 3d 14 5c c3 bd
       -0.017448748 -0.10122263 0.031760946 -0.09539047
000320 e1 ad df bb 5c ed c8 bd c2 29 1f be 5d 2c 09 bd
       -0.006826148 -0.09810898 -0.15543273 -0.033489574
000330 8a 41 ee 3d e1 0b 87 bc 88 e8 a3 bd 98 ab 09 3e
       0.11633594 -0.016485156 -0.08003336 0.13444364
000340 05 c9 f9 bc 57 52 fd bd 8c 51 76 bd a1 b5 04 3e
       -0.030491361 -0.12369221 -0.060136363 0.12959911
000350 c6 c0 c0 3c 37 bf 4e 3c ab 90 95 3d a6 3e d0 3d
       0.023529422 0.012618831 0.07302984 0.10168199
000360 0f bf 26 be 65 b0 77 3d c1 1f a2 3d 36 e6 9d 3d
       -0.1628382 0.060470957 0.07916213 0.07709925
000370 57 9a e2 3d 23 da 82 bc bb da 70 3d 5e 45 64 3d
       0.11064594 -0.015973156 0.058802348 0.055730216
000380 fb aa 3f 3d 2d ed 36 3e ee ea c5 3d d6 33 05 3e
       0.04679392 0.17863913 0.0966395 0.13008055
000390 0d b1 82 3d 60 17 f7 3d 9d 31 06 bd 78 96 82 3d
       0.06381426 0.12065005 -0.03276216 0.06376356
0003a0 c8 92 2f 3e 70 c4 64 3d d2 76 05 bc de 0e 13 3e
       0.17145836 0.0558514 -0.008146005 0.1436114
0003b0 4b a2 2f 3b 57 73 21 3b af 16 4a bd 6e 3a dd 3d
       0.0026799615 0.0024635398 -0.04933804 0.1080216
0003c0 27 8a 2a 3d 64 b1 94 3d 51 19 0e 3e 67 65 3e 3e
       0.04163566 0.07260397 0.13876845 0.1859337
0003d0 ae d0 1b 3e 94 3c 09 be 71 18 80 3d 30 45 8c bd
       0.15216324 -0.13402015 0.06254662 -0.06849134
0003e0 22 24 88 bc 4a e3 e8 bd 74 4b 80 bd cf 68 8d 3d
       -0.016618792 -0.11371477 -0.062643915 0.06904756
0003f0 b5 eb ce 3c 3a 72 b8 3d 56 0a 8e 3d 18 08 8c bd
       0.025258878 0.09006162 0.06935565 -0.06837481

onnx::Conv_81 f4 [16]
000000 c6 fc 19 3f 11 36 89 bf 7d 82 a7 bf 9c 0e a7 3f
       0.60151327 -1.0719625 -1.3086697 1.3051333
000010 65 ed 9b 3f 71 6d 79 3f 90 c6 a3 3f d0 06 b0 3f
       1.2181822 0.9743262 1.2794971 1.3752079
000020 d4 f3 f9 3e 25 24 a1 3e 1c 39 78 3d 3a 64 83 3e
       0.4881884 0.3147289 0.06060134 0.25662404
000030 ac 1e f7 bd 38 f1 a8 bf bd a3 9b 3f 4b 87 2c bf
       -0.12066397 -1.3198614 1.2159344 -0.6739394

onnx::Conv_83 f4 [32, 16, 3, 3]
000000 d6 9e 0f bd d2 54 d7 bc 58 98 a6 3c f8 c7 5d 3d
       -0.035063587 -0.026285563 0.020336315 0.054145783
000010 d1 4b 39 bd d6 75 a6 3d 06 41 22 bd c9 ca 68 bd
       -0.04523832 0.08127944 -0.039612792 -0.056834016
000020 b2 16 96 bd a1 81 91 3c 75 79 86 bb 89 23 ab bd
       -0.073285475 0.017762007 -0.0041038343 -0.08356387
000030 12 cc 75 3d bc a9 a6 3c 73 f4 84 3d f4 97 a5 bd
       0.06000907 0.020344608 0.064919375 -0.080856234
000040 92 3d 3a bc 90 9a 95 bd 08 85 70 3c b8 e4 60 3d
       -0.011367219 -0.07304871 0.014680155 0.054905623
000050 b6 6d 96 3d cc c6 68 3d 68 ec 5d 3d 46 b4 29 3d
       0.073451445 0.056830212 0.054180533 0.041431688
000060 da de 79 3d 29 4a 2b bd 84 da ad 3d cb 34 6a 3d
       0.061003543 -0.04181877 0.08488944 0.057179254
000070 14 72 ed 3c a0 28 42 3d 5e db 1d bd 35 2b 75 3d
       0.02898506 0.047402024 -0.038539283 0.05985566
000080 2b 49 b9 3c 07 6b d1 3d 9c e8 0e 3e 64 77 66 3d
       0.022617897 0.10225492 0.13955921 0.056266204
000090 d0 87 a5 3d 2e d0 00 bd 1e e5 8d bc 7d 8f 5d bc
       0.08082545 -0.031448536 -0.017321166 -0.01352298
0000a0 87 29 93 3d b9 a9 2c 3d 0c eb bc 3d d7 27 34 3d
       0.07185655 0.042154048 0.09224519 0.043983307
0000b0 ea a1 e2 3d 44 fe 43 3d 55 c9 9e 3d 57 e8 02 3b
       0.11066039 0.04784991 0.07753245 0.001997491
0000c0 0e 50 34 bd dc b1 1f 3d e8 90 2c 3d 56 45 3b 3d
       -0.04402166 0.03898798 0.04213038 0.04572042
0000d0 5e d7 44 3d 6c 86 33 bc c2 f9 de 3c dc e3 e5 3d
       0.048056953 -0.010957342 0.027218703 0.11225101
0000e0 c3 41 5e 3d e9 68 4a bd 76 f9 83 3d 03 b0 2c 3d
       0.054261934 -0.049416456 0.06444065 0.042160045
0000f0 df 85 fc 3d cf 3c cd 3d 6f 7c c0 3d 26 cb 93 bc
       0.123302214 0.10021364 0.09398734 -0.018041205
000100 e7 bc 09 3d 17 f6 37 bb 08 83 35 bd 77 a8 2a bd
       0.033627417 -0.0028070265 -0.044314414 -0.041664567
000110 08 ac 5f 3d 21 f2 9a 3c 5b 5a f2 3c 04 87 f3 3d
       0.05460742 0.018914284 0.0295841 0.118909866
000120 1a 74 ce 3d f3 79 c8 bc 01 3a c3 3d e3 34 82 bd
       0.10080738 -0.024472212 0.09532548 -0.063577436
000130 60 bb 6f bc aa d2 12 bd c4 c7 ee bd 57 d9 8d bd
       -0.014632076 -0.035845436 -0.11659196 -0.0692622
000140 db aa af 3c 4e 30 42 bc 87 86 20 3d d7 4d 70 bc
       0.021443775 -0.011852337 0.039190795 -0.014666996
000150 27 fe 7b 3b c7 2d c8 3d 03 a7 15 3d 80 cf 31 bb
       0.0038451047 0.09774356 0.036536228 -0.0027131736
000160 4b d8 b5 bc 40 03 1b bd f2 d1 af 3c 54 48 8c 3d
       -0.022197863 -0.037844896 0.021462414 0.06849733
000170 c6 3d 73 3d fa 12 d2 bc 63 28 53 bd 50 48 f7 bb
       0.059385084 -0.025643814 -0.051552188 -0.007546462
000180 ee f9 32 bc 0a df 18 bd 6e 6b 9b 3d 50 7a 67 bd
       -0.010923846 -0.03732208 0.0758885 -0.05651313
000190 0a 69 7f 3d de 7a 3f 3d d8 07 b9 bc 43 ec ea bd
       0.062356032 0.046748035 -0.022586748 -0.114708446
0001a0 c7 36 ff bd e8 78 a5 bd 27 95 e4 bd fd 24 0e be
       -0.1246162 -0.08079702 -0.11161261 -0.13881297
0001b0 be 7d 81 3d 93 c2 18 bb 7d e1 e5 3d 8d 36 ca 3d
       0.063228115 -0.0023309335 0.11224649 0.09873686
0001c0 6d 7d 77 bb 01 a9 91 3d 71 a4 b6 ba 06 3a 15 bc
       -0.0037763969 0.07112313 -0.0013934505 -0.009108072
0001d0 2d 6d 7d bd d9 31 b0 bb f9 c1 bd bc 29 5c cb bd
       -0.061871696 -0.005377036 -0.023163782 -0.099296875
0001e0 29 50 57 3d b1 07 1e bd c9 76 5d 3d 62 73 92 bd
       0.05256668 -0.038581554 0.05406836 -0.07150914
0001f0 a5 41 e8 3c 9a 2a a3 bd fd 5a dc 39 5a 0c 30 3d
       0.028351614 -0.0796711 0.00042029461 0.04298053
000200 81 6e 93 3d 6e 50 b7 bd 67 52 26 bc a1 d8 49 bd
       0.07198811 -0.089508876 -0.010151482 -0.04927886
000210 46 0b 04 3d 1d 1f e1 3d 25 06 55 bc 62 64 c4 3d
       0.032237314 0.109922625 -0.013001953 0.09589459
000220 c1 92 20 3d 43 cb be bc 0e e4 bc 3d f0 fd 34 bd
       0.039202455 -0.023290282 0.092231855 -0.044187486
000230 41 1c 5c bc a2 bc cf bd 7e fe f1 bd db f3 e5 bd
       -0.013434471 -0.10143401 -0.11816119 -0.11228152
000240 79 3b 31 bd ba 09 21 3c 24 92 ab 3c 36 8a 20 bd
       -0.04326961 0.009828979 0.020943709 -0.03919431
000250 94 f9 b0 3d 6e 46 d2 3d 70 93 83 3c f0 2b 4c bc
       0.08641353 0.1026734 0.016061515 -0.012461647
000260 c9 de 94 3c b0 55 02 bd 7a 6e 31 bd 60 61 44 bd
       0.018172638 -0.03182 -0.04331825 -0.047944427
000270 dd 93 78 3c cd 98 3b 3d 6f 07 a2 bc d5 d6 6c 3d
       0.015171972 0.04580002 -0.019778935 0.057822067
000280 b7 dc 7f bd f8 ab d4 3c 42 f1 91 bd 8c 57 c2 bc
       -0.06246635 0.025960907 -0.071260944 -0.023723386
000290 38 39 38 bd 84 cb 8b 3d 17 6b 97 bc c3 d3 ff bc
       -0.044976443 0.06825927 -0.018483682 -0.031228906
0002a0 b8 95 53 3d b4 15 e3 3c 91 f5 96 bd 27 c7 9e 3d
       0.051656455 0.02772031 -0.07371057 0.07752829
0002b0 13 56 f9 3c 84 9f a2 3d bd 32 2c 3d 24 68 fb bc
       0.030436551 0.079405814 0.042040575 -0.030689307
0002c0 17 cb 69 3d 0b da 00 3d f4 e4 08 bd c1 24 8f 3c
       0.057078447 0.031457942 -0.03342147 0.01747358
0002d0 c9 3b a0 bc 56 81 95 3a 3d 00 82 3d 1b f5 19 3d
       -0.019559758 0.0011406343 0.06347702 0.037587266
0002e0 29 cc 40 bd 4f 2f 2e 3d 89 d0 17 bd ad 8f 8e 3b
       -0.047069702 0.042525586 -0.03706411 0.0043506236
0002f0 94 dd 20 bd e5 7e d8 bc 2f c8 84 3c fc 02 39 3c
       -0.039273813 -0.026427696 0.016208736 0.011292215
000300 6f d7 36 3c d4 54 49 bc 7b 31 d9 3c ae 67 59 3d
       0.011159762 -0.012288291 0.026512852 0.053077392
000310 9a ad 57 bd 2b cc d0 bc b4 f2 12 3c 48 b4 2d bd
       -0.052655794 -0.02548798 0.008968998 -0.042408258
000320 5f 64 57 3d 0f 4d bc bc d9 ec 22 bd 55 90 52 3d
       0.052585956 -0.022985963 -0.039776657 0.051407177
000330 5e 39 88 bd 60 7f 3f bd 44 f5 51 bd 6d 79 e6 bc
       -0.06651567 -0.046752334 -0.051259294 -0.028134072
000340 00 9a 1b 3d f4 72 04 bd 60 79 4d 3c dc 3d 41 3d
       0.037988663 -0.03233619 0.012541145 0.047178134
000350 05 ae 4e 3d af 33 51 3d af 2a 0b bd b7 e6 01 bd
       0.050458927 0.05107468 -0.033976253 -0.031714167
000360 ac 7b 90 bd 7f d9 8e bd ce e1 d4 bc 56 65 45 3d
       -0.070548385 -0.06975078 -0.025986578 0.048192345
000370 10 9e 83 39 43 4f 2a bd 55 50 9c bd 6f c2 53 bd
       0.00025104033 -0.041579496 -0.076325096 -0.0516991
000380 d0 27 c8 bc ac 1c 62 bc 7f 8b d2 bb 2c 74 64 bc
       -0.024433047 -0.013800781 -0.0064253206 -0.013943713
000390 ea be f2 3b cc 26 4e bc 04 06 6b bd d9 02 4c bd
       0.0074080126 -0.012582492 -0.057378784 -0.049807403
0003a0 6f 56 5a bd 4f 2a 27 3d 2c 14 83 3d 9f fc ae 3c
       -0.053305086 0.040811833 0.06400332 0.021360693
0003b0 78 6b 30 bd 39 de 03 3d 0c ff 45 3c f7 0a 78 bd
       -0.04307124 0.03219435 0.012084734 -0.060557332
0003c0 5c a1 54 bd c9 2e ea bc 9e 84 fa bc 14 91 0b bd
       -0.051911697 -0.028586762 -0.030580815 -0.034073904
0003d0 dc 0a 16 3b 51 de 26 bd ca f9 13 3d c0 4b 81 3d
       0.0022894656 -0.04073936 0.03612689 0.06313276
0003e0 75 78 09 bd 66 bc 9c bd 83 b4 46 bd dd 6a bb bd
       -0.033562142 -0.07653122 -0.048511993 -0.09151242
0003f0 5a c4 4a 3d bb 85 ab 3c 6c c6 35 bd 54 df 1c bd
       0.04950366 0.020937791 -0.044378683 -0.03829892

onnx::Conv_84 f4 [32]
000000 30 6e 16 bf f6 95 1f 3f 0a 5b 55 be 69 7b 57 3f
       -0.5876188 0.623382 -0.2083551 0.84172684
000010 b3 61 06 3f 03 99 e3 be 44 6a 27 3e b3 0f 3a bf
       0.5249283 -0.44452676 0.16349131 -0.72680205
000020 55 3c 90 3e b4 ba 0c be 08 9a d3 bd c4 24 cf 3d
       0.2817103 -0.13743097 -0.103321135 0.10114434
000030 d2 c8 80 3e 68 b7 76 bf 5a 4e 1d bf 21 eb f6 be
       0.25153214 -0.96373606 -0.6144768 -0.48226264
000040 54 ba fb 3c 68 43 53 bc 57 e9 52 3f 88 69 a4 3e
       0.030728497 -0.012894489 0.823873 0.32111764
000050 e5 9a 0d be b0 ef 21 bb 60 4a 43 3e 55 30 2a 3f
       -0.13828619 -0.0024709515 0.1907134 0.6648
000060 c4 8a 05 3f 71 07 e2 3e 79 d3 2f 3f a2 2e 41 3f
       0.52164865 0.44146302 0.68682057 0.7546178
000070 0f 26 74 be 2a 6a 8d 3f e2 9d 8c 3e 66 fb 96 3e
       -0.23842643 1.1048024 0.27464205 0.29488677

onnx::Conv_86 f4 [32, 32, 3, 3]
000000 c2 61 b4 bd 7d d4 01 be 8c ba 34 bc 69 b5 18 be
       -0.08807708 -0.12678714 -0.011030804 -0.14912952
000010 a0 04 de bc dc f7 0b 3d e1 08 0b 3d da c5 8f 3d
       -0.027101815 0.034171924 0.033944014 0.07020159
000020 14 05 62 3d 21 9c b4 bc cd c8 b4 bd 4f 6f 12 be
       0.055180624 -0.022047104 -0.08827362 -0.14300273
000030 e2 2d 71 3d 68 0f 3b bd 3c ed 86 bd ea 83 52 3b
       0.058881648 -0.04566899 -0.065882176 0.0032122084
000040 9f ff 43 3a 6a bc cf bc 49 7e 97 bd 5e 60 82 bd
       0.000747675 -0.025358398 -0.07397134 -0.06366037
000050 4b 29 c0 bd c9 86 86 3d 15 1c 39 bd 54 75 b2 ba
       -0.09382876 0.06568677 -0.045192797 -0.0013615289
000060 52 2a ef bc 40 2f 4e bd 5e ca e0 bc 22 62 0c bd
       -0.029194985 -0.05033803 -0.027440246 -0.034273274
000070 8a 11 06 3d 48 86 a7 bb 43 59 8d 3c 90 14 67 bc
       0.03273157 -0.005112443 0.017254477 -0.014104024
000080 5e b0 45 3b 72 23 9c bc b9 7c 36 bd 43 87 bb bd
       0.0030164937 -0.01905987 -0.04455254 -0.091566585
000090 31 b0 91 3d 86 fd bf bc 33 15 81 3a 7c 33 87 3d
       0.07113684 -0.02343632 0.0009848237 0.06601617
0000a0 3c b3 81 bc 7e 0b 7b 3d dd fc 79 bc cf 6b 06 bd
       -0.015832536 0.061290257 -0.015258041 -0.032817658
0000b0 15 63 c3 bc b8 9f ca bc 2f e6 88 3d 56 b4 70 3d
       -0.023850957 -0.024734363 0.06684529 0.05876573
0000c0 92 91 22 be d7 78 a6 3b ca 66 91 3d cd 4e 14 bd
       -0.15875843 0.005080323 0.070996836 -0.036207963
0000d0 1a 71 ad 3d 88 ee ef 3d 97 65 97 bc 7b 3c 44 3d
       0.08468838 0.11715418 -0.018481059 0.04790924
0000e0 32 a1 06 bd eb 11 a4 bc a0 57 28 3d fd 78 43 bd
       -0.03286857 -0.020028075 0.04109919 -0.047722805
0000f0 e3 1b 2f bc e0 d3 55 bd 5d 65 89 bd ba a4 29 3d
       -0.010687801 -0.052204013 -0.06708787 0.04141686
000100 9b a4 cf bc ab 82 df 3b 4e 64 b0 bb a3 2f 40 3b
       -0.025347045 0.0068209968 -0.005383051 0.0029325269
000110 9d 16 55 3d 07 5a 1b be e6 7c e9 bd b7 b5 a9 bc
       0.05202352 -0.15171061 -0.114007756 -0.020716531
000120 9f 85 46 bd 1f be 22 bd fa 0c 2f bc ba 6c 36 3d
       -0.048467275 -0.039732095 -0.010684246 0.044537283
000130 79 13 2b bc d8 04 2a 3d 7f 38 88 bc ca e0 ff 3b
       -0.010441654 0.041508526 -0.016628502 0.0078087794
000140 f5 34 0d bd 9d fc 55 3d 23 8a 78 3d 6f 22 dc 3c
       -0.034474332 0.052242864 0.060678612 0.026871888
000150 f9 cb e0 3d ed 2e 05 3e 0a 56 b7 3d 97 c6 92 bc
       0.10976405 0.13006182 0.089519575 -0.01791696
000160 5b 07 0e 3e 17 00 ec 3d 76 50 a6 3d 11 2a 8e 3d
       0.13869993 0.11523455 0.081208155 0.06941617
000170 5e b2 bc 3d 26 37 80 3c 2b a3 1a bc 3c c4 60 3c
       0.09213708 0.015651297 -0.009438316 0.013718661
000180 22 6f d6 3b da 95 4e bd e5 bd 30 bc 75 50 74 bb
       0.00654401 -0.05043588 -0.010787462 -0.0037279401
000190 4c 52 40 bd 3a 59 77 3d 4c 9f f2 bb e8 70 ea bc
       -0.046953484 0.060387827 -0.0074042436 -0.028618291
0001a0 ee 8d 3d bd 82 f2 80 3c f8 bc dd 3c ea 02 05 3d
       -0.046277933 0.015740637 0.027067646 0.032473482
0001b0 03 a8 ee bc 55 f5 fe bb 8f 63 08 3e 62 0c d8 3c
       -0.029132849 -0.0077807107 0.13319229 0.026373092
0001c0 0f cb fe 3d 61 a3 b9 bc e1 92 45 bd 89 1c 91 bd
       0.12441074 -0.022660913 -0.048235778 -0.07085521
0001d0 ed 47 75 3d 78 0b 66 bd 0c 13 80 bc ac 13 d1 bc
       0.059883047 -0.05616328 -0.015634082 -0.025522076
0001e0 61 65 63 bd 8e e2 c9 3c 45 f4 9b bc 5d a5 ac bc
       -0.055516604 0.024644163 -0.019037375 -0.021074945
0001f0 8e 90 98 bb 3e 7e aa bd d2 3f 09 bd 6c 70 2b bd
       -0.004655904 -0.0832486 -0.03350813 -0.04185526
000200 1e 19 07 3e a1 36 6a bd fb aa e2 3c 39 ff 2d 3e
       0.13193175 -0.057181004 0.02766942 0.16991891
000210 7b fb 75 3d 04 2f 03 3e e8 da 58 3e b2 44 bb 3d
       0.060054284 0.12810904 0.21177256 0.09143962
000220 33 30 b8 3d b4 7f 00 bd 3a c0 fb 3c d0 50 b9 3c
       0.08993568 -0.031371787 0.03073131 0.022621542
000230 44 78 a3 3c f1 4a be 3c 92 09 9c bc a5 46 08 3e
       0.019954808 0.023229094 -0.019047532 0.13308199
000240 d5 29 5b bc c3 e4 94 bd 49 66 18 bd ca 26 b8 bb
       -0.013376673 -0.07270195 -0.03720692 -0.0056198584
000250 91 2b 45 bd d2 fa 31 3d e8 d3 52 bd 18 5b af 3a
       -0.04813725 0.04345209 -0.05147162 0.0013378588
000260 c1 29 39 3c cc ce 5e 3c e8 ce 00 3d 3e 6a 31 bd
       0.011301459 0.013599109 0.03144732 -0.04331421
000270 f1 10 0f bc fc da 92 bc 23 4e c1 bd 5d 66 96 3c
       -0.0087320665 -0.017926686 -0.094387315 0.018359357
000280 80 6a e1 bc fe df 9e bc 53 ea 08 3c d9 e6 7e bd
       -0.027516603 -0.019393917 0.0083566485 -0.062231872
000290 0e e5 02 bc b3 bc c9 3c 74 4b 44 3c d1 42 f2 bc
       -0.007989181 0.024626112 0.01198088 -0.029572876
0002a0 e3 0b 44 3d 5f 64 ef 3a c1 34 fa 39 42 39 c1 bd
       0.0478629 0.0018264166 0.0004772302 -0.09434749
0002b0 50 2c 88 3d dc fb 45 bd 7d e2 4d 3d 5a 73 7b 3d
       0.06649077 -0.048335895 0.050264824 0.061389305
0002c0 ca 3a 6d bd 34 5b 00 3e fc 28 05 3e c6 e2 e3 bd
       -0.057917394 0.12534791 0.13003916 -0.11127238
0002d0 90 09 5f 3d c0 cc 3d bd bb 82 d0 3c c0 9e 36 3c
       0.05445248 -0.046337843 0.025452962 0.011146247
0002e0 79 b6 8b bd 8d bf db bd 5e 9a 80 3c e1 b9 44 3c
       -0.06821913 -0.10729895 0.015698608 0.012007208
0002f0 f5 2c 9d bd 4c f7 b3 3d 89 4b f8 3d 02 ba 0e 3e
       -0.076745905 0.087874025 0.12123782 0.13938144
000300 b9 5f 8e 3d 65 d9 d9 3d 81 e2 64 3d 76 e5 63 3d
       0.069518514 0.10637168 0.055880073 0.055638753
000310 4e 84 36 3c ed 83 b8 3d 1b e3 2e 3c 33 da c6 bc
       0.011139942 0.09009538 0.010674263 -0.024273967
000320 83 6b ba bd e7 ab 4b 3c a7 8b 80 bd e2 72 90 bd
       -0.091025375 0.012431121 -0.062766366 -0.07053162
000330 94 57 b2 bc 71 f0 71 3c ee f8 d7 3b 61 64 11 bc
       -0.021770276 0.014766798 0.006590954 -0.00887403
000340 3e 3c 1b bc e4 2d 8d 3c 36 e8 24 bd 54 8d b1 3c
       -0.009474812 0.017233796 -0.040260516 0.021673836
000350 9c 5b b2 bd 5b 4d 00 3e ee 2f 00 3e 1f 01 d7 3c
       -0.08708879 0.12529509 0.12518284 0.026245652
000360 5f e8 0e 3c e6 01 18 bd a9 40 05 3c b1 17 8f bb
       0.008722394 -0.037111185 0.008133092 -0.004366838
000370 bd 57 a4 3b 4b bb f4 3c b5 e4 97 3d 72 dd 91 bc
       0.005015342 0.029874464 0.07416669 -0.017805789
000380 af e0 0a bd 7e 0c b2 3b c5 7a 68 bd 0f 3c 18 bd
       -0.03390568 0.005433618 -0.056757707 -0.03716665
000390 8f 90 20 3c 09 34 e4 bc 3c 8b f3 bc 8d a8 34 3d
       0.00980009 -0.027856844 -0.029729478 0.044106055
0003a0 2b 8d 50 bd 01 1e f7 bc 6b 53 95 3c 9b 45 4a bd
       -0.05091588 -0.030165674 0.018228253 -0.049382787
0003b0 af f9 f5 bb cb 66 1e 3c 91 a0 d3 bc 02 00 43 bd
       -0.0075065712 0.009668062 -0.0258334 -0.04760743
0003c0 d2 1c 3d 3d 61 86 65 3c 17 9a ab 3d 88 bb 3a 3c
       0.046170063 0.014009089 0.08379 0.01139725
0003d0 9d 77 de 3d 5b 27 8c 3d c8 ea c7 bd 4f c7 3d bc
       0.10862658 0.06843444 -0.09761578 -0.011583163
0003e0 98 6b b1 3d 31 a1 e3 bd 4e 9f 5b 3c ab 80 5d bd
       0.086631 -0.11114729 0.01340468 -0.054077785
0003f0 d3 6f 1d bc 19 35 b8 bd c4 2d d9 bd 6a 39 bc bc
       -0.0096091805 -0.089945026 -0.10604432 -0.022976596

onnx::Conv_87 f4 [32]
000000 27 5a 2f be 12 04 87 3e b8 5b 56 3f de 28 40 3f
       -0.17124234 0.26370293 0.837337 0.7506236
000010 fc 28 fb 3e 1c c6 70 3e bf 78 d1 be 5a c2 18 3f
       0.49054706 0.23513073 -0.40912434 0.59671557
000020 96 01 0c bf 2f 7b 3b bf e7 e5 aa 3e aa 98 4f be
       -0.5468992 -0.7323484 0.33378527 -0.2027308
000030 f7 e5 c2 3e e2 d4 55 3e a9 98 f0 3d 28 03 77 3f
       0.38066074 0.2088199 0.117478676 0.9648919
000040 96 2a 3e 3f c4 7d b7 3e 5c 8d 24 bf 57 23 d1 be
       0.7428373 0.3583814 -0.642782 -0.40847275
000050 f0 c8 57 3e a6 73 35 3f 9c 33 ae 3e 66 51 19 3f
       0.21072745 0.7087959 0.3402375 0.5988983
000060 a0 ef ee be 48 2a 65 3f 3a 36 ee 3e b7 1d d0 3e
       -0.46667194 0.8951764 0.46525747 0.4064767
000070 d7 30 0b bf 58 84 d8 bd f8 d6 0b bf 37 65 10 3f
       -0.543714 -0.105721176 -0.5462489 0.5640444

onnx::Conv_89 f4 [32, 16, 1, 1]
000000 e3 05 a6 3e 55 19 ba 3d 1d c5 8a be 69 e7 20 bb
       0.32426366 0.09086863 -0.2710351 -0.0024551994
000010 4b a1 37 be e1 6d 0c 3e ef f6 36 3e 6a 91 62 3d
       -0.17932622 0.1371379 0.17867635 0.05531446
000020 79 2e 74 3e 91 59 87 bc f3 84 27 3d 0e 2b 37 3e
       0.23845853 -0.0165222 0.040898275 0.17887518
000030 53 f9 62 bd 50 3e 04 3d aa 90 1f 3e 5a 7b 97 3e
       -0.055413555 0.03228599 0.15582529 0.29586297
000040 21 b0 22 3e 6a 17 93 3e c9 49 4d 3e af f5 ae 3d
       0.158875 0.287288 0.20047678 0.08542954
000050 3d 44 14 bd e6 e9 b4 3c 13 82 1f be 83 3d 36 3e
       -0.03619789 0.022084188 -0.15576963 0.17796902
000060 34 77 2f 3e 0f 78 58 3e a4 00 62 be b1 61 8f 3e
       0.17135316 0.21139549 -0.22070557 0.2800422
000070 2e 95 c8 3e 69 07 16 bd dc 40 83 3e c5 4f bb bd
       0.39176315 -0.03662816 0.2563542 -0.09146074
000080 22 98 8f 3e 01 fb 9b be 8c d0 25 3e 06 2a 1d 3e
       0.28045756 -0.30464938 0.16192836 0.15348062
000090 97 ae 7f 3e 09 af e9 3c 17 78 3b 3e 2d 68 b0 be
       0.24968944 0.028525846 0.1830753 -0.3445448
0000a0 63 54 95 be e5 44 6f bc 2d 0d 1a bd 55 9c ab 3e
       -0.29165944 -0.014603828 -0.03761022 0.3351771
0000b0 91 51 80 3e 5b c2 b0 be 10 11 b9 bd e2 12 de 3d
       0.2506223 -0.3452328 -0.090364575 0.10843445
0000c0 6d f5 fd bc cc 7b 0f be 93 97 bc be 00 22 b0 be
       -0.031000817 -0.14012069 -0.36834392 -0.3440094
0000d0 2c b8 cf 3d f6 01 03 be 0e 10 38 3e 8f b4 95 3e
       0.1014255 -0.12793717 0.17974874 0.29239318
0000e0 8d 46 41 3e 51 2b 6d 3e 1c b9 92 3e 47 1d 37 3e
       0.18874569 0.23161055 0.28656852 0.17882262
0000f0 19 38 38 3e a3 53 83 3e d4 50 43 be ff 29 99 bd
       0.1799015 0.25649747 -0.19073802 -0.07478713
000100 11 c1 00 3f c5 51 8e 3e f9 51 1d be 06 79 31 be
       0.50294596 0.2779676 -0.15363301 -0.17331323
000110 db 5c 20 be 74 f8 a5 bd b8 c5 e2 3d 52 00 7a 3d
       -0.15660422 -0.08104029 0.11072868 0.06103546
000120 ce a1 97 3e bc 30 61 3d 88 b5 95 be 5f 3e e8 3d
       0.29615635 0.054978117 -0.2924006 0.11340021
000130 c3 cb de 3e 6b 06 d7 3d 6e 08 1e bd dc 3a e4 be
       0.43514833 0.10499271 -0.038582258 -0.44576156
000140 4a 41 4d be 6f de 3c 3e e9 1a 15 bd a4 74 35 be
       -0.20044437 0.18444227 -0.036402617 -0.17720276
000150 cb 12 9b be dc 4d 45 be 65 08 f2 bd 89 1d 1d be
       -0.30287775 -0.19267982 -0.118180074 -0.15343298
000160 10 57 33 3d ec fd 19 be 5a a5 73 3e 75 06 a6 3e
       0.0437842 -0.1503827 0.23793545 0.324268
000170 30 30 f8 bd 60 de 2b 3e dd a1 98 bd 20 c0 cd bb
       -0.12118566 0.16784048 -0.07452748 -0.0062790066
000180 db 26 aa 3e 19 f8 af bd cb 44 e8 bd 6a 74 40 be
       0.3323277 -0.08592243 -0.11341246 -0.18794408
000190 69 e3 8d be 3e fb ec 3d 9a 2d 58 3e 9f 31 8b bd
       -0.27712563 0.11571358 0.21111146 -0.06796574
0001a0 3c 3c 40 3d 74 d1 c5 be 87 61 8f be fe 22 5a 3a
       0.046932444 -0.38636363 -0.28004095 0.0008321254
0001b0 48 53 cd 3e 89 a5 f9 be 33 6a b7 be d6 19 a1 3d
       0.401026 -0.48759106 -0.3582321 0.07866256
0001c0 e8 a3 73 3e eb 9d 82 be fc a1 90 3e ca a8 87 bd
       0.23792994 -0.25511107 0.28248584 -0.06623991
0001d0 0c 63 73 bd 7c 1f d2 be 9a 17 32 3d 61 76 72 bd
       -0.05942063 -0.41039646 0.04347954 -0.059194926
0001e0 a9 c5 8f 3e 61 8a 38 be 00 f0 ab 3d 7c 3a c9 3e
       0.2808049 -0.18021537 0.08395386 0.39302433
0001f0 7c 9c c8 3e a8 b4 b0 be 80 73 f1 be 15 de 7e 3e
       0.39181888 -0.3451283 -0.47158432 0.24889405
000200 55 39 6d be c7 65 fa bd af 59 9f 3e 1f b9 4a be
       -0.23166402 -0.12226444 0.3112311 -0.1979718
000210 da 0a 0e 3e d5 0e 20 3e 59 b8 3f be 64 c8 2e be
       0.13871327 0.15630658 -0.18722667 -0.1706863
000220 40 a3 88 be c5 a7 00 3d 5c a3 c7 bd 24 04 8b 3e
       -0.2668705 0.031409997 -0.09747955 0.27151597
000230 89 c2 93 3e e1 16 f4 3d 42 8f 66 be 45 dd 7d be
       0.28859356 0.11918426 -0.22515586 -0.24791439
000240 70 63 14 3e e7 53 e5 3e 13 97 5d be c4 20 85 be
       0.14491057 0.44790575 -0.21639661 -0.2600156
000250 43 5c d5 3c 8b cf dd be d4 9a a7 be 4e ee 4d 3e
       0.02604497 -0.43322405 -0.32735312 0.20110437
000260 75 1c a6 3d 6e 25 a6 be b0 63 38 bd b4 81 af 3e
       0.081108965 -0.32450432 -0.045016944 0.34278643
000270 91 24 13 3d db 6b 95 be 3c 0a 9a bd 61 db b2 3d
       0.035923544 -0.2918385 -0.07521483 0.087332495
000280 5e 82 4f 3e 25 60 c8 be 90 ba 9a bd d3 a6 f9 bd
       0.20264575 -0.39135852 -0.07555115 -0.12190022
000290 5e b6 9c be 57 32 cf ba 4b 89 9f be 08 ea a0 3d
       -0.30607885 -0.0015807849 -0.31159434 0.07857138
0002a0 b2 97 43 3d b6 4d 0a 3e 23 16 9b 3e 24 fd 8f be
       0.04775209 0.13506207 0.30290326 -0.28122818
0002b0 1d fb 11 be 47 62 3d be 31 29 ad bd 80 35 69 3e
       -0.14255948 -0.18494521 -0.08455122 0.22774315
0002c0 d8 64 bf 3c 75 4c de 3d 27 a9 18 3e f8 45 c7 bc
       0.023363516 0.10854427 0.14908276 -0.024325356
0002d0 9a 9e dc 3d f4 09 a9 bd 21 24 04 be 66 b5 6e 3e
       0.10772438 -0.082538515 -0.12904407 0.23311386
0002e0 b9 4d c5 bd 1b 66 11 be bc 44 19 be 5a 30 e3 bd
       -0.09633965 -0.14199106 -0.14967626 -0.11093207
0002f0 21 ab 55 be cd f4 4d 3e e7 45 17 3e 29 68 df 3d
       -0.20866062 0.20112915 0.1477276 0.10908539
000300 32 c7 c3 bd b4 00 a1 be cf c0 b1 3e 83 01 9f be
       -0.09559478 -0.3144585 0.34717414 -0.3105584
000310 ff 79 ee 3c 90 52 ce 3c 28 41 ad 3e a6 17 dc 3d
       0.029110907 0.025185853 0.33838773 0.10746698
000320 96 d8 9a 3e b0 96 4e be 3e 3c a7 be f8 cf a7 be
       0.30243367 -0.2017467 -0.3266315 -0.32775855
000330 61 42 b4 3e aa 7c b5 be 20 80 5e 3e d7 ee 18 3e
       0.35206893 -0.35446674 0.21728563 0.1493486
000340 70 e9 2e 3e 40 3f e6 3e 4c 8d cf be 57 b2 31 bd
       0.17081237 0.4497013 -0.40537488 -0.04338297
000350 a5 8a cb be de bd a9 3e 71 89 5b bb d5 25 03 be
       -0.39754215 0.3315267 -0.003349867 -0.128074
000360 1a 73 94 3d b2 4f 21 3f 3f 27 6c bd cc fe 97 3d
       0.072485164 0.6301223 -0.057654615 0.074216455
000370 02 75 aa be 6f 37 1c bd e0 00 bb 3e f3 ca 28 bf
       -0.33292395 -0.038138803 0.36524105 -0.65934676
000380 4e 51 e4 bd b4 87 53 be f8 ab 82 bd 4a 49 42 3d
       -0.1114832 -0.20657235 -0.06380457 0.047433175
000390 ba 2c 0a be dc ec 4f be 4c 9d 31 bd ee 24 9b 3d
       -0.13493624 -0.20305198 -0.0433629 0.07575403
0003a0 60 75 5a be db e6 20 be 76 b6 7f be 5c 66 d5 3d
       -0.21333838 -0.15713064 -0.24971947 0.10419914
0003b0 c8 55 83 3e 67 91 60 3e d9 14 db bd 09 32 7d bd
       0.25651383 0.21930467 -0.10697336 -0.061815295
0003c0 a1 f2 cd 3d a6 d7 37 bc c4 b8 2e be 20 27 98 3d
       0.100560434 -0.011220848 -0.1706267 0.074293375
0003d0 99 5e 6c 3d d1 17 47 3d f8 1a ea 3d 57 02 83 3d
       0.057707403 0.048606697 0.11430925 0.06396931
0003e0 69 b7 9a 3d 21 97 12 3e f7 f8 20 3e 66 19 82 3d
       0.07554514 0.14315464 0.15719973 0.063525006
0003f0 25 5c 08 3e 50 36 b0 bd 30 53 7c bc 1c cc af 3d
       0.133164 -0.08604109 -0.015400693 0.08583853

onnx::Conv_90 f4 [32]
000000 58 6a 5b bf ef e8 92 bf c8 7f 86 be 43 68 0c bf
       -0.8570914 -1.1477336 -0.26269364 -0.5484659
000010 fb fc 11 bf 92 80 44 3e 2d 6b fb 3e 40 3e 8c be
       -0.5702664 0.1918967 0.49105206 -0.27391243
000020 1e b8 15 3e 27 04 83 3e 00 22 fd 3e 82 24 3e bc
       0.14621016 0.25589105 0.49440002 -0.011605384
000030 ce 36 0c 3d 50 68 0f be 7a aa fe 3e d6 96 09 bf
       0.034231953 -0.14004636 0.49739438 -0.5374578
000040 0c 76 12 bf 36 57 38 3f 8a 4e a2 be f9 7f 70 3f
       -0.57211375 0.72008073 -0.31700546 0.9394527
000050 83 80 22 bf 1b 75 0a bf e3 1e d8 bc 54 f3 ba 3d
       -0.63477343 -0.5408494 -0.026381915 0.091284424
000060 7f 63 9b bd 23 8c 27 be 00 fa 44 3f e4 7a 6d bf
       -0.07587337 -0.16362052 0.7694397 -0.9276564
000070 8d cf c6 3e f1 29 ca 3d 77 86 99 3c 51 4e f7 bd
       0.38830224 0.09871281 0.018740876 -0.120754845

onnx::Conv_92 f4 [64, 32, 3, 3]
000000 d2 e7 88 bc 8c 45 41 bc 3f 1c 16 bc f8 29 63 bc
       -0.016712103 -0.011796366 -0.009162008 -0.013864987
000010 96 a2 b8 bc b3 55 1d ba de 8c 86 bd f7 ae 8f bc
       -0.022538465 -0.0006001845 -0.06569837 -0.017539484
000020 e9 78 73 3d 35 40 91 bc 3e 76 44 bd 28 61 2d 3b
       0.05944148 -0.017730812 -0.047964327 0.0026455615
000030 73 5c 72 3c 80 34 aa bc 73 86 0f bd c8 ac 7b 3c
       0.014792549 -0.020776987 -0.03504033 0.0153610185
000040 77 44 85 bd a1 78 03 bc e7 e0 e7 3c 74 dc 96 bc
       -0.06507199 -0.008024366 0.028305484 -0.018415667
000050 5e 41 bd ba 74 55 13 3d 74 8c 9f 3c 3c 2f ff 3c
       -0.0014439037 0.035970166 0.019476153 0.031150453
000060 89 8e db 3c 8e e4 bb 3c 0b 16 00 3d b0 35 8b bc
       0.026801364 0.022936132 0.03127102 -0.016993374
000070 36 d7 8b bc 41 33 b9 bc 16 7e 39 bc 5f 82 db bc
       -0.017070394 -0.022607448 -0.011321565 -0.026795564
000080 de 5f 0c 3c 3b a6 4d 3d 3e 4c 55 bc c0 f1 b5 3c
       0.008567778 0.050207358 -0.013018666 0.022210002
000090 f8 57 fb 3c a6 f0 5e 3d d9 19 c7 3b ae e4 02 3d
       0.030681595 0.05442872 0.0060760793 0.031956367
0000a0 29 35 88 3c ea 64 fc ba 64 f9 5a 3b 7a 2f c7 bb
       0.016626911 -0.0019256149 0.0033412809 -0.0060786577
0000b0 6d c5 24 bc 83 78 5e 3d b6 4c b8 3c 55 9d 48 3c
       -0.010056836 0.054314148 0.022497516 0.012244542
0000c0 e2 58 61 3d f8 96 bc 3b d7 44 41 3c de ba 0d 3d
       0.055016406 0.0057553016 0.011796198 0.03460204
0000d0 ab 82 b0 bc 0d ec 22 bc 03 fa a1 3c a2 64 e7 3c
       -0.021546682 -0.009943974 0.019772535 0.028246228
0000e0 a2 c7 b4 3c 36 61 a6 3c d2 cc 69 3c e4 19 a9 3b
       0.022067849 0.020310026 0.014270024 0.005160557
0000f0 f6 26 25 3d 44 7f da 3c d3 97 39 b6 b2 44 2b 3d
       0.04032036 0.026672013 -2.7655522e-06 0.04181356
000100 73 e5 d1 3c 10 8f 04 3d ac 02 31 3d 7f 99 51 3c
       0.025622105 0.032362998 0.04321544 0.012792944
000110 1f d2 8b bc a6 d9 4a 3c 9b 30 34 bd 41 3d b4 bb
       -0.017067967 0.012380993 -0.043991666 -0.005500466
000120 4d c1 15 bd 30 49 49 3b bd 09 a6 bc eb 61 d3 3c
       -0.0365613 0.003071379 -0.020268315 0.025803527
000130 39 5a ab 3c d3 d0 e0 3b ba 2a 48 3d 7c bd f6 3c
       0.020917045 0.0068608313 0.048868872 0.03011965
000140 36 47 1e 3b 6d c2 54 bc 7b df 9e bc 9b 9c 25 3c
       0.0024151332 -0.012985808 -0.019393673 0.010108138
000150 cc 9f c4 bc 91 87 8a 3c c5 fb 56 3c 57 6c 7e bc
       -0.024001978 0.016910346 0.01312155 -0.01552876
000160 23 04 08 bd 93 91 e9 bc 83 b9 c3 3c fd 1f 2d 3d
       -0.03320707 -0.028511798 0.02389217 0.042266835
000170 f1 2a ae 3d 47 36 e5 3a 67 8c 1e 3d ae 08 5b 3d
       0.08504284 0.0017487489 0.038708117 0.053475074
000180 79 26 e1 bc 70 82 22 bd dd 6f 1e 3c ec c0 8d bc
       -0.027484166 -0.039675176 0.009670225 -0.017303906
000190 54 23 cc 3c f8 fb 79 bc 2c 01 33 bc 62 95 89 3c
       0.02491919 -0.015257828 -0.010925572 0.016794864
0001a0 65 70 cd bc 54 f3 09 3c 2c 56 3c 3d 13 f7 29 bc
       -0.025078008 0.00841983 0.045980617 -0.0103738485
0001b0 95 7e 7e bc a4 bf 55 bc 38 f2 27 3b f6 73 a2 bc
       -0.015533109 -0.013046179 0.0025626551 -0.019830685
0001c0 43 5a 01 bd ed de de bc 13 34 e6 bc ba f3 7e bc
       -0.03158022 -0.027205909 -0.028101003 -0.015561039
0001d0 cd 45 be bc a2 cb 4c 3d 37 86 c6 3c 31 a7 ab 3c
       -0.023226643 0.049998887 0.02423392 0.020953747
0001e0 df 27 21 3d 19 af 81 bc ae ad 6c bd d5 99 f1 3c
       0.039344665 -0.015830563 -0.05778282 0.029492298
0001f0 ff a8 04 bd c4 92 1e bd f0 a0 08 3d a3 fa 4b 3d
       -0.03238773 -0.038714185 0.033356607 0.049799573
000200 0b 26 3f 3d 06 65 3f bc de 2d 21 3c 3d 51 17 3d
       0.04666714 -0.011681801 0.009837596 0.03694271
000210 7d a5 f1 3c 5a 0c 04 3d 47 38 83 3c 0b 2e d7 bb
       0.029497856 0.032238342 0.016018046 -0.006566768
000220 cf 6b a5 bc 7c 2f 01 bb 7c f0 aa 3b ed 2e fa bc
       -0.020193009 -0.001971214 0.0052166563 -0.030539954
000230 a1 c9 ee bc 79 f2 13 3c c4 46 5d bb 89 17 9f bc
       -0.029148879 0.009029978 -0.0033764103 -0.019420402
000240 63 4b 72 3c 4e 58 c4 3c 93 66 cc bc c9 4d 9e 3c
       0.014788481 0.023967888 -0.024951255 0.0193242
000250 4d 79 cf 3c 21 e7 66 3c 39 22 33 3d 4e 4f c4 3c
       0.025326395 0.014093191 0.04373381 0.023963597
000260 b3 28 cd bc 5e 23 7d bc 6f 8d 41 3d 5e 70 6b 3b
       -0.025043821 -0.015450327 0.047254022 0.003592513
000270 9a 87 40 bd e8 9e c6 bb 32 73 50 bd eb 85 aa bc
       -0.04700432 -0.0060614236 -0.05089111 -0.02081581
000280 89 d2 18 bc 0b 84 e5 bb 41 10 ee 3b 0a e1 e6 bb
       -0.009327539 -0.007004266 0.007265121 -0.0070458697
000290 00 3e 24 ba 64 c0 ae bc 2e 95 2a bd ef 77 89 bb
       -0.0006265342 -0.021331973 -0.041646175 -0.0041952054
0002a0 d3 05 ea bb 81 54 a7 bc 56 41 93 bc 4a f3 14 bd
       -0.0071418076 -0.020426037 -0.01797549 -0.03636483
0002b0 eb c1 1c 3c 14 59 1c 3c 94 ef 7a bc e5 03 b5 bc
       0.009567718 0.009542722 -0.015315909 -0.022096584
0002c0 31 f8 af bc 55 2a c0 3c 45 fd 23 3d 4e 1b ad bb
       -0.021480652 0.023457685 0.04003646 -0.005282796
0002d0 09 99 7d 39 d2 06 00 bd 69 57 c1 bc 68 e1 64 bb
       0.0002418497 -0.031256504 -0.02360125 -0.0034924392
0002e0 51 2e 09 bd 5d e7 cb bb 45 9e 36 3d 98 9c 54 3c
       -0.033491436 -0.006222649 0.04458453 0.012976788
0002f0 60 3b f8 3c 24 08 0f bc 53 0e b3 3b 81 41 18 3d
       0.03030175 -0.008729968 0.005464354 0.037171844
000300 20 dd 34 3c ee 16 b7 bc 30 35 18 bd e9 69 a4 3c
       0.011039048 -0.0223498 -0.0371601 0.020070033
000310 3d c2 83 3a 29 78 d6 3c 31 f6 96 3d 21 11 fd 3c
       0.0010052394 0.026180344 0.07371176 0.030891957
000320 cd 7b 23 3d fd 16 96 3c 1b 50 9f bc 12 7c be bb
       0.039912988 0.018321509 -0.019447377 -0.00581313
000330 da f5 2e 3c 33 dc 2f bd da 42 a4 bc 6e f8 33 3d
       0.010678733 -0.042934608 -0.020051409 0.043938093
000340 f2 ce 08 3d 64 28 90 3d ca 44 11 bc 13 75 0d bd
       0.033400483 0.07038954 -0.008866498 -0.03453548
000350 8f 01 c4 bb f6 a6 f2 bc 1c db 84 bc f9 cb a4 3c
       -0.005981631 -0.029620629 -0.01621776 0.020116793
000360 22 2a 8a bb ee e5 00 bd 43 f6 a8 bc a7 52 f9 bb
       -0.0042164484 -0.031469278 -0.02062524 -0.00760873
000370 0d 66 d8 bc fc d8 08 bd 96 de 1c bd 32 03 e6 bc
       -0.02641585 -0.033410057 -0.038298212 -0.028077696
000380 fe 06 85 bc 47 43 f2 3c 2a 5c ac bb c4 e9 45 3b
       -0.016238686 0.029573096 -0.0052600102 0.003019915
000390 5d 77 f4 3c a4 3b e1 bc 8d 61 4c bd 8b 2a d7 bc
       0.029842073 -0.02749426 -0.04989772 -0.026265403
0003a0 5c 29 22 bd e6 83 53 bd a8 f3 ac 3c 40 dc c5 3c
       -0.039590225 -0.05163946 0.021112278 0.024152875
0003b0 19 13 5b bc 96 ad c8 bc 96 ec 06 bd c3 07 64 bd
       -0.013371252 -0.024496835 -0.03294047 -0.055671465
0003c0 2b 8c a4 bd c7 f5 48 bd e5 ed b7 bd 66 8b 47 3d
       -0.080345474 -0.049062517 -0.08980922 0.048716925
0003d0 8b a9 b2 3c 2c 13 d1 3c 0d c7 2e 3d 40 0d d9 3b
       0.02180936 0.025521837 0.0426703 0.006623894
0003e0 03 36 b3 3c d7 29 ff 3c 5f bc 08 3d cc 45 83 3c
       0.02187634 0.03114788 0.03338277 0.016024493
0003f0 c5 8c 74 bb b3 fd a5 bc fe f8 12 bd 92 ca ce bc
       -0.003731535 -0.020262575 -0.03588199 -0.025243077

onnx::Conv_93 f4 [64]
000000 14 ba 08 3c da 3a 80 3e 80 80 d4 3d 0a ea 66 bd
       0.008345146 0.250449 0.10376072 -0.05637554
000010 14 91 18 be 55 2e 99 3d 48 4f d5 3d 6e a0 4e be
       -0.14899093 0.0747954 0.10415512 -0.20178387
000020 ab 9e ee 3e 87 5d 68 be ec fa 83 bd 4d 28 6b be
       0.4660543 -0.22691928 -0.06444344 -0.22964592
000030 9e 5e e5 3d d2 fb a2 3d da f1 67 be b5 bb 14 be
       0.111996874 0.07958187 -0.22650853 -0.1452473
000040 b5 b9 a8 bc 19 01 d3 3e bd 66 00 3e b9 09 05 3e
       -0.020596365 0.41211775 0.12539192 0.1299199
000050 92 c6 60 3e ee 00 12 be d8 15 81 3c bf 92 97 3e
       0.21950749 -0.14258167 0.015757486 0.29604146
000060 ac e0 28 3c b0 e2 23 bd ea 19 a4 bd 70 6e c8 bd
       0.010307472 -0.040011108 -0.08012755 -0.09786689
000070 b4 a1 5f bd 99 01 99 bd c8 d4 8e bb ae 2f 67 bc
       -0.05459757 -0.07471008 -0.0043588616 -0.014110489
000080 08 2f 02 3e 8c d0 ae be 9d 79 c8 3c 16 e2 f0 3d
       0.12713253 -0.34143484 0.024472052 0.117618725
000090 9f a4 8f 3d bf cb 80 3e fe 48 8d 3d 21 8a d1 bc
       0.07013821 0.25155446 0.06898688 -0.02557856
0000a0 fd 42 a3 3d f3 86 3f bd 54 83 2e 3e e5 a1 75 bd
       0.079717614 -0.046759557 0.17042285 -0.059968848
0000b0 b0 1a 21 bf f7 c0 08 3e f0 53 76 be be f8 b3 3e
       -0.62931347 0.1335486 -0.24055457 0.35150713
0000c0 ea df 41 3e f7 d9 89 3c cf 74 ab 3d a3 37 51 3e
       0.18933073 0.016827567 0.08371889 0.2043138
0000d0 ce 02 a3 3d 77 8a ad 3e 7c 32 93 3d 7a 33 34 3e
       0.07959519 0.33894703 0.071873635 0.17597762
0000e0 a0 f9 ab 3a f4 24 03 be 57 50 c7 3e e4 ce ec bd
       0.0013120659 -0.12807065 0.38928482 -0.11562899
0000f0 68 35 32 bc ee 99 6f bc 89 5e 37 be e5 fc fa bd
       -0.010876991 -0.014624102 -0.17907156 -0.12255267
