model/item_que_pessoa_normalmente_usa_na_cabeca.onnx (onnx, 302121 bytes, 16 tensors)

fc.weight f4 [2, 256]
00000000: a987 5780 083c 5a80 66ca 5a80 66ca 5a80
00000010: 240c 0300 23dd 0500 9df2 0200 eb4b 0800
00000020: 3072 2b80 ddb1 4180 f62e 3b80 0f81 2580
00000030: 1d37 073e d2b8 033e 9e56 bb3d 1a14 b93d
00000040: df5f a280 e627 7480 7591 7780 d975 8880
00000050: 9c39 6bbe c2e7 99be 270d 5abe 2b43 8bbe
00000060: ce49 fe3d 16d4 ed3d dac3 603e 5088 593e
00000070: e988 b13d 9d8b 013e 2780 ad3e e302 b33e
00000080: 7e1f 0b00 1fdd 1400 7d9d 1700 048a 0e00
00000090: ffd3 15be e902 13be af54 88bd e2d6 9bbd
000000a0: b1f5 1d00 7dc9 1600 3c7a 1900 11df 0d00
000000b0: b68e 0e00 1eb9 0d80 ec74 1000 d13a 0580
000000c0: b632 0a80 6473 0a80 4e82 0b80 71f4 0a80
000000d0: d8e8 0880 048b 0a80 fdfc 0580 63ce 0980
000000e0: 8610 46be c9ae 4abe c3b9 2cbe 36a7 32be
000000f0: 3e40 1980 ebbb 1d80 4e8d 1680 5ea7 0a80
00000100: cef4 d13d 71be d83d ad58 b83e ced7 b83e
00000110: b65c 3300 9fd9 3400 f21b 1280 cc59 0e80
00000120: 0a43 1f00 8bc0 0900 b8ac 1000 7b95 2000
00000130: a44a 1980 077e 1900 f8e1 1980 be44 1800
00000140: f2d7 0180 501f 0180 c517 0280 6e2e 0180
00000150: f29e 1300 49af 1000 05a7 0d00 70c0 0580
00000160: f735 6abe f8b5 76be f9df 19be 2f0a 25be
00000170: 6304 0900 b81b 1080 9e17 0c00 473f 0580
00000180: 978c 0500 2d2c 0300 bf7c 0180 6676 1300
00000190: bdcc 7200 3de0 7100 d302 7200 d55f 7000
000001a0: 64fd 19be 5263 3ebe bd3b 7cbd cdcc b4bd
000001b0: 4726 1180 e3a2 1380 b809 1380 b4c4 0e80
000001c0: e67e 1380 c78a 0f80 0ff6 1480 7f7d 1080
000001d0: b530 0300 4cee 0500 85e7 0800 b15b 1500
000001e0: ff0d 0e00 98cb 0d00 2a6e 0900 22a4 0c00
000001f0: 0133 813e 3c11 813e 4e8c a23e 31dc 973e
00000200: bf9f 1e80 8e85 2d80 bf52 3080 404d 4580
00000210: 1207 0300 9a0f 0200 3886 0900 ff14 3880
00000220: 569d e73b ba55 c53c bd5a 243e 9f0c 403e
00000230: 1b6e 1ebe fc5b 13be e94f 1dbe cbcc 0cbe
00000240: 8739 3c00 0d27 3400 7188 2e00 28fe 3200
00000250: ab82 0180 9bbf 0480 3a02 0280 c515 0480
00000260: 2768 82bd 03cb b2bd 9ee1 21bd 6f06 81bd
00000270: 28dd 0f00 10c1 1000 edb6 0f00 0e96 0e00
00000280: f16e 1380 e882 0400 6ac8 1480 1e02 0d80
00000290: dcf6 cebc 91ca eebc a2df a5bc b344 c0bc
000002a0: 70e2 2d00 65d2 2900 2e16 2e00 9960 2e00
000002b0: d692 0280 daef 0780 35ac 0100 9b8c 0480
000002c0: ddba 2a00 8986 2f00 f037 2080 1f39 1980
000002d0: 5539 48be 5ef9 23be 5aed 11be fef7 f4bd
000002e0: b417 3080 0e00 2e80 7216 2f80 5518 2e80
000002f0: ac74 1d80 91f9 1980 d66e 1800 b810 1900
00000300: 1bcc 0700 5ddb 0500 27b4 0500 c6ae 0600
00000310: e58f 1480 e8ac 0a80 a809 0f80 db9a 0d80
00000320: 0ba8 932e 2c99 8c2e 5528 b82e e286 b52e
00000330: 7b9d 1800 42aa 1900 f794 1a00 eb96 1500
00000340: 038b 1780 f6f7 1580 0e6b 1980 8e5d 1a80
00000350: 1ff3 6680 7d79 7280 e5bc 8e00 66c0 8c00
00000360: e52e 2600 4b89 2700 10bd 2700 b5ef 2600
00000370: e3f3 a33c e68b a53c 290f ae3c 1824 b03c
00000380: 5fb3 41be d8f3 87be b105 52be e27a 8ebe
00000390: 93d7 203e 40f0 1b3e 34c2 343e e0f8 2b3e
000003a0: 165d 923e 053f 983e 2eed 833e 30b5 7d3e
000003b0: 5652 4500 be9a 3a00 23ae 4500 2534 4100
000003c0: 2aed 4980 4f09 4980 a21f 4b00 4dc6 4a00
000003d0: 39a0 3100 5307 3500 4f05 2700 3037 4600
000003e0: eb57 203e 196b 083e 5b8b ce3d 973b ab3d
000003f0: dc3e 27be 859a 3dbe f37b 2ebe 3683 34be
-8.038354e-39 -8.28673e-39 -8.337802e-39 -8.337802e-39 2.79862e-40 5.38506e-40 2.70704e-40 7.61918e-40
-3.989889e-39 -6.033113e-39 -5.43514e-39 -3.444211e-39 0.13204618 0.12863472 0.0914738 0.09037037
-1.4911742e-38 -1.066723e-38 -1.0980604e-38 -1.2531903e-38 -0.22971195 -0.3005963 -0.2129408 -0.27199683
0.12416421 0.11612718 0.21949711 0.21243405 0.08668692 0.12650914 0.33886835 0.3496314
1.021488e-39 1.916033e-39 2.168713e-39 1.335208e-39 -0.14631651 -0.14356579 -0.06656777 -0.07609345
2.751367e-39 2.092661e-39 2.339737e-39 1.273883e-39 1.336892e-39 -1.260269e-39 1.511312e-39 -4.80277e-40
-9.36547e-40 -9.5975e-40 -1.056935e-39 -1.006044e-39 -8.18213e-40 -9.68224e-40 -5.49933e-40 -9.00557e-40
-0.1934224 -0.19793238 -0.16867737 -0.17446598 -2.318933e-39 -2.730642e-39 -2.071071e-39 -9.78395e-40
0.10251771 0.10583199 0.36005154 0.36102146 4.716869e-39 4.853514e-39 -1.663064e-39 -1.31791e-39
2.87095e-39 8.95591e-40 1.531328e-39 2.99236e-39 -2.322663e-39 2.341097e-39 -2.37695e-39 2.228712e-39
-1.69302e-40 -1.03068e-40 -1.92198e-40 -1.08491e-40 1.801893e-39 1.532248e-39 1.253777e-39 -5.28211e-40
-0.22872148 -0.24092853 -0.15026845 -0.16117166 8.28093e-40 -1.479312e-39 1.110498e-39 -4.81877e-40
5.09612e-40 2.91354e-40 -1.36586e-40 1.787348e-39 1.0542693e-38 1.0457853e-38 1.047026e-38 1.0319954e-38
-0.15038067 -0.18592575 -0.06158041 -0.08828125 -1.574935e-39 -1.803307e-39 -1.748361e-39 -1.356261e-39
-1.790397e-39 -1.427316e-39 -1.924979e-39 -1.514387e-39 2.92979e-40 5.44662e-40 8.17738e-40 1.961438e-39
1.290718e-39 1.266897e-39 8.66039e-40 1.160906e-39 0.25234225 0.2520846 0.3174767 0.2966018
-2.812371e-39 -4.180508e-39 -4.437788e-39 -6.364361e-39 2.78043e-40 1.89268e-40 8.74668e-40 -5.15032e-39
0.0070683165 0.02408873 0.16050239 0.18754815 -0.1547169 -0.14390558 -0.15362515 -0.13749997
5.530767e-39 4.789455e-39 4.273379e-39 4.682949e-39 -1.3871e-40 -4.36077e-40 -1.8447e-40 -3.75151e-40
-0.06367522 -0.08730128 -0.039521806 -0.06300055 1.456868e-39 1.538626e-39 1.443154e-39 1.339526e-39
-1.784673e-39 4.14302e-40 -1.908605e-39 -1.194621e-39 -0.025264196 -0.029149326 -0.020248238 -0.023470258
4.213828e-39 3.84073e-39 4.23239e-39 4.259086e-39 -2.36346e-40 -7.28891e-40 1.53612e-40 -4.17782e-40
3.924125e-39 4.36453e-39 -2.958802e-39 -2.316379e-39 -0.1955312 -0.16013095 -0.14250699 -0.11961363
-4.416607e-39 -4.224452e-39 -4.32432e-39 -4.233162e-39 -2.705083e-39 -2.385415e-39 2.243812e-39 2.301885e-39
7.16068e-40 5.3787e-40 5.23804e-40 6.1371e-40 -1.88833e-39 -9.80382e-40 -1.380996e-39 -1.249413e-39
6.7146365e-11 6.393672e-11 8.374516e-11 8.254887e-11 2.260545e-39 2.356964e-39 2.441161e-39 1.982685e-39
-2.162084e-39 -2.017497e-39 -2.334291e-39 -2.421284e-39 -9.454436e-39 -1.0512828e-38 1.3108403e-38 1.2925989e-38
3.506571e-39 3.630836e-39 3.649407e-39 3.57574e-39 0.020013755 0.02020831 0.021247463 0.021501586
-0.18916081 -0.26553226 -0.20509984 -0.27828127 0.15707235 0.15228367 0.17652208 0.16794157
0.28586644 0.2973558 0.2576689 0.24776149 6.366186e-39 5.38197e-39 6.399118e-39 5.988013e-39
-6.78907e-39 -6.70733e-39 6.89901e-39 6.866964e-39 4.557416e-39 4.869909e-39 3.583489e-39 6.448282e-39
0.15658538 0.13322105 0.10085174 0.08360975 -0.16332573 -0.18515976 -0.1703947 -0.17628178

fc.bias f4 [2]
00000000: 7879 9abc 12e2 643c
-0.018856749 0.013969915

onnx::Conv_80 f4 [16, 3, 7, 7]
00000000: e5c3 453d 6e2a 0f3d f414 013d c9ec 753d
00000010: 37ec 5b3d 057b df3c 7e71 893b f397 a63c
00000020: 540a 62bc bb45 65bc 6780 dc3c 0cdd f43c
00000030: 3e95 36bc 2dd2 36bd 7595 c03c 2f82 8d3b
00000040: 40c0 f63b a944 083d f08a 3e3d 3fd4 eb3b
00000050: 3c6d 85bc f177 13bb 7987 893b a4ed 73bb
00000060: 4540 643c 5721 e13c 20d7 33bc b62d 00bd
00000070: 0dcd 4f3b c87a c23b 8956 803c 21d0 923c
00000080: d334 0e3d 9218 75bb f0d4 12bd 1554 9b3c
00000090: 0504 4e3c 8bea e03c 10f8 c23c 9c4e d43c
000000a0: e1cf 3cbc f203 f8bc 6d65 2a3c fd53 df3c
000000b0: c54c 473d 6da1 7d3d 5f98 1b3d e351 20bc
000000c0: 69fc 30bd 4f6e 0b3d d38d 533c f21a ecb8
000000d0: 32bb 0b3c d5f0 57ba 88ef edbb b1ba d7bc
000000e0: 559f da3c 2e54 b03a 719a 2cbc d8ea c3ba
000000f0: 3987 0bbb bdb8 b7bc edad 3fbd 86de 303d
00000100: 27d8 a43c 4e3d 163c 7a2d ab3c 2a16 bf3c
00000110: ba5e 353b bb7d 7ebc 181a 4b3c 22f0 1c3c
00000120: 9dbe 453b 43a0 e93b 2df1 a33c 803b 0f3c
00000130: 2f44 02bc 8276 a33c 86f4 873c 939d d63c
00000140: 83ac e53c 87f9 273d 5f59 ee3c a674 9939
00000150: 4990 143d 4088 e53c bf4d f33c 38ea e53c
00000160: 46f9 f13c 7750 a43c 01f1 033c 5f52 ee3c
00000170: 04c2 c13c 36d8 263d 79e1 223d 5087 f53c
00000180: f08d b7bb ba6a f3bc fefc d2bc 8144 3dbd
00000190: afb2 63bd 2a1a 2fbd 0ece 3dbd 0f41 4abd
000001a0: 9c69 50bd c853 a7bc f2b2 3dbd df54 7abd
000001b0: 1dc1 5abd aca0 47bd 7e64 6abd 4e0c 89bd
000001c0: 5332 08bb f628 f4bc 73ba 47bd e79a 26bd
000001d0: 8589 1ebd 49d2 53bd abd8 66bd a35c 9abc
000001e0: d0d4 afbc 36c1 3fbd c106 45bd 39a0 16bd
000001f0: ea09 4abd 75f0 63bd 4458 433b 9495 0dbc
00000200: 225a 83bc 6bad cabc 703b a8bc 455c 16bd
00000210: f25c 56bd c460 dd3c ce79 5b3c 7e5e 70bb
00000220: 247f bfbc b04e 02bd 348f 39bd d037 4cbd
00000230: 44a5 093d 3d99 bf3c 882a 553c 429f 723b
00000240: e563 c4bc 098f 6bbd b066 a0bd 209c fdbc
00000250: a51d cfbb a1f3 ad3c 3e58 843c 1562 f6bc
00000260: 134b bcbd cb6b e6bd f9d0 78bd c865 55bd
00000270: 63a1 1dbd daff b4bc 0094 19bd 8c38 bdbd
00000280: c099 a1bd 21c5 0d39 11fc 69bc 7cc3 8ebc
00000290: 56a1 5abc 038d d0bb d515 66bd 9bb6 82bd
000002a0: 0656 f2ba 605d 79b9 01a4 b6bc 40d7 acbc
000002b0: d13d 2539 ddc1 14bd 7f8f 49bd 38a8 f13c
000002c0: 724d 223c ae57 d1bb 184a f03b 1b57 003c
000002d0: c5cc 8cbd df29 87bd f90c 333c 6fb0 e93b
000002e0: b793 7e3c aa6c 553c 5b75 9eba f8ab a5bd
000002f0: 2a13 c1bd b7d4 ae3c c7b2 043d c893 1b3d
00000300: 6688 2f3d ff88 bc3c c196 79bd ca85 4dbd
00000310: edb3 1e3d 08b5 0d3d 3725 333d b641 a53c
00000320: 78ca 4bbc 6f5c a2bd a44a c4bd ca36 653d
00000330: 1c64 a53d 4c84 963d 10a6 8b3d 0e8b 653d
00000340: 90b3 b23b b1a3 c1bb 2a92 bc3d bbc4 df3d
00000350: 8632 a93d 3b2f a73d 2ad5 c83d 2109 793d
00000360: 7f38 ee3c 66e8 753d 647c 7a3d d21e 353d
00000370: 2839 803d e90b b23d a4fc 8d3d 4fa3 8b3d
00000380: 04b6 693d f6ed 143d 585b d93c 11c1 6c3d
00000390: fd67 8e3d 27e6 1d3d ad39 1b3d 532b 0a3d
000003a0: efb9 613c 10aa 803c 3e43 203d 7a92 4b3d
000003b0: 6eeb fb3b f7b1 513c 860d 733c 270e 223c
000003c0: 06a3 5f3c b6ce dc3c 849c 1c3d c6b6 663c
000003d0: e23e b13c a200 dfbc d87d 97bc 2f87 1dbd
000003e0: ea3b 1abd 4620 7dbd 19c4 c8bd 2a71 b8bd
000003f0: aaa7 22bc 342d 40bc 7678 d9bc 202a 0fbd
0.048282523 0.034952573 0.031514123 0.06004027 0.05369207 0.02728034 0.0041944375 0.020336127
-0.013796408 -0.013993676 0.026916696 0.02989056 -0.011143981 -0.044634033 0.023508767 0.0043184976
0.007530242 0.033268604 0.04651922 0.0071969326 -0.016287439 -0.002250191 0.004197058 -0.0037220502
0.013931339 0.027481718 -0.010976583 -0.031293593 0.0031707913 0.005935047 0.015666263 0.01792151
0.034718346 -0.0037398678 -0.035847604 0.018960992 0.0125742005 0.027455589 0.023799926 0.02591639
-0.011524172 -0.030275319 0.010400158 0.027261728 0.048657198 0.061921526 0.03798711 -0.009785148
-0.043209467 0.034040745 0.0129122315 -0.00011258376 0.008528518 -0.0008237486 -0.0072612204 -0.026334139
0.026687304 0.0013452822 -0.010534869 -0.0014947308 -0.0021290316 -0.022426957 -0.046796728 0.043180965
0.0201226 0.00916989 0.020895708 0.023325998 0.002767487 -0.015532906 0.012396358 0.0095787365
0.0030173429 0.0071297004 0.020012463 0.008742213 -0.007950827 0.01995397 0.01659609 0.026198184
0.028036362 0.041009452 0.02909535 0.00029269344 0.036270414 0.02801907 0.029700158 0.028065786
0.029537808 0.0200579 0.008053065 0.029092012 0.023652084 0.04073354 0.03976581 0.029971749
-0.005601637 -0.029713977 -0.025755402 -0.04620791 -0.055590328 -0.04274956 -0.046339087 -0.04937845
-0.050881967 -0.020425692 -0.046313234 -0.061116096 -0.053406823 -0.048737213 -0.057224743 -0.066918
-0.0020781949 -0.029804688 -0.048761796 -0.04067507 -0.038705368 -0.051714215 -0.056358974 -0.018843
-0.021463782 -0.04681512 -0.048102144 -0.036773894 -0.04932586 -0.05564924 0.002980725 -0.008641619
-0.01603419 -0.024740895 -0.020536155 -0.03670909 -0.052334733 0.02702368 0.01339574 -0.0036677415
-0.023376055 -0.031813323 -0.045302585 -0.049857914 0.033604875 0.0233885 0.0130106285 0.0037021195
-0.023973415 -0.057509456 -0.07832086 -0.030958235 -0.0063206726 0.021234335 0.016155358 -0.030076066
-0.09194007 -0.112510286 -0.060746167 -0.05209902 -0.03848399 -0.022094656 -0.03749466 -0.09239301
-0.078906536 0.00013520244 -0.014281289 -0.017427199 -0.01334413 -0.006364466 -0.056173164 -0.063824855
-0.0018488772 -0.00023781275 -0.022295 -0.021098733 0.00015758655 -0.036317695 -0.049209114 0.029499158
0.00990616 -0.006388626 0.0073330514 0.007833268 -0.06874994 -0.06599783 0.010928386 0.007131628
0.015538148 0.013026396 -0.0012089418 -0.08089441 -0.094274834 0.021341665 0.032397058 0.037982732
0.04285469 0.023014544 -0.060934786 -0.05017642 0.03874581 0.034596473 0.043736663 0.020172935
-0.012438409 -0.079277866 -0.09584549 0.055960454 0.08075735 0.073494524 0.06818783 0.056040816
0.0054535344 -0.005909406 0.09207566 0.10926195 0.0826159 0.08163305 0.09806283 0.06079972
0.029079674 0.060036086 0.061153784 0.044218846 0.06260902 0.08693678 0.06932953 0.06818258
0.05705835 0.03635975 0.026532814 0.05780131 0.06953428 0.03854957 0.0378968 0.033732723
0.01377724 0.015706092 0.039126627 0.049700238 0.0076879775 0.012798778 0.014834767 0.0098910695
0.013649708 0.026954036 0.038235202 0.0140816625 0.02163643 -0.027221981 -0.018492624 -0.038459
-0.037654795 -0.061798356 -0.09803028 -0.09005959 -0.00992767 -0.011729527 -0.026546698 -0.034952283

onnx::Conv_81 f4 [16]
00000000: 6eee 953c c864 47be 89db 21bf 3b94 1d80
00000010: 060d a4be 941a 16be 5a3c fc3e a445 143f
00000020: 6c1a 843d 1ccf e8bd a270 153d e270 8a3e
00000030: eff0 123e 5a29 98bd 60b9 603e b461 bfbd
0.018302169 -0.19472039 -0.6322561 -2.716404e-39 -0.32041186 -0.14658576 0.49264795 0.57918763
0.06450352 -0.11367628 0.03648437 0.27039248 0.14349721 -0.07429762 0.21945715 -0.09344807

onnx::Conv_83 f4 [32, 16, 3, 3]
00000000: c58c 9ebb 3957 54bc 5914 253a 9ea5 903c
00000010: dc9f 843c 2cd5 473c c047 1d3d e6d9 4f3d
00000020: ce1e ed3c 8386 873b 05ac c1bc 70f6 32bc
00000030: ecc5 113d 4b68 8aba 0759 5cbb 1215 153d
00000040: 84db e13c 30ae 043c 8098 ac3c 7674 0c3d
00000050: 3876 8a3b 7b64 77bc a5bc b5bc 75b9 4dbd
00000060: 4c26 e5bc e097 3abd fcf2 a6bd e2b3 1380
00000070: cb76 1d80 2c19 1b80 c300 2000 9a2d 1d00
00000080: 3de2 1e00 ba0a 1c00 cc86 2600 d317 1480
00000090: 2bd8 533b ac35 5abd 764b 8ebd b2bc a2bc
000000a0: efa8 efbc 407e 30bd d978 0dbd 090c 42bc
000000b0: 22ed 103d 41e5 acba eeb7 093b 6048 753a
000000c0: 775e 99b9 3def bc3a d7d8 1d3b 2146 c23a
000000d0: 5eea 053b 451f 6c3b 367f c6bc 6bf9 b3bc
000000e0: 7e97 16bc cdd6 0dbd 9a70 dabc 8c2d 643c
000000f0: 6746 2cbd 423b 75bc eae3 4a3d 47f2 bbbd
00000100: 0a06 80bd 9f58 85bd 185e 84bd d9ff 4abd
00000110: faa3 edbc 8f02 99bd f821 4dbd 502c 7a3c
00000120: 335c 233d 8e1f d3bb cdab 88bd 1310 133d
00000130: a6dc c73b 962c 03bd 5dda 20bc dbe9 543b
00000140: ea9c 06bc 0c35 e33c 2b30 1d3d e238 8cbc
00000150: 6e24 febc 0c75 05bc 2aa5 3dbd b7f8 3fbc
00000160: 4ca5 97bc febc 47bd 14e5 d3b9 3bed 883c
00000170: 95a1 1f3c 8b8a 05bc 0e63 343c 04c1 333a
00000180: d0ee b4bc 885d 15bc 0864 bbba 4acd 6ebd
00000190: d023 743c c225 1a3c 177a b5bc 7eac a93c
000001a0: f38f b8bc 517d 7d3b 1d80 d2bc d88e 233b
000001b0: 2f99 36bd 8119 5c3d ca19 883d b1b3 47bc
000001c0: f5a9 8a3c 3da6 d73c af5a cfbc d5aa e7bc
000001d0: 4d10 7abd 73c4 70bb 641d 9e3d 8342 86bb
000001e0: 01f2 423c ddfa 753c b4b0 90bd 886d caba
000001f0: a33e dbbc 9706 26bc 30dc fb3c 3dcc a23c
00000200: 58a3 773b 77a6 453c 0f1d 993b 596f a93c
00000210: d017 5dbc a4d2 9239 46b0 f73c 0059 393d
00000220: 981a 963b 35ff d1bc 7d75 a43c 6565 6dbc
00000230: c5ca 143d fc14 17bd 54be 8ebc e7a7 f73d
00000240: 0000 0000 0000 0080 0000 0080 0000 0000
00000250: 0000 0080 0000 0080 0000 0000 0000 0080
00000260: 0000 0080 0000 0000 0000 0080 0000 0080
00000270: 0000 0000 0000 0000 0000 0080 0000 0000
00000280: 0000 0000 0000 0000 0000 0080 0000 0000
00000290: 0000 0000 0000 0080 0000 0000 0000 0000
000002a0: 0000 0000 0000 0080 0000 0080 0000 0000
000002b0: 0000 0000 0000 0000 0000 0000 0000 0000
000002c0: 0000 0000 0000 0000 0000 0000 0000 0080
000002d0: 0000 0080 0000 0080 0000 0080 0000 0080
000002e0: 0000 0080 0000 0000 0000 0080 0000 0080
000002f0: 0000 0080 0000 0000 0000 0000 0000 0080
00000300: 0000 0000 0000 0000 0000 0080 0000 0000
00000310: 0000 0000 0000 0080 0000 0000 0000 0080
00000320: 0000 0080 0000 0080 0000 0080 0000 0080
00000330: 0000 0080 0000 0080 0000 0080 0000 0000
00000340: 0000 0080 0000 0000 0000 0000 0000 0000
00000350: 0000 0080 0000 0080 0000 0080 0000 0080
00000360: 0000 0000 0000 0000 0000 0080 0000 0000
00000370: 0000 0000 0000 0000 0000 0000 0000 0080
00000380: 0000 0080 0000 0000 0000 0080 0000 0080
00000390: 0000 0080 0000 0080 0000 0080 0000 0080
000003a0: 0000 0080 0000 0000 0000 0000 0000 0080
000003b0: 0000 0000 0000 0000 0000 0080 0000 0080
000003c0: 0000 0080 0000 0080 0000 0080 0000 0080
000003d0: 0000 0080 0000 0080 0000 0080 0000 0080
000003e0: 0000 0080 0000 0080 0000 0080 0000 0080
000003f0: 0000 0000 0000 0080 0000 0080 0000 0000
-0.0048385584 -0.012960249 0.00062972825 0.017657097 0.016189508 0.01219682 0.038398504 0.050744914
0.028945353 0.004135908 -0.023641596 -0.010923013 0.035589144 -0.0010559646 -0.00336224 0.036397047
0.027570494 0.00809817 0.021068811 0.034290753 0.0042255186 -0.01509964 -0.02218468 -0.050225694
-0.027972363 -0.045554996 -0.08151814 -1.809404e-39 -2.705844e-39 -2.488588e-39 2.939009e-39 2.679588e-39
2.836224e-39 2.575242e-39 3.538105e-39 -1.845256e-39 0.003232489 -0.05327384 -0.06947987 -0.019865368
-0.029255359 -0.04308915 -0.034539077 -0.01184369 0.035382397 -0.0013190882 0.0021014172 0.0009356793
-0.00029252816 0.001441456 0.0024085545 0.0014821925 0.0020433883 0.003602938 -0.02423058 -0.021969518
-0.009191392 -0.034628678 -0.02666502 0.013926875 -0.04205933 -0.014967741 0.049533762 -0.0917707
-0.06251152 -0.06511044 -0.064632595 -0.0495604 -0.029008854 -0.07471191 -0.050081223 0.015269354
0.03988285 -0.0064429706 -0.066733934 0.035904 0.0060993014 -0.032024942 -0.009817687 0.0032488022
-0.008216122 0.027735256 0.038376015 -0.017116968 -0.03102323 -0.008145582 -0.04630009 -0.011717013
-0.018511437 -0.04876422 -0.00040415733 0.016714683 0.009743114 -0.008150707 0.011009945 0.00068570697
-0.02208653 -0.009116538 -0.0014296779 -0.058301248 0.0149011165 0.009408416 -0.022152944 0.020712133
-0.022529578 0.003867943 -0.025695855 0.0024956968 -0.04457968 0.05373526 0.06645544 -0.012188838
0.016926745 0.026324386 -0.025311796 -0.028279701 -0.061050702 -0.0036738187 0.077204496 -0.0040972843
0.011898519 0.015013424 -0.070649534 -0.001544402 -0.026763266 -0.010133407 0.030744642 0.019872779
0.003778657 0.012063614 0.0046726535 0.020682978 -0.013494447 0.0002800423 0.03023542 0.045250893
0.004580807 -0.025634388 0.020075554 -0.014489506 0.03632619 -0.036885247 -0.01742474 0.12092572
0.0 -0.0 -0.0 0.0 -0.0 -0.0 0.0 -0.0
-0.0 0.0 -0.0 -0.0 0.0 0.0 -0.0 0.0
0.0 0.0 -0.0 0.0 0.0 -0.0 0.0 0.0
0.0 -0.0 -0.0 0.0 0.0 0.0 0.0 0.0
0.0 0.0 0.0 -0.0 -0.0 -0.0 -0.0 -0.0
-0.0 0.0 -0.0 -0.0 -0.0 0.0 0.0 -0.0
0.0 0.0 -0.0 0.0 0.0 -0.0 0.0 -0.0
-0.0 -0.0 -0.0 -0.0 -0.0 -0.0 -0.0 0.0
-0.0 0.0 0.0 0.0 -0.0 -0.0 -0.0 -0.0
0.0 0.0 -0.0 0.0 0.0 0.0 0.0 -0.0
-0.0 0.0 -0.0 -0.0 -0.0 -0.0 -0.0 -0.0
-0.0 0.0 0.0 -0.0 0.0 0.0 -0.0 -0.0
-0.0 -0.0 -0.0 -0.0 -0.0 -0.0 -0.0 -0.0
-0.0 -0.0 -0.0 -0.0 0.0 -0.0 -0.0 0.0

onnx::Conv_84 f4 [32]
00000000: adf3 e53d fd79 2d80 7456 3e3e c7c4 1f3e
00000010: 3f90 c53d 2480 5b3d 4f36 0080 5adb 4b3d
00000020: 6aba d03d 23be c7bc b20d 0380 b6ab 513e
00000030: f0d4 b13d 18cc 4f3e 24b4 1ebd dd0a 3ebe
00000040: 7bdb 1980 ceb9 2b80 6744 b63d f25a 213e
00000050: 2284 4e3e 6af0 1680 80f1 7c3d 72ce 0580
00000060: b8df 0c3d ecad edbd f205 8d3d fae4 1580
00000070: 29ea 91be a1d7 2180 2060 b4bb d6f1 1680
0.11228118 -4.176358e-39 0.18587667 0.15602408 0.096466534 0.053589 -1.9482e-41 0.049769737
0.10191806 -0.024382656 -2.8042e-40 0.20475659 0.08683193 0.202927 -0.038746014 -0.18558832
-2.374622e-39 -4.01558e-39 0.088997655 0.15757349 0.20167592 -2.106625e-39 0.06175375 -5.33236e-40
0.034393042 -0.116054386 0.068858996 -2.010687e-39 -0.28498963 -3.107924e-39 -0.005504623 -2.107135e-39

onnx::Conv_86 f4 [32, 32, 3, 3]
00000000: 20a1 a4bc 55c7 f4bd 92a2 903b 0d88 09bd
00000010: e1cf 81bc 2b8c 013e 9fda 6bbe 4a23 d83c
00000020: 641e 3f3e db74 9d00 d5ae 1f00 7b9a 0a01
00000030: 98ac da00 e311 8800 441b 0280 d188 0701
00000040: 9656 7380 9218 0e80 972a ddbd 1ed2 8fbe
00000050: e78e f7be 0082 223e 0e87 bfbc 346f dfbc
00000060: e888 793e b850 613e e00e a63e 2779 ff3d
00000070: d7df a6bd acc2 bdbd 19cb 853e 2fe4 f53d
00000080: 44b1 933c 74ff f83e 9713 eb3d 3eb4 e93c
00000090: bb25 d1bd 2be7 54bd 9b91 afbd 4d6c f5bc
000000a0: c9ea 44bd c9df e4bc 62e4 b33d 14c3 d5bc
000000b0: b296 bf3d 5926 a33b a86f 01be d402 81be
000000c0: baa0 013e 2cfd 063e a38a 8fbd 5777 76be
000000d0: 0862 2fbe cfc5 bc3e b687 6d80 ad73 6980
000000e0: 0c6e f380 4dea df80 e6f3 c480 bbe6 1e00
000000f0: da8f c180 1c1e 8e80 6fb9 2c00 7e31 04be
00000100: 9a9f 3d3d 6edf 963d 5c87 653d 1301 2b3d
00000110: dac5 503d ea15 b23d afbe d6bd 4a6a 86be
00000120: cb8e 83be 9173 10be 2efe 44bb ef2f 03bd
00000130: c692 8b3d 93ee 143e a51b b9be 59ff 69be
00000140: 371b 0abe cb2a 72be d28e 34be 7399 25be
00000150: 5097 163d c470 b4bd 0030 a5be a3a7 4bbb
00000160: d320 f6bd 20fe acbe b876 5f80 8633 7a80
00000170: 452c 6680 9e13 2480 2a03 1080 31e0 3280
00000180: d5fc 0b00 90da 4280 a0bb 1200 ddee 44bd
00000190: 359f a23d 7a4a b93e cce2 fd3e 0081 213e
000001a0: 7091 c1bd 627b da3e 14b6 ab3a 30ae 0bbf
000001b0: f455 1f3d d805 08bd d23e 573d 24b6 7e3e
000001c0: 49e1 553e b17d a53e ca8f 893e 68fc 1d3e
000001d0: 6fad 403e fca6 52bc 4f44 3f3e f878 cbbc
000001e0: 8cd5 f1bb f072 473e c5cd 3ebd cbe5 a13e
000001f0: 03c5 be3e 28d8 583d 7c80 f0bd 2e8c b8be
00000200: 3113 b7be a769 cd3b e0c6 043d c731 aa3d
00000210: d731 143e e878 6d3e a455 523e a5b2 393e
00000220: 9814 11bd 51d4 e13d 986a a3bd 3f57 4a3d
00000230: 6bce 603d bbe7 b3bd 1e89 dabd 0d43 253e
00000240: 5012 2f01 8c0d c300 be83 f200 7238 1e01
00000250: 9c90 5300 0a29 0d80 d44d ad00 b144 2a00
00000260: e597 3581 ec51 8c81 3809 cb81 fa4f 3401
00000270: 5594 8c01 c9a5 0401 f2b7 df00 6f9b 0701
00000280: c212 8f01 7a44 d400 b6da 04bc 7c9f 623c
00000290: c07c 9dbc 6240 f9bd 2562 20bd f505 723d
000002a0: d146 2ebe baba 973d a64d 913e d2e3 dbbe
000002b0: 75cd c2be 34f9 babe 42ca 33bc b169 ecbc
000002c0: b15a 16be 4bf9 863e 9831 ca3d 676a 30be
000002d0: f982 9ebe 1394 4ebe b275 90be 21b2 1ebe
000002e0: f0ab 03be de6d 92be 6f82 30be 02c0 90be
000002f0: a72c 85be d8ff bc80 d313 9780 d6fb bf80
00000300: 48e6 1380 92c5 5280 88df 2300 92f6 0100
00000310: daa3 1100 f8d0 1480 e4d8 f0bd 129d 9abe
00000320: a07a 08be bb1b 233e b3d7 0dbe 6e3c c2be
00000330: a1d3 c83e d60c c83d dded 42be d18e 0a80
00000340: 0495 4b80 c933 2880 fb14 7e00 fe59 2180
00000350: bdcb 6e80 0317 5480 04a4 4c80 ce66 0480
00000360: 3398 41be 5824 b1bd 0ada 903e 4a4f 803e
00000370: 710a b03e dc90 bb3e 1421 d5bc 6495 f73b
00000380: 0b56 e63d ba1d 34be 1859 c6bd d94c 59bd
00000390: 0dd2 a4bc d62f 093d 1e64 d7bc 24f0 b2bd
000003a0: bcc1 6bbc 0eed 0a3d 942e 93bc 9bfb 6fbe
000003b0: 3b94 8abe 5c64 9d3e 8438 123d 9fc8 543d
000003c0: 9d3a 2d3e 4cdb f93d 6535 543e c661 b780
000003d0: d397 3380 b67c 9680 1c90 9d00 c94c 5d00
000003e0: 15ab 5d00 359a 4800 b005 1300 2130 cf00
000003f0: 89c3 49bd 8cc7 153c a4dc b4bd 6ce6 d9bb
-0.020096362 -0.11952082 0.004413911 -0.033577014 -0.015846195 0.12651126 -0.23032616 0.026384015
0.18663937 1.4460093e-38 2.909618e-39 2.545743e-38 2.0082053e-38 1.2496044e-38 -1.93452e-40 2.4893745e-38
-1.0592143e-38 -1.294511e-39 -0.10799139 -0.28089994 -0.48351213 0.15869904 -0.023379829 -0.027274705
0.24368632 0.22003448 0.32433224 0.1247428 -0.08148163 -0.09265646 0.26131514 0.12006413
0.018028863 0.48632395 0.11478346 0.028528329 -0.10212275 -0.05197827 -0.08572694 -0.029958868
-0.04807547 -0.02793874 0.08783795 -0.026093997 0.09354915 0.0049789366 -0.1264025 -0.2519747
0.12658969 0.13182515 -0.07008865 -0.24068962 -0.1712724 0.36869666 -1.0058753e-38 -9.684224e-39
-2.2355503e-38 -2.0563367e-38 -1.8087252e-38 2.837835e-39 -1.7775855e-38 -1.3051442e-38 4.107283e-39 -0.12909505
0.046294786 0.073668346 0.056037292 0.04174907 0.050969936 0.08695586 -0.10485589 -0.26252967
-0.2569488 -0.14106585 -0.003005873 -0.032028135 0.06815104 0.14544134 -0.36153904 -0.22851314
-0.13486944 -0.23649137 -0.17632607 -0.16171817 0.036765397 -0.08810571 -0.32263184 -0.003107526
-0.120179795 -0.33787632 -8.76696e-39 -1.1222414e-38 -9.383102e-39 -3.313115e-39 -1.470503e-39 -4.6722e-39
1.10089e-39 -6.139548e-39 1.720346e-39 -0.04807936 0.079405226 0.36189634 0.49587095 0.15771866
-0.09451568 0.4267226 0.0013100528 -0.54562664 0.03890033 -0.033208698 0.052550144 0.24874169
0.2088672 0.32322457 0.26867515 0.15428317 0.1881616 -0.012857195 0.18678401 -0.024837956
-0.007380193 0.19477439 -0.046582956 0.3162063 0.37259683 0.052940518 -0.117432564 -0.3604445
-0.3575683 0.0062686983 0.032416224 0.083102755 0.14472137 0.23190653 0.20540482 0.18134554
-0.03542003 0.11026824 -0.079793155 0.04939961 0.054884356 -0.087844335 -0.10670684 0.16138859
3.2155562e-38 1.7912781e-38 2.227145e-38 2.9060514e-38 7.674222e-39 -1.208583e-39 1.591546e-38 3.881733e-39
-3.3353429e-38 -5.154543e-38 -7.458365e-38 3.311816e-38 5.1640724e-38 2.4363516e-38 2.0545303e-38 2.4907102e-38
5.255682e-38 1.949369e-38 -0.008108785 0.013831969 -0.019224524 -0.12170483 -0.039156098 0.059087712
-0.17019202 0.07408662 0.28379554 -0.4294725 -0.38047376 -0.36518252 -0.010973515 -0.028858991
-0.14683034 0.2636207 0.098727405 -0.1722809 -0.309593 -0.20173673 -0.28214794 -0.15497638
-0.12858558 -0.28599447 -0.17237256 -0.2827149 -0.2601063 -1.7356853e-38 -1.3874272e-38 -1.7630921e-38
-1.827484e-39 -7.601386e-39 3.29443e-39 1.80288e-40 1.619982e-39 -1.911674e-39 -0.117601186 -0.3019796
-0.13328028 0.15928547 -0.13851814 -0.3793673 0.3922396 0.09768073 -0.1903605 -9.69588e-40
-6.941119e-39 -3.691997e-39 1.1578799e-38 -3.062854e-39 -1.0174992e-38 -7.722437e-39 -7.038335e-39 -4.04221e-40
-0.18905716 -0.0864951 0.2829135 0.25060493 0.34382966 0.36633956 -0.02601675 0.0075556505
0.1124688 -0.17589465 -0.09684962 -0.053051803 -0.020119691 0.033492886 -0.026292857 -0.087372094
-0.014389452 0.03391748 -0.017966546 -0.23435824 -0.27066216 0.3074063 0.03569843 0.05194914
0.1691689 0.12200031 0.20723493 -1.684097e-38 -4.738075e-39 -1.3820062e-38 1.446987e-38 8.568246e-39
8.602074e-39 6.667475e-39 1.746915e-39 1.9027213e-38 -0.049258742 0.009141814 -0.08831146 -0.006649783

onnx::Conv_87 f4 [32]
00000000: 6a4e 87bd c0e9 df3c aa21 4abe ad4b 9a3d
00000010: 2fb1 a2bd b0fc 0b80 8ce2 c83e 4fe8 1480
00000020: 54fe 8b3e 865b 1780 3614 8ebc 961a 1e80
00000030: a713 fc3d 040b 32bd b0d3 77bc 68aa 0380
00000040: 0aa8 a83c e233 0880 048b 703e c916 673e
00000050: 8af0 0480 aab6 9e3e 8980 e83e 80c2 94bc
00000060: 2581 0180 e49d 803d 246f 0980 febd ee3d
00000070: d083 803e 3134 4a3c 9d13 8bbe 785d 593e
-0.06606753 0.02733314 -0.19739404 0.07533965 -0.07943951 -1.100838e-39 0.39235342 -1.920047e-39
0.27342474 -2.145049e-39 -0.017343622 -2.764602e-39 0.12308436 -0.043467537 -0.015126154 -3.36637e-40
0.02058794 -7.53296e-40 0.2349053 0.22567286 -4.53631e-40 0.30998737 0.45410565 -0.018159151
-1.38164e-40 0.06280115 -8.66389e-40 0.11657332 0.25100565 0.012341545 -0.271634 0.21227062

onnx::Conv_89 f4 [32, 16, 1, 1]
00000000: dece 733d a10e cbbd 6f55 c6bd 6edd 3480
00000010: f217 f7bd 77c6 003b 8dae a13d e873 833c
00000020: 174b 4d3d 461a e43c 6441 453d 2799 1abd
00000030: 671b 7cbe 5bfe 4c3d 640a 813e eb95 143e
00000040: 5009 e7bd 7f91 bf3e 663d 8f3e daba 2800
00000050: b10e 90bc b3d1 663d c614 b3be 779a 043e
00000060: e1d8 533d d2db 923d ba18 37be d328 97bc
00000070: 3605 bc3d bf8b 513d 9ebb 55be 899a 8a3d
00000080: 9f01 4e3d 044f 1bbd ff71 33bd d22c 1f00
00000090: 8a66 c9bc 479c 593c 66b2 b6bd 682a 8cbe
000000a0: 9407 46be a231 78be 98d9 b1bb dbf2 c5bc
000000b0: 6be7 2f3d 1b58 3c3c 6622 e63c e8ae ea3c
000000c0: a252 11be 708a 9fbe c2c7 d5be c0bd 6d80
000000d0: 2d2f 813d 867e cabb 4738 b13d 6d8a 8c3d
000000e0: e3c0 bebd af74 bebd d8da 513e b5c2 013e
000000f0: 1c2c 163e 9b75 263e c667 10be 8fde f9bd
00000100: 03a3 003e cadb 1c3e 4447 acbe 9199 5e80
00000110: 770b 493c 51a2 8dbc adc4 bf3d b9c2 703e
00000120: 6b07 8b3e ac10 bb3a 41ab 2f3c 11ac 48bd
00000130: f012 a3bd 47a0 d73d 5087 7b3d 9843 5ebd
00000140: 0000 0000 0000 0000 0000 0000 0000 0000
00000150: 0000 0000 0000 0000 0000 0080 0000 0000
00000160: 0000 0080 0000 0080 0000 0000 0000 0000
00000170: 0000 0080 0000 0000 0000 0000 0000 0000
00000180: 7cbc 013c 63cc 9cbd 8777 543b 277a 0500
00000190: 6e02 f7bd 8c62 8f3b f995 a1bd 3299 68be
000001a0: 358f 07be 07ef 0dbe 1153 a7bd d25c 8dbd
000001b0: 68a4 e7bc e201 f9bd 1452 3ebd 6aa0 9d3d
000001c0: 0000 0080 0000 0080 0000 0000 0000 0080
000001d0: 0000 0000 0000 0080 0000 0000 0000 0080
000001e0: 0000 0080 0000 0000 0000 0000 0000 0080
000001f0: 0000 0000 0000 0000 0000 0000 0000 0000
00000200: 18a3 cdbc 405f 97bc 15be 40bd 9617 0b80
00000210: 77b5 473d 5d3d 83ba c22c d6bc b448 33bc
00000220: 5342 e73c 67f3 ff3c e69e 7dbc 4b26 cd3a
00000230: f652 503c 713c 8f3b a3e0 6c3a 7d75 de3c
00000240: 0000 0000 0000 0080 0000 0000 0000 0080
00000250: 0000 0080 0000 0000 0000 0000 0000 0080
00000260: 0000 0000 0000 0080 0000 0080 0000 0000
00000270: 0000 0000 0000 0000 0000 0000 0000 0000
00000280: 1a9c c03c 5d3a a1bc b8aa 80bc cd77 1e80
00000290: 9422 e1bc ab99 c739 4b2f 38bc 2b32 903c
000002a0: c6a5 cbbb 8a85 763d a77f f8ba 8575 5abc
000002b0: c10e 97bd c982 b4bc 0db2 143a b401 5d3d
000002c0: 0000 0000 0000 0000 0000 0080 0000 0000
000002d0: 0000 0080 0000 0000 0000 0080 0000 0000
000002e0: 0000 0080 0000 0000 0000 0080 0000 0080
000002f0: 0000 0080 0000 0080 0000 0080 0000 0000
00000300: a4c0 afbc 735d f6bb de99 b1bc 0add 2d80
00000310: e31e e53d c627 c33b ff0f 933d 4fe9 cebc
00000320: 05c0 eebc 5001 06bc 5ea4 0ebd dcf0 32be
00000330: 7e98 3d3d bd9b ffbd 8e87 2abd e8f4 59bc
00000340: 1e2f f53d 800c ff3e a90b 76be bada 8480
00000350: 71c7 dfbc b8a7 39bc f554 28bd c423 99bd
00000360: 6c7f 84be 2b0d f6bc 5b6c 993d 364c 433e
00000370: c218 b4bd b186 223e b0d2 66bc 733b 95be
00000380: fa9b 1abe 2aef bf3d ade3 1cbe be10 3980
00000390: f8aa 80bd 9506 80bc d288 cfbd 7311 053e
000003a0: 30ce adbd 11b2 37be 542c 97bd 161e 203d
000003b0: 6ab1 963c 2797 9abc 6629 963c 065b 273c
000003c0: 0000 0000 0000 0080 0000 0080 0000 0000
000003d0: 0000 0000 0000 0000 0000 0000 0000 0000
000003e0: 0000 0000 0000 0080 0000 0080 0000 0000
000003f0: 0000 0000 0000 0080 0000 0000 0000 0000
0.059523456 -0.099148996 -0.09684264 -4.85488e-39 -0.12065114 0.0019649544 0.07894621 0.01604648
0.05012044 0.02784456 0.048158064 -0.037743714 -0.24619828 0.05004726 0.2520324 0.14510314
-0.11281073 0.37415692 0.2797653 3.74045e-39 -0.01758513 0.05635233 -0.34976786 0.12949549
0.051720504 0.07170834 -0.17880526 -0.018452084 0.091806814 0.051158663 -0.20872352 0.067677565
0.050294515 -0.037917152 -0.043809887 2.862979e-39 -0.024585027 0.013281888 -0.089207456 -0.27376103
-0.19338828 -0.24237683 -0.0054275505 -0.024163654 0.042945307 0.011495615 0.028092574 0.028647855
-0.14191678 -0.31160307 -0.41753966 -1.0078139e-38 0.06307826 -0.0061796336 0.08653312 0.0686234
-0.09314134 -0.092995994 0.20493639 0.12671931 0.14665264 0.162558 -0.14102086 -0.12200653
0.12562184 0.15318218 -0.3364812 -8.687626e-39 0.0122708 -0.017289313 0.09363685 0.23511781
0.27154097 0.0014271936 0.010721982 -0.04899222 -0.079625964 0.10528617 0.06140834 -0.05426368
0.0 0.0 0.0 0.0 0.0 0.0 -0.0 0.0
-0.0 -0.0 0.0 0.0 -0.0 0.0 0.0 0.0
0.007918473 -0.07656171 0.0032419877 5.02997e-40 -0.1206101 0.0043757614 -0.07889933 -0.2271469
-0.13238223 -0.13860713 -0.081701405 -0.0690247 -0.028276637 -0.12158562 -0.046464995 0.07696612
-0.0 -0.0 0.0 -0.0 0.0 -0.0 0.0 -0.0
-0.0 0.0 0.0 -0.0 0.0 0.0 0.0 0.0
-0.025102183 -0.018478036 -0.047056276 -1.018651e-39 0.048757043 -0.0010012795 -0.026144389 -0.010942627
0.028229868 0.031243993 -0.015479779 0.0015651671 0.012715092 0.004371219 0.0009036159 0.027155632
0.0 -0.0 0.0 -0.0 -0.0 0.0 0.0 -0.0
0.0 -0.0 -0.0 0.0 0.0 0.0 0.0 0.0
0.023511935 -0.01968115 -0.015706405 -2.798041e-39 -0.027482308 0.0003807073 -0.011241744 0.017602047
-0.00621483 0.060185947 -0.0018958942 -0.013333683 -0.07375861 -0.02203502 0.00056722836 0.053956702
0.0 0.0 -0.0 0.0 -0.0 0.0 -0.0 0.0
-0.0 0.0 -0.0 -0.0 -0.0 -0.0 -0.0 0.0
-0.021454163 -0.0075184642 -0.021679815 -4.211891e-39 0.11187532 0.005955669 0.071807854 -0.025257735
-0.029144296 -0.008179024 -0.03482472 -0.17474693 0.046288006 -0.124808766 -0.04163318 -0.013303019
0.119718775 0.49814224 -0.24027885 -1.220075e-38 -0.02731678 -0.011331491 -0.041096646 -0.07477525
-0.25878465 -0.030035576 0.0749137 0.19072041 -0.08793785 0.15871693 -0.014088318 -0.2914692
-0.15098563 0.09371789 -0.15321226 -5.240629e-39 -0.0628261 -0.015628139 -0.10133518 0.12994938
-0.08486593 -0.1793902 -0.07381502 0.039091192 0.018395144 -0.018870903 0.018330287 0.010214573
0.0 -0.0 -0.0 0.0 0.0 0.0 0.0 0.0
0.0 -0.0 -0.0 0.0 0.0 -0.0 0.0 0.0

onnx::Conv_90 f4 [32]
00000000: e9cd fcbd a04d 88be ab00 2d3e 1897 c93c
00000010: 4c4c 69be b0fc 0b80 8322 493e 4fe8 1480
00000020: c0b7 b7bd 865b 1780 00ee 883a 961a 1e80
00000030: a318 683d eea8 c13d 0c0c 513d 68aa 0380
00000040: aac2 70bd e233 0880 39bc 4bbe 8c6e 8abd
00000050: 8af0 0480 b5a1 6d3e 592b 3e3d cdfd b0bd
00000060: 2581 0180 0f58 09be 246f 0980 5fc4 8abd
00000070: 5d0c 7a3c b0f9 373e 5881 0bbd b4e9 b4bd
-0.12343962 -0.26621723 0.16894786 0.02460818 -0.22783011 -1.100838e-39 0.19642071 -1.920047e-39
-0.089705944 -2.145049e-39 0.0010446906 -2.764602e-39 0.05666412 0.09456049 0.05103688 -3.36637e-40
-0.058779396 -7.53296e-40 -0.1989602 -0.067593664 -4.53631e-40 0.23206218 0.04642806 -0.08642159
-1.38164e-40 -0.13412498 -8.66389e-40 -0.06775736 0.015261737 0.17966342 -0.0340589 -0.08833638

onnx::Conv_92 f4 [64, 32, 3, 3]
00000000: 0000 0080 0000 0080 0000 0080 0000 0080
00000010: 0000 0000 0000 0080 0000 0000 0000 0000
00000020: 0000 0000 0000 0080 0000 0080 0000 0000
00000030: 0000 0000 0000 0000 0000 0000 0000 0000
00000040: 0000 0000 0000 0000 0000 0000 0000 0080
00000050: 0000 0080 0000 0000 0000 0080 0000 0080
00000060: 0000 0000 0000 0000 0000 0080 0000 0080
00000070: 0000 0080 0000 0080 0000 0080 0000 0080
00000080: 0000 0080 0000 0080 0000 0080 0000 0000
00000090: 0000 0000 0000 0000 0000 0000 0000 0080
000000a0: 0000 0080 0000 0080 0000 0000 0000 0080
000000b0: 0000 0080 0000 0080 0000 0080 0000 0080
000000c0: 0000 0080 0000 0080 0000 0080 0000 0080
000000d0: 0000 0080 0000 0080 0000 0000 0000 0080
000000e0: 0000 0000 0000 0000 0000 0000 0000 0080
000000f0: 0000 0000 0000 0000 0000 0000 0000 0080
00000100: 0000 0080 0000 0080 0000 0080 0000 0080
00000110: 0000 0080 0000 0080 0000 0080 0000 0000
00000120: 0000 0080 0000 0080 0000 0080 0000 0080
00000130: 0000 0000 0000 0000 0000 0000 0000 0080
00000140: 0000 0080 0000 0080 0000 0000 0000 0080
00000150: 0000 0080 0000 0080 0000 0080 0000 0080
00000160: 0000 0080 0000 0080 0000 0080 0000 0000
00000170: 0000 0000 0000 0000 0000 0000 0000 0080
00000180: 0000 0080 0000 0000 0000 0000 0000 0080
00000190: 0000 0080 0000 0080 0000 0080 0000 0080
000001a0: 0000 0080 0000 0080 0000 0080 0000 0000
000001b0: 0000 0080 0000 0080 0000 0000 0000 0000
000001c0: 0000 0000 0000 0080 0000 0000 0000 0000
000001d0: 0000 0080 0000 0000 0000 0080 0000 0080
000001e0: 0000 0000 0000 0080 0000 0080 0000 0000
000001f0: 0000 0000 0000 0080 0000 0000 0000 0000
00000200: 0000 0080 0000 0000 0000 0000 0000 0000
00000210: 0000 0000 0000 0080 0000 0080 0000 0000
00000220: 0000 0080 0000 0080 0000 0000 0000 0080
00000230: 0000 0080 0000 0080 0000 0000 0000 0000
00000240: 0000 0080 0000 0000 0000 0080 0000 0080
00000250: 0000 0000 0000 0080 0000 0000 0000 0080
00000260: 0000 0000 0000 0000 0000 0000 0000 0000
00000270: 0000 0000 0000 0000 0000 0080 0000 0000
00000280: 0000 0080 0000 0080 0000 0080 0000 0080
00000290: 0000 0080 0000 0080 0000 0000 0000 0080
000002a0: 0000 0000 0000 0000 0000 0000 0000 0000
000002b0: 0000 0080 0000 0000 0000 0000 0000 0080
000002c0: 0000 0000 0000 0000 0000 0000 0000 0080
000002d0: 0000 0080 0000 0080 0000 0000 0000 0000
000002e0: 0000 0080 0000 0080 0000 0080 0000 0000
000002f0: 0000 0080 0000 0000 0000 0000 0000 0080
00000300: 0000 0000 0000 0000 0000 0080 0000 0000
00000310: 0000 0000 0000 0080 0000 0080 0000 0080
00000320: 0000 0080 0000 0080 0000 0080 0000 0080
00000330: 0000 0080 0000 0080 0000 0080 0000 0080
00000340: 0000 0080 0000 0000 0000 0080 0000 0080
00000350: 0000 0000 0000 0000 0000 0000 0000 0080
00000360: 0000 0000 0000 0000 0000 0080 0000 0000
00000370: 0000 0080 0000 0080 0000 0080 0000 0000
00000380: 0000 0080 0000 0080 0000 0080 0000 0000
00000390: 0000 0000 0000 0080 0000 0000 0000 0000
000003a0: 0000 0080 0000 0080 0000 0080 0000 0080
000003b0: 0000 0000 0000 0000 0000 0000 0000 0080
000003c0: 0000 0080 0000 0080 0000 0080 0000 0080
000003d0: 0000 0000 0000 0080 0000 0080 0000 0000
000003e0: 0000 0000 0000 0080 0000 0080 0000 0000
000003f0: 0000 0080 0000 0080 0000 0000 0000 0000
-0.0 -0.0 -0.0 -0.0 0.0 -0.0 0.0 0.0
0.0 -0.0 -0.0 0.0 0.0 0.0 0.0 0.0
0.0 0.0 0.0 -0.0 -0.0 0.0 -0.0 -0.0
0.0 0.0 -0.0 -0.0 -0.0 -0.0 -0.0 -0.0
-0.0 -0.0 -0.0 0.0 0.0 0.0 0.0 -0.0
-0.0 -0.0 0.0 -0.0 -0.0 -0.0 -0.0 -0.0
-0.0 -0.0 -0.0 -0.0 -0.0 -0.0 0.0 -0.0
0.0 0.0 0.0 -0.0 0.0 0.0 0.0 -0.0
-0.0 -0.0 -0.0 -0.0 -0.0 -0.0 -0.0 0.0
-0.0 -0.0 -0.0 -0.0 0.0 0.0 0.0 -0.0
-0.0 -0.0 0.0 -0.0 -0.0 -0.0 -0.0 -0.0
-0.0 -0.0 -0.0 0.0 0.0 0.0 0.0 -0.0
-0.0 0.0 0.0 -0.0 -0.0 -0.0 -0.0 -0.0
-0.0 -0.0 -0.0 0.0 -0.0 -0.0 0.0 0.0
0.0 -0.0 0.0 0.0 -0.0 0.0 -0.0 -0.0
0.0 -0.0 -0.0 0.0 0.0 -0.0 0.0 0.0
-0.0 0.0 0.0 0.0 0.0 -0.0 -0.0 0.0
-0.0 -0.0 0.0 -0.0 -0.0 -0.0 0.0 0.0
-0.0 0.0 -0.0 -0.0 0.0 -0.0 0.0 -0.0
0.0 0.0 0.0 0.0 0.0 0.0 -0.0 0.0
-0.0 -0.0 -0.0 -0.0 -0.0 -0.0 0.0 -0.0
0.0 0.0 0.0 0.0 -0.0 0.0 0.0 -0.0
0.0 0.0 0.0 -0.0 -0.0 -0.0 0.0 0.0
-0.0 -0.0 -0.0 0.0 -0.0 0.0 0.0 -0.0
0.0 0.0 -0.0 0.0 0.0 -0.0 -0.0 -0.0
-0.0 -0.0 -0.0 -0.0 -0.0 -0.0 -0.0 -0.0
-0.0 0.0 -0.0 -0.0 0.0 0.0 0.0 -0.0
0.0 0.0 -0.0 0.0 -0.0 -0.0 -0.0 0.0
-0.0 -0.0 -0.0 0.0 0.0 -0.0 0.0 0.0
-0.0 -0.0 -0.0 -0.0 0.0 0.0 0.0 -0.0
-0.0 -0.0 -0.0 -0.0 0.0 -0.0 -0.0 0.0
0.0 -0.0 -0.0 0.0 -0.0 -0.0 0.0 0.0

onnx::Conv_93 f4 [64]
00000000: 56f8 0080 9a2d 1080 feb9 0380 b205 0280
00000010: 782e 1980 73b7 0580 6c35 0080 6e95 0780
00000020: 3a0d 1580 47d5 0680 9452 4580 3ce3 1880
00000030: a09b 0980 b317 1480 9af9 0680 f004 bd3c
00000040: 5f49 2f3d d316 1280 a977 0780 7198 0d80
00000050: 6408 1080 49e0 89be b8fc 0880 5989 0f80
00000060: 617f 0080 69c3 0380 84ab 0080 b325 3c80
00000070: 4071 303e c2dd 0b80 02ee 0d80 e07e 0580
00000080: b000 0d80 aa5b 293d 3049 353d fd57 0780
00000090: ca09 803d b02d 1d80 5b02 0780 1f3d 0780
000000a0: 732e b53d 9f92 1680 174a 1e80 89b1 0880
000000b0: d864 0980 cd8e 0180 3405 1380 5201 6e80
000000c0: 68fd 33be ddbc 1480 8ea8 0680 23af 1480
000000d0: d046 43bc 85cd 0180 1524 0380 b758 66bd
000000e0: a02e 0880 89f0 0680 55ba 0980 cf34 0580
000000f0: 40f7 1c3b 15d2 8abd 89ee 0680 f88a 0780
-8.9086e-41 -1.485727e-39 -3.42228e-40 -1.85714e-40 -2.312557e-39 -5.24987e-40 -1.9164e-41 -6.96454e-40
-1.93329e-39 -6.27522e-40 -6.366273e-39 -2.285568e-39 -8.82347e-40 -1.845212e-39 -6.40553e-40 0.023073643
0.04279458 -1.661227e-39 -6.85774e-40 -1.248547e-39 -1.472378e-39 -0.26928928 -8.25342e-40 -1.426803e-39
-4.5695e-41 -3.45606e-40 -6.1528e-41 -5.523654e-39 0.17230701 -1.089742e-39 -1.279243e-39 -5.04692e-40
-1.194108e-39 0.041347183 0.04425925 -6.74413e-40 0.06251867 -2.679619e-39 -6.43693e-40 -6.64775e-40
0.0884675 -2.072979e-39 -2.781643e-39 -7.98372e-40 -8.62695e-40 -1.43063e-40 -1.746741e-39 -1.0102378e-38
-0.17577136 -1.904461e-39 -6.11479e-40 -1.899537e-39 -0.0119187385 -1.65562e-40 -2.8845e-40 -0.05623695
-7.5141e-40 -6.37301e-40 -8.93363e-40 -4.78122e-40 0.0023951083 -0.06778351 -6.36583e-40 -6.92701e-40

onnx::Conv_95 f4 [64, 64, 3, 3]
00000000: 0000 0000 0000 0080 0000 0080 0000 0080
00000010: 0000 0080 0000 0080 0000 0080 0000 0000
00000020: 0000 0000 0000 0000 0000 0080 0000 0080
00000030: 0000 0000 0000 0080 0000 0080 0000 0000
00000040: 0000 0080 0000 0080 0000 0000 0000 0000
00000050: 0000 0080 0000 0000 0000 0000 0000 0000
00000060: 0000 0080 0000 0000 0000 0000 0000 0000
00000070: 0000 0000 0000 0080 0000 0080 0000 0000
00000080: 0000 0000 0000 0000 0000 0000 0000 0000
00000090: 0000 0080 0000 0000 0000 0080 0000 0080
000000a0: 0000 0000 0000 0080 0000 0080 0000 0000
000000b0: 0000 0080 0000 0080 0000 0000 0000 0080
000000c0: 0000 0000 0000 0000 0000 0000 0000 0080
000000d0: 0000 0000 0000 0000 0000 0000 0000 0000
000000e0: 0000 0000 0000 0000 0000 0000 0000 0000
000000f0: 0000 0000 0000 0000 0000 0080 0000 0080
00000100: 0000 0080 0000 0080 0000 0000 0000 0000
00000110: 0000 0080 0000 0000 0000 0000 0000 0000
00000120: 0000 0080 0000 0080 0000 0080 0000 0000
00000130: 0000 0000 0000 0000 0000 0080 0000 0000
00000140: 0000 0080 0000 0000 0000 0080 0000 0080
00000150: 0000 0080 0000 0000 0000 0080 0000 0080
00000160: 0000 0000 0000 0000 0000 0000 0000 0080
00000170: 0000 0000 0000 0000 0000 0080 0000 0000
00000180: 0000 0000 0000 0080 0000 0080 0000 0000
00000190: 0000 0000 0000 0080 0000 0080 0000 0000
000001a0: 0000 0000 0000 0000 0000 0000 0000 0000
000001b0: 0000 0080 0000 0000 0000 0000 0000 0000
000001c0: 0000 0000 0000 0080 0000 0000 0000 0080
000001d0: 0000 0080 0000 0080 0000 0080 0000 0080
000001e0: 0000 0080 0000 0000 0000 0080 0000 0000
000001f0: 0000 0000 0000 0080 0000 0080 0000 0000
00000200: 0000 0000 0000 0080 0000 0080 0000 0000
00000210: 0000 0000 0000 0080 0000 0000 0000 0080
00000220: 0000 0000 0000 0080 0000 0000 0000 0000
00000230: 0000 0080 0000 0080 0000 0000 0000 0080
00000240: 0000 0080 0000 0080 0000 0080 0000 0080
00000250: 0000 0080 0000 0080 0000 0080 0000 0000
00000260: 0000 0000 0000 0080 0000 0080 0000 0080
00000270: 0000 0000 0000 0080 0000 0080 0000 0000
00000280: 0000 0000 0000 0000 0000 0080 0000 0000
00000290: 0000 0080 0000 0000 0000 0000 0000 0000
000002a0: 0000 0080 0000 0000 0000 0000 0000 0000
000002b0: 0000 0000 0000 0000 0000 0000 0000 0080
000002c0: 0000 0000 0000 0080 0000 0080 0000 0000
000002d0: 0000 0080 0000 0080 0000 0080 0000 0080
000002e0: 0000 0000 0000 0000 0000 0000 0000 0080
000002f0: 0000 0080 0000 0000 0000 0000 0000 0080
00000300: 0000 0000 0000 0000 0000 0000 0000 0000
00000310: 0000 0080 0000 0080 0000 0080 0000 0000
00000320: 0000 0080 0000 0080 0000 0000 0000 0000
00000330: 0000 0000 0000 0000 0000 0000 0000 0080
00000340: 0000 0080 0000 0000 0000 0080 0000 0080
00000350: 0000 0080 0000 0080 0000 0080 0000 0000
00000360: 0000 0080 0000 0000 0000 0000 0000 0080
00000370: 0000 0000 0000 0080 0000 0000 0000 0000
00000380: 0000 0000 0000 0000 0000 0080 0000 0000
00000390: 0000 0080 0000 0080 0000 0080 0000 0080
000003a0: 0000 0080 0000 0000 0000 0000 0000 0080
000003b0: 0000 0000 0000 0080 0000 0000 0000 0000
000003c0: 0000 0000 0000 0000 0000 0080 0000 0000
000003d0: 0000 0080 0000 0080 0000 0000 0000 0000
000003e0: 0000 0080 0000 0080 0000 0000 0000 0080
000003f0: 0000 0000 0000 0000 0000 0080 0000 0000
0.0 -0.0 -0.0 -0.0 -0.0 -0.0 -0.0 0.0
0.0 0.0 -0.0 -0.0 0.0 -0.0 -0.0 0.0
-0.0 -0.0 0.0 0.0 -0.0 0.0 0.0 0.0
-0.0 0.0 0.0 0.0 0.0 -0.0 -0.0 0.0
0.0 0.0 0.0 0.0 -0.0 0.0 -0.0 -0.0
0.0 -0.0 -0.0 0.0 -0.0 -0.0 0.0 -0.0
0.0 0.0 0.0 -0.0 0.0 0.0 0.0 0.0
0.0 0.0 0.0 0.0 0.0 0.0 -0.0 -0.0
-0.0 -0.0 0.0 0.0 -0.0 0.0 0.0 0.0
-0.0 -0.0 -0.0 0.0 0.0 0.0 -0.0 0.0
-0.0 0.0 -0.0 -0.0 -0.0 0.0 -0.0 -0.0
0.0 0.0 0.0 -0.0 0.0 0.0 -0.0 0.0
0.0 -0.0 -0.0 0.0 0.0 -0.0 -0.0 0.0
0.0 0.0 0.0 0.0 -0.0 0.0 0.0 0.0
0.0 -0.0 0.0 -0.0 -0.0 -0.0 -0.0 -0.0
-0.0 0.0 -0.0 0.0 0.0 -0.0 -0.0 0.0
0.0 -0.0 -0.0 0.0 0.0 -0.0 0.0 -0.0
0.0 -0.0 0.0 0.0 -0.0 -0.0 0.0 -0.0
-0.0 -0.0 -0.0 -0.0 -0.0 -0.0 -0.0 0.0
0.0 -0.0 -0.0 -0.0 0.0 -0.0 -0.0 0.0
0.0 0.0 -0.0 0.0 -0.0 0.0 0.0 0.0
-0.0 0.0 0.0 0.0 0.0 0.0 0.0 -0.0
0.0 -0.0 -0.0 0.0 -0.0 -0.0 -0.0 -0.0
0.0 0.0 0.0 -0.0 -0.0 0.0 0.0 -0.0
0.0 0.0 0.0 0.0 -0.0 -0.0 -0.0 0.0
-0.0 -0.0 0.0 0.0 0.0 0.0 0.0 -0.0
-0.0 0.0 -0.0 -0.0 -0.0 -0.0 -0.0 0.0
-0.0 0.0 0.0 -0.0 0.0 -0.0 0.0 0.0
0.0 0.0 -0.0 0.0 -0.0 -0.0 -0.0 -0.0
-0.0 0.0 0.0 -0.0 0.0 -0.0 0.0 0.0
0.0 0.0 -0.0 0.0 -0.0 -0.0 0.0 0.0
-0.0 -0.0 0.0 -0.0 0.0 0.0 -0.0 0.0

onnx::Conv_96 f4 [64]
00000000: b147 1b80 d7d2 0a80 9924 2880 0cac 503c
00000010: 4275 8480 acaf 833d e0b0 0d3e 94b6 1ebd
00000020: 8f06 0580 f71e 95bd 33b4 3880 f88d 0580
00000030: 6054 2180 9638 1180 5445 0cbd 1e02 0180
00000040: 982d f93d ec62 0280 9c3e 3a80 f56e 1380
00000050: 4454 0f80 9993 0380 003e ba3d fb74 2280
00000060: 2a58 1b80 3a6b 2a80 8afe 183e bbf9 0980
00000070: 4298 0080 2e10 0e80 c995 1c80 ee53 793e
00000080: 51db 1480 30c5 1980 b56b 1abe 177c 32bd
00000090: 79e7 0580 5c84 1d80 a845 043d cfd5 0880
000000a0: 9d19 0c80 32ee 333b a032 1b80 6681 2080
000000b0: 19de 1180 3f61 ccbd 6f74 2f80 c30c 0d80
000000c0: 3dd0 0180 03d7 1680 3895 faaf 2fe1 0880
000000d0: 8414 4080 5380 6880 4d69 3d80 8d60 aa3c
000000e0: 0e96 343c 06e9 103e eecd b63e eefe 1280
000000f0: 71e8 3580 e1fa 2780 a267 133c ef46 9dbd
-2.505276e-39 -9.9399e-40 -3.686549e-39 0.012736332 -1.216435e-38 0.06429991 0.13837004 -0.03874834
-4.6153e-40 -0.07281297 -5.207431e-39 -5.10106e-40 -3.06084e-39 -1.581503e-39 -0.034245804 -9.2595e-41
0.121668994 -2.19157e-40 -5.348919e-39 -1.784678e-39 -1.407761e-39 -3.28455e-40 0.09093857 -3.164372e-39
-2.511186e-39 -3.895556e-39 0.14940849 -9.16106e-40 -5.462e-41 -1.291501e-39 -2.625127e-39 0.24348423
-1.915386e-39 -2.366625e-39 -0.1508015 -0.043575373 -5.42214e-40 -2.710711e-39 0.032292992 -8.11384e-40
-1.111214e-39 0.0027455208 -2.497719e-39 -2.985155e-39 -1.640877e-39 -0.09979486 -4.358037e-39 -1.19844e-39
-1.66537e-40 -2.097513e-39 -4.558076e-10 -8.15465e-40 -5.884831e-39 -9.596926e-39 -5.63974e-39 0.020797992
0.011022104 0.14151391 0.35703987 -1.74449e-39 -4.950666e-39 -3.671583e-39 0.008996876 -0.07679545
