model/limao.onnx (onnx, 301496 bytes, 16 tensors)

fc.weight f4 [2, 256]
000000 d7 31 da bd 10 2f 5d bd b8 ab 0a be 1a 58 b7 bd
       -0.106540374 -0.05399996 -0.13542068 -0.08952351
000010 38 7b 36 be 1b fb 35 be 5a a2 bf bd 73 b9 74 bd
       -0.17820442 -0.1777157 -0.09357138 -0.05974717
000020 df f5 0f bd f3 1c 49 3c 0f 36 ce bc 66 b6 8a 3d
       -0.03514659 0.012274968 -0.025172262 0.06773071
000030 02 04 99 3d 6c 5f b1 3d a1 66 69 bd ba 00 9b bd
       0.074714676 0.086607784 -0.05698264 -0.07568498
000040 e8 4b 84 01 99 52 8b 01 c4 11 88 81 92 e8 88 81
       4.859806e-38 5.117906e-38 -4.9984e-38 -5.029223e-38
000050 7c 3f 33 3d 55 4f 0c 3e 44 8b 8f 3d 30 ad ae 3d
       0.043761715 0.13702138 0.07008985 0.08529127
000060 b3 7b d7 3d ac de 7d 3d 8b 88 00 bd a6 5c a8 bd
       0.10521641 0.061979935 -0.031380218 -0.08220796
000070 2c 2c 4e bc 07 83 ad bc 21 e7 7d 3c 6b 4b c7 3c
       -0.012583774 -0.021180643 0.015497 0.024327954
000080 c7 49 f1 3d 91 05 e4 3d 4e d4 19 3e 30 63 2a 3e
       0.1178165 0.11133874 0.15022394 0.166394
000090 07 40 98 bd f0 74 aa bd 13 16 9c 3d 45 b6 d7 3d
       -0.07434087 -0.08323085 0.07621398 0.10532812
0000a0 ec b9 67 bd 2c 37 cf bd 9a c6 b4 3d 2f 2f dd 3d
       -0.056573793 -0.10117945 0.08826943 0.10800015
0000b0 e3 59 ee 80 30 3c 02 81 bf e3 f3 00 7f 97 83 81
       -2.1889093e-38 -2.3920411e-38 2.2397725e-38 -4.8339186e-38
0000c0 30 5b 7c bd 33 71 86 bd 62 6f d6 3d a0 79 99 3d
       -0.0616104 -0.0656456 0.10470463 0.07493901
0000d0 ff 10 17 3e 7b 2d 23 3e b5 27 9f 3d 61 93 e9 3d
       0.14752577 0.15935318 0.077712454 0.114050634
0000e0 55 7b e6 bb 97 07 6f 3d 3c 3b bc bb 0c 7d ba 3d
       -0.0070337453 0.058356848 -0.005744366 0.09105882
0000f0 02 2e 8a bd fe 39 5e 3d 00 d4 88 bd dd 7f cc 3d
       -0.067470565 0.054254524 -0.06681061 0.099853255
000100 e7 f8 83 3d 33 0c a5 3d 77 f8 85 bd 4c 3e 3b bd
       0.06443959 0.080589674 -0.065415315 -0.045713708
000110 bf 54 28 bd c3 07 60 bd 86 e7 ab 3d bf 64 b4 3d
       -0.041096445 -0.054694902 0.08393769 0.08808278
000120 25 b0 6e 3c 7d 6e 30 3c e1 13 0a bc 72 0c 41 bc
       0.014568363 0.01076853 -0.008427591 -0.011782752
000130 16 c1 cc 3c b7 11 7f 3c 1f 59 64 bc 63 d6 58 bc
       0.024994414 0.015568188 -0.013937264 -0.0132347075
000140 c4 fa 6e 81 82 49 7c 01 30 aa 5e 81 3a 28 7c 81
       -4.3893612e-38 4.633783e-38 -4.0897064e-38 -4.631395e-38
000150 63 18 83 81 be 27 79 01 e0 a3 79 01 4a 87 6f 81
       -4.8156793e-38 4.576259e-38 4.5851652e-38 -4.3994432e-38
000160 48 87 02 bd dd 57 08 be f9 03 d9 bb a7 08 71 bd
       -0.031867296 -0.13314767 -0.006622788 -0.058846142
000170 b3 56 8f bd 23 29 d5 bd b4 99 1f bd 65 94 d6 bd
       -0.069989584 -0.10408237 -0.038964942 -0.10477523
000180 16 6e e6 00 d1 64 9b 01 75 03 f9 00 8a af 9f 01
       2.1161656e-38 5.708267e-38 2.2868279e-38 5.865926e-38
000190 96 d5 05 bd 0d b2 a2 bd 7f a9 1a 3d 16 3f b6 3d
       -0.032674395 -0.07944117 0.0377593 0.088987514
0001a0 b4 6e 61 ba b3 c8 92 ba de 43 10 bd 13 bb 33 bd
       -0.0008599565 -0.0011198729 -0.035220973 -0.04387958
0001b0 c0 97 36 bd c4 8a d9 bc 88 93 8f 3d 81 ee c8 3c
       -0.044578314 -0.026555426 0.07010561 0.02452779
0001c0 95 49 4e 3d 5f af 75 3d 27 8b 27 bd 95 be 6d bd
       0.050363142 0.0599817 -0.04090419 -0.05804308
0001d0 81 77 02 be 2f d1 60 be 35 6d 00 be 21 4a 6d be
       -0.127409 -0.21954797 -0.12541659 -0.23172809
0001e0 5e ab 01 3b 61 cc 86 bb fb a1 81 3b 17 31 8b bb
       0.001978598 -0.0041137193 0.003956077 -0.0042477953
0001f0 54 cf 51 bd 6b 0f 25 bd fc 7f 28 3d a2 77 43 3d
       -0.051223114 -0.040297907 0.04113768 0.047721513
000200 42 7d 40 3d b1 cd 2f 3c 49 fe d0 bc 59 de 31 bd
       0.046994455 0.010730193 -0.025511878 -0.043424938
000210 df 8e e7 3b 0b 18 03 3e 55 68 86 3d df f0 03 3e
       0.007066592 0.1280214 0.065628685 0.12884854
000220 b5 bf 15 3e 27 bc 8f 3d 91 42 fc 3c 19 b6 9a bd
       0.14623912 0.07018309 0.03079346 -0.075542636
000230 d9 0e 11 3e be 26 0e 3e af ec 53 bc 64 c2 ac 3d
       0.1416582 0.13881966 -0.012934848 0.084355146
000240 33 b1 9d 81 8d f3 97 01 ed ed 8b 01 0e 64 88 81
       -5.792696e-38 5.581812e-38 5.140194e-38 -5.010208e-38
000250 29 06 d6 3d 8c 4f bd 3d 0b 99 90 bd 49 28 c6 bd
       0.10450394 0.09243688 -0.07060441 -0.096756525
000260 ec 8d 19 bd 8c 3c 23 bb 33 e2 86 3c af f7 50 3d
       -0.037488863 -0.0024907915 0.016465282 0.05101746
000270 f8 4b 00 3e d2 dd 09 3e d3 bf 9a 3d 80 ac 68 3d
       0.1252898 0.13463524 0.07556119 0.056805134
000280 56 9b da 3d 66 3f 0e 3e 4e 23 fa 3d 55 a9 ff 3d
       0.10674159 0.13891372 0.12213765 0.124834694
000290 13 6b e8 3d ce 7a 98 3d 5d 52 a5 bc b0 dd d1 bd
       0.11348548 0.07445298 -0.020180875 -0.10247362
0002a0 c2 ee 01 be bd 70 43 bd 59 d1 c1 3c 5e cf f3 3d
       -0.12688735 -0.047714937 0.023659395 0.119047865
0002b0 2e 40 92 01 fe a2 8c 01 65 7e 77 81 6e 3a 79 81
       5.3724023e-38 5.166176e-38 -4.545742e-38 -4.5775998e-38
0002c0 9f f0 ee 3d 68 77 87 3d ba b6 25 3e cd e0 33 3e
       0.116669886 0.06614572 0.16182986 0.17566223
0002d0 24 1f 9e bd 98 e1 8f 3d 39 37 87 bd f6 a9 cb 3d
       -0.07720783 0.070254505 -0.0660233 0.09944527
0002e0 40 a6 07 be e4 f3 4e bd 2a 5d 18 be db e1 ad bd
       -0.13247013 -0.05052556 -0.1487929 -0.08490344
0002f0 f5 67 97 bd be 32 c5 bd 46 7e b7 3d 15 d8 11 3e
       -0.07392875 -0.09628819 0.089596316 0.14242585
000300 13 cb 5f bd 7f 26 9b 3d 12 1c 65 bd 23 b3 69 3d
       -0.054637026 0.07575702 -0.055934973 0.057055604
000310 75 8e df 3d dd 00 fd 3d 09 f0 8d bd 0a 17 a2 bd
       0.109158434 0.1235368 -0.06930549 -0.079145506
000320 33 9f fb 3d c4 1e c9 3d d0 25 03 3e 29 62 18 3e
       0.12286224 0.09820321 0.12807393 0.14881195
000330 8d f8 7c 3d e7 e8 26 3d 0f 10 b3 bc 01 1e f7 bc
       0.061760474 0.040749457 -0.021858243 -0.030165674
000340 56 7e c6 bd dc 07 10 be e8 ed ff bd 5b 51 ae bd
       -0.096920654 -0.14065498 -0.12496549 -0.08511611
000350 35 79 82 bd 65 40 7e bd 44 84 44 3c 53 ae c8 3d
       -0.06370775 -0.06207313 0.011994425 0.09798875
000360 68 eb 3b bc 6c 16 ae bc 31 9b 64 3c d9 57 af 3c
       -0.011469699 -0.021250926 0.013953016 0.021404194
000370 e0 89 80 81 93 f5 74 01 98 00 6d 01 ce 5d 85 81
       -4.7217615e-38 4.4991913e-38 4.353045e-38 -4.8991087e-38
000380 45 71 1f 3e 84 45 81 3d 5e 20 ad 3d 04 e4 fa 3d
       0.15570553 0.06312087 0.08453439 0.12250522
000390 8c e3 58 bd 05 0a 0c 3e 9d fb b4 bd 24 a3 5e 3d
       -0.05295138 0.13675697 -0.08837054 0.0543548
0003a0 77 d0 9f bd 3a 7b a8 bd a0 23 a0 3d b1 e3 52 3d
       -0.078034334 -0.082266286 0.07819295 0.051486675
0003b0 e3 b1 9b bd 78 50 43 3d f9 c3 f9 bc 78 4a 90 3d
       -0.076022886 0.047684163 -0.030488955 0.07045454
0003c0 c9 8f 5f bd 3c 3f d1 3c ba 61 5c bc c3 bc 84 3d
       -0.054580484 0.025542848 -0.013451034 0.06481316
0003d0 f1 22 7e 3d 95 a0 f9 3c 5a 9e cb bb 0d 80 56 bd
       0.06204504 0.03047208 -0.0062139453 -0.052368212
0003e0 bb 53 5d bd dd 71 37 be 2e e1 b5 bd b2 b2 3f be
       -0.05403493 -0.17914529 -0.0888084 -0.1872051
0003f0 e9 ad 3d bb e1 ce 8b bd 3b 51 25 be a8 ae 41 be
       -0.002894277 -0.068265684 -0.16144268 -0.18914282

fc.bias f4 [2]
000000 8f 16 39 ba 96 c5 9d 3d
       -0.00070605514 0.07703702

79 f4 [16, 3, 7, 7]
000000 5e c8 ac bd e8 85 de bd 71 70 93 bc b5 91 a3 3d
       -0.084366545 -0.10865384 -0.017997952 0.07986776
000010 44 04 89 bd 05 9a b0 3d c8 d6 bc bd 61 c8 3a bd
       -0.06690267 0.08623127 -0.09220654 -0.045601252
000020 8e 36 f9 3c ce 5c 5a 3e 6c b1 62 3e e8 f7 a2 3d
       0.030421522 0.21324465 0.22137994 0.079574406
000030 4e 94 85 3c 15 7f cc 3d 2f 61 4e 3c c2 ae 45 3e
       0.016306069 0.099851765 0.012596413 0.19304946
000040 21 b9 2c 3e 51 0d 2b 3c 83 e3 62 3e 8c 44 32 3e
       0.16867496 0.010440187 0.22157101 0.17408961
000050 44 85 1a 3e e5 e5 43 3e d3 4f 33 3e 39 f8 28 3e
       0.150899 0.19130667 0.1751092 0.1650094
000060 84 10 ce 3d e8 37 23 3d 9c 64 a1 3d ac 16 12 3e
       0.10061744 0.03984824 0.07880518 0.14266461
000070 c1 c3 95 3d 77 83 c3 3c e6 6b 3b 3e b9 15 fd 3c
       0.07312728 0.023866398 0.18302879 0.030894147
000080 c4 4e 26 3e cc cc 01 3e e9 c5 ef 3d 63 d4 a8 bd
       0.16240984 0.1267578 0.1170767 -0.082436346
000090 24 40 3e 3d ee 39 20 3e 8c d2 47 bd 18 72 05 bd
       0.046447888 0.15647098 -0.048784778 -0.03257951
0000a0 9d db 8d bd 73 7b 70 3d dc 42 c3 bd 06 a4 d5 3d
       -0.069266535 0.05871148 -0.09534237 0.104316756
0000b0 d9 dc c2 bd 6d 6c 0a bd 02 ff 2d bd 79 d7 70 bd
       -0.095147796 -0.03379481 -0.042479523 -0.05879924
0000c0 63 08 3e 3d ac c4 9d bc 04 f0 d0 bd ef ba 4e be
       0.046394717 -0.01925882 -0.10202029 -0.20188497
0000d0 67 ab 93 bd 56 d1 29 be 23 cf 1e be bf f7 79 be
       -0.07210427 -0.16583762 -0.15508704 -0.24410914
0000e0 d1 38 50 be 6c be 0c be c8 a5 34 bd 75 47 5c be
       -0.20334174 -0.13744515 -0.044103414 -0.21511634
0000f0 e6 0f 0d bd 74 92 43 be c0 d9 fc bb 31 c3 e9 bd
       -0.03443899 -0.19098836 -0.0077163875 -0.11414183
000100 5a 18 f2 bd 14 b5 5f be e9 7e af bd 00 86 3b be
       -0.11821051 -0.2184642 -0.08569128 -0.18312836
000110 1d db 5a be a1 86 75 bd 31 e9 92 bd b9 d5 09 be
       -0.21372648 -0.059942845 -0.07173384 -0.13460435
000120 ca 4a 4f bc a2 ed 8b bd 38 ae ef bd 6c 51 5d bd
       -0.012652108 -0.06832434 -0.117031515 -0.054032728
000130 d0 17 47 be db d9 36 bd a5 0c bc bb 84 fa a9 bd
       -0.19442677 -0.044641357 -0.005738812 -0.08299735
000140 21 76 d6 3d d9 27 be 3d 2c b7 02 be d4 d7 8f bd
       0.1047175 0.09284944 -0.12765187 -0.07023588
000150 94 ab e9 bc b2 e9 b0 bd 1f 79 a0 bd 25 18 a3 bd
       -0.028524198 -0.08638324 -0.07835602 -0.079635896
000160 59 d2 20 be e1 f0 2d be b6 dd 6e be a0 43 14 be
       -0.15705241 -0.1698642 -0.23326764 -0.14478922
000170 0c 65 91 bd de 75 fc bd f8 4b 49 bd d6 6e 5e bc
       -0.07099351 -0.12327169 -0.049144715 -0.01357623
000180 ab 7b db bc 84 7c 35 bd 06 2b f3 bb b3 87 85 3d
       -0.026792368 -0.0443082 -0.0074209003 0.06520023
000190 8a a0 0d 3c 58 fc b6 3d 93 dd 5a 3c 15 2e 7a bd
       0.0086442325 0.089348495 0.0133584915 -0.061079103
0001a0 0f 1a b3 3d 0d ae dc 3c 9f 77 4e 3d ab e7 ed bc
       0.08745205 0.026938463 0.05040705 -0.029041132
0001b0 34 7e 28 3d 80 08 b0 3c ea 57 93 bc 56 7e 86 bd
       0.04113598 0.021488428 -0.017986257 -0.065670654
0001c0 26 af 87 3d 83 60 91 3d a0 01 32 bd bd ff 01 bd
       0.06625204 0.07098486 -0.04345858 -0.03173803
0001d0 af 06 da 3d d4 d7 bc 3d 81 8c b7 bc e8 9e d6 3d
       0.10645806 0.092208534 -0.022405865 0.10479528
0001e0 b3 e1 c0 3d 56 90 26 3d 55 24 cd 3d d0 07 28 3d
       0.09418049 0.040664993 0.100166954 0.041023076
0001f0 db df a0 bc 77 48 fa 3d e9 ff b6 3d a2 49 0d 3e
       -0.019637993 0.12220853 0.0893553 0.1379762
000200 2f 45 e7 3d c0 82 ea 3d a7 09 bc 3d 46 de 8f 3d
       0.112924926 0.1145072 0.091815285 0.07024817
000210 99 1e b7 3d 4b 8c 04 3e 5e a0 49 bd f7 92 99 bd
       0.08941383 0.12944143 -0.049225204 -0.074987344
000220 6b 58 c2 3d b7 86 41 bd f0 dc dd bd ab 2a 1f bd
       0.09489521 -0.047247615 -0.10833156 -0.03885905
000230 1c 18 a8 3c 26 c7 ad 3d ff 54 03 3d 2c 3c ae bd
       0.020519309 0.0848525 0.03206348 -0.085075706
000240 4c f8 83 bc 01 db 15 3b 51 4a e8 3c 59 eb 74 bd
       -0.016109608 0.0022866132 0.02835575 -0.059794758
000250 d2 c8 b3 bc 69 9b 14 bb 60 6a 3f bc 35 8f a7 bb
       -0.021946345 -0.002267564 -0.011683077 -0.005113507
000260 8a 50 38 bd 87 16 11 bd 54 7d ba bd 7c cc 75 bc
       -0.044998683 -0.035421874 -0.09105936 -0.015002366
000270 bc d2 58 bd b5 55 a1 bb 3a 5d f0 3a 81 47 3f 3c
       -0.052935347 -0.004923547 0.001833833 0.011674763
000280 08 67 f4 bb 86 96 af bd a7 b1 b8 bd dd 71 49 bd
       -0.0074585713 -0.08573632 -0.090182595 -0.049180854
000290 b8 4c b8 3c ae 67 ee 3c 51 0b f9 3c be df 4e 3c
       0.02249752 0.029102173 0.030400904 0.0126265865
0002a0 d7 a1 0e bd be 20 2e bd 77 c7 4f bd 23 2e 99 b9
       -0.03482231 -0.042511694 -0.050727334 -0.0002921681
0002b0 44 c0 e1 3c a5 9e cc 3d 93 27 99 3d 17 b6 8d bd
       0.0275575 0.099911965 0.07478251 -0.069194965
0002c0 01 e9 69 bc bc 28 ba bb 54 e1 66 3d 7d d7 91 3d
       -0.014276744 -0.0056811254 0.056367233 0.07121179
0002d0 3e 52 d5 3d d6 d4 6d 3d 84 ef 9c bd 15 06 3f bd
       0.10416077 0.058064304 -0.076628715 -0.04663666
0002e0 8e 57 8a bd 57 12 41 bd 26 8a 64 bc 79 16 56 3c
       -0.06754981 -0.04713663 -0.013948953 0.013066881
0002f0 76 28 68 bc 14 46 aa bd e4 07 16 bd 08 b1 0e bc
       -0.014169803 -0.083141476 -0.03662862 -0.0087092
000300 a6 9e 5e bd f1 4e 30 bd 12 a2 94 bd 7b 76 33 3b
       -0.054350518 -0.043044034 -0.07257475 0.0027383852
000310 2b c6 5d 3c 7b 58 40 3d d8 68 bb 3c 1b 3e dd bb
       0.013536016 0.04695938 0.022877142 -0.0067517883
000320 11 6c 26 3d 6e 8c ca bc a5 09 ee bc 5e aa 40 bc
       0.040630404 -0.024725165 -0.029057333 -0.011759369
000330 ee c2 7a 3d df 6f 86 3c f9 08 54 3d f9 0e 9d 3a
       0.061221056 0.016410766 0.05176637 0.0011982612
000340 b5 2e fa 3b 35 cf 0e bd 93 55 37 bd 39 de 9a bb
       0.0076349624 -0.034865577 -0.044759344 -0.004726198
000350 aa 68 38 bd 5b f0 ae 3c 48 87 99 3c 12 57 1b 3d
       -0.04502169 0.021354845 0.018741265 0.037924834
000360 5d 3e 40 bd ec 0c 54 bd 32 fc 84 bd 77 12 6a bd
       -0.046934474 -0.051770136 -0.06493415 -0.057146516
000370 9c fc 31 3d 8d 46 10 3d bd 90 ab 3d c3 98 f3 3c
       0.043453798 0.035223532 0.08377216 0.029735928
000380 e8 1a 30 bd 33 7b 8c bc a1 3d 86 bd de ec fe bb
       -0.04299441 -0.01714859 -0.065547235 -0.0077797016
000390 4e 5c 2c 3c 0e 97 80 3d 28 ee 73 3d 93 e4 9e bd
       0.010520054 0.062788114 0.059553295 -0.07758441
0003a0 a6 f4 0c bd f5 91 fe bc dd f4 0c bd 54 22 be bd
       -0.034413002 -0.031075457 -0.034413207 -0.09283891
0003b0 c5 a3 5a bd 79 16 b0 3b c1 8b 50 bd aa 84 a6 bd
       -0.05337884 0.0053737727 -0.05091453 -0.081307724
0003c0 3c 02 0e be 69 86 e6 bd 22 f1 a0 bd c1 8f d3 bd
       -0.1386804 -0.112561055 -0.078584924 -0.10330153
0003d0 1b 17 05 be e2 17 47 3d a6 67 c1 3d c3 c8 7a 3c
       -0.12997095 0.04860676 0.094435975 0.015306654
0003e0 1d 04 af 3d 86 8a 11 3d 05 57 fd bb 78 01 88 bd
       0.085457064 0.035532497 -0.007731321 -0.06640905
0003f0 93 f5 9e 3d dc e0 ff 3d d7 66 c7 3d d7 c8 ac 3d
       0.07761683 0.124940604 0.09736412 0.08436745

80 f4 [16]
000000 d8 b3 68 3e a4 1f f4 3c 31 31 20 be 96 ea 6a be
       0.22724855 0.029800244 -0.15643765 -0.2294105
000010 37 ba 3e be 1b fa 7a 3f c2 1c 06 3e 2c 35 47 bf
       -0.18625723 0.9803788 0.13096908 -0.7781551
000020 f5 1b 59 3f ac 7a d3 3e ec b9 ad 3d 34 5e 9f bc
       0.84808284 0.4130453 0.084827274 -0.0194541
000030 78 30 a2 bf f7 7e 37 3f dd ed b3 3e 34 ac 6f be
       -1.2671041 0.7167811 0.35142413 -0.23405534

82 f4 [32, 16, 3, 3]
000000 48 f0 c6 bc 9c cc b1 bc 94 d4 b0 bc 58 c7 b8 bc
       -0.024284497 -0.02170401 -0.02158574 -0.022555992
000010 cb ba 62 bc 14 4d 06 bc f4 e8 21 bd e6 a2 d6 bc
       -0.01383848 -0.008197088 -0.039528802 -0.026200723
000020 8b d1 ea bc b1 a4 9e 3c bb 45 ab 3c 96 82 85 3b
       -0.028664371 0.01936564 0.020907274 0.004074405
000030 2b 70 87 3c 69 bd 81 3b b5 bd 78 3c 6d 96 39 3c
       0.016532978 0.003959347 0.015181948 0.011327368
000040 5b fd 02 3c 22 f8 b2 b9 ec 5a c4 bc aa 18 98 3c
       0.007994975 -0.0003413568 -0.023969136 0.018566448
000050 cd 92 8a bc a8 6c 1e bc ee 9f 9b ba f0 a6 cc bc
       -0.016915703 -0.00966946 -0.0011873224 -0.024981946
000060 24 d9 d4 bc 90 30 08 3c d7 53 9f 3c e3 7d df bc
       -0.025982447 0.008312359 0.019449158 -0.027281707
000070 eb 33 aa bc 92 eb c0 bb 14 d3 b0 bc 03 84 d8 bb
       -0.02077671 -0.005887457 -0.021585025 -0.006607534
000080 0e 06 e0 3b a7 7f 2f bc 7b f3 02 3c d5 eb e7 bb
       0.0068366593 -0.010711587 0.007992621 -0.007077674
000090 9e 25 19 bd 88 ff f7 bc eb 4a a8 bc e6 b0 8a bc
       -0.03738939 -0.030273214 -0.020543536 -0.016930055
0000a0 11 9d c6 3c 75 2b 70 bc 8e 42 c9 3b 3c 86 d5 3c
       0.024244817 -0.014658798 0.006141967 0.026064985
0000b0 2e f1 27 3d 61 d8 ee 3b 4a 06 ac 3c 6a 11 0c bd
       0.04100149 0.007288978 0.020999093 -0.034196295
0000c0 16 20 69 bc 33 42 74 bb 6a a1 1a bd e0 9c 24 bd
       -0.014228841 -0.0037270903 -0.037751593 -0.04018867
0000d0 b1 08 00 bd 56 c1 0b bd fd 1c b9 bc f1 c5 11 bb
       -0.03125829 -0.034119926 -0.02259683 -0.0022243226
0000e0 5d b8 f6 3b ec b3 f1 bc e6 d5 1b 3b c9 60 72 bb
       0.007529302 -0.029504739 0.0023778616 -0.0036983958
0000f0 61 7a 4d bd f0 85 02 bd b6 1f 07 bd b4 84 7d bd
       -0.050165538 -0.031866014 -0.032989226 -0.061894134
000100 fe 82 7d 3b f0 f8 f5 bc ad d3 42 bd 78 a3 4d bc
       0.0038682814 -0.03002593 -0.04756515 -0.012551181
000110 0e de 87 bc 27 8d 7f bd 72 03 09 bd b2 b2 4b bd
       -0.016585376 -0.062390473 -0.03345055 -0.049730964
000120 d3 5e dc bc 9c ab b7 3c 46 01 be bc 3b 46 d5 3c
       -0.026900684 0.022420697 -0.023193967 0.026034465
000130 06 6f 50 3c 8a 66 39 bc b5 70 7e 3c 98 f3 3e 3d
       0.012721783 -0.011315951 0.015529801 0.046619028
000140 e0 68 36 3c 2d e0 1b 3d 1c a7 da 3c 7f 83 5e 3c
       0.011133403 0.038055588 0.026691012 0.013581156
000150 83 56 6d bb e6 b1 bf bb ad ee eb 3c 37 1f e9 3c
       -0.0036214895 -0.0058500646 0.028800333 0.028457267
000160 e5 f8 2e 3d 05 f5 2a 3d 8f ff 87 bc c8 0b 27 bc
       0.042717833 0.041737575 -0.016601352 -0.01019568
000170 ed 87 14 bc 17 16 c3 3c df ef e8 3c 48 d0 0a 3c
       -0.00906561 0.023814244 0.028434692 0.00847251
000180 17 eb ab 3c 24 93 cd 3c a0 82 21 bb fe c8 f1 bc
       0.020986123 0.025094576 -0.002464451 -0.029514786
000190 3a 1a 09 bd 48 f8 d0 bc f2 06 1d bd 3f 05 26 bd
       -0.033472277 -0.025509015 -0.0383367 -0.040532347
0001a0 82 9a f8 bb 6f b9 5f bc 88 f1 59 bc a0 ba 22 bb
       -0.007586778 -0.013655051 -0.013302214 -0.0024830475
0001b0 a1 9c a8 ba 7a e0 26 3d db ef 2e 3d 01 be 01 bd
       -0.0012864062 0.04074142 0.042709213 -0.031675342
0001c0 77 6a 2e 3d 49 09 bc ba 3e e1 04 bd fa 32 a5 3b
       0.042582 -0.0014346029 -0.03244137 0.0050414773
0001d0 78 b1 e3 bc cb 5a 13 bc c6 7e 74 bb b2 56 ba bb
       -0.027794585 -0.008993815 -0.0037307008 -0.0056866044
0001e0 23 41 fc bb 5e 1f 5e bb 28 42 5c bb 0e ca f2 bb
       -0.0076981946 -0.0033893208 -0.0033608768 -0.0074093407
0001f0 6b c5 c1 bb 3b 20 0e bb 17 71 cd 3c d0 22 24 bc
       -0.0059134266 -0.0021686691 0.02507834 -0.010018066
000200 74 27 9e bc 80 55 a6 3c b4 80 97 bc 97 d8 2e bd
       -0.019305922 0.020304441 -0.018493988 -0.042687025
000210 80 dc e2 3c 1a 0d 22 bc 9e 3a f2 bc a5 4c 5e bd
       0.027693033 -0.009890819 -0.029568966 -0.054272313
000220 7e e6 33 bc 03 9f 85 bc 8e 09 20 3b 0b e6 8b 3c
       -0.010980247 -0.016311174 0.0024419758 0.017077466
000230 dc 17 5f 3c d6 7b 4c 3c b3 79 c3 3b a2 f9 4d bc
       0.013616528 0.012480697 0.0059654354 -0.012571724
000240 8a 04 7d 3b 8c ac 0f 3d 3f f3 13 3d d8 fa 8c bc
       0.0038607442 0.035076663 0.03612065 -0.017209455
000250 b4 b7 9b ba 9e 5a ce 3c 62 6a 23 bd 2c af d6 bc
       -0.0011880309 0.025189694 -0.039896376 -0.026206575
000260 9f 67 2a bc 10 0a bb 3b a0 1c 32 3c 50 05 b6 3b
       -0.010400682 0.0057079867 0.010871083 0.0055548325
000270 a6 0a 77 3a 78 6a 4e 3c f9 e0 b3 3c d2 29 ad 3b
       0.0009423889 0.012598626 0.021957861 0.0052845264
000280 96 59 2f 3b fd 4a 79 3a 57 18 6f 3a 9e 4f d9 ba
       0.0026756278 0.00095097703 0.00091207534 -0.0016579514
000290 73 39 97 3b d6 99 b3 bc 4f d5 1c bc 44 61 4b bb
       0.004615003 -0.02192394 -0.009572341 -0.0031033317
0002a0 fe 5b 2a bc 30 46 6a bc f1 59 fa bb f7 f8 54 3c
       -0.010397909 -0.014298961 -0.0076401164 0.012998811
0002b0 5b 84 0a 3d 8c 81 fe 3c c0 3d 09 bc 18 cd 22 bc
       0.03381763 0.031067632 -0.008376539 -0.0099365935
0002c0 b1 1e f0 3b 81 e0 9b bb 06 13 69 bc b9 33 ed bc
       0.0073278775 -0.0047569876 -0.014225727 -0.028955327
0002d0 2e a1 0f 3d 24 7c 00 3d 1a 9a 2e 3d 24 f5 12 bc
       0.035065822 0.03136839 0.04262743 -0.008969579
0002e0 8e 40 b3 3c 0e ef 32 3c e0 b6 8b bc b4 a9 4a 39
       0.021881368 0.010921253 -0.017054975 0.0001932744
0002f0 09 73 c8 bb 57 f5 06 3c f1 0b 82 bb f3 36 99 bb
       -0.006117229 0.0082372045 -0.0039687087 -0.00467574
000300 3a 49 3e 3c 9c 7e 19 bc 70 d8 32 bc a5 1e 02 3c
       0.011614138 -0.009368565 -0.0109158605 0.007941877
000310 6c 2f 46 3c c8 2c 3e 3c ab 6b b9 3c 6d 40 01 3d
       0.012096267 0.011607356 0.022634348 0.03155558
000320 a5 fc d5 3c c0 26 b5 3c fa 27 09 3d 3d c6 d0 3c
       0.026121447 0.022113204 0.03348539 0.025485152
000330 ba cb dc 3a 60 23 85 3c f3 dc 8b 3c 19 1e 86 3c
       0.0016845383 0.01625222 0.01707313 0.016371774
000340 40 6c 8d ba 63 a4 13 3c 76 31 49 3c 1a 3b b8 3b
       -0.0010789707 0.009011361 0.012279859 0.00562228
000350 bd f5 1f 3c 28 42 14 3c a6 25 03 bc 2e ce a0 3a
       0.009763178 0.009048976 -0.008004582 0.0012268478
000360 d8 be 54 3c dd 68 ca 3c 39 a1 66 3c 89 df 52 bb
       0.012984954 0.024708206 0.014076524 -0.0032176694
000370 68 57 aa 3c f5 50 96 3c 77 19 3d bc b9 0e 0c 3c
       0.020793632 0.01834915 -0.011541716 0.008548432
000380 2d d9 51 3c 54 f3 f1 bb 2f 90 1d bc eb 0f d7 bb
       0.012808126 -0.0073837433 -0.009616896 -0.006563177
000390 3a 21 59 3c b6 8d bc 3c 91 02 af bb af 32 ec 3a
       0.013252551 0.023016792 -0.005340882 0.0018020476
0003a0 e1 22 e3 3b 88 b8 02 3b 93 57 96 3c 55 f4 12 3d
       0.006931648 0.0019946415 0.018352306 0.035877544
0003b0 0b e8 fa 3c 78 f9 33 bb ff 77 76 3c 17 0d 07 3d
       0.030628225 -0.0027461927 0.015043258 0.032971468
0003c0 18 de f2 bb ad bd da 3b e4 26 5f 3c ad 9d 55 3c
       -0.0074117295 0.006675443 0.013620112 0.013038081
0003d0 c8 06 c2 3b 20 29 e9 bb ca ca bd bb 0e c8 a2 3c
       0.0059212185 -0.007115498 -0.0057919966 0.019870784
0003e0 6c 33 8b 3c de 37 14 bb 27 31 b6 3c 1b 2d 9f 3c
       0.016992293 -0.0022616307 0.022240235 0.019430688
0003f0 e1 33 26 3c 0f fb 44 bb 69 69 9d bb b4 22 89 3c
       0.010144205 -0.003005687 -0.0048038256 0.01674018

83 f4 [32]
000000 a3 8d 4c 3e ec ad ba be b8 2e 02 be 88 b9 4c 3e
       0.19975905 -0.36460817 -0.12713134 0.1999265
000010 41 b5 48 bf 59 54 9a 3e 52 0e 1b be 53 6f d1 3d
       -0.7840157 0.30142477 -0.15142182 0.102263115
000020 fa ca df bd c6 c5 ac bd ac b8 d9 81 ec ec c7 bc
       -0.109273866 -0.0843616 -7.99782e-38 -0.024404965
000030 a2 8f 99 be a7 6b 99 3e 99 db d7 3e 48 e5 7c 3d
       -0.29992396 0.29964945 0.42159727 0.061742097
000040 8f 76 f0 3e ef c9 f9 3d ec 51 a1 3d 0d 51 92 3e
       0.46965453 0.12196719 0.078769535 0.28577462
000050 89 a1 8e 3e d5 e5 56 bd 40 71 8d 3b 5c 78 42 bc
       0.27857617 -0.05246528 0.004316479 -0.011869516
000060 14 7a a8 bd 8b f3 5e 3d de ae 45 be 56 b2 32 bd
       -0.082264096 0.05443148 -0.19304988 -0.043627106
000070 58 ce 9d 3d e6 6d ac be e9 43 00 3f 7d 47 9e 3e
       0.077053726 -0.33677596 0.5010362 0.30913916

85 f4 [32, 32, 3, 3]
000000 00 00 00 00 00 00 00 00 00 00 00 80 00 00 00 00
       0.0 0.0 -0.0 0.0
000010 00 00 00 80 00 00 00 80 00 00 00 80 00 00 00 80
       -0.0 -0.0 -0.0 -0.0
000020 00 00 00 00 00 00 00 00 00 00 00 00 00 00 00 00
       0.0 0.0 0.0 0.0
000030 00 00 00 80 00 00 00 80 00 00 00 00 00 00 00 00
       -0.0 -0.0 0.0 0.0
000040 00 00 00 00 00 00 00 80 00 00 00 80 00 00 00 80
       0.0 -0.0 -0.0 -0.0
000050 00 00 00 80 00 00 00 80 00 00 00 80 00 00 00 80
       -0.0 -0.0 -0.0 -0.0
000060 00 00 00 80 00 00 00 80 00 00 00 80 00 00 00 00
       -0.0 -0.0 -0.0 0.0
000070 00 00 00 00 00 00 00 00 00 00 00 00 00 00 00 00
       0.0 0.0 0.0 0.0
000080 00 00 00 00 00 00 00 80 00 00 00 80 00 00 00 80
       0.0 -0.0 -0.0 -0.0
000090 00 00 00 80 00 00 00 80 00 00 00 80 00 00 00 80
       -0.0 -0.0 -0.0 -0.0
0000a0 00 00 00 80 00 00 00 80 00 00 00 80 00 00 00 80
       -0.0 -0.0 -0.0 -0.0
0000b0 00 00 00 80 00 00 00 00 00 00 00 00 00 00 00 80
       -0.0 0.0 0.0 -0.0
0000c0 00 00 00 80 00 00 00 80 00 00 00 80 00 00 00 00
       -0.0 -0.0 -0.0 0.0
0000d0 00 00 00 00 00 00 00 80 00 00 00 00 00 00 00 00
       0.0 -0.0 0.0 0.0
0000e0 00 00 00 80 00 00 00 00 00 00 00 00 00 00 00 00
       -0.0 0.0 0.0 0.0
0000f0 00 00 00 00 00 00 00 00 00 00 00 00 00 00 00 00
       0.0 0.0 0.0 0.0
000100 00 00 00 00 00 00 00 00 00 00 00 00 00 00 00 00
       0.0 0.0 0.0 0.0
000110 00 00 00 00 00 00 00 00 00 00 00 00 00 00 00 00
       0.0 0.0 0.0 0.0
000120 00 00 00 80 00 00 00 80 00 00 00 80 00 00 00 80
       -0.0 -0.0 -0.0 -0.0
000130 00 00 00 80 00 00 00 80 00 00 00 80 00 00 00 80
       -0.0 -0.0 -0.0 -0.0
000140 00 00 00 80 00 00 00 80 00 00 00 80 00 00 00 80
       -0.0 -0.0 -0.0 -0.0
000150 00 00 00 80 00 00 00 80 00 00 00 80 00 00 00 80
       -0.0 -0.0 -0.0 -0.0
000160 00 00 00 00 00 00 00 00 00 00 00 80 00 00 00 80
       0.0 0.0 -0.0 -0.0
000170 00 00 00 80 00 00 00 80 00 00 00 80 00 00 00 80
       -0.0 -0.0 -0.0 -0.0
000180 00 00 00 80 00 00 00 80 00 00 00 80 00 00 00 80
       -0.0 -0.0 -0.0 -0.0
000190 00 00 00 00 00 00 00 00 00 00 00 00 00 00 00 00
       0.0 0.0 0.0 0.0
0001a0 00 00 00 00 00 00 00 00 00 00 00 00 00 00 00 00
       0.0 0.0 0.0 0.0
0001b0 00 00 00 00 00 00 00 00 00 00 00 00 00 00 00 00
       0.0 0.0 0.0 0.0
0001c0 00 00 00 80 00 00 00 80 00 00 00 00 00 00 00 80
       -0.0 -0.0 0.0 -0.0
0001d0 00 00 00 80 00 00 00 00 00 00 00 00 00 00 00 00
       -0.0 0.0 0.0 0.0
0001e0 00 00 00 00 00 00 00 00 00 00 00 00 00 00 00 80
       0.0 0.0 0.0 -0.0
0001f0 00 00 00 00 00 00 00 00 00 00 00 80 00 00 00 80
       0.0 0.0 -0.0 -0.0
000200 00 00 00 80 00 00 00 00 00 00 00 80 00 00 00 80
       -0.0 0.0 -0.0 -0.0
000210 00 00 00 00 00 00 00 00 00 00 00 00 00 00 00 80
       0.0 0.0 0.0 -0.0
000220 00 00 00 80 00 00 00 00 00 00 00 80 00 00 00 80
       -0.0 0.0 -0.0 -0.0
000230 00 00 00 80 00 00 00 80 00 00 00 80 00 00 00 80
       -0.0 -0.0 -0.0 -0.0
000240 00 00 00 00 00 00 00 00 00 00 00 00 00 00 00 80
       0.0 0.0 0.0 -0.0
000250 00 00 00 80 00 00 00 80 00 00 00 00 00 00 00 00
       -0.0 -0.0 0.0 0.0
000260 00 00 00 80 00 00 00 80 00 00 00 80 00 00 00 80
       -0.0 -0.0 -0.0 -0.0
000270 00 00 00 80 00 00 00 80 00 00 00 80 00 00 00 80
       -0.0 -0.0 -0.0 -0.0
000280 00 00 00 80 00 00 00 80 00 00 00 80 00 00 00 80
       -0.0 -0.0 -0.0 -0.0
000290 00 00 00 80 00 00 00 00 00 00 00 00 00 00 00 00
       -0.0 0.0 0.0 0.0
0002a0 00 00 00 00 00 00 00 00 00 00 00 00 00 00 00 00
       0.0 0.0 0.0 0.0
0002b0 00 00 00 00 00 00 00 00 00 00 00 00 00 00 00 00
       0.0 0.0 0.0 0.0
0002c0 00 00 00 00 00 00 00 00 00 00 00 00 00 00 00 00
       0.0 0.0 0.0 0.0
0002d0 00 00 00 00 00 00 00 00 00 00 00 80 00 00 00 80
       0.0 0.0 -0.0 -0.0
0002e0 00 00 00 80 00 00 00 80 00 00 00 80 00 00 00 80
       -0.0 -0.0 -0.0 -0.0
0002f0 00 00 00 80 00 00 00 80 00 00 00 80 00 00 00 80
       -0.0 -0.0 -0.0 -0.0
000300 00 00 00 80 00 00 00 00 00 00 00 80 00 00 00 80
       -0.0 0.0 -0.0 -0.0
000310 00 00 00 80 00 00 00 80 00 00 00 00 00 00 00 00
       -0.0 -0.0 0.0 0.0
000320 00 00 00 80 00 00 00 80 00 00 00 80 00 00 00 80
       -0.0 -0.0 -0.0 -0.0
000330 00 00 00 80 00 00 00 00 00 00 00 80 00 00 00 80
       -0.0 0.0 -0.0 -0.0
000340 00 00 00 00 00 00 00 00 00 00 00 00 00 00 00 00
       0.0 0.0 0.0 0.0
000350 00 00 00 00 00 00 00 80 00 00 00 80 00 00 00 80
       0.0 -0.0 -0.0 -0.0
000360 00 00 00 80 00 00 00 80 00 00 00 80 00 00 00 00
       -0.0 -0.0 -0.0 0.0
000370 00 00 00 00 00 00 00 80 00 00 00 80 00 00 00 80
       0.0 -0.0 -0.0 -0.0
000380 00 00 00 80 00 00 00 00 00 00 00 00 00 00 00 80
       -0.0 0.0 0.0 -0.0
000390 00 00 00 80 00 00 00 80 00 00 00 80 00 00 00 80
       -0.0 -0.0 -0.0 -0.0
0003a0 00 00 00 80 00 00 00 80 00 00 00 00 00 00 00 00
       -0.0 -0.0 0.0 0.0
0003b0 00 00 00 00 00 00 00 80 00 00 00 80 00 00 00 00
       0.0 -0.0 -0.0 0.0
0003c0 00 00 00 80 00 00 00 80 00 00 00 80 00 00 00 00
       -0.0 -0.0 -0.0 0.0
0003d0 00 00 00 00 00 00 00 00 00 00 00 00 00 00 00 00
       0.0 0.0 0.0 0.0
0003e0 00 00 00 00 00 00 00 00 00 00 00 00 00 00 00 00
       0.0 0.0 0.0 0.0
0003f0 00 00 00 80 00 00 00 80 00 00 00 80 00 00 00 80
       -0.0 -0.0 -0.0 -0.0

86 f4 [32]
000000 16 61 3c 81 3b 88 24 3e b9 5e 83 bd 0e 5d cc bd
       -3.4599802e-38 0.16067593 -0.06414551 -0.09978686
000010 60 d6 71 bb 1e a8 1d 3e f7 c5 3f 3d bd 9f 93 3e
       -0.003690146 0.15396163 0.046819653 0.28832808
000020 df 59 bb 3c c8 f5 da 3e 6d bc d3 bd e7 f9 be 3e
       0.022870002 0.4276564 -0.10338674 0.37300035
000030 09 99 35 3e 80 43 bd be 46 5b 27 bd 04 04 1f 3d
       0.1773416 -0.3696556 -0.04085853 0.03882219
000040 e8 dc eb 3d 20 62 2c 3e e3 4a 95 3e 6e 4d bf 3d
       0.11516744 0.16834307 0.29158697 0.093409404
000050 55 9b 6e be 46 ab 3d bd 9b f1 2e bd e0 82 98 3c
       -0.23301442 -0.046305917 -0.04271088 0.018617094
000060 61 85 96 3e 55 ec ba bc 12 8e ef bd 02 00 cc be
       0.29398635 -0.02281777 -0.1169702 -0.39843756
000070 6f 43 49 3d c6 d4 c2 bd 92 23 13 be 9a 29 02 bd
       0.049136575 -0.095132396 -0.14369038 -0.031777956

88 f4 [32, 16, 1, 1]
000000 00 00 00 80 00 00 00 00 00 00 00 80 00 00 00 80
       -0.0 0.0 -0.0 -0.0
000010 00 00 00 80 00 00 00 00 00 00 00 80 00 00 00 00
       -0.0 0.0 -0.0 0.0
000020 00 00 00 00 00 00 00 80 00 00 00 00 00 00 00 00
       0.0 -0.0 0.0 0.0
000030 00 00 00 80 00 00 00 80 00 00 00 80 00 00 00 00
       -0.0 -0.0 -0.0 0.0
000040 59 64 35 bd c8 f0 0d 3e ee 29 22 bc ce 09 4f 3d
       -0.044285152 0.13861382 -0.009897692 0.05054646
000050 37 b4 3e bd c6 1e 23 3d 37 89 1d 3e 36 57 bd bb
       -0.046558585 0.03982427 0.15384375 -0.0057782186
000060 4c 9f 0a 3e b8 04 da 3d 8b 5d 0d 3c 12 48 45 bc
       0.1353733 0.10645431 0.008628259 -0.012041109
000070 1f 74 33 be da b5 04 3e 1f 8e 05 be e3 ae b7 3c
       -0.17524765 0.12959996 -0.13042496 0.02242226
000080 16 96 06 be d0 59 f5 3d ce 3c b7 3d 3d ba a2 3d
       -0.1314319 0.11980021 0.089471444 0.079456784
000090 2a 34 c8 bd ae 04 60 3d d5 44 e5 3a 21 e9 c1 bd
       -0.097755745 0.054691963 0.0017491827 -0.09468294
0000a0 26 6f dd bc 6a 9f a9 bd 1b a2 d3 bd 12 d2 2e be
       -0.027030539 -0.08282359 -0.103336535 -0.17072323
0000b0 c3 34 79 bc 11 0d 8a 3d d1 9b 8e bc 49 b6 09 be
       -0.015210333 0.067407735 -0.017408283 -0.13448443
0000c0 5e 40 8e 3d 2b eb 0e bd 35 fb 12 bd da d3 05 3b
       0.06945871 -0.034892242 -0.0358841 0.0020420463
0000d0 9a 41 56 bd b1 09 e2 bd 2f c8 ae bd 61 ec 8d 3c
       -0.052308656 -0.11037005 -0.08534276 0.017324628
0000e0 43 4c 50 bd 67 fd a1 bd 88 32 8d bd b7 c5 b9 bd
       -0.05085398 -0.07909661 -0.06894404 -0.09070914
0000f0 09 9f bc bc e4 c7 1a 3c da 01 d6 bd 06 e4 0a bd
       -0.023025053 0.009447072 -0.10449572 -0.033908866
000100 98 13 4c 3d 54 06 b7 bb cd 51 88 3d d0 33 bd 3d
       0.049823374 -0.005585471 0.06656227 0.09238398
000110 f1 08 95 3e fa 19 ad bd 53 c5 0f 3d f4 66 7d 3d
       0.29108384 -0.0845222 0.035100292 0.061865762
000120 c6 5b 01 3e 33 e6 92 bd d4 4d 11 be b9 13 19 3e
       0.12632665 -0.07172813 -0.14189845 0.1494893
000130 63 42 18 bc 8e 03 9a bd 45 36 cd 3c bd 97 8e 3e
       -0.009293172 -0.07520209 0.025050292 0.27850142
000140 df cc 59 3e 64 46 76 be be f3 87 bd eb d3 06 bd
       0.21269558 -0.2405029 -0.06638287 -0.032916944
000150 ef 26 9c bd 3d 36 1f be c7 37 a1 bd 63 92 47 be
       -0.076246135 -0.15548034 -0.07871967 -0.19489436
000160 eb d0 65 3c c5 40 3f 3e 02 ab 52 be da 4b 7c 3e
       0.014026861 0.18677051 -0.20573047 0.2463831
000170 8c a6 c3 3c d5 ba 2d 3d 8e 0b 9e 3c 95 ca 76 3e
       0.023883127 0.042414505 0.01929262 0.24100716
000180 9d 49 c6 3d d8 d9 09 3d 42 2e 8d 3d d0 ef a8 3d
       0.09682009 0.033655018 0.068935886 0.082488656
000190 1c 9a 9a bd dd 93 85 3d ed 11 9c 3d 39 f2 fb bc
       -0.07548925 0.06522343 0.076206066 -0.03075515
0001a0 e7 e3 75 3d 8e 4a 29 3e 83 a6 70 bd bb 5c fb 3c
       0.060031798 0.16532347 -0.058752548 0.030683866
0001b0 a4 f8 81 3d df 91 8c bd b5 b5 65 3e 29 9f 1e be
       0.063462526 -0.0686376 0.22432597 -0.15490402
0001c0 77 d4 a3 3e 04 23 9a be 28 f6 63 3d 62 0b 20 be
       0.31998035 -0.3010484 0.055654675 -0.15629342
0001d0 55 54 6e 3c f5 d9 02 3f 58 7b 29 be f2 4f b1 be
       0.0145464735 0.51113826 -0.16550958 -0.34631306
0001e0 42 d8 d3 bd e5 71 52 be f1 33 a7 be de 7b e9 bd
       -0.10343982 -0.2055126 -0.32656816 -0.11400579
0001f0 bd 43 42 3d 76 72 ae be d3 72 db 3e 56 f7 13 3e
       0.04742788 -0.34071702 0.4286104 0.1444982
000200 77 0e 21 bd 3c 70 0e bd ad 01 64 bd 55 ac 92 3d
       -0.039320435 -0.034775004 -0.05566566 0.07161776
000210 ac 5d 75 3d e6 75 8e bd c9 fd 15 3e 3d fe e3 3c
       0.059903786 -0.06956081 0.14647593 0.027831191
000220 0e e4 7d bd fb 0d 01 be dd 07 07 bc 9c e2 15 3e
       -0.061985068 -0.1260299 -0.008241621 0.14637226
000230 7c e3 c0 3d ba d7 49 3d 0a 61 f3 bc 32 04 46 3c
       0.09418389 0.049278 -0.029709358 0.012085961
000240 93 a1 d6 3e a2 2c 92 3e 53 89 20 bb 9f 2c b0 3e
       0.41920146 0.28549677 -0.0024495914 0.34409043
000250 92 1f 40 be 17 ff 54 3c 3c 93 9d 3b ae a3 9f bd
       -0.18762043 0.013000271 0.0048088115 -0.07794891
000260 ea 51 00 bd 61 af b2 bc 43 d8 9f bd 17 1f b6 3d
       -0.03132812 -0.021812143 -0.078049205 0.08892649
000270 c0 cd 4d be 98 5d 7e 3e b9 23 a0 be 86 09 bc bd
       -0.20098019 0.2484039 -0.31277254 -0.09181504
000280 c8 96 49 be 72 72 8c 3e 63 8c 9a 3e 58 bb a5 be
       -0.19686425 0.27431065 0.30185232 -0.32369494
000290 6a 95 84 be 7a 38 ae 3e 0d 8a 99 3d 34 b3 a6 3e
       -0.25895244 0.34027463 0.07497034 0.32558596
0002a0 96 f5 8b 3e 4b 43 88 3d 70 2e 01 bd e1 eb 98 be
       0.27335805 0.0665346 -0.031538427 -0.2986746
0002b0 22 ee 50 3e 5e 23 dc 3d c6 cc 0e bf bf a8 b2 be
       0.2040334 0.10748933 -0.5578121 -0.34894368
0002c0 96 9b 8e be e1 63 4e bc 93 9d ad be 9e 4e 1c be
       -0.27853078 -0.012597055 -0.33909282 -0.15264365
0002d0 a6 e1 17 3e d9 14 96 bd 53 36 07 3e 12 8a f6 bc
       0.14832172 -0.07328195 0.13204317 -0.030095134
0002e0 09 50 5b 3c 90 b6 1a be 83 b0 86 3d 02 dd f7 3a
       0.013385781 -0.15108705 0.06576636 0.001891047
0002f0 26 c4 6a 3e 6b 1a a1 3d 0e cc 9d bd 4f 7b 46 3d
       0.22926387 0.07866367 -0.07704936 0.04845744
000300 96 c0 dc 3d 4c bd 02 3d 4c 25 55 3e 3c 1e df 3d
       0.1077892 0.03191881 0.20815009 0.108944386
000310 4c 06 fe 3d fc bd 94 bc fd 83 fe 3d 6c 56 ea bd
       0.12403545 -0.018156998 0.124275185 -0.11442265
000320 62 9a de 3c 29 ab 09 3e f8 04 8a bc ef 7d 4c 3d
       0.027173225 0.13444199 -0.016848072 0.049924787
000330 40 8d 1d 3e 0e c2 9d 3c 36 26 1c 3d bf ee 07 bd
       0.15385914 0.019257572 0.03812238 -0.03318667
000340 a0 b4 1c bd ed 4c 67 3d 68 a9 d7 bb fc d4 c7 3d
       -0.038258195 0.056469847 -0.006581474 0.097574204
000350 30 31 69 be 28 ec e7 bd 32 2c 56 bd b0 e7 18 bd
       -0.2277267 -0.1132434 -0.05228824 -0.03733033
000360 9b 7f cd bd a1 af fd 3d c8 40 4a bc 62 94 9d bd
       -0.100341044 0.12387014 -0.012344547 -0.076943174
000370 53 1a b1 3d 51 14 48 3b 13 2a 0b 3d 4a 2e 8c be
       0.08647599 0.0030529688 0.033975672 -0.27379066
000380 ca 98 f1 bb 48 4d 4b 3e 20 1c cc bd c6 ff b4 bd
       -0.00737295 0.19853699 -0.09966302 -0.088378474
000390 bf 72 cc bd b6 58 eb bc 8c ba 44 3e 96 16 19 3e
       -0.099828236 -0.028728824 0.19211787 0.14950022
0003a0 ee 64 72 3c bc a3 b9 bd d6 db 1f 3e d5 30 aa 3e
       0.014794571 -0.09064433 0.15611205 0.3324038
0003b0 6b b7 48 be 1c 4a d1 3c 68 2e 47 3e 90 a8 b3 3b
       -0.19601218 0.025548033 0.19451296 0.0054827407
0003c0 0c 8c 2a 3e 83 39 33 3d b7 bc 61 3e 98 5e 01 3e
       0.16654986 0.04375602 0.22044645 0.12633741
0003d0 37 99 db bd 3c c5 2a bc 70 20 24 3e 0f 12 64 3e
       -0.10722583 -0.010423001 0.16027999 0.22272514
0003e0 2f 64 da bd 48 ef 95 3e 1c cb 22 bd f6 d8 60 bd
       -0.1066364 0.2928412 -0.03974448 -0.05489441
0003f0 b5 bf 92 3c 85 49 9d bd 6b 70 1c 3d e3 50 15 bd
       0.017913679 -0.07680038 0.038193148 -0.036454093

89 f4 [32]
000000 16 61 3c 81 c5 f1 28 be 06 2b 5f 3e ec 08 72 3e
       -3.4599802e-38 -0.16498478 0.21793756 0.23636216
000010 61 96 df be e4 bf 2e be a2 4b a3 be 30 95 80 3d
       -0.43669418 -0.17065388 -0.3189364 0.06278455
000020 a8 bc a8 bd 39 1b 39 be 79 f6 ab 3d 4f 9f 3a 3e
       -0.08239108 -0.18076791 0.0839662 0.18224834
000030 bf 4d c5 be 50 8c 26 3e 11 e2 c1 be 58 6d 00 bf
       -0.38535878 0.16264462 -0.37867787 -0.50166845
000040 9a 00 5b 3e 49 38 05 be b9 78 92 3e 5b 66 57 be
       0.21386948 -0.13009752 0.2860773 -0.2103514
000050 a7 5d 86 bd 82 7c 13 bf c9 56 1b bd 7e 5c 5e bf
       -0.065608315 -0.5761186 -0.03792456 -0.8685988
000060 d4 e1 3a be dd dd 11 be 24 f9 a6 bc 4f 92 dc 3e
       -0.18250209 -0.1424479 -0.020382471 0.43080375
000070 fe a4 04 3e 06 8c 5d 3d 0b 36 60 3e 8f e8 70 3e
       0.12953565 0.054088615 0.21895616 0.23526214

91 f4 [64, 32, 3, 3]
000000 00 00 00 00 00 00 00 00 00 00 00 80 00 00 00 00
       0.0 0.0 -0.0 0.0
000010 00 00 00 80 00 00 00 80 00 00 00 00 00 00 00 00
       -0.0 -0.0 0.0 0.0
000020 00 00 00 80 00 00 00 80 00 00 00 80 00 00 00 80
       -0.0 -0.0 -0.0 -0.0
000030 00 00 00 80 00 00 00 00 00 00 00 80 00 00 00 80
       -0.0 0.0 -0.0 -0.0
000040 00 00 00 00 00 00 00 00 00 00 00 80 00 00 00 80
       0.0 0.0 -0.0 -0.0
000050 00 00 00 80 00 00 00 00 00 00 00 00 00 00 00 00
       -0.0 0.0 0.0 0.0
000060 00 00 00 80 00 00 00 00 00 00 00 00 00 00 00 80
       -0.0 0.0 0.0 -0.0
000070 00 00 00 00 00 00 00 00 00 00 00 80 00 00 00 00
       0.0 0.0 -0.0 0.0
000080 00 00 00 00 00 00 00 80 00 00 00 00 00 00 00 00
       0.0 -0.0 0.0 0.0
000090 00 00 00 80 00 00 00 80 00 00 00 80 00 00 00 80
       -0.0 -0.0 -0.0 -0.0
0000a0 00 00 00 00 00 00 00 00 00 00 00 80 00 00 00 80
       0.0 0.0 -0.0 -0.0
0000b0 00 00 00 80 00 00 00 80 00 00 00 00 00 00 00 80
       -0.0 -0.0 0.0 -0.0
0000c0 00 00 00 80 00 00 00 00 00 00 00 80 00 00 00 80
       -0.0 0.0 -0.0 -0.0
0000d0 00 00 00 80 00 00 00 80 00 00 00 80 00 00 00 80
       -0.0 -0.0 -0.0 -0.0
0000e0 00 00 00 80 00 00 00 00 00 00 00 80 00 00 00 80
       -0.0 0.0 -0.0 -0.0
0000f0 00 00 00 80 00 00 00 80 00 00 00 80 00 00 00 80
       -0.0 -0.0 -0.0 -0.0
000100 00 00 00 00 00 00 00 80 00 00 00 80 00 00 00 00
       0.0 -0.0 -0.0 0.0
000110 00 00 00 80 00 00 00 00 00 00 00 80 00 00 00 80
       -0.0 0.0 -0.0 -0.0
000120 00 00 00 00 00 00 00 00 00 00 00 00 00 00 00 00
       0.0 0.0 0.0 0.0
000130 00 00 00 00 00 00 00 80 00 00 00 00 00 00 00 80
       0.0 -0.0 0.0 -0.0
000140 00 00 00 80 00 00 00 80 00 00 00 80 00 00 00 80
       -0.0 -0.0 -0.0 -0.0
000150 00 00 00 80 00 00 00 80 00 00 00 00 00 00 00 80
       -0.0 -0.0 0.0 -0.0
000160 00 00 00 80 00 00 00 80 00 00 00 00 00 00 00 00
       -0.0 -0.0 0.0 0.0
000170 00 00 00 80 00 00 00 00 00 00 00 00 00 00 00 00
       -0.0 0.0 0.0 0.0
000180 00 00 00 80 00 00 00 00 00 00 00 00 00 00 00 00
       -0.0 0.0 0.0 0.0
000190 00 00 00 00 00 00 00 80 00 00 00 00 00 00 00 00
       0.0 -0.0 0.0 0.0
0001a0 00 00 00 80 00 00 00 00 00 00 00 00 00 00 00 80
       -0.0 0.0 0.0 -0.0
0001b0 00 00 00 80 00 00 00 80 00 00 00 80 00 00 00 00
       -0.0 -0.0 -0.0 0.0
0001c0 00 00 00 80 00 00 00 80 00 00 00 80 00 00 00 80
       -0.0 -0.0 -0.0 -0.0
0001d0 00 00 00 80 00 00 00 00 00 00 00 00 00 00 00 00
       -0.0 0.0 0.0 0.0
0001e0 00 00 00 00 00 00 00 00 00 00 00 00 00 00 00 80
       0.0 0.0 0.0 -0.0
0001f0 00 00 00 80 00 00 00 00 00 00 00 00 00 00 00 00
       -0.0 0.0 0.0 0.0
000200 00 00 00 00 00 00 00 00 00 00 00 00 00 00 00 00
       0.0 0.0 0.0 0.0
000210 00 00 00 00 00 00 00 00 00 00 00 00 00 00 00 80
       0.0 0.0 0.0 -0.0
000220 00 00 00 80 00 00 00 80 00 00 00 80 00 00 00 80
       -0.0 -0.0 -0.0 -0.0
000230 00 00 00 80 00 00 00 80 00 00 00 80 00 00 00 80
       -0.0 -0.0 -0.0 -0.0
000240 00 00 00 80 00 00 00 00 00 00 00 80 00 00 00 00
       -0.0 0.0 -0.0 0.0
000250 00 00 00 00 00 00 00 00 00 00 00 80 00 00 00 80
       0.0 0.0 -0.0 -0.0
000260 00 00 00 80 00 00 00 00 00 00 00 80 00 00 00 80
       -0.0 0.0 -0.0 -0.0
000270 00 00 00 00 00 00 00 00 00 00 00 80 00 00 00 80
       0.0 0.0 -0.0 -0.0
000280 00 00 00 80 00 00 00 80 00 00 00 80 00 00 00 80
       -0.0 -0.0 -0.0 -0.0
000290 00 00 00 80 00 00 00 80 00 00 00 80 00 00 00 80
       -0.0 -0.0 -0.0 -0.0
0002a0 00 00 00 80 00 00 00 00 00 00 00 00 00 00 00 80
       -0.0 0.0 0.0 -0.0
0002b0 00 00 00 80 00 00 00 80 00 00 00 00 00 00 00 00
       -0.0 -0.0 0.0 0.0
0002c0 00 00 00 00 00 00 00 00 00 00 00 00 00 00 00 00
       0.0 0.0 0.0 0.0
0002d0 00 00 00 80 00 00 00 80 00 00 00 80 00 00 00 00
       -0.0 -0.0 -0.0 0.0
0002e0 00 00 00 80 00 00 00 80 00 00 00 80 00 00 00 80
       -0.0 -0.0 -0.0 -0.0
0002f0 00 00 00 80 00 00 00 00 00 00 00 00 00 00 00 80
       -0.0 0.0 0.0 -0.0
000300 00 00 00 00 00 00 00 00 00 00 00 00 00 00 00 00
       0.0 0.0 0.0 0.0
000310 00 00 00 00 00 00 00 00 00 00 00 00 00 00 00 00
       0.0 0.0 0.0 0.0
000320 00 00 00 00 00 00 00 00 00 00 00 80 00 00 00 80
       0.0 0.0 -0.0 -0.0
000330 00 00 00 00 00 00 00 80 00 00 00 00 00 00 00 80
       0.0 -0.0 0.0 -0.0
000340 00 00 00 80 00 00 00 80 00 00 00 00 00 00 00 80
       -0.0 -0.0 0.0 -0.0
000350 00 00 00 80 00 00 00 00 00 00 00 00 00 00 00 00
       -0.0 0.0 0.0 0.0
000360 00 00 00 80 00 00 00 80 00 00 00 80 00 00 00 80
       -0.0 -0.0 -0.0 -0.0
000370 00 00 00 00 00 00 00 00 00 00 00 80 00 00 00 80
       0.0 0.0 -0.0 -0.0
000380 00 00 00 80 00 00 00 80 00 00 00 00 00 00 00 00
       -0.0 -0.0 0.0 0.0
000390 00 00 00 00 00 00 00 00 00 00 00 00 00 00 00 00
       0.0 0.0 0.0 0.0
0003a0 00 00 00 00 00 00 00 00 00 00 00 80 00 00 00 80
       0.0 0.0 -0.0 -0.0
0003b0 00 00 00 80 00 00 00 80 00 00 00 00 00 00 00 00
       -0.0 -0.0 0.0 0.0
0003c0 00 00 00 80 00 00 00 80 00 00 00 80 00 00 00 80
       -0.0 -0.0 -0.0 -0.0
0003d0 00 00 00 00 00 00 00 80 00 00 00 80 00 00 00 80
       0.0 -0.0 -0.0 -0.0
0003e0 00 00 00 80 00 00 00 80 00 00 00 80 00 00 00 80
       -0.0 -0.0 -0.0 -0.0
0003f0 00 00 00 80 00 00 00 80 00 00 00 80 00 00 00 80
       -0.0 -0.0 -0.0 -0.0

92 f4 [64]
000000 2c 4a d2 80 4d 02 89 b1 c9 0e 22 81 d2 ec 1e 82
       -1.9312062e-38 -3.9874863e-09 -2.9765309e-38 -1.1675971e-37
000010 36 bc 20 81 2e 61 83 80 bb 34 59 81 1b e9 59 bd
       -2.9522393e-38 -1.2065311e-38 -3.9894438e-38 -0.053200822
000020 2d 9c 14 3e 88 6b 0f 3d 64 54 8c 3d fc bd 35 81
       0.14512701 0.03501466 0.06852034 -3.3380757e-38
000030 7e 61 96 bd e0 75 65 bc 8c 5a 3e 82 70 d8 a9 82
       -0.07342814 -0.014005154 -1.3984981e-37 -2.4956547e-37
000040 31 02 20 3e d2 78 a5 80 62 10 2e bd 94 4d ca bd
       0.15625836 -1.5196199e-38 -0.042496093 -0.09878078
000050 c9 5c 85 82 b2 c6 27 3e 56 6c 58 bc c1 ad 39 bd
       -1.959585e-37 0.1638439 -0.013209423 -0.04533172
000060 7b 2e 53 80 dc c5 31 81 6e fd ea 81 cd eb cc 3d
       -7.63902e-39 -3.2651723e-38 -8.632168e-38 0.10005913
000070 32 79 34 81 eb 72 1d a1 8e 28 34 3e 12 57 c3 81
       -3.3147732e-38 -5.334576e-19 0.17593595 -7.1756627e-38
000080 db 14 66 bd e9 55 b1 80 0a 42 db bc 23 4c 42 82
       -0.056172233 -1.6285702e-38 -0.026764888 -1.4274719e-37
000090 16 02 20 81 ce 6f fb 3c f5 82 7e bd 3e c5 6a 80
       -2.9388855e-38 0.030692961 -0.06213661 -9.80532e-39
0000a0 a1 6e 03 81 7a 0e 49 80 fe 7b 2d bd 7e 80 21 82
       -2.4140272e-38 -6.709184e-39 -0.042354576 -1.1865287e-37
0000b0 fc a6 99 bc b6 fc aa bc 4d 5a 87 be 73 40 04 82
       -0.018756382 -0.020872455 -0.26436082 -9.716324e-38
0000c0 f4 64 bb 80 3c b5 84 bd aa a9 9f 3d 46 9c 43 be
       -1.7209453e-38 -0.0647988 0.07796033 -0.19102582
0000d0 92 be 8b 80 ff f8 a4 80 7f 26 47 be b2 da 50 81
       -1.2833498e-38 -1.5150344e-38 -0.19448279 -3.8360473e-38
0000e0 5f 01 90 80 d2 c0 03 81 55 e5 67 bd 6d df 96 bd
       -1.3224803e-38 -2.4199242e-38 -0.056615192 -0.07366834
0000f0 30 87 2e 81 45 ba 01 82 cb bb ae 80 c6 cd 3d bd
       -3.2055745e-38 -9.53088e-38 -1.6046744e-38 -0.04633882
