model/papagaio.onnx (onnx, 301496 bytes, 16 tensors)

fc.weight f4 [2, 256]
00000000: 57f9 1abd 2051 803c 1f0a 7abd 9a9f 04bd
00000010: 43c2 64bd 295c 78bd 1654 0abd 6646 97bc
00000020: 207a 8fbc 81ff 1fbb ea33 51bd 5937 893d
00000030: 851a 04bd 6008 9e3c 56e0 41bd 829f 31bd
00000040: ce5e 453d 9069 193d 9cc5 52ba eb2c e33c
00000050: e9ea 56bd d59a 933d 277f a23c cc92 3f3d
00000060: cafc 783d f997 cbbb 5751 fa3c ff31 20bd
00000070: baef dd3c 86a4 32bd 7045 aabc d6b9 f43b
00000080: cfc9 db3c 7928 c0bb 8f19 663d 4a2c 5c3d
00000090: fe0a 28bc 980a f2bc 4c78 03bc 8b76 8ebb
000000a0: 86d8 fbba 5e2b 92bd d836 ec3c d7d3 f73c
000000b0: cfc9 00bc e384 8ebc b1da 253d 366e 88bd
000000c0: 5d61 2e3d c849 763c c060 8c3d cd74 c8bc
000000d0: 5ae7 6c3d 1558 273d 1f5f 023d 0ec7 1a3d
000000e0: 24f8 773d 61c2 cdbb 14f4 4f3d b2f3 0f3d
000000f0: 2267 1ebd 08e4 6b3b c547 94bd 2c56 9e3c
00000100: fdb4 ba3c 9e73 5b3d c59a a5bd 172d 2abd
00000110: 320a 7e3c b0a8 b6bc 8eae 5d3d 0ff5 a83c
00000120: 451f 003d 3554 113d 30e0 84bc 85e9 7b3c
00000130: 6e91 d1bc ee21 6dbd 04ba dbbc fef2 813c
00000140: ebd5 23bd a99b a13c 386c 8cbd 0bf0 d33b
00000150: 2870 50bd 1a42 5f3c ed46 283d 0e41 26bd
00000160: 2e4e 433d 0b37 afbd f402 0e3d d036 07bd
00000170: 1771 14bd d513 97bd 141e ea3b 5f2f 97bd
00000180: f256 5e3d 7f00 d2bb 55c8 ed3c f207 b03c
00000190: b740 843d 3719 efbc 10e3 1cbc d35b f83c
000001a0: 7dc3 0b39 a3e7 8f3c 8ef2 49bc 76af d6bc
000001b0: 8a38 e8bc a5ec 923c 9e19 493d 894b 8ebd
000001c0: 4551 1bbd a509 0f3d fff1 70bd 2959 21bd
000001d0: 9604 2abd 4242 bbbd 01b5 0bbc b260 acbd
000001e0: 45b9 f33c 12f2 b6bc 6b28 683d 8fed a4bc
000001f0: 5bcd 8bbd 9009 1abd 9e2c 0ebb 5ef5 20bc
00000200: 0616 8b3d 7da9 10bd d8dc 7dbc 5279 18bd
00000210: 4b24 8fbd f0c8 da3c da57 ff3c 2c1b 833d
00000220: 79a1 383d f663 36bd cb78 8e3d f78a 7cbd
00000230: a369 873d 9979 2e3d aa12 22bd c3fd 473d
00000240: ca83 6dbd 99b8 4c3c 5538 fc3c c057 303b
00000250: c7cd 97ba e167 de3b 6e73 17bd bed3 16bd
00000260: 8e94 3bbd 956e 133d e564 29bd 880b a33c
00000270: 23fc 013d 5ec6 333d ac96 7d3d e591 1b3d
00000280: ca0d a93c ce55 433d 25b6 9d3d 0c7b 8b3d
00000290: d4d5 713d 2bad 133c d3de 6c3d e93b 81bd
000002a0: e61a 98bd 2825 8bbd ff63 b6bb c50a ddbc
000002b0: 4448 563d cd3f bdbc fa75 0dbd 9039 7b3c
000002c0: 0359 933d d412 71bc e0eb 863d 8bda 823d
000002d0: 86d4 7fbd dc2a 0b3d 85db 66bd d4fc 553d
000002e0: 5136 8bbd 86cf de3c 9d00 adbd 295c 01bc
000002f0: 7490 a93b 0e28 0bbd 440e f53b d363 373d
00000300: f30d 74bd badf 6d3d b127 5dbd 8d81 1dba
00000310: d0af ac3b b5ba 553d 6ca6 2bbd 8eeb f9bc
00000320: 1f7d bb3c f99c 9dbc d87b 353d 946d 4b3d
00000330: f8fd 8a3d 7265 fa3c c947 3e3c b29e d33c
00000340: 4ec7 a5bc d772 5cbd f308 91bd 1b61 f53b
00000350: 952a 1e3c 95cf 76bc 2e1e 2fbd 453f 723d
00000360: 764b 20bc 01a2 afbd 7428 9cbd b5fe 45bd
00000370: 8120 98bc 637a 083b fbe1 f03c b6a4 c9bc
00000380: 7ba2 603d 3958 88bd 2b2f 3ebd 1f67 bd3c
00000390: 18eb 43bd 01dc 6c3d b756 60bd d989 acbc
000003a0: 61b2 42bd aba1 8fbd eb11 8d3d 748e d1bc
000003b0: e3a5 18bd bcbc 363d d7f5 9bbc 406e 223a
000003c0: 4321 59bd e540 043b 8a48 873c c1ad 663d
000003d0: 7c85 953d 671e b4ba f58f 883d 3025 1fbd
000003e0: 1448 2d3c 8541 a3bd 17b7 193b 7218 8ebd
000003f0: 2dc3 d73b d2db f6bc 8826 14bd 4a1d 15bd
-0.037835445 0.015663683 -0.06104481 -0.03237877 -0.055849325 -0.060634766 -0.033771597 -0.018466186
-0.017514288 -0.0024413767 -0.0510749 0.0670001 -0.032251853 0.019291103 -0.047333084 -0.04336501
0.048186116 0.037454188 -0.00080403103 0.02773138 -0.05247012 0.07207266 0.019836022 0.046770856
0.060787953 -0.006213185 0.030556364 -0.03911018 0.02709185 -0.043613933 -0.020785064 0.0074684424
0.026829628 -0.0058641997 0.05617672 0.053753175 -0.010256527 -0.029546067 -0.0080242865 -0.0043476275
-0.0019214309 -0.07137178 0.028834745 0.03025238 -0.007860615 -0.01739735 0.040491764 -0.06661646
0.04257332 0.015032239 0.06854391 -0.024469757 0.05783782 0.040855486 0.031828996 0.03778749
0.06053938 -0.0062792753 0.05076988 0.035144515 -0.038672574 0.0035994072 -0.072402515 0.0193282
0.02279138 0.053577058 -0.080861606 -0.041546907 0.01550536 -0.022297233 0.054121546 0.020624666
0.03127982 0.035480697 -0.016220182 0.0153755 -0.025582042 -0.057893686 -0.026822098 0.015862938
-0.03999893 0.019727545 -0.068565786 0.0064678243 -0.05088821 0.0136266 0.041083265 -0.040589385
0.04768198 -0.085554205 0.034670785 -0.033011258 -0.036240663 -0.073768295 0.007144699 -0.07382082
0.054282136 -0.0064087505 0.02902619 0.021488164 0.06457656 -0.029186828 -0.00957562 0.030317223
0.00013328898 0.017566508 -0.012325896 -0.026206713 -0.028347272 0.017935107 0.049096696 -0.06948001
-0.0379193 0.034921307 -0.058824535 -0.03939167 -0.04150828 -0.09143497 -0.008527041 -0.08416881
0.02975143 -0.022332225 0.05667917 -0.020132808 -0.06826278 -0.037606776 -0.0021694074 -0.009824125
0.0679131 -0.035317887 -0.015494548 -0.037225075 -0.06989344 0.026707143 0.03116982 0.06401667
0.045075867 -0.044528924 0.06956633 -0.061655965 0.066119455 0.042596433 -0.03956858 0.04882599
-0.057987012 0.012495183 0.03078858 0.0026907772 -0.0011581712 0.0067872857 -0.036975317 -0.036823027
-0.04579597 0.03599413 -0.041355986 0.01990296 0.031734597 0.04389035 0.06191127 0.037980933
0.020636458 0.04768925 0.07700757 0.06810579 0.059041813 0.009013454 0.05782969 -0.06310255
-0.074270055 -0.06794196 -0.0055661197 -0.026982674 0.05231501 -0.023101712 -0.03453634 0.015333548
0.07194712 -0.014713962 0.06587958 0.0638934 -0.062458538 0.03397642 -0.056361694 0.05224307
-0.067974694 0.027198564 -0.084473826 -0.007895508 0.005174691 -0.033973746 0.0074785072 0.044772934
-0.059583616 0.05807469 -0.05399293 -0.0006008379 0.005269982 0.05218001 -0.04190676 -0.030507829
0.02288681 -0.01923989 0.04430756 0.04966505 0.06786722 0.030565951 0.011613795 0.025832508
-0.020236637 -0.053820457 -0.07081785 0.0074883825 0.009653707 -0.01506414 -0.04275339 0.05914237
-0.009783616 -0.08575822 -0.07624903 -0.04833861 -0.018570187 0.0020824901 0.02940463 -0.024614673
0.054842453 -0.06657452 -0.0464317 0.023120461 -0.047831625 0.057827 -0.054770198 -0.021061825
-0.047533397 -0.070132576 0.06888183 -0.025580622 -0.037267577 0.044613585 -0.019038124 0.0006196238
-0.053010236 0.0020180282 0.016514082 0.05631805 0.07300851 -0.0013741971 0.066680826 -0.038853824
0.010576267 -0.07971481 0.0023455077 -0.06938256 0.006584546 -0.030134115 -0.03616956 -0.036404885

fc.bias f4 [2]
00000000: b8ce 5f3b c56a a03d
0.0034150314 0.07832865

79 f4 [16, 3, 7, 7]
00000000: 4834 5ebe cc3b 90be fe09 73bd 5baa 1b3e
00000010: 91e0 acbd df0e 5a3e 2e97 80bd 53b5 91be
00000020: 56d5 01be 535a 663e f6e1 793e c9f2 26bc
00000030: 34a9 b9bd 9e69 b23d c189 48be 8336 353e
00000040: b99c 153e d2e6 33be 6dfd 473e d998 153e
00000050: 1290 153e 7b22 3d3e 13e2 223e 3c9e e63d
00000060: 20d3 24bd b78f 0cbe 0d0d 5cbc d21d 053e
00000070: d453 513d fc44 ddbd a685 0d3e f0f3 3dbe
00000080: 9b88 913d 79fc 9b3d d049 cf3d 3e8e a5bd
00000090: a3c8 5f3d d2fc 593e 1900 42be 87ed 2cbe
000000a0: 4ff1 47be 1339 b23d 8f7f 07bd 5e9d 773e
000000b0: 6cb1 34be 8950 edbd 76d7 24be 9350 35be
000000c0: 2032 633d d637 0b3e 114f 6fbc 0df8 09be
000000d0: eb99 023e aeaa 57bd 0508 0fbc fe63 23be
000000e0: 6d96 52be 42e1 ff3c 43ae 863e 267f f0bd
000000f0: b9d0 503e 3b64 c5bd 8efe 823e 5fb5 66bd
00000100: 0f24 733d 7f33 b7bd 05af d03d 4140 12be
00000110: 106d 3abe d349 fb3d d65d b8bb daba 92bd
00000120: 8df2 1a3e 53cf b0bc 638f ebbd 370a 6a3d
00000130: 8aa5 4fbe 8480 c53d 6c27 1d3e 783c 5cbd
00000140: 3db2 853e 8838 833e 8400 b8bd fd69 373d
00000150: aacc 553e dd0b 643d 917d 743d b919 f23c
00000160: 8fb2 fdbd 0dd1 c4bd 6aca 2dbe ec62 af3c
00000170: e2c9 1c3e ed16 3a3d c3a0 1e3e ed08 4e3e
00000180: 3110 483e 3feb 3f3e 55f5 90be 2d01 84bd
00000190: 6112 d4bc d3a9 3b3e f362 483d f502 d8bd
000001a0: 0b29 0e3e d623 22be caea e33c 9eed 02ba
000001b0: 1a68 163e 6e40 ea3d da6b 323d 0bbe f4bd
000001c0: c841 31be 4a16 303d 945e 37bd 26fc 02bd
000001d0: 3b59 5d3e 4773 5c3e ea26 24bd 80e8 87bd
000001e0: 6b9f 9b3d 2138 1e3d c542 103e 843a 743d
000001f0: 866e 793b 09bd 4e3e 2857 ebbc 1c67 213e
00000200: b034 123e 66da 103e e7f6 f73d 43cf 243e
00000210: f7a1 383e e4ac 263e 9610 22be 70c2 19be
00000220: c28b 483e df4f 6abd 66c3 e0bd 7fc9 123d
00000230: dac6 7dbc 858d 023e 8ff8 8f3d 20ef f5bd
00000240: 25a4 863c 7f8e dd3d 5b5d 363e c90b 213c
00000250: 01b8 743c bddc d83d 5201 87bd 4bd1 17bc
00000260: 7590 d0bd a25d d5ba e69f 13be 321f 21bd
00000270: 10ad fdbd 551e adbd cd13 c8bc 7f05 ce3c
00000280: 9193 e53c 4873 28bd a705 5fbe cf02 9bbd
00000290: 1417 cf3c 5345 203d 69f0 8a3b 5209 ba3c
000002a0: 9cd5 9f3d b95b a0bd 23ff 1bbe d96d 31be
000002b0: 9f52 2cbe c547 2a3d 0073 f4bb 8c08 84bd
000002c0: beeb 513c 3125 133d b678 ee3d cab7 843c
000002d0: 5a7f 233d 9172 e4bd 820c 1cbe 27ae 12be
000002e0: 74f4 50be f012 58be 1690 2fbe efb4 17be
000002f0: 7a5d 68be e0bc 4ebe 51c0 f5bd 430f 623c
00000300: fa47 45be 5ec3 efbd b8ac 7abe 4c0c ab3d
00000310: c34d bbbc df43 5b3d d6a0 d93c 62ca 56be
00000320: 37b2 8e3b c18d 1fbe 4e55 a6bd 1135 81bd
00000330: c813 273e 53fa c73d c229 2d3e 1228 643c
00000340: 764b 943d 9c54 5bbc b7fb 92bd 408c 4c3d
00000350: 6072 8abd 6e71 be3d 5cbc bf3d 9272 133e
00000360: d60a febd e1f1 98bd 8507 27be 69ad 07be
00000370: aeb9 083e c118 cc3c 3b12 1a3e 85f8 13bd
00000380: 3222 ae3c 3d7c 943d c7f9 d7bd da0e e33c
00000390: a98b 2abc 59a8 d03d 1bdd ae3d 0ebe 44bd
000003a0: 4030 bd3d 60ff 263e 14bb 003e 6a32 1abe
000003b0: 71b7 c8bd af06 bf3d db16 873d f7fe 68bd
000003c0: 4d37 3abe 826f a2bd 0dff df3d 6a64 f6bc
000003d0: 5203 2fbe ed8c 16bc fe54 243e 05c7 28be
000003e0: 53a2 233e 5148 d73d 758d 8a3d 5e41 9cbd
000003f0: dfe8 08bd aafa 2a3e 9992 1e3e fcb4 df3d
-0.21699631 -0.2817062 -0.0593357 0.15201704 -0.0844127 0.21294735 -0.06278835 -0.28458652
-0.12679037 0.22495393 0.24402604 -0.01018972 -0.09065476 0.08711551 -0.19583799 0.17696576
0.14610566 -0.1756852 0.19530268 0.14609088 0.1460574 0.18470185 0.15906553 0.112606496
-0.040240407 -0.13726698 -0.013430846 0.12999657 0.051105335 -0.10804173 0.13820514 -0.18550086
0.071061336 0.07616515 0.101215005 -0.08083771 0.0546347 0.2128785 -0.1894535 -0.16887484
-0.19525646 0.08702292 -0.033080634 0.24181125 -0.17645806 -0.115876265 -0.16097817 -0.17706518
0.055467725 0.13595518 -0.014606253 -0.1347353 0.12754028 -0.052653007 -0.008729939 -0.15956113
-0.20565195 0.031235341 0.26304826 -0.11743002 0.20392121 -0.09638258 0.25584835 -0.056325313
0.05936056 -0.08945369 0.10189632 -0.14282323 -0.18205667 0.1226994 -0.0056264205 -0.07164545
0.15131588 -0.021583235 -0.11501958 0.057138648 -0.20277992 0.09643653 0.1534707 -0.053768605
0.26112548 0.25629067 -0.08984473 0.044778813 0.20878854 0.055675376 0.059690062 0.029553281
-0.12387573 -0.09610186 -0.16971746 0.021409474 0.15311387 0.04543202 0.15491013 0.20120592
0.19537427 0.18742083 -0.28312173 -0.06445537 -0.02588767 0.18326502 0.04892249 -0.10547439
0.13882844 -0.15833983 0.027821917 -0.0004994514 0.14688149 0.1143807 0.043559887 -0.1195031
-0.1731025 0.042990007 -0.04476793 -0.03197875 0.2161607 0.2152835 -0.040076174 -0.06636143
0.07598766 0.038627747 0.1408797 0.059626117 0.0038060262 0.20189299 -0.028728083 0.1576199
0.14277911 0.14145812 0.1210764 0.16094689 0.18030535 0.1627689 -0.1582664 -0.15015578
0.19584563 -0.057205077 -0.10974769 0.035836693 -0.015489304 0.12749298 0.07029831 -0.120085
0.016435692 0.108181946 0.1780905 0.00982947 0.014936448 0.105889775 -0.06592049 -0.009266208
-0.10183803 -0.0016278515 -0.14416465 -0.03933639 -0.12386525 -0.08453051 -0.024423504 0.025149105
0.028024467 -0.041125566 -0.217795 -0.07568895 0.02527956 0.039128613 0.004240085 0.022709522
0.07804415 -0.07829995 -0.15234046 -0.1732706 -0.16828392 0.04157235 -0.007459998 -0.06446943
0.012812553 0.03592414 0.116441175 0.016200919 0.039916374 -0.11154664 -0.15239146 -0.14324246
-0.20405751 -0.21100974 -0.17144808 -0.14815114 -0.22691908 -0.20189238 -0.11999572 0.013797584
-0.19265738 -0.11707185 -0.2447995 0.08351955 -0.022864228 0.053531524 0.02656595 -0.2097564
0.004354741 -0.15581419 -0.08121739 -0.0630895 0.1631614 0.097645424 0.1691046 0.013925569
0.072409555 -0.013386872 -0.07176917 0.04993844 -0.067600965 0.09298979 0.093620986 0.14399174
-0.124044105 -0.0746801 -0.16311462 -0.13249744 0.13352081 0.024914147 0.15046017 -0.03612568
0.02125654 0.07250259 -0.10545688 0.027717043 -0.010409274 0.1018836 0.08538266 -0.048032813
0.092377186 0.16308355 0.12571365 -0.15058294 -0.09800614 0.09327447 0.06596156 -0.05688378
-0.18185158 -0.07931425 0.10937319 -0.030077178 -0.1709111 -0.009188873 0.16048047 -0.1648217
0.1597989 0.1051184 0.06765262 -0.07629655 -0.03342521 0.16697183 0.1548561 0.10923192

80 f4 [16]
00000000: fda6 aabf 7e9b 973e 58d4 80bf 3d17 b5bf
00000010: e718 f23d d21e 643c f473 783f 1151 593f
00000020: b446 a5be 0e4c f83d fe59 aebe 9241 26bf
00000030: 6b5e 05bf 14e8 7ebf 50aa 623f 6ed6 773f
-1.3332211 0.2961082 -1.0064802 -1.4147717 0.11821156 0.013923364 0.9705193 0.8488932
-0.32280505 0.12123881 -0.34053034 -0.649438 -0.52097195 -0.99572873 0.88541126 0.9681157

82 f4 [32, 16, 3, 3]
00000000: 7597 04bd ef4d 193d fbe2 86bc 36b7 20bb
00000010: 8f89 bcbb 222d adbd 2c16 2abd 76dc e93c
00000020: 2a82 71bd 9c07 083d 35e2 413d d800 e9bd
00000030: 286c 213c 4a0c 7fbd 4481 ddbc c713 eebd
00000040: 7fb0 d23d 8fa0 44bd 8fe2 1bbc 8e99 b33d
00000050: 7545 6dbd 7fb3 193c b281 ddbb 8325 0fbe
00000060: e64f f4bd 3047 30bc aaba dd3c 4249 ebbd
00000070: ad1a 30bd b14f 04be 2497 f5bd 3c00 acbd
00000080: f832 34bb 6e83 bebd b321 47bd 4a27 88bd
00000090: 8221 c4bd 87ab a8bd 8911 cb3b 5b7f 6dbd
000000a0: 6081 b83d f70a cdbb 3cdf 0abd 5bf2 b63c
000000b0: 3227 433e 48b1 873d 9a61 bf3d 78fa 05be
000000c0: 371a 82bc 7cff 153d 96bc 54bd e146 cebd
000000d0: e4cb b13c 0fbc 813c fb73 bb3d 3a4a fc3c
000000e0: 9883 d23d 6854 d3bd c9a7 d23d 5553 dc3d
000000f0: 43f0 16be bf68 67bd ef2a 4e3d a568 c5bd
00000100: 9a1a c33d 63f0 c0bb c1ef 9bbd dade 2c3d
00000110: eb58 0b3d a356 3bbd e906 003e c00b 783d
00000120: 9723 32be 6f83 173e df3e a23d 72aa d0bc
00000130: a9b0 7aba a2db dc3d 63e2 c93b 1f2f 293e
00000140: 2460 4c3e f5ba 383c 1182 9abd 3b76 34bd
00000150: b73e a8bd 6bf1 97bd 26d0 293e 82ed b63c
00000160: 941b 8d3d e69e cd3d 3678 e9bc d217 313d
00000170: 16e5 3e3d 2b79 99bd 3b23 863d df04 033d
00000180: d8ef 19be 0fb0 283d 9f72 0a3b 04e0 44bd
00000190: d273 913c 7a61 35bc 8892 a5bc 89aa 86bd
000001a0: 1984 ed3b 3176 133d 114e d4bc 1944 0dbc
000001b0: 41d7 663d 1474 803d c1f8 373d 6cf6 cabd
000001c0: bfbd 813d f7b9 f9bd a1b5 7dbd ddd2 863d
000001d0: f9e1 76bd b107 813c fc8b 75bc 7a02 123c
000001e0: 8264 80bd 172a 99bc 477f c8bd b947 afbd
000001f0: e9a3 bf3d 605c 6d3a 6d08 f03c e119 76bd
00000200: 5912 62bd 9c5a e6bc 11fc 98bd 19ed 80bd
00000210: 606b 20bd 5c31 67bd 2651 e6bc 60af f8bd
00000220: 1e2d df3c f156 2f3d 14b6 2fbd 9c22 0cbd
00000230: 1552 3e3d ddf0 5cbc 7592 9bbd 2334 c2bc
00000240: 1aaa 56bd f3cc 763d c3f0 df3b 96ba 6bba
00000250: 0c1e 8ebd 61b3 843b 81c4 993c 9f42 65bd
00000260: 0d34 46bd cf93 743d eeef aa3d a2fe 9ebc
00000270: 8576 26bd 2e30 b13c 57cd 863d 968e aa3b
00000280: 024c 58bd c0ed e13b 5772 c43c 4c73 f2bc
00000290: 5939 3dbd d10a 86bd 4a19 593d a5b3 583d
000002a0: 2cd7 72bd 1d8c 9abd cbcc 423d bd18 c4bc
000002b0: 4900 6f3d f775 00bd e163 0cbd 8e3d 2cbd
000002c0: ae93 8b3c 4581 e4bc 9229 39bd 1bd8 a8bd
000002d0: 5f3f e53c 9b2a 92bd e3bb 183c e570 3fbd
000002e0: f8d0 103d b83d e7bc a344 483d 6caf 953c
000002f0: 231f 82bc 3bef 16ba 3156 e7bc 1348 1c3d
00000300: 1e13 5a3d 5ac0 8dbd caad 3a3d 37a3 aabd
00000310: fae1 233d 4419 8ebd 5e0a 38bd 8ae8 733d
00000320: 4d2d f0bc f87c 283d 2d25 013d 77e9 08bd
00000330: 97c1 853d 560f 88bb 1ac2 bb3c dc3c af3a
00000340: 5537 1dbd 5ea9 53bd 3fcd 15bd a6d2 0f3c
00000350: d11f 60bd d04e 643d f12d 4dbc 2dd0 963c
00000360: 8663 b83d b5ec b13c f3a5 173d 1a5e 683d
00000370: adf0 333d 58e6 44bd 960b 32bd daf1 9dbd
00000380: 6a30 a8bd c2e0 3dbd 22e7 86bd eaac 5d3d
00000390: 7b6c 333d 92c5 b73c cdf7 dcbd a723 e43a
000003a0: 22d4 27bd 6816 cc3b 9186 73bd 5c68 8cbd
000003b0: a9cf 47bb 0eb6 b0bc c8ca 89bd 83fb 3cbd
000003c0: dddd 64bd 4d61 5dbd 8ecf 96bc da14 663c
000003d0: 1103 91bd 2b50 dfbc 9d7b a6bd bae5 023d
000003e0: 148d 293d 9651 3b3d 877f cb3c bf88 91bc
000003f0: 9658 acbc f3b9 5ebd f037 69bd 49e5 b73c
-0.032371003 0.03742784 -0.016465655 -0.0024523265 -0.005753703 -0.08455874 -0.04152505 0.028547507
-0.058962025 0.033210382 0.04733487 -0.11377114 0.009852447 -0.06226758 -0.027039178 -0.11624866
0.1028757 -0.048004683 -0.009514465 0.087695226 -0.057927568 0.009381174 -0.0067598457 -0.13979153
-0.11929302 -0.01075916 0.027066547 -0.11488582 -0.04299419 -0.12921025 -0.119917184 -0.08398482
-0.00274962 -0.09302412 -0.048616122 -0.06648119 -0.095767036 -0.08235841 0.0061971587 -0.057982784
0.09009051 -0.0062574106 -0.0339043 0.022332361 0.1905792 0.066256106 0.09344788 -0.13083827
-0.01588164 0.036620602 -0.051937662 -0.10072113 0.021703668 0.015836744 0.09152981 0.030797113
0.10279006 -0.103188336 0.10285909 0.10758082 -0.1474009 -0.056496378 0.050333913 -0.096391
0.09526558 -0.0058880313 -0.07614089 0.042204715 0.034020346 -0.04573692 0.12502636 0.06055808
-0.17396389 0.14796232 0.07922148 -0.0254719 -0.00095630676 0.10784079 0.0061610206 0.16521882
0.1995855 0.011275043 -0.075443394 -0.044058066 -0.08215087 -0.07419094 0.16583309 0.02233005
0.06890026 0.10040073 -0.028499704 0.043235607 0.046605192 -0.07493814 0.065496884 0.031987067
-0.150329 0.041183528 0.0021125448 -0.0480652 0.017755423 -0.0110706035 -0.020211473 -0.06575496
0.0072484133 0.036001388 -0.025916131 -0.008622193 0.056357626 0.0627214 0.044914965 -0.099102825
0.06335019 -0.12193673 -0.061940793 0.06583188 -0.060274098 0.015750738 -0.014986988 0.008911723
-0.0626917 -0.018696828 -0.09789901 -0.08558602 0.09357435 0.00090545975 0.029300893 -0.060083274
-0.05519328 -0.028119378 -0.07469953 -0.06295223 -0.0391649 -0.056443557 -0.028114866 -0.12142825
0.027243193 0.042807523 -0.042898253 -0.034212694 0.046465 -0.013485161 -0.07596294 -0.023706501
-0.052408315 0.06025405 0.006834121 -0.0008992342 -0.06939325 0.004049704 0.018770458 -0.055971738
-0.048389483 0.059711274 0.08346544 -0.019408528 -0.040640373 0.02162942 0.06582134 0.005204986
-0.05280686 0.006894797 0.023980303 -0.029595993 -0.04619727 -0.06545032 0.053002633 0.052905697
-0.059287235 -0.07546256 0.047558587 -0.023937577 0.05834988 -0.0313625 -0.03427494 -0.04205089
0.017038193 -0.027893672 -0.04520566 -0.08244344 0.02798432 -0.071370326 0.009322139 -0.046738524
0.035355538 -0.028227672 0.048893582 0.018272124 -0.015883988 -0.0005757694 -0.028239341 0.038154673
0.053240888 -0.06921454 0.045575894 -0.08331912 0.04001043 -0.06938413 -0.044931762 0.05954794
-0.029318476 0.041134804 0.031529594 -0.033425774 0.06531065 -0.004152219 0.022919703 0.0013369578
-0.038382847 -0.051675193 -0.03657269 0.00877825 -0.054717842 0.055739224 -0.01252316 0.018409813
0.090033576 0.021719316 0.037023496 0.056730367 0.0439307 -0.048071235 -0.04346808 -0.07712145
-0.08212359 -0.046356924 -0.06587054 0.05411998 0.043804627 0.022433076 -0.10789452 0.0017405645
-0.04097379 0.006228257 -0.059454504 -0.068558425 -0.0030488765 -0.021571185 -0.067281306 -0.046138298
-0.055875648 -0.05404787 -0.018409517 0.014043057 -0.07080663 -0.027259907 -0.08129046 0.031957366
0.04139431 0.045732103 0.024841083 -0.0177654 -0.021038335 -0.054376554 -0.05693811 0.022448199

83 f4 [32]
00000000: 6f97 003f e726 423e 9f85 3f3f fc1a 463f
00000010: 5e8d 9fbf c43e 503f 73a7 313f fbc0 f43e
00000020: b542 a0bd f7f0 25be e292 46be 6620 b5bd
00000030: 1a44 5bbe 8fc4 8abe 9521 a73e f1da d7be
00000040: 1dbf 863e 963e 393f 884f 6abe 869f 683f
00000050: 4432 d03e 1bab 333f 7e7e 153e 83c6 8abf
00000060: eb92 bdbe 704d 12be f65c cc3e 5fd5 cd3e
00000070: c316 2d3f 8625 473b bca0 083f 1011 c4bb
0.5023107 0.18960153 0.74813265 0.77384925 -1.2465017 0.8134577 0.6939613 0.47803482
-0.07825223 -0.16205202 -0.19391969 -0.0884407 -0.21412697 -0.27103087 0.3264281 -0.42159227
0.26317683 0.72361124 -0.22881901 0.90868413 0.4066335 0.7018296 0.14599034 -1.0841831
-0.37026152 -0.14287353 0.39914674 0.40201852 0.67612857 0.0030387356 0.5337026 -0.0059834793

85 f4 [32, 32, 3, 3]
00000000: d887 65bd 7943 973c 4581 a13c 425b 1c3d
00000010: 483d 853c 700b 4f3d c473 803d c71a 7ebd
00000020: 68da 09bc 4760 6c3d fbc9 2ebd 0f48 02bd
00000030: 843a 903d f91f acbd d8b0 183d 994a 3d3d
00000040: 5732 3e3d e70f 34bd 3d4a d13d a238 b73d
00000050: c9d4 4cbd 4040 f9bc f31f 9b3d 1ba2 cd3c
00000060: eb3f ffbc a985 173d f4ec 31bc 4d89 573d
00000070: 620e c2bd 225c 333c 5c38 70bc 16a6 e3bc
00000080: b130 f63c 3366 2cbc 7de7 1dbd ca9c 4fbd
00000090: 03dc b93d 9ae3 be3c 5179 c33d 080f e83a
000000a0: da0d a93d 49b1 f5bc 7f20 4fbd 7038 92bd
000000b0: debd bf3d 19a3 343c 4daf b23d dea2 e0bc
000000c0: 081c d73d 9808 04bd 0dce debd 8ca7 09bc
000000d0: 2e53 4dbb 7d7e 943c eced 423d 2517 07bd
000000e0: 63ab 1e3d 92cb 623d bff3 bfbd 6b1b 333d
000000f0: 6c70 3b3d 1964 fd3c 6ca8 fc3c b8e5 39bc
00000100: cae8 3d3d 0f59 a83d ec2f 613d 5f27 d2bc
00000110: 5205 1abd 2ec3 113e bc55 b33d 2767 083e
00000120: 6902 593d 3a10 2a3d 27ff f83d d055 973d
00000130: 1b26 593d 6ee3 a23d fef7 053d 2e4d ed3d
00000140: 3afc 7a3d 820e e43c ec25 babd 6fc8 963d
00000150: 7808 273d ebba 953d 9712 41bd dd0e b23d
00000160: 537b d83d f3c8 e9bc a42a ae3d a867 cc3d
00000170: b279 ea3d 726f 9b3d bfec 093e a788 1a3e
00000180: 6e1b 1a3d d48b 453d f61e 2b3e f576 d63d
00000190: 2d75 9f3d 7438 973d 3f5b de3d cb46 183e
000001a0: ca73 ef3d 6ec7 083d b9ef 8b3d 556c 743d
000001b0: d55c 4d3d 2cf6 28bb a7b5 293c 4d6e 4a3d
000001c0: 5082 5f3d 3a98 adbc 2c04 b63d 2606 fb3c
000001d0: df98 9e3d 1d6c 7e39 f05a 6abd 42a3 d1bc
000001e0: 897f eebd 04d2 59bb 9322 97bd ddd5 863d
000001f0: 62fc a43d e40f 3ebb c3db 5d3d 19fe 0b3c
00000200: c9dd 243e 8379 473d 24b8 683d a343 ed3d
00000210: b5dc 33bd 3599 153e 4cbf 043e 97e4 64bd
00000220: 8634 b4bd f74b 533d b4c6 53bd b863 073d
00000230: 7a36 88bd cdb6 1f3d 69bb aebd 6ac1 5dbd
00000240: 1680 b8bc 85c4 ed3c 0f83 65bd 6039 e23d
00000250: db05 c73d 253c c4bd a1c8 9dbc 214b 72bd
00000260: 6187 68bb 219f 97bc 8693 18bd fc09 91bc
00000270: 3f78 b83b 4a40 9ebc 44d5 68bc b94a 963d
00000280: 065e 85bc f502 433d cbab aebd 203a 743d
00000290: 6dc7 413d 36b8 82bc 57d7 f23d 3083 e4bb
000002a0: 4fd8 4abd 5421 583d 5b8f a43d 73bb 81bc
000002b0: baf7 433d 18f9 533d 39d2 a9bb c12d 6cbb
000002c0: 2d0f 463d 4a95 a23d bb01 77bd 58d1 213d
000002d0: c56c b1bc 7fd4 9d3d 9929 353a d6fb 7c3d
000002e0: 10fd a5bd d0e7 ab3d d569 90bd b356 183c
000002f0: 0eb3 8bbd 4870 253d 77ab 203d 5bbf 82bd
00000300: 4ae9 9abd 2394 acbc 25b7 133d 05de 6b3d
00000310: 2f6f 9bbd 6509 50bb a8c4 26bd af38 69bc
00000320: 27d9 c0bd 7e11 c03c a656 6cbd 5375 b7bd
00000330: 625e 00bd 8056 08bd 9f61 873c a16f b83c
00000340: e2fc b1ba b813 043d 33c3 8abd 3279 fe3d
00000350: e0aa 9bbd 1cc1 5c3b e6bd 29bd 4c14 86bd
00000360: e067 3c3d 769a c23d 33e2 b93b 7a15 11bd
00000370: 316c 943d b7af b8bd e383 84bd a67c aabd
00000380: 8eb6 6dbd dee8 42bd 5305 61bd 5578 5fbd
00000390: 5cba abbd bcd1 e7bd 107e d3bd 1d13 0f3d
000003a0: ddec 81bd 9b25 a83d 34b7 2a3c a0a0 71bd
000003b0: 2557 3fbd cf8e b63d 2681 a63c 2785 0c3c
000003c0: 2213 13bd a804 f83d 29b5 ef3c 592d e83b
000003d0: 2d9f 5ebd 1197 5e3d 9813 42bd 93ac 58bd
000003e0: 5a78 7d3d 04af 1a3d cf67 573d 06f3 6e3d
000003f0: 8e90 133d 2ca9 963b 670c 413c 8ffd 203d
-0.056037754 0.01846479 0.01971496 0.038172968 0.016264573 0.050548017 0.062720805 -0.062037256
-0.0084138885 0.057709005 -0.042673092 -0.031807 0.07042411 -0.08404536 0.037278026 0.04621372
0.046434727 -0.04396048 0.10219238 0.08946349 -0.050007615 -0.030426145 0.07574453 0.025101712
-0.031158408 0.036992703 -0.010859717 0.052621175 -0.094753996 0.010947259 -0.014661875 -0.027789157
0.030052515 -0.010522413 -0.038550843 -0.050686635 0.09075167 0.023301888 0.09544624 0.0017704675
0.08254595 -0.029991763 -0.0505681 -0.07139671 0.09362386 0.011025214 0.08724842 -0.027421411
0.105033934 -0.03223476 -0.10879145 -0.008401763 -0.0031330097 0.01812672 0.04759018 -0.032981057
0.038737666 0.05536992 -0.09372663 0.04372732 0.04576151 0.03093152 0.030842029 -0.011346273
0.046364583 0.082201116 0.054977342 -0.02565354 -0.03760273 0.14234611 0.08756587 0.133206
0.052980814 0.04151938 0.121580414 0.07389414 0.053014856 0.07953535 0.032707207 0.115869865
0.0612757 0.02783895 -0.09089264 0.073624484 0.04077956 0.073110424 -0.04713687 0.08694241
0.10570397 -0.028538203 0.08504227 0.09980708 0.11448993 0.07589616 0.13469218 0.15091191
0.037623815 0.048229054 0.1671103 0.10471908 0.077860214 0.073838145 0.108572476 0.14870755
0.11692007 0.033393316 0.06832833 0.059673626 0.05013736 -0.0025781495 0.010358251 0.049421597
0.054567635 -0.021190751 0.088875145 0.03064258 0.077440016 0.00024263603 -0.05721563 -0.025590543
-0.11645419 -0.0033236751 -0.073796414 0.0658376 0.08055951 -0.002900117 0.05416466 0.008544468
0.1610023 0.048699867 0.056816235 0.11585166 -0.043911655 0.14609225 0.12963599 -0.055882063
-0.087990806 0.051586118 -0.05170317 0.033054084 -0.066510156 0.03899269 -0.085318394 -0.054139532
-0.022522014 0.029024372 -0.05603319 0.110461 0.09717914 -0.09581784 -0.019260706 -0.05915368
-0.0035481083 -0.018508496 -0.037250064 -0.017704956 0.005629569 -0.019317765 -0.014211003 0.07338471
-0.016280185 0.047610242 -0.08528861 0.059625745 0.047309328 -0.01595698 0.11857479 -0.0069736466
-0.049522694 0.05276616 0.080351554 -0.015836453 0.047843672 0.051751226 -0.005182531 -0.0036038014
0.048354317 0.07938631 -0.060304385 0.039506286 -0.02165831 0.07706546 0.00069108006 0.061763607
-0.081049085 0.08393824 -0.07051436 0.009298014 -0.06821261 0.040390283 0.03922602 -0.063841544
-0.075640276 -0.02106673 0.036063332 0.05758478 -0.07589566 -0.003174388 -0.04071489 -0.014234706
-0.094164185 0.02344584 -0.057699822 -0.08957925 -0.03134001 -0.033285618 0.016526042 0.022514166
-0.0013579393 0.032245368 -0.067755125 0.1242546 -0.07600951 0.0033684438 -0.041440867 -0.0654684
0.0459975 0.09502117 0.005672717 -0.035420872 0.072471984 -0.0901789 -0.06470468 -0.08324556
-0.058035426 -0.04758536 -0.05493672 -0.054558117 -0.083851546 -0.113193005 -0.10326779 0.034930337
-0.06344006 0.08210298 0.010419656 -0.058991075 -0.046713967 0.08913957 0.020325255 0.008576668
-0.03590692 0.12110263 0.029261189 0.007085484 -0.05435102 0.054343287 -0.047381967 -0.052898955
0.061882354 0.037764564 0.052589234 0.058337234 0.03602653 0.0045978036 0.011782742 0.039304312

86 f4 [32]
00000000: 282c 62bf dca7 cebe f9b9 e43d 9240 aabe
00000010: 6468 693e b863 fb3e 1bf5 7bbe 5eb5 113f
00000020: 9673 f83e 1e17 e63d 3bee a0be cc43 9abe
00000030: a79e afbe 5d69 d5be 169c 113e 86f8 24be
00000040: 1e6b 5fbd 5eda bd3e 4ff0 b3bd 9832 863e
00000050: 0aad b3be a156 af3e 54e0 e43d 3136 813e
00000060: 7db5 483e 208c bebd 3d11 853e 0f36 82be
00000070: 7d0b 273f 5a29 b9be 9716 aa3e ada7 68bd
-0.8834863 -0.40362442 0.11168284 -0.33252388 0.22793728 0.49099517 -0.24605219 0.5691737
0.48525685 0.11234878 -0.31431755 -0.3012985 -0.3430073 -0.41681948 0.14219698 -0.16110429
-0.054545514 0.37080663 -0.087860696 0.26210475 -0.35092956 0.3424578 0.111756 0.25236657
0.19600482 -0.093040705 0.25989714 -0.25431868 0.65251905 -0.3616436 0.3322036 -0.056800533

88 f4 [32, 16, 1, 1]
00000000: f378 a53e 24a5 083f 3981 d6be ff55 f3bd
00000010: 6f7b f23e 6912 aebd f0b3 b53e 1801 9c3e
00000020: 1ff9 c33e 35d8 96be 5d0b 1f3e e5ef 63bd
00000030: 9ea9 edbe afbc 0a3d 92ab b9be e923 d13e
00000040: ae4f 94be 1cb1 c43e 6a80 0ebe 1ddb ad3d
00000050: af59 64be ea1c 13be 1f0b 553e 8f60 9e3e
00000060: 054b cf3e f222 6d3e 9812 03be 4f38 49bc
00000070: d3ee 8fbe ea1b d03d 84d6 8fbe 9161 21be
00000080: 8259 3ebe c65d f83d 5ebe b7bd c6be 793d
00000090: 070f 59be a5f9 90bd d47a 2d3e 139b 4ebe
000000a0: f626 1abe 4e80 2cbe c965 7fbe f5ec c4bd
000000b0: 4dbf 95be 82f2 3b3d aef7 18bd f90e 49be
000000c0: 3b1c cf3e 89a1 ecbd 6475 06bf 76d1 903e
000000d0: 3d8f 403c e1b7 f0be fcd9 c6be cc0c 173e
000000e0: 3c30 9cbe 92a3 7bbe 0856 9b3e faca 063d
000000f0: c465 3bbe 70cd 88be 3ac2 2b3d 6c12 373e
00000100: e1c5 43bc 6a1b ae3d 21ad 81bd e94a 803e
00000110: 732c 813e 0a3b f4bd ac9d 8cbe da3f b93e
00000120: dd64 893e aa16 c9be 7251 1ebe 0172 983e
00000130: 8eee dabd b759 b8be 4de0 83bd 263d e33e
00000140: 38e1 153e 9339 8cbe 39e0 00be 98ee aa3d
00000150: f3a8 62be 02f0 953d 3e83 b0bd d7be bfbd
00000160: d2f7 313c ee07 1a3e 7c49 11be 3e53 7c3e
00000170: 58f4 1bbc c221 373e 4e67 7f3e 0912 2c3e
00000180: 0b8f 4b3e 5789 ea3d 7179 0b3e 37c4 1f3e
00000190: 3191 bbbd 54c5 873e aec4 d03d 4d3f febd
000001a0: aa49 2a3e 5b26 763e f89a c93d b318 b63d
000001b0: 23ea 193d 40fb 123e 4fba 1d3e 408d 3bbe
000001c0: 741d 0b3f 0644 00bf 4696 f33d d66d ccbb
000001d0: e53c a7bd c2c0 be3e 6dc1 60be 2684 14bf
000001e0: 34e9 0abe 5065 8bbe 8215 cdbe bb47 0b3e
000001f0: 2266 7d3d 2c8d 63be 6596 603e 11e4 143e
00000200: 57c4 a7bd f855 d9bd c29b 97bc f253 0b3e
00000210: e2b2 86bd b3ce 13be af51 d23d 9c18 3a3d
00000220: 95d4 14be b59b 33be 46e7 ad3d 4012 233e
00000230: 5d0a 673e 2993 483e 1fa0 07be 7c72 96bd
00000240: 597d 113e c1b5 203e c0a2 4e3e f6b4 8c3e
00000250: 40a6 c0bc d7f0 003e 8c87 853d 5ebb 8f3b
00000260: fcfb 03be 740d d93d 9d9e 37bd c08d dbbc
00000270: 5a5c 0dbe 00c3 723e b659 93be 2b98 42be
00000280: 94bf 9f3d a47d ef3d b0cb b13e b3cd 86bd
00000290: 1cbe 81be c609 4a3e 5c5c c93d ba44 b03e
000002a0: 21ab 9d3e adea 773e e94d 24bd ea5d e2bc
000002b0: 36c8 3f3e b5e3 813e bbe4 b6be 83d9 3abe
000002c0: 85f7 a3be 105e ab3d 8a72 b8be 2902 c2bd
000002d0: f5aa 963e 1970 6dbe fe16 543e 90b9 463d
000002e0: 2f95 123e dcf6 81be 807d b73e 4da2 993d
000002f0: 72b2 ad3e 0589 b83e b6a4 4dbe ccdc 693e
00000300: e387 903d 3557 223e a8d1 763e aa96 b73d
00000310: 8bec e0bd 7395 01bd efbd 343d 6c29 1abe
00000320: 5894 d83d ac20 8c3e 7af2 493e 6833 6e3e
00000330: 9ffc c03e 250f 413e e94b 1c3e 53a3 e43d
00000340: 04e9 853e e24a d13e 83f0 58be 6d83 c83e
00000350: 0c67 11bf 7866 ddbe 0443 eebd 2a8e 0e3e
00000360: 7a9d 50be 6987 57bd 7106 a7be 30c5 ac3e
00000370: 9499 da3e 9ff3 6dbe f756 073f b780 02bf
00000380: c019 1d3e d114 cf3d 0a88 8fbe ac71 41be
00000390: 1f58 77be fc31 8dbe ed65 c23e a776 313e
000003a0: 8298 5e3e ea14 9abb 32ad be3d 6c19 d73e
000003b0: a736 98bd 4bc8 38be 0fb2 d13e 528e 6a3e
000003c0: 438b ef3e d93c 5f3e 1a8d b33e e4a2 d53e
000003d0: 4a24 1bbe 0edd 9f3b e259 bb3d 9a60 e33e
000003e0: 910e c6be ac48 823e 9451 88bc f66a 4abe
000003f0: eba8 a13e c311 a0be a6d5 803e d571 91bc
0.3231884 0.53376985 -0.41895464 -0.11881637 0.47359797 -0.08499605 0.35488844 0.30469584
0.38276002 -0.29461828 0.15531678 -0.055648703 -0.4641847 0.03387135 -0.3626371 0.4084771
-0.2896704 0.38416374 -0.13916174 0.08489058 -0.22299837 -0.14366499 0.20805024 0.30933043
0.40486923 0.23157862 -0.12800062 -0.012281491 -0.28111896 0.10161574 -0.2809335 -0.15759875
-0.18588832 0.12127261 -0.089718565 0.06097295 -0.21197139 -0.07078866 0.16941386 -0.20176344
-0.15053925 -0.1684582 -0.24941172 -0.096155085 -0.29247513 0.04588557 -0.03734558 -0.19634618
0.40451226 -0.11554248 -0.52522874 0.28284806 0.011752901 -0.47015288 -0.38838184 0.14750975
-0.3050555 -0.24574116 0.30339074 0.032908417 -0.1830054 -0.26719236 0.041933276 0.17878121
-0.0119490335 0.085013226 -0.0633185 0.25057152 0.25229225 -0.11925323 -0.27464044 0.36181527
0.26834765 -0.39275104 -0.15460756 0.29774478 -0.10690032 -0.36005947 -0.06439266 0.4438259
0.14636695 -0.27387676 -0.12585534 0.083462894 -0.22134762 0.073211685 -0.086187825 -0.09362572
0.010862308 0.15042087 -0.14188188 0.2464113 -0.009518705 0.17883971 0.24941751 0.16803755
0.19878785 0.11451977 0.13620545 0.15602194 -0.091585524 0.26517737 0.10193764 -0.124144174
0.16629663 0.24038069 0.09844011 0.0889143 0.037576806 0.14353657 0.15403102 -0.18315601
0.54341817 -0.50103796 0.11893897 -0.0062386794 -0.081659116 0.37256438 -0.21948786 -0.5801414
-0.13565522 -0.27225733 -0.40055472 0.13601582 0.06186498 -0.22221822 0.21932371 0.14540125
-0.08191746 -0.106121 -0.018506888 0.13606241 -0.06577088 -0.14434318 0.10269486 0.045433626
-0.14534219 -0.17539866 0.084913775 0.1592493 0.22562547 0.19587387 -0.13244675 -0.07346055
0.14207973 0.15694334 0.20179272 0.27481812 -0.023516774 0.12591873 0.06519994 0.0043863496
-0.12889093 0.10598269 -0.044829 -0.02680099 -0.1380476 0.23707199 -0.28779382 -0.1900336
0.078002125 0.11693886 0.34725714 -0.06582203 -0.25340354 0.19730291 0.09832069 0.34427434
0.30794623 0.24210615 -0.040113363 -0.027632672 0.18728718 0.2536904 -0.35721382 -0.18247037
-0.3202478 0.083675504 -0.36024886 -0.09473068 0.29427305 -0.23187293 0.20711896 0.04851681
0.14314722 -0.2538365 0.35837936 0.075016595 0.33925205 0.36042038 -0.20082363 0.22838134
0.07057168 0.1585358 0.24103415 0.08964284 -0.10982617 -0.031636667 0.044126447 -0.15054864
0.10575169 0.27368677 0.19721404 0.23261797 0.37692735 0.18853433 0.15263332 0.11163964
0.2615434 0.40877444 -0.21185498 0.3916277 -0.5679786 -0.4324224 -0.11633876 0.13921419
-0.20372573 -0.05261937 -0.32622102 0.33744192 0.42695296 -0.23237465 0.5286707 -0.50977653
0.15341854 0.10111392 -0.28033477 -0.18891019 -0.2415471 -0.27577198 0.37968388 0.17330419
0.21737865 -0.0047022 0.09310378 0.42011583 -0.07432299 -0.18045156 0.4095616 0.22905853
0.46785936 0.21800555 0.3506859 0.41725838 -0.15150562 0.0048786467 0.09148003 0.4440964
-0.38682988 0.2544607 -0.016640462 -0.19767365 0.31574187 -0.3126355 0.25163 -0.017754475

89 f4 [32]
00000000: a9e7 07bf 8ffb a2bd 3e59 653f f4ec 243f
00000010: 0547 18be b457 4ebe 35d3 5ebf 0a50 ed3e
00000020: 9821 8a3d 0d10 84be 11fe 48bf 99c9 8dbe
00000030: abca 8abf 98ec 133e c921 ebbe 70f5 70bf
00000040: 3637 3b3f 3cfd 46bf c5d2 cd3e b3b8 63bc
00000050: da38 c6be a46d d7be 9592 e8be 7ba1 a7be
00000060: 5386 8f3e 27c1 cc3d 9052 49be 52bc dd3e
00000070: 8910 903d 3f0c 23be ab61 9fbe 7f86 343e
-0.5308786 -0.07958137 0.895893 0.6442406 -0.14870842 -0.20150644 -0.87041026 0.46350127
0.06744689 -0.25793496 -0.78512675 -0.2769287 -1.0843099 0.14445722 -0.45924214 -0.9412451
0.7313112 -0.77730155 0.40199867 -0.013899016 -0.3871525 -0.42075837 -0.45424333 -0.32740387
0.2803217 0.099977784 -0.19660401 0.4330774 0.07034404 -0.1592264 -0.31129202 0.17629431

91 f4 [64, 32, 3, 3]
00000000: d779 993c c812 1e3d a46c fbbc 26ba 253d
00000010: 436a 4abd 4ee5 42bd 72aa 6dbd 2b21 973d
00000020: 00a5 0f3d 02f8 21bc 08bf edbc 708c 9c3c
00000030: 6110 67bd 248c 02bd fcfd 033d e9bb 45bd
00000040: 50cd ea3b 6ea2 2bbd 4cc6 dd3c ee72 2c3b
00000050: b468 d1bb dda0 fd3c 3c5c 0839 be15 57bd
00000060: 6b96 8cbc 71fd 423c 5e46 cdbc c543 1a3d
00000070: 39ff a13d d9f1 c63b d82b f1bc 5e52 693d
00000080: c5c4 563d 8e10 f03c 6d74 5bbd 694f 18bd
00000090: 986e 90bc aa60 36bd 88ff 05bc b4bb 0bbd
000000a0: 9241 5bbd eec8 39bd 6f16 c33a a80f fdbb
000000b0: 438b 01bd 4254 04bc 8bd7 c8bc f271 11bd
000000c0: f03c 333d 1afb eb3c 8854 9cbc f7ca dbbc
000000d0: dd69 063c af65 743d 5a6f 78bd e443 283b
000000e0: 063b 8dbb b15d b93b d533 293c 3e42 1bbc
000000f0: 1f7b 31bd 84cc 8abc edeb 15bd 189f 4bbc
00000100: b9f9 783b a253 0dbd c543 97bb f499 7d3c
00000110: 764d e7bb 1f83 b43c 9024 e83b 2d59 b6bc
00000120: 772b 353b 42c3 763b a628 91bb f03a c5bc
00000130: d39e 90bc 5793 22bc 375b aa3c 35e6 953c
00000140: 2fd7 37bc abf4 5c3c e660 1f3c 0093 5bbc
00000150: 30dd 09bb 0cec b539 740c 813c ec09 8d3c
00000160: b2fb 833b 089b 8cbc 8e69 fa3c 757a 153c
00000170: f29e 8eba 21a6 84bb c52d 9f3c 7f2c 2abc
00000180: 10fe 6f3c 5ef8 f4bc cc17 b2bc c88e efbc
00000190: 48b2 dcbc 22c8 cdbc 1324 bbba e200 30bc
000001a0: c247 62bc fdf9 2f3b d1e2 a3bc c939 02bd
000001b0: df46 6e3c 464e 65bc fd3b 87bc e930 04bc
000001c0: d70f 14bd 2459 35bd 76b7 b2bc 8434 2fbd
000001d0: 10ce 37bc 4924 313d c01e 3e3d bd44 1b3c
000001e0: 294f 513d b9e3 d0bc f038 743d 4ae4 9abc
000001f0: 95a2 f4bb 5842 913c 66ff 28bc 2a47 293c
00000200: fb62 87ba b35c 80bc 1be9 3bbd fbbd 5dbc
00000210: cd6f b0bc d791 4b3c b0f8 9e3c 5fee 3d3d
00000220: c3aa 4a3d 084a 953c 27bc 093c bdf9 f33c
00000230: bea5 86bc 4aec d8bc f711 c53b 241b 1b3c
00000240: 09da ebbb 8629 94bb 0c19 88bb 158e 45bc
00000250: 13ae 27bd 9e6c b2bc 24e5 02bb 57eb 29bd
00000260: 06d4 88bc cccd 12bc 8cac 58bc 61aa 173d
00000270: eea1 4ebd 35fd 88bc 3fba 4dbd ab04 2fbd
00000280: 2c62 04bd ceca e6bb a105 b3bc 3bb5 0fbd
00000290: dd7f 11bd 358d 143c 9329 9ebc 8f45 2abc
000002a0: 8eec ba3a 91f6 c0bc c24c b33c d2b2 b13b
000002b0: f173 12bc 0fb8 f53b 45ab 9bbb fcf3 f8bb
000002c0: 36b0 133c a5fd cb3c 4af1 383b 9f15 bbba
000002d0: bf5e 82bc 3868 dabc 67e5 9fbb 01a9 703c
000002e0: 5c61 113d 9fc2 93bc ea49 ee3c 91d2 923c
000002f0: 64c0 aaba b8c0 1ebc 96da 98bb f010 72bc
00000300: 38c5 4bba 5597 6aba 5517 c2bb bfe3 86bb
00000310: 6707 19bc fce5 8cbc cc1d 02bb c2fd 63bc
00000320: e24e 26bc 4a70 3fbd db4f 203d 4d1f 973c
00000330: 6677 94bc 29ac 34bc b068 193c 58b2 46bd
00000340: 0c3c 48bc 9c71 6bbc 130b 2a3d ee52 eabc
00000350: 91fc 2ebb 2963 4b3c 4a1b 133d d3bc 23bd
00000360: 8d1d 63bc 088b 24bc e290 8fbb 34c8 4e3c
00000370: a031 8ebc e7db cbbc eccf e83b 7dd9 0f3c
00000380: 3764 5bbb c3c8 8cbc 2bb8 cdbc e53f 4bbc
00000390: 1dd0 01bd 3900 c8bc 70c4 6fbc a0c8 dfbc
000003a0: 45f0 e0bb 1b58 77bd 87b7 013d 9cce acbb
000003b0: 183a fabc 3707 0d3d 4cb0 7d3d a661 a1bc
000003c0: ac31 37bc 1ea2 703c fd49 923d 0f21 1cbc
000003d0: 5b41 813c 4775 4fbb 47a3 b8bc 3807 5e3b
000003e0: f990 b739 652a 43bc fc28 2dbd 2195 90bc
000003f0: dae2 4abb c07f af3a 7e06 eabc 9961 673c
0.018734856 0.03859213 -0.030691452 0.040460728 -0.049417745 -0.047581963 -0.058023877 0.07379373
0.035069466 -0.00988579 -0.029021755 0.019109935 -0.056412105 -0.03187193 0.03222464 -0.04827491
0.0071655884 -0.041902952 0.027072094 0.002631362 -0.0063906554 0.030960495 0.0001300433 -0.05251097
-0.017161569 0.011901245 -0.025057968 0.037662286 0.07910008 0.006071311 -0.029439852 0.056963317
0.052433748 0.029304769 -0.05357783 -0.037185106 -0.01763086 -0.04452578 -0.008178599 -0.034114555
-0.05352933 -0.045357637 0.0014884005 -0.0077228136 -0.03162695 -0.008076729 -0.024516841 -0.035509057
0.043759286 0.028806258 -0.019083276 -0.02683018 0.008203951 0.059667286 -0.060653068 0.0025675232
-0.0043100147 0.005656921 0.010327299 -0.009476243 -0.043330308 -0.016943224 -0.03660195 -0.012428068
0.0037990643 -0.034503587 -0.004616233 0.0154786 -0.0070587946 0.02203518 0.0070844367 -0.02225932
0.0027644315 0.0037653004 -0.0044298945 -0.024075955 -0.017653858 -0.009922824 0.020795448 0.018298248
-0.011220737 0.013486068 0.009727692 -0.013401747 -0.002103638 0.0003469888 0.015753008 0.017216645
0.004027807 -0.017163768 0.03056791 0.009123434 -0.001088111 -0.0040481244 0.019431004 -0.010386585
0.014647976 -0.029903587 -0.021739863 -0.029242888 -0.02694048 -0.025119845 -0.0014277719 -0.010742398
-0.013811054 0.0026851885 -0.020005615 -0.03179339 0.014543264 -0.013995713 -0.016508097 -0.008068302
-0.03614792 -0.044274464 -0.021815997 -0.042774692 -0.011218563 0.043247495 0.046416044 0.009476838
0.051100884 -0.025499212 0.059624612 -0.018907685 -0.0074656704 0.01773183 -0.010314798 0.010331908
-0.0010329181 -0.015669202 -0.045876604 -0.013534064 -0.021537686 0.012424908 0.019405693 0.046369907
0.049479257 0.018223777 0.008406675 0.02978217 -0.016436454 -0.026479859 0.0060141045 0.00946692
-0.0071976227 -0.0045215515 -0.0041533764 -0.012057801 -0.040937494 -0.021780308 -0.0019973004 -0.041484203
-0.016702663 -0.008960199 -0.013224732 0.03702772 -0.050447397 -0.016722301 -0.050226446 -0.04272906
-0.032320186 -0.007043219 -0.02185327 -0.035084944 -0.03552233 0.0090668695 -0.019306934 -0.010392561
0.0014261173 -0.023555072 0.021887187 0.0054229284 -0.008938775 0.007498748 -0.0047506415 -0.0075974446
0.00901418 0.02490122 0.0028219991 -0.0014273411 -0.01591432 -0.026661023 -0.004879642 0.014688731
0.03549324 -0.018037139 0.02908798 0.017922672 -0.0013027308 -0.009689502 -0.0046647293 -0.014774546
-0.00077732233 -0.0008948942 -0.0059231916 -0.004116505 -0.009340144 -0.017199509 -0.0019854186 -0.013915481
-0.010150643 -0.046737947 0.039138656 0.018447543 -0.01812334 -0.011027374 0.009363338 -0.048509926
-0.012221348 -0.014370348 0.041514467 -0.028603997 -0.0026700834 0.012413778 0.035914697 -0.039975
-0.013862026 -0.010042913 -0.004381285 0.012620974 -0.017357647 -0.024885131 0.0071048643 0.008779881
-0.003347648 -0.017185574 -0.025112232 -0.01240537 -0.031692613 -0.024414169 -0.014634237 -0.027317345
-0.00686458 -0.06038676 0.031669166 -0.005273653 -0.03054528 0.03443071 0.061935708 -0.019699883
-0.011181276 0.014687089 0.071430184 -0.009529366 0.015778234 -0.0031655596 -0.022538794 0.0033878814
0.00035012493 -0.011911963 -0.042275414 -0.017649235 -0.0030957968 0.0013389513 -0.028567549 0.01412239

92 f4 [64]
00000000: 9762 bc3e aea7 adbd c0ac 4bbe e3d8 803f
00000010: ff0a 923e 6460 9abe 8c74 a53d 807a df3c
00000020: 994d 30bd 4fc8 5fbe ba32 723e f00c 7abe
00000030: 7e92 233e 48f9 85be 1b62 f63d 56eb 383e
00000040: e4bb 5abe daeb ccbe 19f2 1cbf 2a92 98bc
00000050: 9123 22bd be72 e3be 4695 b63e 132c 53be
00000060: 9cea d9bd e725 65be 0459 1c3d d8f3 25bb
00000070: e86e 3dbe c5a7 adbe c21f 023f 15cf 0dbd
00000080: 3208 0bbe e53b babd 8f72 c4be df53 e13e
00000090: b82a d93e f2d3 28bd 626c 123a fa82 883c
000000a0: b344 b5be 5c69 3e3e 71e1 17bd 28ae 213c
000000b0: 1dd7 9e3e c65e 46bd d407 dbbd eecb 6a3e
000000c0: 8511 993e 76f1 b23e 37e7 41be db2d 11bf
000000d0: df84 28be 40ea 803e 506f d73c ae4d c9be
000000e0: d4d8 0cbf f317 ab3e ca5e 87be 582f a7b9
000000f0: 7c56 633e d5e9 86bd 517e a8be 1052 4ebe
0.36793968 -0.08479248 -0.19890118 1.0066189 0.28524014 -0.30151665 0.0807887 0.027280092
-0.043042753 -0.21853755 0.23652163 -0.24418998 0.15973851 -0.2616675 0.12030431 0.18058524
-0.21360737 -0.4002369 -0.6130691 -0.018624384 -0.0395847 -0.4442348 0.35660762 -0.20622282
-0.10640451 -0.2237774 0.03817083 -0.0025322344 -0.18499339 -0.3391706 0.5082971 -0.034621317
-0.13577345 -0.09093455 -0.3836865 0.440093 0.42415404 -0.04121775 0.00055856083 0.016664017
-0.35403976 0.18594879 -0.037080232 0.009868182 0.31023493 -0.048430227 -0.106948525 0.22929356
0.2989618 0.34949845 -0.18935858 -0.56710595 -0.16456936 0.2517872 0.026298195 -0.39317077
-0.55018353 0.3341671 -0.26439506 -0.00031887996 0.2220096 -0.06587569 -0.32908872 -0.20148492

94 f4 [64, 64, 3, 3]
00000000: a7e6 653d 988b e93b 389f 3c3e 4977 b43d
00000010: c9f8 9b3d 5bc0 793d a023 92bb 1603 31bd
00000020: 7a53 9d3d fa68 d13d e2cb c1bc 4e6d e03c
00000030: 3fa5 0c3e 6255 f53c 542e 9dbd 47fd bd3d
00000040: bb54 c63c f699 b8bc a3ae 05bd 5831 f2bc
00000050: 7f32 353d 96f7 02bc 80b6 1bbc af33 51bc
00000060: 8824 c3bc 65d8 e4bd 317c ecbc 3923 c43c
00000070: e67f 8d3d 98db a43d b3b0 8a3d 44e8 2cbd
00000080: f5ff 9e3d d084 cd3d 9bb1 af3c e211 78bd
00000090: 737d 303b 774b ba3c 1872 4f3d d656 e3bc
000000a0: f33f 18bc b422 3abd 12b4 9c3d 4165 2b3b
000000b0: 5833 663c 5fe6 983d 671e 403c 9577 f3bd
000000c0: 3d8c 9f3d 7483 ba3d d104 343d 1d7b ca3d
000000d0: 86a0 79bd 033d f2bd 39c9 4d3d f974 0dbb
000000e0: bdbb 153e e4cc d03c 8645 f8bc 7875 043e
000000f0: 9901 a43c 57dd da3c 7069 e63c dcea 92bb
00000100: 6891 0c3d a2df 57bd d9f3 013d 8e6e 90bd
00000110: d3b1 4abd 7b2e ff3c 3798 cb3b 07d5 84bd
00000120: 0706 e23d bc9a 973d 8e45 0abd f9bf 763d
00000130: 2f75 05bd 22f5 39bb 810f 893d ad39 e83d
00000140: 4119 243d b1b6 bd3d bf1f f13a 3f4e f6bd
00000150: 216c c83d 08e7 803d 9d07 14be affe 9e3d
00000160: bc68 073e 6ad4 aebd fa7b d03c 34eb c83d
00000170: 55f5 83bc 27fe 353c fac0 4e3d 4ba7 a23d
00000180: 0452 8a3d 56ae 90bb d30a 833d a005 ca3c
00000190: 336f babd 3c86 4fbd 769d 0bbd 9fd8 00be
000001a0: 95b8 1abd 2a8e c13c 88df 8ebc ef85 eabc
000001b0: c12f 1e3d 5fac 5c3c b561 80bd 3402 37bd
000001c0: c71c 0f3c b1b3 823c 8e19 01bd bb39 873d
000001d0: 2369 133d e040 d1bd 5541 403c d3fa 093c
000001e0: ac5f 88bd b367 873c 205c 78bd b2c4 16bc
000001f0: d74a 163c 87ab ad3d f47f ea3d 1b6c 393e
00000200: 6192 e43d 5205 0f3d fe60 9d3d 7b34 2b3d
00000210: 7d13 3ab9 b656 f03d afdd 1a3d 3bfd 8fbc
00000220: f178 87bd 31d0 10bd 01e3 e5bc 69e8 5cbc
00000230: eacc 4dbd 4749 e13c 2925 e0bc 1492 20bd
00000240: 386a 9dbc 0768 5bbd a8ec 41bd 4967 58bc
00000250: 59d5 69bd 8a3a c1bd aaf8 ccbd c122 bb3c
00000260: 5b98 f03c 7034 1b3e 11c7 b63a 2013 87bc
00000270: fc27 203d bfca 5fbd 226b d53c 516f 713d
00000280: 7bde 07bb 4b29 9cbd f03f a9bd 6888 b2bc
00000290: 57c8 003c 5f6b 09be 831f 7cbc e898 6bbd
000002a0: f66c 98bd 5f2b e9bd a376 1c3d b438 48bd
000002b0: 4558 c7ba 3121 333e 29cf b0bd dbe9 23bd
000002c0: 6323 343e 8dd2 b9bd b1d4 8b3d caf3 803d
000002d0: 817a 4f3d 8c26 8c3d 7b16 5e3d 0677 493d
000002e0: f552 de3c 111c 953c 7239 8e3d 3289 42bd
000002f0: 9c07 82bb 374b f2bc 23c9 1fbd 8029 b0bd
00000300: eb20 d23d e9ba b2bc 1a59 813d e07c 8d3c
00000310: f078 9e3d 5f3e 57bc 177e c5bd 7930 7d3b
00000320: 3c0f a53b 7972 cebd 4d6a 7bbd 0182 8cbd
00000330: 5bc8 303d d7b2 e83c 3923 81bb bf33 a03d
00000340: ae3c e0bc 7183 e63d 40d0 aebd 7672 893d
00000350: 06fa 073e 5650 85bc 6e7d 713d 8d9c 5b3d
00000360: 6c95 4a3d d6d9 1cbd cb3f d13d 87aa ad3c
00000370: c578 4abd 65ae a23d 5b32 c63b 5ff4 c6bd
00000380: cdb1 b6bc 8f50 9c3d 3699 343d 31d7 043e
00000390: 7f80 7a3d 997c 3bbd 845f 5c3e 0c59 8e3d
000003a0: fa96 70bd a503 a53d 703d 54bd 3123 2f3d
000003b0: 52bb 463d 3e01 08bb 8faa 183d 07c3 04bd
000003c0: 421a 25bd aa17 0b3d 2d3f 123c 6e4c cabc
000003d0: 6434 04bb 6ea2 88bc 49ff 5dbc 136f 203d
000003e0: 46c3 69bd c2a5 4dbd 0618 15bc 543a 80bd
000003f0: 51aa 043e cfb7 993c ac51 873d 4212 823d
0.05612817 0.0071272366 0.18420112 0.08811814 0.076158114 0.06097446 -0.0044598132 -0.043215834
0.076819375 0.10225101 -0.02365679 0.02739587 0.13734911 0.02994794 -0.07674852 0.092768244
0.024210325 -0.022534352 -0.03263725 -0.029564545 0.04423761 -0.007993599 -0.009503961 -0.01276867
-0.02382113 -0.111740865 -0.028867813 0.023942577 0.0690916 0.08049697 0.06771984 -0.042213693
0.07763664 0.100350976 0.021446994 -0.06056393 0.0026930242 0.022741063 0.050645918 -0.027751368
-0.00929259 -0.04544325 0.07651533 0.0026152881 0.014050327 0.07465815 0.0117259985 -0.11888043
0.0779042 0.09107104 0.043949906 0.09886763 -0.060944103 -0.11828043 0.05024073 -0.0021584614
0.14622398 0.025488324 -0.030306589 0.12935436 0.020020293 0.026716871 0.028126448 -0.004483564
0.034318358 -0.052703507 0.031726692 -0.07052337 -0.049485993 0.031150093 0.006213214 -0.06485944
0.11036306 0.0740256 -0.03375774 0.060241673 -0.032582458 -0.002837487 0.0669241 0.11339126
0.040063147 0.09263361 0.0018396302 -0.12026643 0.09786249 0.06294066 -0.14456029 0.07763421
0.13223547 -0.085366085 0.025449742 0.098104864 -0.016108194 0.011107958 0.050477006 0.07942065
0.067539245 -0.0044153137 0.06398549 0.024660885 -0.09103241 -0.050665125 -0.034085713 -0.12582634
-0.037773687 0.02362736 -0.017440572 -0.028628318 0.03861976 0.013468831 -0.06268636 -0.044679835
0.008734888 0.015954824 -0.03151851 0.06602808 0.035988938 -0.10217452 0.011734326 0.008421618
-0.06658873 0.01652894 -0.060634732 -0.009202169 0.009173117 0.08479982 0.11450186 0.18107645
0.11160732 0.034917183 0.076845154 0.041798096 -0.00017745602 0.11735289 0.03780907 -0.017576804
-0.066148646 -0.035354797 -0.028062345 -0.013483145 -0.05024425 0.027500762 -0.02736147 -0.03920181
-0.019215688 -0.053566005 -0.047344834 -0.013208219 -0.05708823 -0.094349936 -0.100083664 0.02284372
0.029369524 0.15156722 0.0013944824 -0.016488612 0.039100632 -0.054636713 0.026052061 0.05894405
-0.0020731974 -0.076250635 -0.08264148 -0.02179356 0.007860265 -0.13419865 -0.015388372 -0.05751887
-0.07442658 -0.113852255 0.03819908 -0.0488822 -0.0015208801 0.1749313 -0.08633263 -0.040017944
0.17591624 -0.090733625 0.06827677 0.06296499 0.05065394 0.0684329 0.054220658 0.049185775
0.027139166 0.01820186 0.069445506 -0.04749412 -0.0039681923 -0.02957688 -0.03901018 -0.086016655
0.10260185 -0.021817641 0.06315823 0.01727146 0.07737911 -0.013137429 -0.0964319 0.0038633628
0.0050372165 -0.10080428 -0.061380673 -0.06860734 0.043159824 0.02840559 -0.0039409664 0.0782237
-0.027372684 0.11255539 -0.08535814 0.06711285 0.1327897 -0.016273659 0.05895751 0.053616095
0.049458906 -0.038293682 0.10217246 0.021199478 -0.04943158 0.07943419 0.0060484833 -0.09714579
-0.022301579 0.07632553 0.044091426 0.12972714 0.0611577 -0.045773122 0.21520811 0.06950578
-0.058737732 0.08057336 -0.051816404 0.04275817 0.048518486 -0.0020752694 0.037272032 -0.032412555
-0.040308245 0.033958115 0.008926195 -0.024694648 -0.0020172829 -0.016679015 -0.013549634 0.03916843
-0.057070993 -0.050206907 -0.009099966 -0.06261125 0.12955596 0.018764405 0.066073745 0.06351139

95 f4 [64]
00000000: 394a d2be 9148 c53e 4d4b 6ebd a6b0 043f
00000010: ec1f 8cbe b65a 9bbe 8b7c c3bd 7cb4 d7bc
00000020: dffe 40bf b286 a4be ac8d 02be ca59 88bb
00000030: f0bb bfbe a7c0 09bf 09ea f3bd d719 263e
00000040: b685 3e3f 3afb f2be f786 b1bd ecda d3be
00000050: 314a d33d bd06 bcbe c9ff 0f3c b128 843e
00000060: 7451 d23e fcff 26be 9dba 373e c5c3 c1bd
00000070: a712 3fbe b24f 10bf f3e7 acbe b71c 8abd
00000080: 9c85 43be 10cd b5be 6efc b5be 3304 2dbf
00000090: 2a94 cbbc bdd2 1b3f 82e3 3cbe 246c 01bf
000000a0: 536c 19bf bbf8 b7be 9ee5 db3d 1349 83be
000000b0: f72c a1be 7594 e5bd 84a5 9abe 1efe 50be
000000c0: a798 c6bc 35f5 3e3f fab0 51bf 4bde 06be
000000d0: 9afb bfbe d843 fbbe 065e 01bf b06d 6fbe
000000e0: 3162 46be 9dc6 8f3e 1409 0bbe 82f4 b2be
000000f0: 302e 77be b16a babe 1d27 f9be cc38 083e
-0.41072252 0.38531926 -0.05817728 0.51832044 -0.27368104 -0.30342644 -0.09545239 -0.026331179
-0.753889 -0.32134014 -0.12749356 -0.0041610943 -0.37448072 -0.5380959 -0.11909873 0.16220795
0.74422777 -0.47457296 -0.086683206 -0.41377962 0.10316885 -0.3672389 0.008789011 0.25812295
0.4107777 -0.16308588 0.17942281 -0.09461168 -0.18659459 -0.56371605 -0.33770713 -0.06743758
-0.19093937 -0.35508013 -0.3554415 -0.6758453 -0.024850924 0.60868436 -0.18446162 -0.50555634
-0.59930915 -0.35931954 0.107371554 -0.2564169 -0.31479618 -0.112099566 -0.30204403 -0.20409438
-0.024242712 0.74592906 -0.8191067 -0.13170736 -0.37496644 -0.49075198 -0.50534093 -0.23381686
-0.19373395 0.28081217 -0.13577682 -0.3495217 -0.24138713 -0.36409524 -0.48662654 0.13302916
