model/penguin.onnx (onnx, 302121 bytes, 16 tensors)

fc.weight f4 [2, 256]
00000000: 0740 3ebc 8b97 bd3d 460a dfbd b299 98bc
00000010: 2935 19be fd52 fabd f3a6 07be 34e2 b7bd
00000020: 7eb1 c7bd 8b68 d6bd 633d d9bb 121d beba
00000030: 4cd7 de39 d9a3 a73b 2e50 0ebc 5a29 60bb
00000040: 6a0d 9c3d 001b 3a3e b85c 403c dc8e 103e
00000050: 6b2d 243c 319d 3a3e b414 633b d22c 023e
00000060: 9329 8e3d 03a9 9abb a0c5 863d 35c9 53bc
00000070: 26d5 b43a 7f35 0dbd 9eba fd3c 8ee5 c53b
00000080: af6b debb 51d2 32bc ab85 503c d803 303c
00000090: 0fb4 64bd e0a8 80bd ef80 973d 4ce5 9a3d
000000a0: d349 34bc 2967 dabc 717e bd3c 2484 6d3c
000000b0: b15f 3419 910b 0a19 3f35 3d19 b905 0c19
000000c0: d2ac 7b3d 2c28 5d3d 0ac5 8b3d 640a 633d
000000d0: fa34 0f3e 5d4c 3c3e 14cd e93d 2b88 343e
000000e0: f960 e73d 0e1c 0d3e 17f6 c63d 1c9d 163e
000000f0: 403d 25bc c313 883d 6c86 bfbd b288 54bc
00000100: 69ac ed3c 6eb8 d63d ee2d 1abe 7fce 9fbd
00000110: 08ae faba 0b14 1bbb 08b8 d93a ad75 aa3a
00000120: 3b19 3ba4 7f8a 29a4 67b6 3aa4 fd7d 2ea4
00000130: 0c2d 419f 2bec 039f 868c 3e9f c827 029f
00000140: 28c6 9bbb a0a8 343d 957c 97bd 717a b6bc
00000150: 9cfa 4fa5 d071 7ba5 e60c 481f 657b 0e1f
00000160: 5536 173e e5bb 02be ea11 1f3e 16e6 b5bd
00000170: bcfb 52bd 389c 28be 4316 cc3c a13c dcbd
00000180: c946 803c 8c10 4cbc a0e6 7f3c 5571 39bc
00000190: 41f5 4fbb a1c1 b3bb e777 a03b baef 893b
000001a0: e398 b13a 898b 633c 4593 b2bc 46af 03bc
000001b0: d69c a5bb 6072 1cbc 463f 143c b660 a43b
000001c0: 92f1 803d 3487 e1bc 0d80 273d 8dc0 6dbd
000001d0: 0629 20be 08a7 3fbe f876 b8bd 4f7f 06be
000001e0: bbc3 e83d da5d b8bc 6998 eb3d 7132 a5bc
000001f0: f90f cebd f69e cbbd 2e68 9a3d 6887 8f3d
00000200: 5005 a22c fb36 29b3 aa24 be2c 44dd f9b2
00000210: 2b38 26bb b4b0 a83b 4cae dfbb 8f06 40ba
00000220: 0c01 ef3d 6850 babc 7845 f33d 516d fbbc
00000230: 5e7c ca3d 0ade 3c3e 32c0 ea3b a11e 143e
00000240: 334c 3618 bd43 5c18 0d14 3a18 0f8e 6e18
00000250: 3c29 073b 6b3a 193d d1ff 83bd 636d e8bc
00000260: 31f9 ebbc a024 d5bc 91f6 953c 1cf9 9d3c
00000270: 2d9b 013e 2d69 3c3c 25c9 053e 3384 b63b
00000280: cf43 143e 09d4 413e 7187 293e 19ae 493e
00000290: 9e48 293e ac73 703c 7122 243e e0b3 d7bc
000002a0: 5f75 2fbe 4c0f 26be db9b 583d 3bb9 603d
000002b0: 7838 5927 3c3a b621 729a d7a6 c38c 749f
000002c0: 3d54 2f3e 52a6 0c3e fa19 243e a868 343e
000002d0: c645 143c 0257 253e 7372 b5bc fd74 033e
000002e0: 846d dabd ad85 30bc 0aec 5abe 75c6 18be
000002f0: ca6a 92bd 882f b5bd 5e07 b83d 5133 be3d
00000300: e7f3 ad11 99c5 b811 eadd af11 030b b811
00000310: 84cf 6d3b 9d4d 423d aafd 90bd 4359 f2bc
00000320: 0f83 c539 d233 83bc 9fc8 2a3e 1f61 373e
00000330: 74e4 878d ca6c 0010 8586 718d aee3 658f
00000340: 1a63 d2bd bbf8 05be 2109 91bd 2563 88bd
00000350: aa12 3bbc d56e 8bbc e396 923d 8635 d03d
00000360: 7257 1abe cc63 3bbe 8e25 46be ad03 2dbe
00000370: 060a e3af b216 09af 381b e7af db54 03af
00000380: 46c5 0e34 b1d4 8ab6 f7a0 2534 884b 8bb5
00000390: b32b debc 1574 1d3e b4a6 28be 7f4b 03bd
000003a0: a30e debc 578d 38bd d99b 783d 9320 2b3d
000003b0: c6dc 8b1a 4321 3498 5bfb 4199 4bfe 5e99
000003c0: b823 daa5 a4f2 8c21 a14e b6a7 b620 1b1d
000003d0: 3230 833c 892c 57bb 4494 7d3c 716c ecbb
000003e0: d460 e3bd 0ad7 25be 13ee b53c 46f5 87bc
000003f0: 9cf7 febc 5666 c3bc 6e6a 19be 6deb 06be
-0.011611945 0.0925742 -0.108906314 -0.018627975 -0.14961685 -0.1222286 -0.1324728 -0.08978692
-0.09750651 -0.10469159 -0.0066296323 -0.0014504513 0.00042503548 0.0051159677 -0.0086861085 -0.0034204335
0.07619746 0.18174362 0.011740856 0.14116997 0.010020594 0.18224026 0.0034649791 0.1271241
0.069415234 -0.004719855 0.06580663 -0.012926389 0.0013796433 -0.034474846 0.030972775 0.006039328
-0.006787739 -0.010914401 0.012727181 0.010743104 -0.05583578 -0.0628221 0.07397639 0.07563266
-0.011003929 -0.026660519 0.023131581 0.014496837 9.325107e-24 7.1367686e-24 9.781824e-24 7.238986e-24
0.06144411 0.05399339 0.068246916 0.05542983 0.13985053 0.18388505 0.11416069 0.17630069
0.11297793 0.13780233 0.09714907 0.1470837 -0.010085404 0.06644394 -0.09351811 -0.012972044
0.029012876 0.10484396 -0.15056583 -0.07803058 -0.0019125352 -0.002366307 0.0016610632 0.0013005041
-4.0570532e-17 -3.6763344e-17 -4.048682e-17 -3.7836952e-17 -4.09066e-20 -2.7935683e-20 -4.0350303e-20 -2.7561477e-20
-0.0047538467 0.044106126 -0.07396809 -0.022275181 -1.8039298e-16 -2.1809341e-16 4.2362317e-20 3.017174e-20
0.1476682 -0.12766989 0.15534177 -0.08881776 -0.051509604 -0.16465843 0.024912959 -0.107537515
0.015658753 -0.012455117 0.01561895 -0.011318524 -0.0031731876 -0.005485729 0.004897106 0.004209486
0.0013549592 0.013888248 -0.02179874 -0.008037394 -0.0050540967 -0.0095487535 0.009048289 0.0050164117
0.06296076 -0.02753029 0.040893603 -0.05804496 -0.15640649 -0.18716061 -0.090070665 -0.13134502
0.113654576 -0.02250569 0.11503679 -0.020165654 -0.1006164 -0.09942429 0.07539402 0.070082486
4.6049067e-12 -3.9398383e-08 5.4041953e-12 -2.9088035e-08 -0.0025363069 0.005148018 -0.0068261977 -0.0007325196
0.116701216 -0.022743419 0.118784845 -0.030691775 0.098870024 0.18444076 0.0071640247 0.14464809
2.356142e-24 2.8468533e-24 2.405006e-24 3.08325e-24 0.0020623943 0.037409227 -0.064452775 -0.028372472
-0.028805347 -0.02601844 0.018306049 0.019283824 0.12656851 0.011499685 0.13065012 0.0055699586
0.14478992 0.18928541 0.16555573 0.19695319 0.16531608 0.014676016 0.16028763 -0.026330888
-0.17134617 -0.16216773 0.05288301 0.05486415 3.0145411e-15 1.2348214e-18 -1.4960484e-15 -5.1785445e-20
0.17121978 0.13735321 0.16025534 0.17618048 0.009049838 0.16146472 -0.0221493 0.12837596
-0.1066542 -0.010774058 -0.21379104 -0.14919455 -0.07149275 -0.088469565 0.0898578 0.092871316
2.7444904e-28 2.915186e-28 2.7746897e-28 2.9036868e-28 0.003628702 0.0474373 -0.070796326 -0.029583579
0.00037672414 -0.01601592 0.16678093 0.17908143 -8.375015e-31 2.5327357e-29 -7.442578e-31 -1.1334421e-29
-0.102728084 -0.13083164 -0.07081819 -0.06659535 -0.011418024 -0.017020622 0.071576856 0.10166459
-0.1507242 -0.18299788 -0.19350263 -0.16895933 -4.1298182e-10 -1.246814e-10 -4.2037995e-10 -1.1944527e-10
1.3296548e-07 -4.137481e-06 1.5425381e-07 -1.037829e-06 -0.027120447 0.15376313 -0.16469842 -0.03205442
-0.027106589 -0.045056667 0.060695503 0.041779112 5.784573e-23 -2.3281248e-24 -1.0028627e-23 -1.1528485e-23
-3.7841176e-16 9.550995e-19 -5.0600397e-15 2.053099e-21 0.016014192 -0.0032832942 0.015477244 -0.0072150757
-0.11102453 -0.16195312 0.02220825 -0.016596448 -0.031123929 -0.023852509 -0.14982006 -0.13175745

fc.bias f4 [2]
00000000: 3c86 a9bc 0643 af3d
-0.02069389 0.085577056

onnx::Conv_80 f4 [16, 3, 7, 7]
00000000: d918 19be 0af9 93bd 9d2b 903c eeff 1e3e
00000010: 9e3c cdbd 5910 883d 5f8f 2bbe 15ef 9bbd
00000020: 355d 50bc 9c27 5d3e a725 cc3e 2863 a33e
00000030: c8cb 3c3e 1d35 1c3e f4af febc 75c1 6c3e
00000040: 9503 273e 97e8 ce3d 26ca d33e 2d7b a53e
00000050: 1705 833e 5a8c 383e a440 6e3e a233 a03d
00000060: bf6e 24bd e087 adba 367b 7d3d 446d ca3d
00000070: 6ef1 bb3d 53a6 fc3d b030 f33d 30e2 50be
00000080: 8a9e 183d 5f56 813d ee70 3e3d 8e6c 56be
00000090: e3fd ec3c 4916 643d 3fa7 91be b568 63be
000000a0: d0cf 7abe 6e8f 6abd 4643 87be dcb6 083e
000000b0: 3cd0 04be c0f0 d6bd e9e0 3dbe ec41 81be
000000c0: f7fb eebd 3c51 63bd 06bc 173e f6e0 40bd
000000d0: 24ca 273e 8d35 5cbd 1b9a 92bd 7bec 69be
000000e0: b781 9ebe 5bdd 62bd a7fb 1dbd e7f8 4bbe
000000f0: 0359 9d3c 2fe5 80be 89af cabd fe7f 4abe
00000100: a1ea a73b 1a0a 84be 6e19 3bbd ab4e 34be
00000110: bbc3 76be b224 42bd 533b 47be a488 89bc
00000120: c146 41bd 3483 32be c7f5 f7bd df0f 0b3c
00000130: 98be 4dbe d03d 09bd 45bc 9e3e 4bbf 6abd
00000140: 85bd fd3d 8cbe 633e 21c8 523d 7af4 a03d
00000150: ee57 02bc 324f 153e 81a5 4e3d fbe1 e53c
00000160: 6cd9 9d3c 777e 573d c401 8abc 4d23 57be
00000170: 8719 623e e775 1a3e a0ce 8c3e b76a a13e
00000180: 700f 983e ec45 963e b04c 67be 411c bebc
00000190: 9856 91bc 950c 353e f6bb cebc 0c8e 5dbe
000001a0: 2fd8 8bbc 2616 0ebe 00b7 a0bd 7bf2 87bc
000001b0: c097 933e 9ba5 8a3e 0256 153e 6979 02bd
000001c0: 4ba3 10be a182 50bd 7b79 c8bd 3e3c 963d
000001d0: 7fd2 a73e 8d62 b13e a0f5 553e 63f4 0bbe
000001e0: adb9 cabc 2090 21be 5287 30bd 816c 7b3d
000001f0: 7d17 fc3d 3842 ae3e 5cc3 7ebd 875d f23d
00000200: 38ba d5bd f18a 2ebe f378 02bd a357 123e
00000210: 983f 583e a092 e53d a587 26be ac6d 92be
00000220: 39ee 6cbd a4eb 23be 63b7 d5bd 6fcb e63d
00000230: aa28 d2bd 7d68 143d a5c4 59bd f2f3 84be
00000240: 2a41 07be 4eea f33c 16c4 393e 718b 24bd
00000250: 31f9 21bd 79dc 16bd 3854 5fbd f906 04bd
00000260: feb8 05bd 15e9 c23b 62b3 afbd 02ff 1fbd
00000270: 6b6d 93bd f9ea 73bd 3680 53bd d086 3dbd
00000280: 5501 cfbb cd85 1bbd 4311 12bd e7fa 1ebd
00000290: 94d8 04bd 7412 e5bc e089 46bd 7580 1bbb
000002a0: b17c aabb 1d61 89bb c23b 1fbd d286 98bd
000002b0: 9fed 70bd 3150 0cbd b2d5 0abc 51a8 87bd
000002c0: 5cc1 a9bc f0e7 3dbd 1d90 2bbd a509 7abd
000002d0: d92c 5ebd d199 7fbd 9f3e 23bd 6fe6 f0bb
000002e0: 1790 16bd 0f5d 05bd afe2 09bd 5279 19bd
000002f0: 6af8 56bd 24c2 5fbd 332d 473b 619f ce3c
00000300: f552 03bd 2668 19bd 978f 63bd 82a3 883c
00000310: 7a40 e7bb dfd4 03bd 270e 56bd ddea 99bd
00000320: 1f6e 07bd 5d31 32bd 7dc0 d0bc 9695 6dbc
00000330: c4e8 663a 1eeb e3bc ea6f 3ebc 349d 22bd
00000340: cb50 28bd 868f f3bc 5a7a 0238 06c0 af3c
00000350: 40f9 b9bc a25c 68bc 13ef 89bc 6736 0dbd
00000360: 53a2 1bbd 9dea 8fbb 743a ce39 de89 b0bc
00000370: 9375 87bc 731c 7fbc 080e 1cbc 0ff5 6ebc
00000380: c17d 20bc 9c45 943b 142c 68bd 20b4 28bd
00000390: f2eb 47bd 0fa5 efbc d1c7 bfbc 8659 123b
000003a0: c30d 003d 71d2 c43c d5c1 db3c 673b f5bc
000003b0: 0210 e2bc b2c7 a5bb 9a96 873c b25e 5cbb
000003c0: 9212 acbc 6c52 bfbc 2e1b 25bc 4722 d7bc
000003d0: dd4b 27bd 427e a83c 64b9 f43d e0ff a73d
000003e0: bf32 f73d 0c83 c63d f80b a53d 6aef 4b3d
000003f0: 7188 763c ac85 ea3d 691a ed3d 03ab f73d
-0.14950885 -0.07225235 0.017598921 0.15527317 -0.100213274 0.06643743 -0.1675391 -0.07613961
-0.012717535 0.21597141 0.39872476 0.31911588 0.18437111 0.15254636 -0.03108976 0.23120673
0.1630996 0.10102957 0.41365165 0.32320538 0.2558982 0.1802229 0.23266846 0.07822348
-0.04014468 -0.0013239346 0.06188508 0.09884122 0.091769084 0.12336411 0.11874521 -0.20398784
0.03726057 0.06315302 0.046494417 -0.20939848 0.028929656 0.055685315 -0.2844791 -0.22207911
-0.24493337 -0.05726569 -0.26418513 0.13351005 -0.1297006 -0.10495138 -0.18542828 -0.25245607
-0.11669152 -0.055497393 0.14817819 -0.04708954 0.16385704 -0.053762008 -0.071582995 -0.22844116
-0.3095834 -0.055386882 -0.038570073 -0.19919167 0.019207483 -0.25174853 -0.09896762 -0.19775388
0.0051244055 -0.25788957 -0.04567855 -0.17608134 -0.24098103 -0.047398277 -0.19456224 -0.016788788
-0.047186617 -0.17432863 -0.12107425 0.008487671 -0.20092237 -0.033506215 0.31003013 -0.057311337
0.123896636 0.22240657 0.05146039 0.0785913 -0.007955534 0.14580992 0.050450806 0.028061857
0.019268714 0.05261084 -0.016846545 -0.2100956 0.2208005 0.15084039 0.27501392 0.3152673
0.29699278 0.2935022 -0.22587848 -0.023206832 -0.017741486 0.17680581 -0.025236111 -0.21636218
-0.017070858 -0.13875636 -0.078474045 -0.016595116 0.28826714 0.27079472 0.1458359 -0.031854067
-0.14124791 -0.050905827 -0.097887956 0.07335709 0.32777783 0.346455 0.2089448 -0.13667445
-0.02474674 -0.15777636 -0.0430978 0.061382774 0.123091675 0.34034896 -0.062198028 0.11834245
-0.10435909 -0.1704519 -0.031853627 0.14291243 0.21118009 0.11209607 -0.16262682 -0.28599298
-0.057844374 -0.16007859 -0.10435369 0.11269271 -0.10261662 0.03623246 -0.05316605 -0.25967366
-0.13208452 0.029774811 0.18141207 -0.040172044 -0.039544288 -0.036831353 -0.054523677 -0.032233212
-0.032647125 0.0059481957 -0.085791364 -0.039061554 -0.07198604 -0.05955026 -0.051635943 -0.046271145
-0.0063172975 -0.0379694 -0.035660993 -0.038813498 -0.032433107 -0.0279629 -0.04847133 -0.002372769
-0.0052028527 -0.004192485 -0.03887535 -0.0744759 -0.058820363 -0.034256164 -0.0084738005 -0.06623901
-0.020722084 -0.04636377 -0.041885484 -0.061044354 -0.05424199 -0.06240255 -0.039854642 -0.0073516886
-0.03675851 -0.03255945 -0.033663448 -0.037469216 -0.052483 -0.054628506 0.003039193 0.025222482
-0.032061536 -0.03745284 -0.05555686 0.01667953 -0.0070572468 -0.03218543 -0.05225959 -0.075155
-0.033064004 -0.043504108 -0.02548241 -0.014500996 0.00088084885 -0.027822074 -0.011623362 -0.0397007
-0.041092675 -0.029731523 3.1108364e-05 0.021453869 -0.02270186 -0.014182242 -0.016837632 -0.03447571
-0.0379966 -0.0043919818 0.00039334933 -0.021550115 -0.016535556 -0.015570748 -0.00952483 -0.014584794
-0.009795607 0.0045248996 -0.05668266 -0.041187406 -0.048809 -0.02925351 -0.02341071 0.0022331192
0.031263124 0.024026128 0.026825825 -0.029935552 -0.027595524 -0.005059206 0.016551305 -0.0033625779
-0.021004949 -0.023354732 -0.010077281 -0.026261462 -0.040843833 0.020568017 0.11949423 0.08203101
0.12070226 0.09692964 0.080589235 0.04978887 0.015047179 0.11451277 0.11577303 0.12093165

onnx::Conv_81 f4 [16]
00000000: d057 f6be c456 3bbe e523 83bd fe1f c53e
00000010: ff6d 17bf 4492 d13e d48e 2a3f 2129 2abf
00000020: a970 a83e 16ba 18bd 8ec1 5c3f 578d 11bf
00000030: 0413 f13d b4d9 5b3f c22e 1bbf 0a73 083f
-0.4811387 -0.18294817 -0.06403331 0.3850097 -0.59152216 0.40931904 0.6662419 -0.6646901
0.32898453 -0.03728684 0.8623284 -0.5685629 0.11771205 0.85879064 -0.6061822 0.53300536

onnx::Conv_83 f4 [32, 16, 3, 3]
00000000: 55a7 6abc 7abd 45bd 4b57 b6bc 5a6c 04bd
00000010: 1fb5 78bd 0f34 2abd 9cf9 83bc a923 babc
00000020: 61cc d7bb 2718 f33c 279d 1c3c 976a 0b3c
00000030: 1923 923b 07a0 7abc 858c 87bc f7cb 923a
00000040: c758 94bb 7c0c a2bb 8129 723a fa09 68bb
00000050: 2c21 e038 4f07 193a ce59 56bc d6eb bfbb
00000060: 4308 dcbb cb87 51bc 1074 6abc 1ec1 4d3b
00000070: 56cf 9bbc ea8a fcbc 902e 4cbc 213d c8bc
00000080: abc7 eabc 3212 5ebc 3997 b4bc de7b a4bc
00000090: 1128 823c ca47 e83c 7964 c73b 2273 b539
000000a0: 84a2 933c ebdc bfbb d63d 4bbc 9c4f 903b
000000b0: 5490 5dbc d081 d0bb 6b32 143d 86b1 a03c
000000c0: 95f7 fbbc 3a60 0dbc e0d9 94bc a7b7 7dbc
000000d0: 6b39 8c3c 84db 573c fd3b 203d e479 a93c
000000e0: 6ca4 bc3b 04b8 503c 7f0d 383c fb7f 49bc
000000f0: da58 013d a49b c93c 8418 d4ba 19e8 623c
00000100: 8bd8 7d3c 57d8 843c a49f a6bb f2fb d1ba
00000110: 44fd 50bb 21d0 48bc 6ca0 efbb 76b2 7dbb
00000120: 24f9 c6bc 3160 f3b8 e6b8 2b3d 7607 11bd
00000130: 8a00 0abd 113d ba3c 4bba 82bc 455b 23bc
00000140: 9053 343d 2d78 513c 6205 ccb9 c98b 07bc
00000150: bf4b 35bc 4073 4dbc 24aa c7bc 60c5 44bc
00000160: d5d6 a9bb a0d2 86bc 93aa afbc b985 17bc
00000170: 0ebd 45bc f504 96bc 4048 63b8 bb98 0b3b
00000180: 8ca4 fcbb b8c5 113b 4ee4 03bb 92cd 013c
00000190: 956b a5bc aa32 08bd ae6c 19bd 10b5 e7bc
000001a0: 4981 3cbd 7fe0 b4bc fc5f 72bc 5149 b1bc
000001b0: 8627 82bc cb48 843c 942f 81bc 88a9 b7bc
000001c0: 8472 183c 5a47 d8bc 8c37 febb 0097 8a3c
000001d0: 0c7d 85bc 82c6 c43c d8ec 813c 07a0 ca3b
000001e0: 0545 edbb 1705 2cbc a68b ecbc 7e64 2a3d
000001f0: 7f4a 363d f7fb 253c e830 f23a 6d96 c03b
00000200: 3f02 993c 6128 53bc c89b fbbb 0666 e4ba
00000210: 9502 aabc c21d 0abc fc57 33bb c9d1 3f3b
00000220: cc0f 13bc bf60 f8bb fef8 b1ba 3c32 babb
00000230: 1f2b 6cba c5af 22bb ceb7 25bc e187 e8ba
00000240: 6b51 11bc d7ef 05bc 264b cbbb 84f0 423b
00000250: 5fb3 72bb 3a53 8cbb 20dc d53b a3ad a9ba
00000260: 2286 b9bb 9ed7 1cbb 847c 45bb 8995 20bb
00000270: 9028 26bb 67a1 84bb a459 5cbb 027b 77bb
00000280: b13a abbb 8722 a4bb 9003 99b9 9320 1bbb
00000290: af0f 3cba cd0d 813a 6036 89bb e118 1abb
000002a0: a68a be3a 7827 3ebb 673d f6ba 3f8f 9cb9
000002b0: 02be 75ba 9cb4 4abb 88af 183b 7b24 c8b9
000002c0: 5a0d a3b9 dd80 3a39 b2d5 67bb c4a3 33bb
000002d0: 51ab 313b 541b 8fba 3c58 40ba fb3f 7e3b
000002e0: 9d89 0e3a 3589 12ba 183f 173b a8f5 70ba
000002f0: ca65 f0ba 646e fd39 7188 9fba 0e61 79ba
00000300: 00f3 d03a 2f7a 4d38 4c7f 483a 2c0e 013b
00000310: 89da 36bb 7b08 ab3a 1650 dc3b a0cc 44bb
00000320: 6bd8 b439 bda7 5d3b cc28 73bb f96a 673a
00000330: daa8 f9ba 105c c6bb 0608 66ba 9188 93b9
00000340: 922e b4ba 07a0 143a 5cde d0b9 4443 beba
00000350: c55d a4b9 e8ce c6ba 03c2 23bb 5331 02bb
00000360: 16ac ab3b c020 c03b b102 d03b f8a8 183b
00000370: ebe1 8f3a 5d1a db3b cb35 4cba ed94 b2bb
00000380: 7d4e 17ba 9d61 2b3b 684a dcba bb2f d1ba
00000390: 1bbb 3f3a 821c 59bb 5f8b 1abb 0a67 bdb9
000003a0: 8e1b a3bb 74bc 9aba 4b2c 233b 5fdc 9c3b
000003b0: 75a4 963b f785 cb3a e582 113b 443d a23b
000003c0: 4d47 933a b45b 733a d5f6 3e3a 57da 9bb9
000003d0: 3184 ceba 1a1b d2ba db1b b33b 593f dc3a
000003e0: af30 923a 71df 163c b268 393b 1be3 53ba
000003f0: d88f 543b 6e2e 9dbb f21e 97bb fede d43b
-0.014322122 -0.048276402 -0.022258421 -0.032329895 -0.060719606 -0.041553553 -0.016110234 -0.022722082
-0.006585643 0.029674603 0.009558952 0.0085093 0.0044597504 -0.015296943 -0.016546497 0.0011199702
-0.0045271846 -0.004945336 0.0009237752 -0.0035406337 0.00010687331 0.0005837576 -0.013082935 -0.0058569713
-0.006714852 -0.012788723 -0.014309898 0.0031395624 -0.019019764 -0.030827958 -0.012462273 -0.024443211
-0.028659662 -0.013554143 -0.022044765 -0.020078596 0.015888246 0.028354544 0.0060849753 0.0003460879
0.01802183 -0.005855193 -0.01240488 0.0044040214 -0.01352318 -0.006363131 0.036180895 0.0196159
-0.030757705 -0.008628899 -0.018170297 -0.015485681 0.017117223 0.013174895 0.03911971 0.020688005
0.0057569053 0.012739185 0.0112336865 -0.012298579 0.031578876 0.024610348 -0.0016181623 0.013849282
0.015493522 0.01621644 -0.0050849486 -0.001602052 -0.003188924 -0.012256653 -0.007312825 -0.0038711107
-0.024288721 -0.0001160506 0.04192438 -0.035407506 -0.03369192 0.022734197 -0.015957972 -0.009970491
0.044025004 0.012785 -0.00038913923 -0.0082730735 -0.011065423 -0.012539685 -0.024373122 -0.0120099485
-0.0051830807 -0.016457856 -0.02144364 -0.009248191 -0.012069 -0.01831291 -5.4188306e-05 0.0021300751
-0.007710045 0.0022243094 -0.0020125094 0.007922547 -0.0201929 -0.033251442 -0.03745716 -0.02828458
-0.046021733 -0.022079704 -0.014793392 -0.021641405 -0.015887987 0.016147992 -0.015769757 -0.022419706
0.009304646 -0.02640121 -0.0077580865 0.016917706 -0.016294979 0.024020437 0.015860006 0.0061836275
-0.007240894 -0.01049926 -0.028875183 0.041599743 0.04450464 0.010130874 0.001847771 0.005877307
0.018677829 -0.012888045 -0.0076784827 -0.0017425425 -0.020753184 -0.008429946 -0.0027365675 0.0029269329
-0.008975934 -0.0075798924 -0.0013578234 -0.005682258 -0.0009009111 -0.0024824005 -0.010114623 -0.001774069
-0.008869509 -0.008174858 -0.0062040268 0.002974541 -0.0037033183 -0.0042823823 0.006526485 -0.0012945425
-0.005661742 -0.0023932229 -0.0030134032 -0.0024503192 -0.0025353767 -0.004047561 -0.0033622766 -0.0037762527
-0.0052255024 -0.005008999 -0.00029185088 -0.0023670539 -0.0007173968 0.0009846032 -0.00418739 -0.0023513364
0.001453717 -0.0029015224 -0.001878661 -0.00029861365 -0.00093743217 -0.0030930405 0.0023297984 -0.00038174153
-0.0003109973 0.00017786348 -0.0035375175 -0.0027410844 0.002711017 -0.0010918179 -0.00073373667 0.003879546
0.0005437376 -0.00055899034 0.0023078378 -0.0009191879 -0.0018340882 0.00048338168 -0.00121714 -0.00095130585
0.001594156 4.89896e-05 0.0007648363 0.0019692285 -0.0027901253 0.0013048792 0.006723414 -0.0030029193
0.0003449352 0.0033821904 -0.0037103174 0.0008827891 -0.0019047514 -0.006053455 -0.00087749993 -0.00028139775
-0.0013746789 0.0005669598 -0.00039838522 -0.0014515896 -0.0003135038 -0.0015167864 -0.0024987466 -0.0019865825
0.00523902 0.005863279 0.006347977 0.0023294073 0.0010977363 0.0066864924 -0.0007789998 -0.0054498822
-0.00057718885 0.0026150711 -0.0016806843 -0.0015959659 0.00073139527 -0.0033128564 -0.0023581607 -0.0003612566
-0.00497765 -0.0011805431 0.0024898227 0.0047870125 0.0045972415 0.0015527596 0.0022203263 0.004951151
0.0011236459 0.0009283379 0.00072847056 -0.0002972658 -0.0015755949 -0.0016029805 0.005465967 0.0016803547
0.0011153425 0.009208546 0.0028291163 -0.00080828526 0.003243437 -0.0047967946 -0.0046118433 0.0064963093

onnx::Conv_84 f4 [32]
00000000: cf96 4a3e 28b8 ebbc 28db 22be 2fe6 e88d
00000010: 15ec 88b9 1448 b3ac c1af c2be a852 99bd
00000020: 4739 0080 23f7 0080 2d90 e3b7 6a1d 34be
00000030: 8713 88ae 7b22 51bd 1299 053d 3289 873e
00000040: 4c69 9e3c ac7f 0400 d2ca bb3c c312 a6bb
00000050: c82f f93c 2016 a9bd 6241 4abe 13c7 0080
00000060: 59f4 8ebe 7b11 4fbe 6843 81be 0b0f 403e
00000070: 3c74 de3e 84bd dfbe 5b97 533e 2d6d 18be
0.19784091 -0.028774336 -0.15903914 -1.4353519e-30 -0.00026115836 -5.0954883e-12 -0.38024715 -0.074864686
-2.0547e-41 -8.8656e-41 -2.7127646e-05 -0.17589346 -6.188033e-11 -0.051058274 0.032616682 0.2647186
0.019337319 4.13142e-40 0.02292386 -0.0050681545 0.030418292 -0.08256173 -0.19751504 -7.1414e-41
-0.27920797 -0.20221512 -0.2524674 0.18755738 0.43448055 -0.43699276 0.20663206 -0.14885397

onnx::Conv_86 f4 [32, 32, 3, 3]
00000000: af1a 99bc b6fd 22bd eefa 7e3c 688a 053d
00000010: f989 a83b 98f2 303d 8483 623d 6196 a93c
00000020: a8a5 153d 9ffd 34ba ecfc 1f3b c5ea 01bc
00000030: 3bbb b9bb 9564 40ba a109 6dbb 382f f5bb
00000040: da53 f5b9 49cf 433a 2021 aa3c f4dc efbc
00000050: 2e25 6ebd 2ff1 bd3c ada2 48bc f068 e5bc
00000060: e1a9 8fbc d34d 22bd 01b2 90bb 83cc 0080
00000070: e363 0080 987d 0000 e45e 0000 f45d 0080
00000080: e0a8 0080 1b11 0080 c322 0000 c95b 0000
00000090: b331 0080 8f5b 0080 8740 0000 5111 0080
000000a0: 9340 0000 4213 0080 4635 0080 8c92 0000
000000b0: 9c4e 0080 3b9b 0080 5a77 0000 b895 0080
000000c0: 5e18 0000 d051 0080 b72a 0000 0a96 0000
000000d0: 7e60 0000 a75f 0000 534f 0bbe 8c6f febc
000000e0: cd09 063e 089b 04be a63e 6bbd b115 013e
000000f0: bbc4 ecbd 10c2 babc c6c2 0f3e f96b 18bd
00000100: 1bf6 8d3d 76d8 ac3d 0df9 c73b bf1d a83b
00000110: 5e3a 6dbc 8c9b 983c 32e1 d63c f58d 713d
00000120: 0bab 0000 55d2 0080 aec9 0000 f75b 0000
00000130: e3ba 0080 fcef 0080 02c5 0080 d371 0080
00000140: 4dcc 0000 14ad 0000 98e8 0080 f986 0080
00000150: e72d 0080 2374 0000 a24a 0000 2841 0080
00000160: 4e49 0080 f6d8 0080 4925 0000 57f9 ee9a
00000170: ebbf d7a1 1e9b 0580 62d3 4a98 8316 30a0
00000180: 9aff 3980 d86c 661a d8d2 3120 04a9 7abd
00000190: e913 14bd b6f0 0e3d d698 54bd b647 ebbd
000001a0: 163b 71bc 31ab b9bd 498a 8fbd 98a6 483d
000001b0: 685e 0000 0893 0000 3d4e 0000 490b 0000
000001c0: b59f 0080 0877 0000 2b7b 0000 f333 0080
000001d0: 9179 0000 e5bb d73c eaf0 1b3d 2555 6ebc
000001e0: 9de8 fe3c 73cc 233d 2ec3 a1bc 1576 573c
000001f0: bf15 023d 85bb 733a b4b8 8b3d 2074 2c3b
00000200: f98a 1c3d 0a9e 553d 01eb 07bd f719 02bc
00000210: 7615 263d 8729 d23c 52b8 973b cb01 bd3c
00000220: 0f66 213c 15bf 9e3d 420d d43c a156 0c3c
00000230: e043 853d d750 303d 39e5 ca3c 8155 5c3d
00000240: 273f d4bb 5b23 b8bc ca75 0f3c a872 92bc
00000250: c06a 6cbc abbb f9bb 064c 593b 4125 563c
00000260: a944 383c 5815 0000 cb8c 0000 833a 0080
00000270: 26a8 0080 af38 0000 cc8e 0000 5529 0180
00000280: c8ff 0080 fd94 0000 eb53 7dbb 357d d7ba
00000290: feb5 8e3b 6740 423b 4c73 713a c40f a93b
000002a0: da0a 4d3a 0454 58bb a988 d7ba eb79 ad28
000002b0: 73e9 94ad edbb f6af 522e 7f24 9afb 122c
000002c0: 8115 cd2c 1311 4ca8 114e fa27 1a44 0d2e
000002d0: 98ab 94bd 1ee0 c03c 9406 6b3d ed5b a3bd
000002e0: 52ef edbc 259d 363d 3d57 30bd 007b abbb
000002f0: b4aa 183d 5be3 4ebc 2fe5 9a3d edc4 363d
00000300: 7a27 0ebd 245c fa3b c291 c5bb 94b7 2ebd
00000310: 5d2c 8ebc 12e4 1b3d 9616 08bc f5d1 ccbb
00000320: d840 f3bb 28c0 a1bc e5a0 673c d2c9 afbb
00000330: c627 443b 3815 ba3d 1c89 633d f1c3 0080
00000340: 6553 0000 c757 0080 2bde 0000 3a99 0000
00000350: f594 0080 4e92 0080 d9d9 0000 9e37 0080
00000360: 0a7c 6abd 4a9e d3bb af8d e73b 24b5 07bd
00000370: fe2d 3ebd 41ce 473d 47fa a03b 004e 1fbc
00000380: 48ac 963d bdc2 81bd 9fb4 09bd 2f15 f23c
00000390: e655 8dbd 64ae 01bd 7bc6 d43c 5eda 88bd
000003a0: 3e76 a43b 2d1e 653d ed17 96ba 7d09 873c
000003b0: 6604 be3c f163 5f3c 0140 d93c e0ed eb3c
000003c0: 296e c83a 0514 cb3c bf37 1c3d 339c 6abd
000003d0: e98d 5cbb 7b77 12bb a3c6 2fbc a652 fd3c
000003e0: 9d31 a2bc f8c5 00bc 574d e13c 63d4 e7bc
000003f0: 3431 1c3d 8315 903d 033e 013d 0fe4 53bb
-0.018689482 -0.03979274 0.015562756 0.032602698 0.0051434007 0.043200105 0.055301204 0.020701589
0.036534935 -0.00069042476 0.0024412228 -0.007929509 -0.0056680716 -0.00073392066 -0.003616907 -0.0074824356
-0.00046792516 0.00074695476 0.020767748 -0.029280163 -0.058140926 0.023186294 -0.012245816 -0.02800414
-0.01753706 -0.039625 -0.004415751 -7.3365e-41 -3.5833e-41 4.5055e-41 3.404e-41 -3.3704e-41
-6.0581e-41 -6.136e-42 1.247e-41 3.2926e-41 -1.7829e-41 -3.2845e-41 2.3148e-41 -6.212e-42
2.3165e-41 -6.908e-42 -1.9111e-41 5.2571e-41 -2.82e-41 -5.5686e-41 4.2815e-41 -5.3709e-41
8.741e-42 -2.9349e-41 1.5323e-41 5.3824e-41 3.4615e-41 3.4314e-41 -0.13604479 -0.03105905
0.13089676 -0.12949765 -0.057432793 0.12605931 -0.11560961 -0.022797614 0.14039144 -0.037212346
0.069317065 0.08439724 0.006102687 0.005130499 -0.014479248 0.018628858 0.026230428 0.05897327
6.1359e-41 -7.5453e-41 7.2349e-41 3.2991e-41 -6.7042e-41 -8.609e-41 -7.0673e-41 -4.0832e-41
7.329e-41 6.2089e-41 -8.3439e-41 -4.8419e-41 -1.6467e-41 4.1662e-41 2.6773e-41 -2.3374e-41
-2.6297e-41 -7.7831e-41 1.3375e-41 -9.883732e-23 -1.4619767e-18 -5.14823e-40 -2.621461e-24 -1.4915228e-19
-5.326316e-39 4.765081e-23 1.5062246e-19 -0.061196342 -0.0361518 0.03489753 -0.05190357 -0.11488287
-0.01472356 -0.09065855 -0.07008798 0.048987 3.3867e-41 5.2745e-41 2.8067e-41 4.048e-42
-5.7292e-41 4.27e-41 4.4184e-41 -1.8636e-41 4.361e-41 0.026334712 0.03807155 -0.014546667
0.031116778 0.0399899 -0.01974639 0.013150712 0.03175902 0.0009297657 0.06822339 0.0026314333
0.038218472 0.05215267 -0.0331831 -0.007940761 0.04054781 0.025654567 0.004630127 0.023072144
0.009850993 0.0775129 0.025885228 0.008565576 0.06507087 0.043045845 0.024767505 0.05379248
-0.006477255 -0.022477796 0.00875611 -0.017876938 -0.014429748 -0.0076212487 0.0033156886 0.013070405
0.011246839 7.657e-42 5.0507e-41 -2.099e-41 -6.032e-41 2.0334e-41 5.1226e-41 -1.06663e-40
-9.1757e-41 5.3447e-41 -0.0038654755 -0.0016440513 0.0043551913 0.0029640438 0.0009210601 0.00515935
0.00078217464 -0.0033009062 -0.0016443926 1.9259732e-14 -1.6929324e-11 -4.488067e-10 5.5333546e-17 2.0887515e-12
5.828838e-12 -1.1327977e-14 6.947358e-15 3.2120175e-11 -0.072592914 0.023544367 0.05737932 -0.07976518
-0.02904478 0.04458346 -0.043051947 -0.0052331686 0.03727217 -0.012627448 0.075632446 0.044621397
-0.034705617 0.0076403785 -0.0060293386 -0.042655542 -0.017355138 0.0380593 -0.008306166 -0.0062506148
-0.0074235015 -0.019744948 0.014137481 -0.005364635 0.0029930933 0.090860784 0.05555068 -7.029e-41
2.9916e-41 -3.1489e-41 7.9699e-41 5.4967e-41 -5.3436e-41 -5.2484e-41 7.8149e-41 -1.9952e-41
-0.0572472 -0.0064580785 0.0070664505 -0.033131734 -0.04643058 0.048780683 0.004912648 -0.0097231865
0.07357079 -0.063359715 -0.03361952 0.029551117 -0.069011495 -0.031660452 0.02597355 -0.06682275
0.0050189784 0.05593698 -0.0011451222 0.016484017 0.023195457 0.013634668 0.026519777 0.028799951
0.0015291619 0.02478982 0.0381391 -0.05727787 -0.003365392 -0.0022349048 -0.010728511 0.030923199
-0.019799048 -0.007859699 0.027502699 -0.028299516 0.03813286 0.07035353 0.03155328 -0.0032331978

onnx::Conv_87 f4 [32]
00000000: bced 03bc 8f5e 93be f959 bcba dc3b ecbc
00000010: a7bf 40bd 800e 863e a22b 8e3d f89d 26bc
00000020: ea06 90bc 57cd 03bd e620 083e fc92 8bb7
00000030: 34d6 1d3c bc13 d33b 561b 78bd c821 0080
00000040: 2d02 b83e 23e8 abb1 c211 0080 998f 0080
00000050: 6c00 f13b 2bbe e9a1 306f c5bb d62d b33c
00000060: a5c3 86bc d742 a593 96e8 683e 1327 0300
00000070: 7ca9 bfbc 5ba1 4c3e e681 913d f413 0080
-0.008052286 -0.2878308 -0.0014370076 -0.028837137 -0.047057774 0.26182938 0.06941916 -0.010169499
-0.017581422 -0.03217825 0.132938 -1.6638536e-05 0.00963359 0.0064415615 -0.060572945 -1.2118e-41
0.3593916 -5.003146e-09 -6.37e-42 -5.1513e-41 0.0073547866 -1.5839031e-18 -0.0060252175 0.021872442
-0.016450712 -4.1717765e-27 0.22744974 2.89524e-40 -0.023396246 0.19983427 0.07104854 -7.158e-42

onnx::Conv_89 f4 [32, 16, 1, 1]
00000000: 951f a93d f403 e43c 954f babb 548f c5bd
00000010: 4bd3 0b3d 5448 2c3d a462 8cbb 2289 583c
00000020: e52d d23d 1542 d1bb 22a6 313d 0070 92bc
00000030: ad7c 99bc ed34 c7bc a199 73bd d90e f73d
00000040: 4c3e 88bd 78b2 a93d 1fe0 8d3c 6843 023d
00000050: bddd 62bc 8e4c 01bd 1b48 f13c 2e1f 5a3d
00000060: 07fe fb3c 2cbe 243d 1d3a 013c 66e8 97bd
00000070: 5afb 37bc edf9 77bc 5a50 06bd 34e5 85bc
00000080: 01e7 8735 89e5 a8b5 bd6c 34ac cf6b 45b6
00000090: ae10 8fb1 489e f42f 67b2 8231 6f29 a5b0
000000a0: 352c e934 8bc7 86af 12be 2c34 15fd c9b7
000000b0: cbf4 0432 414e d6b2 2c0d 37ac f09f 8032
000000c0: 0ea1 3a3a f452 863b 7368 5a3a 5b06 36bc
000000d0: 466d 143c 74ea 9fbc 8aa9 0fbc 7381 7f3c
000000e0: 870c d3bc c08b 973b 00c6 74bc 286f 2e3b
000000f0: 8e97 a3bc eaae 7e3b 8b48 353c 8fbe 8bbb
00000100: c40d fc3c 191f a2bb 9af5 3dbc b02e 603d
00000110: 9c65 863b 4bfe b0b9 e9c7 37bb b201 f83a
00000120: 1239 2f3b 2c4a cabc 32c7 283c fcb0 ad3c
00000130: 856b 453d 8152 3fbd a03c c43b 8ab5 dd3c
00000140: 5e4b 113e 4dd0 95be 5402 6f3d 94ec 5c3e
00000150: 4c83 5cbe 8b8d 283e c237 2a3e ffe5 23be
00000160: 245e 3c3e 3a3f 913e 8e63 58be d4c5 b73e
00000170: c3d2 833e 767d 803e 60bd d83d 8f63 873e
00000180: dc63 d03d 5138 443d 2d70 a83d fc90 29bd
00000190: d9d8 f8bc a30b f33d aadb e8bd e673 29bc
000001a0: cb37 653e 9691 8e3c 1b16 b9bd f43b 983e
000001b0: 6c00 fc3d 3c04 a0bd 4432 eb3d 37aa bebd
000001c0: 28f4 6d3d b2fb 30be 0555 7f3c cb2b 0abe
000001d0: 164c 22bd d525 bd3d 81a3 f73a 4192 f5bd
000001e0: 4249 5cbd 0ceb 9bbd d055 21bd 72f7 bfbc
000001f0: fc9c 273d 50c4 bdbc d38e 843d f7e3 abbc
00000200: 005c 85bd 5bd1 7f3c 7b01 363c 5bce dbbb
00000210: c470 dfbc 580f 72bd 8610 2bbd c299 583c
00000220: c0e3 55bd 2517 07bd b95b 823d 0be1 723c
00000230: f742 7a3c 5d6c 553d f12a 0cbc e27d 13bd
00000240: ba43 a73d 338b ecbc 4f1e aa3c b14b 88bc
00000250: 68dd af3c 7091 063e 4cee d33d 0338 24bd
00000260: e964 af3b fdd9 d13d c5f9 ba3c 6bd0 4f3d
00000270: a3f2 93bd a7cc de3d d1b1 69bd e9f9 40bc
00000280: eb65 a1bc fac8 29bd 7beb d23c 4082 42bd
00000290: a387 9fbd 04c1 72bc fbaf 443c 10d4 153b
000002a0: 4211 c33d ee81 243a a3d2 e0bd ba6b b5bd
000002b0: 2b6b c03c 92f8 6b3d 9fa9 65bd e848 94bd
000002c0: 6703 82a0 210f b8aa 00d4 ed92 37c1 b5ab
000002d0: fd94 2f08 2886 ee9c 74cb 48a2 a796 c593
000002e0: 97d7 61aa 3031 d79c fdbd 4a1c 09e6 76a7
000002f0: 456c 419e 2150 649a b408 5087 bb49 0d95
00000300: 8363 c13c edd5 95bc 95e8 803e 25a1 033d
00000310: 67c3 f6bd f962 23bd 6a9c 17bd d7c1 9cbd
00000320: b471 4abd 41f5 403e 1917 99bd 943a 1a3e
00000330: 5ec4 553e 374d cc3d e6ff d93d 7684 0cbe
00000340: 8f8f b23d 776c bc3c 1c33 23bc f379 9d3c
00000350: 09da edbc f348 18bd d523 b3bc 0676 e7bc
00000360: 6be6 d2bc 7734 a3bc eef2 81bc 17a4 a33b
00000370: 2438 073d 1a00 62bd 99b2 26bc d604 9b3c
00000380: 536d af3d 1dd2 99bb 87f5 1dbd 185a 1bbd
00000390: d735 f7bd 3d7e d0bd 79a6 1b3e 2b53 c03c
000003a0: 0170 8d3d a3e6 d6bc f486 593c 7c37 a03e
000003b0: f65e 34bd 8b1f e3bd 18f2 363e 97d1 a23d
000003c0: 0000 0000 0000 0000 0000 0080 0000 0080
000003d0: 0000 0080 0000 0080 0000 0000 0000 0000
000003e0: 0000 0000 0000 0000 0000 0080 0000 0000
000003f0: 0000 0000 0000 0080 0000 0000 0000 0000
0.08257977 0.027833916 -0.0056857564 -0.09646478 0.03413705 0.042061165 -0.00428422 0.013216289
0.1026266 -0.0063860514 0.043371327 -0.017875671 -0.018736208 -0.02431723 -0.059472684 0.12063379
-0.06652507 0.08285993 0.017318783 0.031802565 -0.013846812 -0.03156715 0.029453328 0.05325239
0.030760778 0.040220425 0.00788739 -0.07417373 -0.0112293605 -0.015135271 -0.032791473 -0.016344644
1.0125515e-06 -1.2583779e-06 -2.56399e-12 -2.941804e-06 -4.163744e-09 4.4495807e-10 3.80378e-09 -1.2017106e-09
4.3431797e-07 -2.4516242e-10 1.6087895e-07 -2.4078918e-05 7.739071e-09 -2.4948465e-08 -2.6013176e-12 1.4973892e-08
0.0007119336 0.0040992443 0.0008331604 -0.011109914 0.009059256 -0.019520976 -0.008768449 0.015594828
-0.02576281 0.004624814 -0.014939785 0.0026616547 -0.019969728 0.003886158 0.011064659 -0.0042646597
0.030768283 -0.004947555 -0.0115942005 0.054732025 0.0041014683 -0.000337588 -0.002804274 0.0018921404
0.0026736897 -0.024693571 0.010301398 0.021202557 0.04819824 -0.04670954 0.0059886724 0.027064104
0.14188907 -0.29260483 0.05835183 0.21574622 -0.21534461 0.16460244 0.16622832 -0.16005705
0.18395287 0.2836855 -0.21131727 0.35893118 0.25746736 0.2509572 0.105829954 0.26443145
0.10175297 0.04790527 0.08224521 -0.041398033 -0.030376839 0.11867454 -0.113700226 -0.010342574
0.22384565 0.017403405 -0.090374194 0.2973324 0.12304768 -0.07813308 0.11484197 -0.0930981
0.058094174 -0.17283514 0.015584235 -0.13493268 -0.039623342 0.092357315 0.0018893332 -0.11990786
-0.0537808 -0.07613191 -0.039388478 -0.02343342 0.040921196 -0.023164898 0.06472554 -0.020982726
-0.06511688 0.015613879 0.011108751 -0.006707949 -0.02727545 -0.059096664 -0.041763805 0.0132202525
-0.052219152 -0.032981057 0.06365151 0.014824162 0.015274755 0.052105296 -0.00855516 -0.036008723
0.08167215 -0.02887497 0.020766405 -0.016637655 0.02146788 0.13141418 0.10348186 -0.04009248
0.0053526056 0.10246656 0.022824178 0.050735872 -0.07224014 0.10878878 -0.057054345 -0.011778333
-0.019701919 -0.04145143 0.025747051 -0.047487497 -0.077895425 -0.014816526 0.012004848 0.0022861995
0.09524776 0.00062754645 -0.10977676 -0.08858438 0.023488602 0.057610102 -0.056069966 -0.07240468
-2.2025108e-19 -3.2695464e-13 -1.5009065e-27 -1.2914451e-12 5.283728e-34 -1.5784197e-21 -2.7212761e-18 -4.9878346e-27
-2.0058812e-13 -1.4240221e-21 6.708175e-22 -3.426406e-15 -1.02397245e-20 -4.7214023e-23 -1.5650738e-34 -2.8532886e-26
0.023607021 -0.018290484 0.25177446 0.0321361 -0.12048989 -0.03988931 -0.037014402 -0.076541595
-0.049424842 0.18843557 -0.07475109 0.15061408 0.2087569 0.09975665 0.10644512 -0.13722405
0.08718788 0.023000939 -0.009960916 0.019223189 -0.029034631 -0.037178945 -0.021867672 -0.02825452
-0.025744637 -0.019922478 -0.015862908 0.0049939263 0.033012524 -0.055175878 -0.010174417 0.018923204
0.08565774 -0.004694237 -0.03856423 -0.037927717 -0.12070816 -0.10180328 0.15200223 0.023477158
0.06906129 -0.026233023 0.013276804 0.3129233 -0.044035874 -0.11090001 0.17865789 0.07950132
0.0 0.0 -0.0 -0.0 -0.0 -0.0 0.0 0.0
0.0 0.0 -0.0 0.0 0.0 -0.0 0.0 0.0

onnx::Conv_90 f4 [32]
00000000: 9b26 e3bd 7832 9bbd f9d2 baba f9db a23c
00000010: 1fbb c3bd 2458 3abf 1afe 9bbe 9bbe 633d
00000020: dbef ff3c fa3c 46be ccc1 afbc 9192 8bb7
00000030: 3119 40be faa7 a7bc c57d 4cbe c821 0080
00000040: 3c33 6b3e 23e8 abb1 c211 0080 998f 0080
00000050: 61e1 a83c 2bbe e9a1 5e24 a8be 5ec5 be3d
00000060: 320a bbbc 9c43 a593 688d 903c 1327 0300
00000070: 613f a7bd 5406 8ebe 137c 3fbd f413 0080
-0.11091348 -0.075779855 -0.0014253549 0.019880282 -0.09557175 -0.7279074 -0.30467302 0.055601697
0.031242302 -0.19359198 -0.021454714 -1.6638342e-05 -0.1875961 -0.02046584 -0.19969852 -1.2118e-41
0.22968763 -5.003146e-09 -6.37e-42 -5.1513e-41 0.020615282 -1.5839031e-18 -0.32840246 0.093149886
-0.02283201 -4.1718524e-27 0.017645553 2.89524e-40 -0.081663854 -0.27739203 -0.046749186 -7.158e-42

onnx::Conv_92 f4 [64, 32, 3, 3]
00000000: 0000 0080 0000 0080 0000 0080 0000 0080
00000010: 0000 0080 0000 0080 0000 0080 0000 0080
00000020: 0000 0000 0000 0000 0000 0080 0000 0080
00000030: 0000 0000 0000 0000 0000 0000 0000 0000
00000040: 0000 0000 0000 0000 0000 0080 0000 0000
00000050: 0000 0080 0000 0080 0000 0000 0000 0080
00000060: 0000 0000 0000 0000 0000 0000 0000 0000
00000070: 0000 0080 0000 0000 0000 0000 0000 0000
00000080: 0000 0080 0000 0000 0000 0000 0000 0000
00000090: 0000 0080 0000 0080 0000 0080 0000 0080
000000a0: 0000 0000 0000 0080 0000 0080 0000 0080
000000b0: 0000 0080 0000 0080 0000 0080 0000 0080
000000c0: 0000 0000 0000 0080 0000 0000 0000 0000
000000d0: 0000 0080 0000 0000 0000 0080 0000 0080
000000e0: 0000 0000 0000 0080 0000 0080 0000 0080
000000f0: 0000 0080 0000 0080 0000 0080 0000 0000
00000100: 0000 0080 0000 0080 0000 0000 0000 0000
00000110: 0000 0080 0000 0080 0000 0000 0000 0000
00000120: 0000 0000 0000 0080 0000 0080 0000 0080
00000130: 0000 0080 0000 0000 0000 0080 0000 0080
00000140: 0000 0080 0000 0080 0000 0080 0000 0080
00000150: 0000 0000 0000 0000 0000 0080 0000 0000
00000160: 0000 0000 0000 0000 0000 0000 0000 0080
00000170: 0000 0000 0000 0080 0000 0000 0000 0000
00000180: 0000 0080 0000 0000 0000 0000 0000 0000
00000190: 0000 0080 0000 0000 0000 0080 0000 0080
000001a0: 0000 0080 0000 0080 0000 0000 0000 0080
000001b0: 0000 0000 0000 0000 0000 0000 0000 0000
000001c0: 0000 0000 0000 0080 0000 0080 0000 0000
000001d0: 0000 0000 0000 0000 0000 0080 0000 0080
000001e0: 0000 0080 0000 0080 0000 0080 0000 0000
000001f0: 0000 0080 0000 0080 0000 0080 0000 0080
00000200: 0000 0000 0000 0000 0000 0080 0000 0080
00000210: 0000 0000 0000 0000 0000 0080 0000 0000
00000220: 0000 0080 0000 0000 0000 0000 0000 0080
00000230: 0000 0080 0000 0000 0000 0000 0000 0000
00000240: 0000 0000 0000 0000 0000 0000 0000 0000
00000250: 0000 0000 0000 0000 0000 0080 0000 0080
00000260: 0000 0080 0000 0080 0000 0000 0000 0000
00000270: 0000 0080 0000 0080 0000 0000 0000 0080
00000280: 0000 0080 0000 0000 0000 0000 0000 0080
00000290: 0000 0000 0000 0000 0000 0000 0000 0000
000002a0: 0000 0000 0000 0000 0000 0000 0000 0000
000002b0: 0000 0000 0000 0000 0000 0000 0000 0080
000002c0: 0000 0080 0000 0000 0000 0080 0000 0000
000002d0: 0000 0080 0000 0080 0000 0000 0000 0000
000002e0: 0000 0080 0000 0080 0000 0000 0000 0080
000002f0: 0000 0080 0000 0000 0000 0080 0000 0080
00000300: 0000 0080 0000 0000 0000 0080 0000 0080
00000310: 0000 0080 0000 0000 0000 0000 0000 0080
00000320: 0000 0080 0000 0000 0000 0000 0000 0000
00000330: 0000 0080 0000 0080 0000 0080 0000 0000
00000340: 0000 0000 0000 0080 0000 0080 0000 0080
00000350: 0000 0000 0000 0000 0000 0080 0000 0080
00000360: 0000 0000 0000 0080 0000 0080 0000 0080
00000370: 0000 0000 0000 0000 0000 0000 0000 0000
00000380: 0000 0080 0000 0080 0000 0000 0000 0000
00000390: 0000 0000 0000 0080 0000 0080 0000 0000
000003a0: 0000 0000 0000 0080 0000 0000 0000 0080
000003b0: 0000 0080 0000 0000 0000 0000 0000 0080
000003c0: 0000 0080 0000 0000 0000 0000 0000 0080
000003d0: 0000 0080 0000 0080 0000 0080 0000 0080
000003e0: 0000 0000 0000 0000 0000 0080 0000 0000
000003f0: 0000 0000 0000 0000 0000 0080 0000 0000
-0.0 -0.0 -0.0 -0.0 -0.0 -0.0 -0.0 -0.0
0.0 0.0 -0.0 -0.0 0.0 0.0 0.0 0.0
0.0 0.0 -0.0 0.0 -0.0 -0.0 0.0 -0.0
0.0 0.0 0.0 0.0 -0.0 0.0 0.0 0.0
-0.0 0.0 0.0 0.0 -0.0 -0.0 -0.0 -0.0
0.0 -0.0 -0.0 -0.0 -0.0 -0.0 -0.0 -0.0
0.0 -0.0 0.0 0.0 -0.0 0.0 -0.0 -0.0
0.0 -0.0 -0.0 -0.0 -0.0 -0.0 -0.0 0.0
-0.0 -0.0 0.0 0.0 -0.0 -0.0 0.0 0.0
0.0 -0.0 -0.0 -0.0 -0.0 0.0 -0.0 -0.0
-0.0 -0.0 -0.0 -0.0 0.0 0.0 -0.0 0.0
0.0 0.0 0.0 -0.0 0.0 -0.0 0.0 0.0
-0.0 0.0 0.0 0.0 -0.0 0.0 -0.0 -0.0
-0.0 -0.0 0.0 -0.0 0.0 0.0 0.0 0.0
0.0 -0.0 -0.0 0.0 0.0 0.0 -0.0 -0.0
-0.0 -0.0 -0.0 0.0 -0.0 -0.0 -0.0 -0.0
0.0 0.0 -0.0 -0.0 0.0 0.0 -0.0 0.0
-0.0 0.0 0.0 -0.0 -0.0 0.0 0.0 0.0
0.0 0.0 0.0 0.0 0.0 0.0 -0.0 -0.0
-0.0 -0.0 0.0 0.0 -0.0 -0.0 0.0 -0.0
-0.0 0.0 0.0 -0.0 0.0 0.0 0.0 0.0
0.0 0.0 0.0 0.0 0.0 0.0 0.0 -0.0
-0.0 0.0 -0.0 0.0 -0.0 -0.0 0.0 0.0
-0.0 -0.0 0.0 -0.0 -0.0 0.0 -0.0 -0.0
-0.0 0.0 -0.0 -0.0 -0.0 0.0 0.0 -0.0
-0.0 0.0 0.0 0.0 -0.0 -0.0 -0.0 0.0
0.0 -0.0 -0.0 -0.0 0.0 0.0 -0.0 -0.0
0.0 -0.0 -0.0 -0.0 0.0 0.0 0.0 0.0
-0.0 -0.0 0.0 0.0 0.0 -0.0 -0.0 0.0
0.0 -0.0 0.0 -0.0 -0.0 0.0 0.0 -0.0
-0.0 0.0 0.0 -0.0 -0.0 -0.0 -0.0 -0.0
0.0 0.0 -0.0 0.0 0.0 0.0 -0.0 0.0

onnx::Conv_93 f4 [64]
00000000: 1411 0000 4051 333b 3a01 0080 9107 0000
00000010: 2c21 0000 30c5 bdba 5654 6eb8 762d 0080
00000020: 7548 e0bc e225 0080 0d38 0080 ae25 0080
00000030: 7d0c 0080 872d 0080 8223 0080 0adf 36bd
00000040: bc0f 0000 7f20 0080 ea18 0080 b109 0000
00000050: dd08 0000 7c78 fdbd e45f 7fb2 dd33 0080
00000060: 6c28 0080 d124 0000 8ae8 a43c 742e 0000
00000070: 7ed9 5abd dcc8 c63d 8322 0080 9a43 0d3e
00000080: ba2d 0080 3b4a d490 6f24 0080 4d18 0000
00000090: 622a 34be e514 0000 5017 0080 073c bebc
000000a0: 3ac7 10bd 39c8 00bd e100 0080 f8d7 cebc
000000b0: 5d2b 0000 9b39 0000 a336 0080 33a0 4486
000000c0: 0174 823c 0314 0080 5058 2d3e 5b22 0000
000000d0: 0a17 0080 de26 0000 a524 0000 4d3a 0000
000000e0: 2b1a 0080 4019 0080 de0b 0000 d70c 07be
000000f0: a5aa 873c ed0d 0080 e003 0080 9410 46bd
6.126e-42 0.0027361661 -4.4e-43 2.714e-42 1.19e-41 -0.0014478322 -5.6822166e-05 -1.6308e-41
-0.0273783 -1.359e-41 -2.0107e-41 -1.3517e-41 -4.48e-42 -1.6332e-41 -1.2738e-41 -0.0446463
5.644e-42 -1.1657e-41 -8.937e-42 3.477e-42 3.18e-42 -0.12376496 -1.48647565e-08 -1.8605e-41
-1.45e-41 1.3207e-41 0.020130415 1.6664e-41 -0.053430073 0.0970628 -1.238e-41 0.13795319
-1.6404e-41 -8.3733626e-29 -1.307e-41 8.717e-42 -0.17594293 7.496e-42 -8.363e-42 -0.023221983
-0.035346247 -0.031440947 -3.15e-43 -0.025249466 1.5556e-41 2.0665e-41 -1.96e-41 -3.69812e-35
0.015924456 -7.179e-42 0.1692822 1.2324e-41 -8.265e-42 1.3943e-41 1.3146e-41 2.0914e-41
-9.387e-42 -9.058e-42 4.257e-42 -0.13188492 0.016560862 -4.996e-42 -1.39e-42 -0.048355654

onnx::Conv_95 f4 [64, 64, 3, 3]
00000000: 7f7a 0080 2890 0880 7651 0480 d50b 0d80
00000010: 6979 0880 0ddb 0780 445c 0c80 cc56 0980
00000020: 4b16 0b80 e27d 743a b71d a1bc b7f9 b13c
00000030: f0f8 553d 9caa 193c 0e88 943d 5a3d 7a3c
00000040: 8c17 293c 2d9b 293d c1fd 0080 9a89 0400
00000050: 3993 0800 b09a 0300 441e 0800 e6a2 0600
00000060: 9ee8 0400 860f 0300 4ca9 0600 326b 0200
00000070: d163 0100 1f86 0180 6ee1 0100 a8ec 0000
00000080: 3e90 0280 a8e6 0280 2572 0300 c84a 0380
00000090: ee7e 0280 fbfd 0100 79d3 0300 c863 0b80
000000a0: 5fb0 0480 8e5f 0000 f8c8 0a80 e11d 0780
000000b0: d687 0980 e4c7 2abc 4f83 a33d 5928 53be
000000c0: 8fd1 853e 4f25 503e b981 433e 8ad2 28bd
000000d0: a9e6 e63d 0a96 7d3d 1bf3 0000 fcd3 0100
000000e0: 9879 0100 11b0 0180 b188 0080 8357 0280
000000f0: deda 0180 1441 0180 3852 0000 92dd 0280
00000100: c4cc 0000 ae94 0400 882a 0400 3235 0180
00000110: 34db 0200 07e3 0080 d80d 0280 786a 0080
00000120: 051f cabb 6384 3fbc 7d7b b1bc 9d91 e93a
00000130: 9fb4 34bc b588 bfba e218 763c ecf7 1dbb
00000140: 65a4 86bb 4744 0380 76ce 0200 6e77 0080
00000150: afd4 0100 5f2a 0080 d541 0100 a500 0080
00000160: da76 0100 2b16 0180 8713 0580 79d0 0480
00000170: 197b 0180 4d44 0580 6c3a 0280 0317 0480
00000180: 86e0 0680 ccac 0280 9050 0580 cc73 0200
00000190: ec20 0100 5783 0280 5c77 0300 a06b 0200
000001a0: 37fd 0080 add5 0300 8386 0280 490c 0200
000001b0: dfa6 0180 d0a9 0400 6bc1 0400 47d5 0180
000001c0: 3d77 0200 dcfd 0400 2b9c 0180 3299 0480
000001d0: bc78 0180 5a1c 0180 c554 0280 2da7 0400
000001e0: eaa3 0180 3adc 0280 0a15 0100 4a01 0080
000001f0: f295 0280 63ee 0180 0d8c 0280 8a3b 0180
00000200: 1f36 0280 d0f4 0380 ae56 0400 3e14 0280
00000210: 20d6 0000 a07d 0180 3d15 0480 80d4 02bc
00000220: ad6b 723a 103f 64bc a5f8 22bc 8c6d b13a
00000230: ea4a 953b 7e5e 88bb c46c 6bbc 9384 7fbb
00000240: c5df 0600 065d 0400 eab4 0600 418e 0200
00000250: 2274 0300 cff2 0200 003e 0000 4933 0300
00000260: d6f7 0400 4898 0480 42a2 0200 3db8 0100
00000270: e8f4 0280 7c40 0100 28c0 0280 50aa 0100
00000280: a68d 0100 a194 0080 36d5 0000 0d53 0200
00000290: d17f 0080 4d42 0000 2c41 0000 b863 0280
000002a0: a338 0100 e4af 0080 1b5b 0100 8f62 0880
000002b0: 2b63 0580 eafa 0500 c4d8 0580 6dbd 0380
000002c0: beaf 0180 2d11 0680 2766 0380 3235 0180
000002d0: 0e61 0800 4086 0700 77c7 0600 f532 0700
000002e0: 23d7 0800 0788 0700 3b04 0300 c7ce 0600
000002f0: 0d2b 0700 a46f 9bbc 7b21 3dbe 8d53 30bd
00000300: 2083 213c 2a44 2abd 48e6 98bc bb48 eabc
00000310: 6e1d 29be cf15 99bd 5459 0100 a8c2 0080
00000320: bd6f 0000 8c63 0180 002e 0280 7c43 0000
00000330: 7432 0100 a64a 0180 a085 0080 309a 0680
00000340: b1bb 0280 9852 0000 df50 0480 6e9b 0200
00000350: 2fbd 0100 7cd9 0280 db72 0400 2e20 0200
00000360: 211d 0380 338c 0100 710d 0400 d02f 0500
00000370: 7108 0000 077b 0400 cf0c 0500 3305 0380
00000380: 615e 0500 5feb 0580 e934 0480 fe4e 0080
00000390: a902 0280 94a5 0180 79bc 0080 b70c 0280
000003a0: e728 0780 db22 0180 ccf4 4ebc d60c 3fbd
000003b0: 7523 fa3c 3f53 a93a 27b4 8abd dfd4 623d
000003c0: 05c6 ec3c 2bd6 46bd 0491 4d3d 6d7a 0380
000003d0: 1424 0480 ae1a 0580 04c1 0280 c2e9 0580
000003e0: cc49 0680 c201 0380 e260 0380 3ce2 0180
000003f0: 8d72 c23a c8e9 9ebb 4d0e a03d 97b8 e63c
-4.3943e-41 -7.86397e-40 -3.96565e-40 -1.198106e-39 -7.78238e-40 -7.21429e-40 -1.135125e-39 -8.57656e-40
-1.018188e-39 0.00093266193 -0.01966749 0.021725519 0.05223936 0.009379055 0.07252513 0.015273416
0.010320555 0.041407753 -9.103e-41 4.16704e-40 7.87498e-40 3.30998e-40 7.45541e-40 6.0945e-40
4.5079e-40 2.81075e-40 6.11745e-40 2.22125e-40 1.27643e-40 -1.39949e-40 1.72704e-40 8.4896e-41
-2.35415e-40 -2.66415e-40 3.16454e-40 -3.02333e-40 -2.29205e-40 1.82947e-40 3.51369e-40 -1.045985e-39
-4.30612e-40 3.4279e-41 -9.90449e-40 -6.53567e-40 -8.75248e-40 -0.010423634 0.079840295 -0.2062086
0.26136443 0.20326732 0.19092454 -0.04121641 0.11274464 0.061910667 8.721e-41 1.67881e-40
1.35455e-40 -1.54996e-40 -4.9036e-41 -2.15064e-40 -1.7035e-40 -1.15181e-40 2.9495e-41 -2.63155e-40
7.3456e-41 4.20678e-40 3.826e-40 -1.10918e-40 2.62306e-40 -8.1442e-41 -1.88637e-40 -3.8194e-41
-0.0061682486 -0.011689278 -0.02166533 0.0017819885 -0.011029392 -0.0014612885 0.015020581 -0.0024104072
-0.004108953 -3e-40 2.57735e-40 -4.2843e-41 1.68132e-40 -1.52e-41 1.15452e-40 -2.31e-43
1.34471e-40 -9.9788e-41 -4.66183e-40 -4.42128e-40 -1.35995e-40 -4.83679e-40 -2.04629e-40 -3.75597e-40
-6.31557e-40 -2.45659e-40 -4.88078e-40 2.25211e-40 1.03646e-40 -2.30787e-40 3.18325e-40 2.2228e-40
-9.0836e-41 3.52159e-40 -2.31925e-40 1.88078e-40 -1.51698e-40 4.28259e-40 4.36727e-40 -1.68345e-40
2.26446e-40 4.5841e-40 -1.47858e-40 -4.22298e-40 -1.35147e-40 -1.02006e-40 -2.1408e-40 4.27313e-40
-1.50637e-40 -2.62673e-40 9.9383e-41 -4.62e-43 -2.37461e-40 -1.77353e-40 -2.33912e-40 -1.13194e-40
-2.03086e-40 -3.63329e-40 3.98437e-40 -1.90933e-40 7.6814e-41 -1.36901e-40 -3.74961e-40 -0.007985234
0.00092476123 -0.013931051 -0.009946977 0.0013536676 0.0045560496 -0.004161655 -0.014369193 -0.0038988933
6.31286e-40 4.00713e-40 6.15913e-40 2.34702e-40 3.17167e-40 2.70774e-40 2.2241e-41 2.93904e-40
4.56249e-40 -4.2197e-40 2.41878e-40 1.57928e-40 -2.71527e-40 1.14968e-40 -2.52604e-40 1.52932e-40
1.4265e-40 -5.3318e-41 7.6486e-41 2.13464e-40 -4.5852e-41 2.3784e-41 2.3379e-41 -2.19443e-40
1.12153e-40 -6.3098e-41 1.24518e-40 -7.7004e-40 -4.94752e-40 5.49188e-40 -5.36938e-40 -3.4346e-40
-1.5488e-40 -5.57174e-40 -3.12152e-40 -1.10918e-40 7.695e-40 6.91008e-40 6.22567e-40 6.61128e-40
8.1186e-40 6.91646e-40 2.77024e-40 6.25191e-40 6.58292e-40 -0.018974133 -0.18469803 -0.04304843
0.009857923 -0.041568913 -0.018664494 -0.028599134 -0.16515133 -0.07474863 1.2388e-40 -6.983e-41
4.0084e-41 -1.27546e-40 -2.00173e-40 2.4209e-41 1.09935e-40 -1.18614e-40 -4.7936e-41 -6.06325e-40
-2.51002e-40 2.9629e-41 -3.96353e-40 2.39429e-40 1.59702e-40 -2.6169e-40 4.08544e-40 1.95215e-40
-2.85956e-40 1.4213e-40 3.72164e-40 4.7633e-40 3.028e-42 4.11476e-40 4.63772e-40 -2.77372e-40
4.93034e-40 -5.43613e-40 -3.86323e-40 -2.8337e-41 -1.84625e-40 -1.51234e-40 -6.7611e-41 -1.88232e-40
-6.57521e-40 -1.04339e-40 -0.012631606 -0.0466431 0.030534485 0.0012918486 -0.067726426 0.05537879
0.028903017 -0.04854409 0.050187126 -3.19425e-40 -3.80284e-40 -4.68748e-40 -2.52912e-40 -5.43034e-40
-5.77486e-40 -2.76137e-40 -3.10261e-40 -1.72993e-40 0.0014835164 -0.0048496462 0.07815228 0.028164191

onnx::Conv_96 f4 [64]
00000000: bde3 913d 6457 fd3c 5036 f83b 6ffe 953b
00000010: 88e0 9abd 20a7 b7bd 266d 3bbd 3819 b0ba
00000020: 00b0 b835 e8fc afbc 74cb 08bb b86d 2b99
00000030: b155 47bc da30 47bd f855 7cbd c67d 633d
00000040: 9f0a 023e bc4f 4fb9 4b00 c5a5 fc5d 19a0
00000050: 329c 5f3d 4082 2d97 f822 a33c 672e 303d
00000060: 6552 0a3b 565a 483a 5628 813c 1879 8eb9
00000070: 3ac5 913c 24ba 6dbd dfe4 8cbd 388c 1abd
00000080: f7d9 f8ad e2f3 673b 79c0 bcbd 2922 1ebd
00000090: 268f 9b99 60d7 5e3d 9677 e9bb dc1d 06be
000000a0: 6bbb bcbc 80ed 3abe ccd5 b4bd fb77 ef88
000000b0: 5cf8 8bba de39 b0bd 4cf1 8d3e 72d5 f9bc
000000c0: 5896 3a94 a4ad 753d e7d6 57be 9e0f 7f8d
000000d0: 1be1 1e3e 0a6e 96bd 40db 723e b365 1eb1
000000e0: 5ad6 eab1 355f bf3d aa62 62bc 0aff a59a
000000f0: c1e1 218e 384b 71ba 022d 673d 2cad 1c3e
0.07123516 0.03092546 0.007574834 0.00457745 -0.07562357 -0.089674234 -0.04575839 -0.001343525
1.3760291e-06 -0.0214829 -0.002087322 -8.86265e-24 -0.0121664265 -0.048630573 -0.061605424 0.05553987
0.12699364 -0.00019770762 -3.417425e-16 -1.2990701e-19 0.05459232 -5.6063713e-25 0.019914135 0.043013003
0.002110624 0.00076428556 0.015766304 -0.00027174572 0.01779424 -0.058038846 -0.06879591 -0.03773138
-2.8291132e-11 0.0035393168 -0.09216399 -0.038606796 -1.6084442e-23 0.054404616 -0.0071248515 -0.13097328
-0.023038587 -0.18254662 -0.08829841 -1.4412497e-33 -0.0010678875 -0.08604787 0.27723157 -0.030497286
-9.42025e-27 0.05998005 -0.21078072 -7.859674e-31 0.15515558 -0.07345207 0.2371645 -2.3049835e-09
-6.8346653e-09 0.09344331 -0.013817469 -6.865444e-23 -1.9953479e-30 -0.0009204629 0.056439407 0.15300435
