model/tubarao.onnx (onnx, 302121 bytes, 16 tensors)

fc.weight f4 [2, 256]
0	0x3c1be6b0	0.009515449
1	0xbcfb382f	-0.030666439
2	0x3ca4ec32	0.020132158
3	0x3d803366	0.062598035
4	0xbdc70fee	-0.09719835
5	0xbcb6d230	-0.022317022
6	0xbde3b91e	-0.11119293
7	0xbd8601e3	-0.065433286
8	0x3d220d67	0.039563563
9	0x3d6b57cc	0.057456776
10	0x3c92ea3e	0.017933961
11	0xb89c20a9	-7.444743e-05
12	0x3bea068d	0.007141894
13	0xbcd2cb38	-0.025731668
14	0x3cb8a28c	0.022538446
15	0x3d4ff77b	0.050773125
16	0xbd938306	-0.07202725
17	0xbcf302bc	-0.02966439
18	0xbbcc0e62	-0.0062273005
19	0x3d5ab37c	0.053393826
20	0xbd85cde8	-0.06533414
21	0xbdec0d7c	-0.115260094
22	0xbdc01d1d	-0.09380553
23	0xbdfa2039	-0.12213177
24	0x3d97fea3	0.07421615
25	0x3da3b792	0.07993998
26	0x3d919c56	0.07109897
27	0x3d975c04	0.073905975
28	0xbb5c3432	-0.0033600447
29	0x3dcf2857	0.10115116
30	0x3d5a6690	0.053320467
31	0x3de9759a	0.11399384
32	0x3e0431da	0.12909642
33	0x3decd741	0.11564494
34	0x3d4da872	0.05020947
35	0xbcd9863a	-0.026553262
36	0xbd2fb029	-0.04289261
37	0xbca17c04	-0.019712456
38	0x3d587f6f	0.052855905
39	0xbd0ec238	-0.03485319
40	0x3ccf9908	0.025341526
41	0x3d59d4b4	0.053181365
42	0xbc3b3ad0	-0.011427596
43	0xbda5384f	-0.08067381
44	0x3c8d5919	0.0172544
45	0x3af0118f	0.001831578
46	0x3c62f7af	0.013852998
47	0x3c1c6ff2	0.009548174
48	0x3c92b09f	0.017906485
49	0x3da856c5	0.08219675
50	0x3c677977	0.014128081
51	0x3cd471ef	0.025933234
52	0xbaf14889	-0.0018408458
53	0x3d485256	0.048906647
54	0xbcdb3440	-0.026758313
55	0xbd2cea4d	-0.042215634
56	0xbd7196ed	-0.058981825
57	0xbcc54ed0	-0.024085432
58	0xbd67d6d6	-0.056601368
59	0xbcfc34b7	-0.030786855
60	0xbcaa1407	-0.020761503
61	0xbb0e6f3d	-0.0021733784
62	0xba82cd80	-0.0009979457
63	0x3d35a888	0.044350177
64	0x3d47afa7	0.0487515
65	0x3dc07483	0.09397223
66	0x3dd0517a	0.101717904
67	0x3e0bb7b4	0.13644296
68	0x3cc77ddc	0.024352007
69	0x3dac0514	0.08399406
70	0x3d50f42d	0.051014114
71	0x3ca18fef	0.019721953
72	0xbded18c3	-0.115769885
73	0xbdd801c8	-0.10547215
74	0xbc6758ac	-0.014120262
75	0xbd02b070	-0.031906545
76	0x3d5f74c0	0.0545547
77	0x3d522831	0.05130786
78	0xbcfd5950	-0.030926377
79	0x3cf961b7	0.030442102
80	0x3c4ab8f5	0.012373199
81	0xbc6cd97f	-0.014456152
82	0x3b43eee5	0.002989703
83	0x3d5879f6	0.052850686
84	0xbb88a8bb	-0.004170505
85	0x3c53e663	0.012933346
86	0x3cf6a79b	0.030109217
87	0xbcc8eb44	-0.024526246
88	0xbdface32	-0.1224636
89	0xbdcb1b00	-0.09917259
90	0xbd56d19b	-0.05244599
91	0xbd415070	-0.04719585
92	0xbd0f78aa	-0.035027184
93	0x3a907ac8	0.001102292
94	0x3d216686	0.039404415
95	0x3c82c423	0.015962666
96	0xbd12409c	-0.035706148
97	0xbcad6bce	-0.02116957
98	0x3d9f7ac3	0.07787087
99	0x3d340e98	0.04395923
100	0x3c128d4f	0.008944823
101	0xbc97a3b4	-0.018510677
102	0x3d3ca64b	0.046057027
103	0x3dc12e51	0.09432662
104	0xbda91273	-0.08255472
105	0xbe0e4f4a	-0.13897434
106	0xbc4ec40e	-0.012619985
107	0xbd1a6652	-0.037695237
108	0x3d6f0870	0.058357656
109	0x3d077841	0.033073667
110	0xbd743e3f	-0.059629675
111	0xbb9ff1e2	-0.0048811296
112	0x3c972cc8	0.01845397
113	0x3d06fe9c	0.03295766
114	0xbce596f5	-0.028026083
115	0xbd7cdd3b	-0.06173442
116	0x3d2b3c80	0.041805744
117	0x3d410aac	0.047129318
118	0xbca97ec0	-0.020690322
119	0x3c7ac904	0.015306715
120	0x3c9d6c7b	0.019216767
121	0xbc8c5fae	-0.017135467
122	0x3dc8b928	0.09800941
123	0x3d102c1f	0.035198327
124	0x3d963bf6	0.073356554
125	0x3e0faaaa	0.14029947
126	0x3dba1ff0	0.09088123
127	0x3dbf91b8	0.093539655
128	0x3d3fb49c	0.046803102
129	0x3d916c80	0.07100773
130	0x3c2bee9a	0.010493899
131	0xbc947997	-0.018124385
132	0xbde4ec92	-0.11177935
133	0xbd81ed9e	-0.0634415
134	0xbdb333d0	-0.08750117
135	0xbd11dff7	-0.03561398
136	0xbb96dd8d	-0.0046040476
137	0xbd1b0233	-0.037843894
138	0x3d61fac8	0.055170804
139	0x3dc37a07	0.09544759
140	0xbd69c396	-0.05707129
141	0x3a078454	0.000516956
142	0xbdb3a868	-0.08772355
143	0x3bc5dc5a	0.006038231
144	0xbbca0519	-0.0061651585
145	0xbd8051b3	-0.06265583
146	0x3d0986a1	0.033575658
147	0x3c66a504	0.014077429
148	0xbc6c28d5	-0.014414032
149	0x3cd9d44a	0.026590485
150	0xbe004b40	-0.12528706
151	0xbdc39d8c	-0.09551534
152	0xbd8fe633	-0.07026329
153	0xbe2d50ed	-0.16925402
154	0xbd6789de	-0.056527965
155	0xbe020c40	-0.12699986
156	0x3bbe07da	0.005799276
157	0x3b3c5149	0.0028734973
158	0xbc93d376	-0.018045168
159	0x3c11f451	0.008908347
160	0xbbb7db44	-0.0056108553
161	0x3cf4fcf9	0.029905783
162	0xbcc8c9da	-0.024510313
163	0xbd1e73bf	-0.038684603
164	0xbd5d6c97	-0.054058637
165	0xbdaf0862	-0.08546521
166	0xbca445ed	-0.020052874
167	0xbd4759a8	-0.048669487
168	0xbd96326e	-0.073338374
169	0xbdb9816e	-0.0905789
170	0xbd0c9ba6	-0.034328125
171	0xbc8e33fa	-0.017358769
172	0x3cb6493a	0.022251714
173	0xbdbabd72	-0.09118165
174	0xbcb94a8f	-0.02261856
175	0xbd44cda4	-0.048047677
176	0x3da64101	0.08117867
177	0x3c4f1196	0.01263847
178	0x3d1c0e57	0.038099613
179	0x3aac79f1	0.00131589
180	0xbdbbb121	-0.09164644
181	0xbdba8d85	-0.09109024
182	0xbdcb3529	-0.09922249
183	0xbe0beae8	-0.13663828
184	0x3c68dc07	0.014212615
185	0xbc31a39d	-0.010842231
186	0x3c2c39f7	0.010511867
187	0x3da23910	0.0792104
188	0xbd86c4ed	-0.06580529
189	0xbd248184	-0.04016258
190	0x3da88b46	0.08229689
191	0x3da105dc	0.07862446
192	0x3d02317f	0.031785484
193	0xbb889a8f	-0.0041688154
194	0xb9c366da	-0.0003726993
195	0xbcd895bc	-0.026438586
196	0xbd029b89	-0.03188661
197	0xbdb93ef1	-0.09045208
198	0xbc52bdaa	-0.012862602
199	0x3d4324d1	0.047642533
200	0xbcdef9d2	-0.027218733
201	0xbcf4d506	-0.029886734
202	0x3d67fe67	0.0566391
203	0x3d4414ce	0.047871403
204	0xbcd79c3d	-0.026319617
205	0x3cdb9cbb	0.026808133
206	0xbc2cb23e	-0.010540543
207	0x3c0bee27	0.008540667
208	0x3d661217	0.056169596
209	0x3d5cde04	0.053922668
210	0x3c8bdb5c	0.017072372
211	0x3cb66093	0.022262847
212	0xbd08b8e2	-0.033379443
213	0x3cf6b8e2	0.030117456
214	0x3e03758c	0.1283781
215	0x3e2b2c4f	0.16716121
216	0x3d3096e6	0.043112658
217	0x3cf551db	0.029946258
218	0xba8b4be4	-0.0010627476
219	0xbd81db16	-0.063406155
220	0x3b96d97a	0.004603562
221	0x3c12c1e5	0.008957361
222	0x3cb48b64	0.022039123
223	0xbd4f51eb	-0.050615232
224	0xbcea2273	-0.02858088
225	0xbe0a33a8	-0.13496268
226	0xbd9dc49e	-0.077035174
227	0xbe32d1c8	-0.17462838
228	0x3da3e061	0.08001781
229	0x3dfecfad	0.12441955
230	0x3d8b5e5f	0.06805109
231	0x3d4d9b70	0.050197065
232	0x3d9f3164	0.077730924
233	0x3e00dc44	0.12584025
234	0x3daeeb9c	0.08541033
235	0x3d80397f	0.062609665
236	0x3b2e6293	0.0026609048
237	0xbd286f0e	-0.041121535
238	0xbb4b25ae	-0.00309978
239	0xbda6af8c	-0.08138952
240	0xbdaf6c2b	-0.08565553
241	0xbdef325d	-0.11679528
242	0xbac394ff	-0.0014921724
243	0xbdb9d4e6	-0.0907381
244	0x3d8c6c00	0.06856537
245	0x3cfa8f6a	0.030585963
246	0x3dee942f	0.116493575
247	0x3e0601e3	0.13086657
248	0x3d9287e0	0.07154822
249	0x3c4a6cad	0.012355012
250	0x3d81abb0	0.06331575
251	0x3bb7fcfa	0.005614874
252	0xbbd030eb	-0.0063534877
253	0xbd50ee41	-0.051008467
254	0xbd0280dc	-0.03186117
255	0xbbff08a6	-0.0077830134

fc.bias f4 [2]
0	0xbca667ef	-0.020313231
1	0x3c5ff76b	0.013669829

onnx::Conv_80 f4 [16, 3, 7, 7]
0	0x3d9aa0b8	0.07550186
1	0x3e4db7f2	0.20089701
2	0x3de4d026	0.11172514
3	0x3e10fe1e	0.14159438
4	0x3d5513b9	0.052020762
5	0x3d5bbc43	0.053646337
6	0x3d74432e	0.05963438
7	0x3dd6d6cc	0.10490188
8	0x3cbbac01	0.022909166
9	0x3b1f5a27	0.002431521
10	0x3e3c81ec	0.18408936
11	0x3de39a71	0.11113442
12	0xbd2dab60	-0.042399764
13	0xbd0dc7d1	-0.034614388
14	0xbdd46f88	-0.103728354
15	0x3d052583	0.032506477
16	0x3d9d31b0	0.07675493
17	0x3ceca710	0.028888255
18	0x3e5845bb	0.2112035
19	0x3d83d210	0.064365506
20	0x3d044fe4	0.032302752
21	0xbe117a10	-0.1420672
22	0x3deadffe	0.11468504
23	0xbcd45f92	-0.025924478
24	0x3dbaf523	0.09128787
25	0x3dd4100f	0.103546254
26	0xbe258aed	-0.16166277
27	0xbe48cc16	-0.19609103
28	0xbe53a4a6	-0.20668277
29	0x3d9c2023	0.07623317
30	0x3d8013cf	0.06253778
31	0xbce68a74	-0.028142191
32	0x3dce11ab	0.10061964
33	0xbe348c81	-0.17631723
34	0xbe41d431	-0.18928601
35	0xbd85e64f	-0.065380685
36	0xbdadc976	-0.08485691
37	0x3df7e730	0.121046424
38	0x3c5793c0	0.013157785
39	0x3d71f124	0.05906786
40	0xbe5ae124	-0.21374947
41	0xbe2333cd	-0.15937729
42	0xbe6c77c1	-0.23092557
43	0x3d99ece0	0.075158834
44	0x3d5c7b6e	0.05382865
45	0x3de497ad	0.11161742
46	0xbdaf813e	-0.08569573
47	0xbd2eaabb	-0.04264329
48	0xbd89f118	-0.06735438
49	0xbe899440	-0.26870918
50	0xbe44403e	-0.19165131
51	0xbdc2ffa6	-0.09521417
52	0xbe6231ee	-0.22089359
53	0xbe633a59	-0.22190227
54	0x3d5f30cf	0.054489907
55	0xbc64238e	-0.0139244925
56	0xbcae9ad9	-0.021314071
57	0x3e1c83c1	0.15284635
58	0x3e382ccc	0.17985839
59	0x3d50b554	0.050954178
60	0x3cbe4874	0.023227908
61	0xbdca0d40	-0.098658085
62	0xbdca2a78	-0.098713815
63	0x3d3169b8	0.043313712
64	0x3e0ef553	0.13960771
65	0x3dea82fb	0.11450764
66	0xbc227edc	-0.009917941
67	0x3de31f57	0.11089962
68	0x3d8e1725	0.06938008
69	0xbc7de158	-0.015495621
70	0xbe336d3d	-0.1752214
71	0x3c94912a	0.018135626
72	0x3db243da	0.08704348
73	0xbdb405e4	-0.08790186
74	0xbcfa61c3	-0.030564195
75	0xbd3a17dc	-0.04543291
76	0xbe2f77e3	-0.17135577
77	0xbe4d4c08	-0.20048535
78	0x3dd25dfd	0.10271833
79	0x3e67d237	0.22638784
80	0x3e218d11	0.15776469
81	0x3dddee3f	0.108364575
82	0xbceef002	-0.029167179
83	0xbe46adf7	-0.194023
84	0xbd03ff50	-0.032225907
85	0x3e285276	0.16437706
86	0x3e1af561	0.15132667
87	0x3e4d8545	0.2007037
88	0x3dd0e91a	0.102007106
89	0xbdbe52cf	-0.09293138
90	0xbd9e3e67	-0.07726746
91	0x3da92fe0	0.082610846
92	0x3d0e9a17	0.03481492
93	0x3e4c93fd	0.19978328
94	0x3bc60b3e	0.0060438206
95	0x3def4e14	0.11684814
96	0xbd70c198	-0.058778375
97	0xbe0dc705	-0.13845451
98	0x3d6bda1b	0.05758105
99	0xbe184f42	-0.14873984
100	0xbb782a49	-0.0037867
101	0xbe19c28f	-0.15015624
102	0xbde1b45d	-0.1102073
103	0xbe7b5df5	-0.2454756
104	0xbb05d043	-0.0020418323
105	0xbe3f5c81	-0.18687631
106	0x3d19ef16	0.037581526
107	0x3e3facc5	0.1871825
108	0xbd2504fb	-0.040287953
109	0xbc483164	-0.012218807
110	0xbe15a1aa	-0.14612451
111	0xbdb042a3	-0.0860646
112	0x3be95bb7	0.007121529
113	0xbd6fcea3	-0.058546674
114	0xbd655ede	-0.055998676
115	0xbd0181cd	-0.03161793
116	0xbd5ce27d	-0.053926934
117	0x3ca6782d	0.020320976
118	0xbe12d379	-0.14338483
119	0xbe2b8ce5	-0.16752966
120	0x3e1bd042	0.15216163
121	0xbbe97972	-0.007125073
122	0x3d878a1a	0.06618138
123	0x3d77660d	0.060400058
124	0x3d13ac9d	0.03605329
125	0xbe547fe8	-0.20751917
126	0xbd911b38	-0.0708527
127	0x3df640fa	0.12024112
128	0x3e272a78	0.16324794
129	0x3e7c9b04	0.24668509
130	0x3de5c24b	0.11218699
131	0x3df5fde7	0.12011319
132	0xbd35c5d3	-0.044378113
133	0xbcbb6e4e	-0.022879746
134	0x3e615905	0.22006615
135	0x3e026337	0.1273316
136	0x3d1bb483	0.038013946
137	0x3c734974	0.014849056
138	0xbdc50320	-0.09619737
139	0xbd216060	-0.03939855
140	0x3ca40510	0.020021945
141	0x3dced821	0.10099817
142	0x3c881b29	0.016614513
143	0x3cd6d68b	0.026225349
144	0x3c817bff	0.015806196
145	0x3e37da6a	0.17954412
146	0xbd0d033a	-0.034426905
147	0xbdeb668c	-0.11494169
148	0xbd95d952	-0.07316841
149	0xbb818e21	-0.0039537107
150	0xbd01b123	-0.03166307
151	0xbdb26ef0	-0.08712566
152	0x3bb3163b	0.0054652966
153	0xbd36f4fa	-0.04466722
154	0xbd78e419	-0.060764406
155	0xbde83905	-0.113390006
156	0xbdf505c6	-0.11963992
157	0xbdb400c8	-0.087892115
158	0xbd2d78ff	-0.04235172
159	0xbe016cf8	-0.12639225
160	0xbc973351	-0.018457087
161	0x3d37bf45	0.044860143
162	0xbdf150f9	-0.117830224
163	0xbd1d1c6e	-0.03835719
164	0xbcabf201	-0.02098942
165	0xbd87d27d	-0.06631944
166	0xbdd61e90	-0.10455048
167	0xbd9adbb7	-0.075614385
168	0x3d0cb7e6	0.034355067
169	0x3d73b9cd	0.059503365
170	0x3bab9e10	0.0052373484
171	0xbcd46427	-0.025926663
172	0xbc19eb43	-0.00939447
173	0x3b9f35a4	0.0048586894
174	0xbc203ac5	-0.009779637
175	0x3d9ed467	0.07755356
176	0x3d8d83d0	0.06909907
177	0xbc8e6c70	-0.017385691
178	0x3d26eb49	0.04075173
179	0x3da8be08	0.082393706
180	0x3ae25645	0.0017268142
181	0x3d218220	0.039430737
182	0xbd3237d0	-0.04351026
183	0x3d9f0cc5	0.077661075
184	0x3da6628e	0.081242666
185	0xbd36c917	-0.044625368
186	0x3d996290	0.074895024
187	0xbad555f3	-0.0016276225
188	0x3b0cd4ab	0.0021489065
189	0xbd444cfb	-0.047924977
190	0x3d8f614f	0.07000982
191	0xb93d6b87	-0.00018064502
192	0x3d578ebb	0.052626353
193	0x3da3cf85	0.079985656
194	0xbc88ac6b	-0.016683778
195	0x3e060ecc	0.13091582
196	0xbb023425	-0.0019867506
197	0xbd6af10f	-0.057358798
198	0x3cb22566	0.021746349
199	0xbd89e211	-0.06732572
200	0xbb6976d6	-0.003562381
201	0xbd274a30	-0.040842235
202	0xbd7a3a81	-0.06109095
203	0x3c589c8e	0.013220919
204	0x3d328839	0.043586943
205	0xbcd4c0e7	-0.02597089
206	0xbd66f712	-0.05638797
207	0x3d2c6180	0.04208517
208	0x3a902360	0.0010996871
209	0xbc4c3351	-0.012463407
210	0x3cca5177	0.024697049
211	0x3d8d3d66	0.068964764
212	0x3c3ccd5b	0.01152357
213	0xbc45b86b	-0.012067894
214	0x3c6a1a6f	0.014288529
215	0x3d6d0147	0.057862546
216	0xbbf9d429	-0.0076241684
217	0x3dbafa20	0.09129739
218	0x3d9400b3	0.07226696
219	0x3d76b550	0.060231507
220	0x3d334d32	0.04377479
221	0xbb0e7aed	-0.002174075
222	0x3c9cf705	0.019160757
223	0x3d2dda28	0.04244438
224	0x3d826ca7	0.0636838
225	0x3dba3e83	0.090939544
226	0x3d895c2f	0.06707036
227	0x3d60da2e	0.054895572
228	0x3ca3f3f9	0.020013796
229	0x3d050648	0.032476693
230	0x3c55ed3a	0.0130570475
231	0x3d9ceadf	0.076619856
232	0x3d97a7c2	0.07405044
233	0x3d376c35	0.04478093
234	0x3c8a1aea	0.016858537
235	0x3d0e6b29	0.034770165
236	0x3bb683a7	0.0055698934
237	0x3cbbb05e	0.022911247
238	0x3cff134c	0.031137131
239	0x3d0963bf	0.03354239
240	0x3c1e2396	0.009652039
241	0x3b4aca6b	0.0030943404
242	0x3c4d2261	0.012520404
243	0x3d04e101	0.032441143
244	0x3d3f38d5	0.04668506
245	0xbd6fb8fb	-0.05852602
246	0x3dbd4756	0.09242122
247	0x39cf37ac	0.00039523595
248	0x3cffb4ef	0.031214206
249	0xbcb02094	-0.02149991
250	0x3ce3c623	0.02780444
251	0x3e09bad3	0.13450174
252	0x3d3ffe61	0.046873454
253	0x3d8d2309	0.06891448
254	0x3d698a92	0.057016917
255	0xbb9447b3	-0.004525149

onnx::Conv_81 f4 [16]
0	0xbe1bdbf0	-0.15220618
1	0xbf878f8d	-1.0590683
2	0xbf9224d0	-1.1417484
3	0x3f6dc5b8	0.9287982
4	0x3e6e146e	0.23249981
5	0x3f145484	0.5794146
6	0x3f574ee3	0.84104747
7	0x3ef959b2	0.48701245
8	0x3f403b03	0.75090045
9	0x3f19c613	0.6006786
10	0x3e69e88a	0.22842613
11	0x3da33bbe	0.07970379
12	0x3e893494	0.26797926
13	0xbf0dfdca	-0.55465376
14	0x3e702e97	0.23455273
15	0xbfa6782f	-1.3005427

onnx::Conv_83 f4 [32, 16, 3, 3]
0	0xbc8ce57e	-0.017199274
1	0xbca59647	-0.02021326
2	0xbca779a8	-0.020443752
3	0x3c308280	0.010773301
4	0xbc41f7f9	-0.011838906
5	0x3d077bbe	0.033076994
6	0xbc82a8a3	-0.015949553
7	0xbb5970de	-0.0033178846
8	0xbc254868	-0.010088064
9	0xbc65c3ac	-0.014023703
10	0xbc8c377a	-0.017116297
11	0xbce5d881	-0.028057339
12	0xbc1dec88	-0.009638913
13	0xbc50c7e2	-0.012742968
14	0xbc181296	-0.009281775
15	0xbc90b847	-0.017665995
16	0xbc6707b9	-0.014100962
17	0xbd11ddbd	-0.035611857
18	0xbc7946c3	-0.015214625
19	0xbb5aba68	-0.0033375267
20	0xbc031e45	-0.008002822
21	0x3ceca598	0.028887555
22	0x3cbe661a	0.023242045
23	0x391cdf90	0.00014960603
24	0x3d23a2c3	0.039950144
25	0xbca5f0d0	-0.02025643
26	0x3c7f3828	0.015577354
27	0x3b3343e2	0.0027353694
28	0xbb9d858b	-0.0048071793
29	0xbb9ae61c	-0.004727138
30	0xbd03fc3d	-0.032222975
31	0x3cecfd05	0.028929243
32	0x3bac6f9b	0.005262328
33	0x3bd1adcf	0.0063988934
34	0x3d0a8212	0.03381545
35	0xbbc6ec91	-0.0060706814
36	0xbc00d18f	-0.007862463
37	0xbd19224c	-0.037386224
38	0xbce99115	-0.028511563
39	0xbca3005b	-0.01989763
40	0x3bce4a9d	0.0062955157
41	0xbbbd3894	-0.005774567
42	0xbc9117d0	-0.01771155
43	0xbc960bff	-0.018316267
44	0xbb385279	-0.002812533
45	0x3c094603	0.0083785085
46	0x3d45044f	0.048099812
47	0x3cd98193	0.026551044
48	0xbd15f35a	-0.03660903
49	0x3c28f1d1	0.01031156
50	0x3c662830	0.014047667
51	0xbcc932e0	-0.024560392
52	0xbaf10b75	-0.0018390255
53	0xbc732359	-0.0148399705
54	0xbcb4fe59	-0.022093939
55	0x3d0722a2	0.032992013
56	0x3ca24418	0.01980786
57	0xbd4c634d	-0.049899388
58	0x3c1b3d39	0.009475046
59	0x3996319c	0.0002864719
60	0xbc4ad151	-0.0123790065
61	0x3cc92f95	0.024558822
62	0x3c8a4810	0.016880065
63	0xbc8e884b	-0.017398974
64	0x3c4493bf	0.011998116
65	0x3c7ec378	0.015549533
66	0xbc67c617	-0.014146349
67	0xbc13790d	-0.009001029
68	0x3c775893	0.015096801
69	0xbc9ff611	-0.019526513
70	0x3c0124fe	0.007882355
71	0x3d1a8d7b	0.037732583
72	0x3cb374fa	0.021906365
73	0x3c76832e	0.015045924
74	0x3d319550	0.043355286
75	0xbcfdd3b8	-0.030984744
76	0x3c26e13c	0.010185536
77	0xbbfaf112	-0.0076581324
78	0xbd032802	-0.032020576
79	0x3c74ff21	0.014953406
80	0x3b6afe2a	0.003585706
81	0xbbeb00da	-0.0071717324
82	0x3bd61c5b	0.006534142
83	0xbb8d7612	-0.0043170536
84	0xbc15bd11	-0.009139315
85	0x3cf674a6	0.03008492
86	0x3cb469f0	0.022023171
87	0xbc5668e4	-0.013086531
88	0xbbc0f42d	-0.005888483
89	0xbc702020	-0.014656097
90	0xbbcc6399	-0.006237459
91	0x3b1569b0	0.002279859
92	0xbad96123	-0.0016584735
93	0xbcb81b0f	-0.02247384
94	0xbd6c6975	-0.05771776
95	0xbd10411b	-0.03521834
96	0xbc997628	-0.0187331
97	0xbd4256f7	-0.047446217
98	0xbc4aca1f	-0.012377291
99	0xbc1f1818	-0.009710334
100	0x3d013ad1	0.031550232
101	0x3c4881b1	0.012237952
102	0xbb8d9335	-0.004320527
103	0xbc2c6d9b	-0.010524179
104	0xbcdc6cb5	-0.026907304
105	0xbc9f9125	-0.01947839
106	0xbc745244	-0.014912192
107	0xbd06fb7c	-0.032954678
108	0xbd3b71c5	-0.045762796
109	0xbcabd19e	-0.020973977
110	0xbadb1a4a	-0.0016716209
111	0xbc9885d4	-0.018618502
112	0x3c02abde	0.007975547
113	0x3c5e1554	0.01355489
114	0xbd20edfe	-0.039289467
115	0x3cb6d2af	0.022317259
116	0xbd2138c8	-0.03936079
117	0xbc588fcc	-0.013217878
118	0xbcf4a034	-0.029861547
119	0xbd70a2a4	-0.058748856
120	0x3cbc24c1	0.022966744
121	0xbc95db73	-0.018293118
122	0x3a8f0b62	0.0010913427
123	0xbc10f8dd	-0.008848396
124	0x3cabefeb	0.020988425
125	0xbd270bb6	-0.040782653
126	0x3b869f3f	0.004108339
127	0x3d50b28c	0.050951526
128	0x3d873e56	0.066036865
129	0xbcf1297d	-0.029438728
130	0x3cebce07	0.028784765
131	0xbbee86a8	-0.007279236
132	0xbc2b4e72	-0.010455715
133	0x3cd4c039	0.025970565
134	0xbcbce497	-0.023058219
135	0xbc854010	-0.016265899
136	0xbcc5ab05	-0.0241294
137	0xbd3013ed	-0.042987753
138	0xbb818af3	-0.0039533316
139	0xbcce2f17	-0.025168939
140	0xbd099862	-0.03359259
141	0xbd06ed1f	-0.03294098
142	0xbcfad8b2	-0.030620907
143	0xbd2edf16	-0.04269322
144	0xba2e37f7	-0.00066459127
145	0x3c8635a7	0.016383005
146	0x3c44f8a7	0.012022174
147	0xbca02130	-0.019547075
148	0x3d11de08	0.035612136
149	0x3cb1aaa3	0.021687811
150	0x3c7bc14d	0.015365911
151	0x3b1dc4d3	0.0024073615
152	0xbbac757f	-0.00526303
153	0xbc44f8e7	-0.012022234
154	0xbc936410	-0.01799205
155	0xbcbfcff6	-0.023414593
156	0xbc166ddf	-0.009181469
157	0xb9bbe047	-0.0003583452
158	0xbcebde09	-0.028792398
159	0x3c6633fd	0.014050481
160	0xbd175979	-0.036950562
161	0xbb8c2282	-0.0042765746
162	0xbcdb9b46	-0.026807439
163	0x3c9a533d	0.01883852
164	0xbc0fb779	-0.008771771
165	0x3d5ea3a7	0.05435529
166	0xbc3c1e78	-0.011481874
167	0xbcf47867	-0.029842569
168	0x3d307748	0.043082505
169	0x3cbdfef8	0.023192868
170	0xbd2f0e4e	-0.04273825
171	0x3d2fd988	0.042932063
172	0x3cf90983	0.030400043
173	0x3d04437c	0.03229092
174	0xbb9997e8	-0.004687298
175	0xbcdccc77	-0.026952965
176	0xbc20b95f	-0.009809821
177	0xba544f0c	-0.0008098937
178	0xbcd3e3c6	-0.025865447
179	0xbcef098d	-0.029179359
180	0xba4f7a50	-0.00079146493
181	0x3bb9fdae	0.005675993
182	0x3c18dd3b	0.009330089
183	0x3c59be56	0.0132900085
184	0xbca87d9c	-0.020567708
185	0xbbc14d80	-0.0058991313
186	0xbcae2fbc	-0.021262996
187	0xbc3955f3	-0.011311996
188	0xbd235b9b	-0.039882284
189	0xbc428d88	-0.011874564
190	0x3b986268	0.004650403
191	0xbc582240	-0.01319176
192	0x3c0a81f3	0.008453834
193	0x3bfdd7c8	0.0077466704
194	0xbbab5bfd	-0.0052294717
195	0x3c4c7e42	0.012481274
196	0xbc6954fd	-0.014241454
197	0xbce6b5db	-0.028162887
198	0xbc13ea7e	-0.009028075
199	0xbb15a864	-0.0022835964
200	0x3bf84e6e	0.007577709
201	0xbc6ab679	-0.014325731
202	0xbbca57a1	-0.006174997
203	0x3bd4bdf6	0.0064923717
204	0xbc519944	-0.012792889
205	0xbc1acf7b	-0.009448881
206	0xbc7a2115	-0.015266676
207	0xbc6e99f5	-0.014563073
208	0x3d471f60	0.048613906
209	0xbcc888ab	-0.02447923
210	0xbc253c13	-0.010085124
211	0x3cec2e8c	0.028830789
212	0x3c5a4ec9	0.013324448
213	0x3d12231b	0.03567801
214	0xbccaac46	-0.02474035
215	0xbd14f5af	-0.036367115
216	0xbce1b390	-0.027551442
217	0xbc9fed3b	-0.0195223
218	0xbcfb530b	-0.030679246
219	0x3c206ace	0.009791089
220	0x3bd91225	0.0066244774
221	0xbca26457	-0.019823236
222	0x3c037967	0.00802455
223	0x3c829883	0.015941864
224	0x3a957cfb	0.0011405045
225	0x3bd3d2cd	0.0064643384
226	0x3c175491	0.009236471
227	0x3c100956	0.008791288
228	0xbb58afab	-0.003306369
229	0xbc70ce8e	-0.014697684
230	0xbcf723ed	-0.030168498
231	0xbc9a7e18	-0.018858954
232	0xbd0a56cb	-0.03377418
233	0xbc85cc7e	-0.016332861
234	0x3d1eba99	0.038752172
235	0x3d034f75	0.032058198
236	0xbb03c822	-0.0020108302
237	0x3c12d9da	0.008963073
238	0x3c34f74b	0.011045287
239	0xbd0cffa0	-0.03442347
240	0xbd230cd2	-0.03980715
241	0xbb925b50	-0.0044664517
242	0xbc01b157	-0.007915816
243	0xbc8fcef2	-0.017554734
244	0xb8574dee	-5.1332572e-05
245	0xbd0beaae	-0.034159355
246	0x3c43c021	0.011947663
247	0x3ce5de03	0.028059965
248	0xbd0f3115	-0.034958918
249	0xbd1ac25a	-0.037783004
250	0xbc9fe0ca	-0.019516367
251	0xbd425afa	-0.047450043
252	0x3d0034fc	0.03130053
253	0x3b62eefd	0.0034627311
254	0xbd0ae0b9	-0.03390572
255	0xbca3f222	-0.020012919

onnx::Conv_84 f4 [32]
0	0x3e6059e7	0.21909295
1	0x3ec0af29	0.37633637
2	0x3ee60381	0.44924548
3	0x3dd0fc3e	0.102043614
4	0x3e1276cd	0.14303131
5	0xbefbe457	-0.49197647
6	0x3ead7384	0.33877194
7	0xbea9cb9b	-0.3316315
8	0x3eb25901	0.3483353
9	0x3e283212	0.1642535
10	0x3e650593	0.22365408
11	0x3e72c21a	0.23706856
12	0xbf1552d5	-0.58329517
13	0x3ebb6e26	0.36607474
14	0xbe6dc058	-0.23217905
15	0xbd204021	-0.039123658
16	0x3d78b995	0.06072386
17	0xbd828c95	-0.0637447
18	0x3f28e382	0.6597215
19	0xbd88d048	-0.066803515
20	0xbe3cf624	-0.1845327
21	0x3de242b6	0.1104788
22	0xbee0e20d	-0.43922463
23	0x3d44f3f3	0.04808421
24	0x3e9ef643	0.31047258
25	0x3e090b81	0.13383295
26	0x3e77de5d	0.24205919
27	0xbefbe3f5	-0.49197355
28	0x3ebf2ded	0.37339726
29	0x3e85cdee	0.26133674
30	0xbdcb7528	-0.09934455
31	0xbc6d0617	-0.014466784

onnx::Conv_86 f4 [32, 32, 3, 3]
0	0x3a6572e2	0.00087527756
1	0x3d2233b9	0.039600108
2	0xbc31f2f1	-0.010861144
3	0xbbe11bbb	-0.006869761
4	0x3d896318	0.06708354
5	0x3c31dd61	0.0108560035
6	0xbc840906	-0.016117584
7	0x3d977c4b	0.07396754
8	0xbc0e3b88	-0.008681186
9	0x3ab7d950	0.0014026556
10	0x3c38a2fd	0.011269328
11	0xbc1c2d89	-0.009532341
12	0xbc9388d2	-0.018009577
13	0xbb97b1fa	-0.0046293708
14	0xbcae3468	-0.021265224
15	0xbc4fe680	-0.012689233
16	0xbb96489b	-0.004586292
17	0xbc667d80	-0.0140680075
18	0x3c837e26	0.016051363
19	0x3d2650b2	0.0406043
20	0x3d732313	0.05935962
21	0x3b36a51f	0.0027869416
22	0x3c496b34	0.012293626
23	0x3d4a3227	0.049364235
24	0xbc3aab8e	-0.011393441
25	0x3b05b651	0.0020402858
26	0x3c8f91e3	0.017525619
27	0xbba9a56e	-0.0051771915
28	0x3d1252ec	0.03572361
29	0x3c54d4e2	0.012990208
30	0x3a7b0f48	0.0009577167
31	0x3ccd9297	0.025094314
32	0x3d207b88	0.03918031
33	0xbd0f8291	-0.035036627
34	0x3b1e03e9	0.0024111217
35	0xbc625b98	-0.013815783
36	0x3c2748bd	0.010210213
37	0xbb17db98	-0.002317166
38	0xbc30355f	-0.010754912
39	0xbc291b3d	-0.0103214355
40	0xbc35a77a	-0.011087293
41	0xbc505f67	-0.012718058
42	0xbb5187e9	-0.0031971878
43	0xb993ccad	-0.0002819052
44	0xbc35e8aa	-0.011102835
45	0xbd9ca6a9	-0.076489754
46	0xbae6f4c1	-0.001762055
47	0x3c0f02fe	0.008728741
48	0xbde0fd76	-0.10985844
49	0xbcdf7016	-0.027275126
50	0xbbe0364c	-0.00684241
51	0xbd52c1f3	-0.051454496
52	0x3b56e231	0.003278863
53	0x3d1c314f	0.03813296
54	0x3b9f41b7	0.0048601287
55	0x3d20aa5b	0.039224964
56	0x3bd7c632	0.006584906
57	0x3b75b52a	0.0037492015
58	0x3d0325c8	0.032018453
59	0xbb893249	-0.0041869027
60	0xbc670102	-0.014099361
61	0x396a19e9	0.00022325631
62	0xbcc4e307	-0.024034036
63	0xbba09567	-0.0049006226
64	0x3bc17ad2	0.005904534
65	0x3b966add	0.004590376
66	0xbbd25645	-0.0064189755
67	0x3c184889	0.0092946375
68	0x3cd9d816	0.026592296
69	0xbcfc0ea9	-0.03076871
70	0xbc898ba6	-0.016790222
71	0x3bfab815	0.007651339
72	0xbd304892	-0.04303796
73	0xbcc343bc	-0.02383601
74	0xbcfbd38a	-0.030740518
75	0x3c3c1823	0.011480364
76	0x3ca1b500	0.019739628
77	0x3c507e9f	0.012725501
78	0x3a456639	0.0007530186
79	0x3cfe8a17	0.031071706
80	0x3c085de0	0.008323163
81	0xbc2b7d25	-0.0104668485
82	0x3c63d77c	0.013906356
83	0xbccf147e	-0.025278326
84	0xbc02df86	-0.007987862
85	0x3c61aecc	0.013774585
86	0xbc9f3d4c	-0.019438408
87	0xbc98c541	-0.018648745
88	0x3c806997	0.01567535
89	0xbd22c32d	-0.039736915
90	0x3d1994da	0.03749547
91	0x3cf592e8	0.029977277
92	0x3c2fe1cb	0.010734986
93	0x3ba9b140	0.0051786005
94	0x3c654ec7	0.013995833
95	0x3b6397e3	0.0034727983
96	0x3c81e099	0.015854167
97	0x3c5c6274	0.013451207
98	0x3bebafc8	0.0071925856
99	0xbd646a0e	-0.055765204
100	0xbd1f3fc8	-0.038879186
101	0xbbd6e3ce	-0.006557918
102	0xbc345c3c	-0.0110083185
103	0xbc5ec446	-0.0135966
104	0xbce29439	-0.027658569
105	0xbbc86c59	-0.0061164317
106	0xbade8c70	-0.001697911
107	0xba9afbc5	-0.0011824301
108	0xbd937fc0	-0.07202101
109	0xbd5bc459	-0.05365405
110	0xbc85f650	-0.016352803
111	0xbd5daba9	-0.054118786
112	0xbb9b305d	-0.00473599
113	0xbd7ee51e	-0.062230222
114	0xbd63d2fc	-0.055621132
115	0xbd4fae21	-0.05070317
116	0xbc4bedc2	-0.012446823
117	0x3d2ee8c5	0.042702455
118	0x3d9a1802	0.075241104
119	0x3c4b505a	0.012409294
120	0x3bd48df5	0.006486649
121	0x3d45c587	0.04828408
122	0xbc35c5a1	-0.011094482
123	0x3cd6be60	0.026213825
124	0x3ce52e3a	0.027976144
125	0xbc8ace49	-0.016944068
126	0xbda3fb9c	-0.08006975
127	0xbd52c67c	-0.05145882
128	0xbd60a098	-0.054840654
129	0xbd746daf	-0.059674915
130	0x3c8cb648	0.017176762
131	0xbc3808d9	-0.011232578
132	0xbc35e379	-0.011101597
133	0x3d76a030	0.06021136
134	0x3ab8e290	0.0014105607
135	0xbc91a587	-0.017779125
136	0x3bf2e4ed	0.007412544
137	0xbcf95e01	-0.030440332
138	0xbc704d81	-0.014666916
139	0x3c773cf0	0.015090212
140	0xbcb326d5	-0.021869102
141	0xbca2ec92	-0.019888196
142	0x3be87b1a	0.007094753
143	0xbc7f8e7d	-0.015597937
144	0xbd62b8af	-0.05535191
145	0xbcbf97c4	-0.023387797
146	0xbd3962a1	-0.045260075
147	0xbc7f5f4d	-0.015586686
148	0x3b94223a	0.0045206817
149	0x3a66d962	0.0008806196
150	0xbc15633b	-0.009117897
151	0x3cc439f8	0.023953423
152	0xbb2f72e7	-0.0026771368
153	0xbce138f1	-0.027492972
154	0x3c2c1b60	0.010504574
155	0xbce69b0e	-0.028150108
156	0xbc8cb95a	-0.017178226
157	0x3cc17363	0.023614591
158	0xbd334204	-0.04376413
159	0xbca6030f	-0.02026513
160	0x3c77c30c	0.015122186
161	0xbd278152	-0.040894814
162	0x3c12488c	0.008928429
163	0x3d03a3fb	0.032138806
164	0x3cc1a90e	0.023640182
165	0xbd54f60a	-0.051992454
166	0xbc45232b	-0.0120323105
167	0xbcc62694	-0.024188317
168	0xbd6eb53c	-0.058278307
169	0xbce39130	-0.027779192
170	0xbc86e499	-0.016466426
171	0xbd813424	-0.06308773
172	0x3cd208c8	0.025638953
173	0x3b20fbb4	0.002456409
174	0x3d16d8ab	0.036827724
175	0x3d21e6aa	0.03952662
176	0x3d794417	0.06085595
177	0x3d204a80	0.03913355
178	0x3d029157	0.031876888
179	0xbc9969b3	-0.01872716
180	0xb9a20f34	-0.00030910375
181	0xbd11d064	-0.035599127
182	0xbd040315	-0.0322295
183	0xbcc12967	-0.023579312
184	0xbd42f2df	-0.0475949
185	0xbd3be029	-0.045868073
186	0xbce2f23a	-0.027703393
187	0xbd16d6e0	-0.036826015
188	0xbce6f2c2	-0.028191928
189	0xbbad0f7b	-0.0052813864
190	0xbc1fa27b	-0.009743328
191	0xbb959596	-0.004564951
192	0x3c9ddaea	0.019269425
193	0x3cf8301e	0.030296382
194	0x3bcd6768	0.0062684305
195	0xbce55f27	-0.027999474
196	0xbd1d5bd6	-0.03841766
197	0xbd5c8ec2	-0.053847082
198	0xbc86289b	-0.016376784
199	0x3b4b8842	0.0031056558
200	0x3b86b280	0.0041106343
201	0xbd0c764e	-0.03429251
202	0xbcd7a65c	-0.026324444
203	0xbced038d	-0.028932357
204	0xbd20cfcb	-0.039260667
205	0xbc07912a	-0.008274356
206	0x3c1a3f96	0.009414574
207	0x3bd5260f	0.006504781
208	0x3c8773b6	0.016534667
209	0x3b08f077	0.0020895281
210	0xbbd62fa2	-0.00653644
211	0x3c7e6d9f	0.015529065
212	0xbb96088f	-0.004578657
213	0xbc327c2e	-0.010893865
214	0xbbed19a6	-0.0072357235
215	0xbc9aaeb7	-0.018882139
216	0xbcc93154	-0.024559654
217	0xbcf992fe	-0.0304656
218	0xbcc665c2	-0.024218444
219	0xbd00a37b	-0.031405907
220	0xbceae720	-0.028674662
221	0xbcabc6a7	-0.020968748
222	0xbca8b9c4	-0.020596392
223	0xbc66d6a6	-0.014089262
224	0xbc11bb47	-0.008894748
225	0x3ca18ded	0.019720996
226	0x3dae94a6	0.08524446
227	0x3da71c53	0.08159699
228	0xbbdd2eb4	-0.006749952
229	0x3d9ce29d	0.076604106
230	0x3d68846a	0.056766905
231	0xbc558b2e	-0.013033671
232	0x3c2fe345	0.010735338
233	0x3d1c853b	0.038212996
234	0xbd2691ff	-0.040666576
235	0xbcf94878	-0.030430064
236	0xbd498853	-0.049202275
237	0xb80fa7ac	-3.4250013e-05
238	0x3d135765	0.035972018
239	0xbc10b08f	-0.008831157
240	0xbcb27926	-0.021786284
241	0xbafdf087	-0.0019374051
242	0xbccc44fd	-0.02493524
243	0xbcc94ff8	-0.024574265
244	0x3a7d2288	0.00096563296
245	0xbb901983	-0.0043975725
246	0xbd84e559	-0.06489057
247	0xbcffcc1d	-0.031225258
248	0xbc6a6457	-0.014306149
249	0xbda3bb41	-0.079947
250	0xbc934bbe	-0.017980453
251	0xbd7dab1d	-0.061930764
252	0xbcd806c6	-0.026370417
253	0xbd6b732f	-0.057482895
254	0xbd8665f7	-0.06562417
255	0xbb115d03	-0.0022180683

onnx::Conv_87 f4 [32]
0	0x3e19ed27	0.15031873
1	0x3d92216c	0.07135281
2	0xbe6bf0db	-0.23041098
3	0xbe108f21	-0.141171
4	0x3d9dbe9a	0.0770237
5	0xbe506964	-0.20352703
6	0x3d0ccc25	0.034374375
7	0xbe77484d	-0.24148674
8	0x3dcb5897	0.099290065
9	0xbe389824	-0.18026787
10	0xbd98862d	-0.07447467
11	0xbe3bc11e	-0.18335387
12	0x3f316395	0.69292575
13	0x3d9b2920	0.07576203
14	0x3df71b00	0.12065697
15	0x3d9ffd45	0.07811979
16	0x3e8094be	0.2511348
17	0x3dbca131	0.09210432
18	0x3de6e9d7	0.1127507
19	0xbeea6ec1	-0.45787624
20	0x3ebb8e08	0.366318
21	0x3f2efaba	0.6835133
22	0xb9fd6da0	-0.00048337597
23	0x3e427f18	0.18993795
24	0x3ec383f7	0.3818662
25	0xbd016e5a	-0.03159938
26	0x3d6310a8	0.055435807
27	0x3cdb25c0	0.026751399
28	0xbe894ca8	-0.26816297
29	0xbcdd70ac	-0.027031265
30	0x3e69902c	0.22808903
31	0xbdd07801	-0.10179139

onnx::Conv_89 f4 [32, 16, 1, 1]
0	0x3e437ba5	0.19090135
1	0x3cbaf34f	0.022821097
2	0xbe20796c	-0.15671319
3	0xbd907835	-0.07054178
4	0xbe80a6f4	-0.25127375
5	0x3dbb8d36	0.09157793
6	0x3e3a40e5	0.18188818
7	0x3dbedfbb	0.09320017
8	0x3e1d59bb	0.1536626
9	0xbd6c2ffd	-0.057662953
10	0xbc3b3520	-0.01142624
11	0x3d2950a2	0.041336663
12	0xbd5a66b9	-0.05332062
13	0x3d0ac451	0.03387863
14	0x3def076c	0.116713375
15	0x3e5944d6	0.21217665
16	0x3cf45c36	0.029829126
17	0x3e2a73f8	0.16645801
18	0x3dbd7e63	0.09252622
19	0x3d0203e8	0.031742007
20	0xbd8ea735	-0.06965486
21	0xbd8f4847	-0.06996208
22	0xbd84d7a4	-0.06486443
23	0x3e09f1b3	0.13471107
24	0x3d68e690	0.056860507
25	0x3d5e0f6d	0.05421393
26	0xbdbdc386	-0.09265809
27	0x3ded0657	0.11573475
28	0x3e68e899	0.22744979
29	0xbd05df1c	-0.032683477
30	0x3db018c2	0.08598472
31	0x3c46c1b5	0.012131144
32	0x3e0bed64	0.13664776
33	0xbdf8a40f	-0.12140667
34	0x3df5c6ea	0.120008305
35	0x3dc3366f	0.09531867
36	0x3de5a059	0.112122245
37	0x3c9a3ca0	0.018827736
38	0x3d81de76	0.06341259
39	0xbdef7417	-0.11692064
40	0xbe299f25	-0.16564615
41	0xbcf71ffa	-0.030166615
42	0xbc413fff	-0.011795043
43	0x3d8e03ad	0.06934295
44	0x3dfbc7ba	0.12293954
45	0xbe4606da	-0.19338551
46	0xbd6ae097	-0.05734309
47	0x3c1399be	0.009008823
48	0xbc412ed9	-0.0117909545
49	0x3b0b3879	0.0021243377
50	0xbd901c5a	-0.07036658
51	0xbd4c7718	-0.049918264
52	0x3b1ff98d	0.0024410218
53	0xbc3bfe27	-0.011474169
54	0x3cbcde2c	0.023055159
55	0x3dc75c5c	0.09734413
56	0x3d3255cf	0.043538865
57	0x3da7dca1	0.081963785
58	0x3c2bf248	0.010494776
59	0x3b260f68	0.0025338773
60	0x3d984e6e	0.07436834
61	0x3d54b139	0.051926825
62	0x3d382958	0.044961303
63	0xbb1967f8	-0.0023407917
64	0x3de51705	0.11186031
65	0x3cff6270	0.031174868
66	0xbbbbde75	-0.005733306
67	0xbc9b655f	-0.018969236
68	0xbbe09311	-0.006853469
69	0xbba77ce2	-0.0051113227
70	0x3d0de1e3	0.03463925
71	0x3d0f3bbf	0.034969088
72	0x3cf52cd2	0.029928599
73	0x3be7033b	0.0070499456
74	0xbd513fe5	-0.051086325
75	0x3d34862c	0.04407327
76	0x3d6ac33e	0.057315104
77	0x3d82b65a	0.06382437
78	0x3c2119e6	0.009832835
79	0xbdc2fdaf	-0.095210426
80	0xbe0f37e8	-0.1398617
81	0x3da7dce5	0.08196429
82	0xbde06ab2	-0.109578505
83	0xbe8cfd16	-0.2753684
84	0xbe706339	-0.2347535
85	0xbd91eb5c	-0.07124969
86	0xbd557a17	-0.052118387
87	0xbdef422b	-0.116825424
88	0x3ce15d8c	0.027510427
89	0xbe328d50	-0.17436719
90	0x3e8ee933	0.27912292
91	0x3e48505b	0.19561903
92	0xbdd7268a	-0.105053976
93	0x3d803569	0.06260187
94	0xbd64e5ae	-0.055883102
95	0x3c9186da	0.017764498
96	0x3d587c03	0.05285264
97	0xbc253b6f	-0.010084971
98	0xbc03f214	-0.008053321
99	0xbc43688f	-0.011926784
100	0xbd40df3b	-0.04708789
101	0xbb0a69c7	-0.0021120177
102	0x3aa482f6	0.0012551236
103	0x3c44f74e	0.012021853
104	0xbc333db7	-0.010940007
105	0xbdd3a461	-0.10334087
106	0xbd2dbd88	-0.04241708
107	0xbbd0cd2a	-0.0063721137
108	0x3da56700	0.08076286
109	0xbdb37fc5	-0.087646045
110	0xbd9e44dc	-0.07727978
111	0x3c98e588	0.018664137
112	0x3db00691	0.085950024
113	0xbdc93ce3	-0.09826066
114	0x3e16d14e	0.14728281
115	0xbd44bd6b	-0.048032206
116	0xbd507010	-0.05088812
117	0xbdbd3cdb	-0.09240123
118	0x3ce3c563	0.027804082
119	0x3d29dbd6	0.041469418
120	0x3da5e3bc	0.081000775
121	0xbdb294ef	-0.08719813
122	0xbd4916d8	-0.04909405
123	0x3d911508	0.070840895
124	0x3df9dcb5	0.122003
125	0xbe182f44	-0.1486178
126	0xbe19ca31	-0.15018536
127	0x3d892c15	0.06697861
128	0xbd65b9d0	-0.056085408
129	0xbd7b6e02	-0.06138421
130	0x3eb8ce5e	0.36094946
131	0xbe67346c	-0.22578591
132	0x3e324836	0.17410359
133	0x3e884c6c	0.26620805
134	0xbe56245b	-0.20912306
135	0xbe00b573	-0.12569217
136	0xbe10f454	-0.14155704
137	0xbe032784	-0.12808043
138	0xbd465e61	-0.04842985
139	0x3e8f9d8b	0.28049883
140	0x3ea2dbd6	0.31808347
141	0x3e051db0	0.12999606
142	0xbdb6eab8	-0.08931488
143	0xbe0c25dd	-0.13686319
144	0xbd7116d7	-0.058859672
145	0x3e810c4f	0.25204703
146	0xbdfd0a78	-0.123555124
147	0xbdca8aa4	-0.09889725
148	0xbcc73bb7	-0.024320466
149	0xbe8ff4b2	-0.28116375
150	0xbe173218	-0.14765203
151	0x3d09d90e	0.033654265
152	0x3e0a1882	0.13485911
153	0xbe128b67	-0.1431099
154	0x3d3c1e0e	0.0459271
155	0x3e23613c	0.1595506
156	0xbce82297	-0.028336806
157	0xbe52e481	-0.2059498
158	0xbcccc7df	-0.02499765
159	0x3d920f5e	0.07131837
160	0x3cbb31a1	0.022850813
161	0xbd91ecb5	-0.071252264
162	0xbd25fd6b	-0.04052488
163	0xbd6ab0b5	-0.057297427
164	0xbdb1a003	-0.08673098
165	0x3dcf6aab	0.10127767
166	0xbde8542b	-0.11344179
167	0x3d1dba2b	0.03850762
168	0x3cc31033	0.023811435
169	0xbb10644e	-0.0022032443
170	0x3df703e4	0.12061289
171	0xbd99b3ac	-0.07504973
172	0xbe0a2d07	-0.13493739
173	0xbdbcc722	-0.09217669
174	0xbbe75a2b	-0.0070603094
175	0x3de355ad	0.11100326
176	0xbd8e6bb1	-0.06954134
177	0x3d0f21f7	0.0349445
178	0x3e1ed45c	0.15510696
179	0xbe33c503	-0.17555623
180	0x3d0d26dd	0.03446089
181	0xbe093121	-0.13397647
182	0xbd759229	-0.059953842
183	0x3e5b7862	0.21432641
184	0xbd0fa78c	-0.035071895
185	0xbe4abfbb	-0.19799702
186	0xbde93ef1	-0.11388958
187	0xbdb4e058	-0.08831853
188	0xbe964532	-0.29349667
189	0x3e71c6fb	0.23611061
190	0x3e4e6e70	0.20159316
191	0x3cad8156	0.021179836
192	0xbd9053dd	-0.07047246
193	0xbe9d1f44	-0.30687916
194	0x3f0daf31	0.55345446
195	0xbeea5151	-0.45765164
196	0x3cbeeec2	0.023307208
197	0x3daf5572	0.08561219
198	0x3ef2f58a	0.47452956
199	0x3ec024e4	0.37528145
200	0x3ee49761	0.44646743
201	0xbe3253f2	-0.17414835
202	0xbeb23a55	-0.3481013
203	0xbe7c01db	-0.24610083
204	0x3ea7cab8	0.3277185
205	0xbeb2dba6	-0.34933203
206	0x3e9e7c07	0.30954
207	0x3e30fc78	0.17283809
208	0x3bedad7d	0.0072533474
209	0x3d3e1181	0.04640341
210	0xbd0ed9d7	-0.034875717
211	0x3baa561a	0.0051982524
212	0xbcd0025e	-0.025391754
213	0x3ca6a4bd	0.020342225
214	0xbb23290b	-0.002489629
215	0xb99ce308	-0.0002992379
216	0xbc7eb016	-0.015544912
217	0x3d2517aa	0.04030577
218	0xbb019b2a	-0.0019776323
219	0x3ba4c13e	0.005027919
220	0xbcd78f26	-0.026313376
221	0xbbf98bba	-0.0076155337
222	0x3d08cc61	0.033398036
223	0xbd0f4a47	-0.034982946
224	0xbe1d09fd	-0.15335841
225	0xbdccb273	-0.09994974
226	0x3cb6b515	0.022303144
227	0x3d92cf57	0.07168453
228	0xbddc8f2f	-0.107694976
229	0xbe12ef0f	-0.14349006
230	0xbdad96cb	-0.08476027
231	0x3d93c0a9	0.072144814
232	0xbe0d1c2f	-0.13780282
233	0xbe029ba8	-0.1275469
234	0xbe0530f0	-0.1300695
235	0xbd0f4eb1	-0.034987155
236	0x3dce8f69	0.10085947
237	0x3e1a4207	0.1506425
238	0xbdaf7653	-0.085674904
239	0xbd89abe8	-0.06722242
240	0x3dc48974	0.095965296
241	0x3d5c1cb3	0.053738307
242	0xbe30fad6	-0.17283186
243	0x3e26e8be	0.16299722
244	0x3cb016f0	0.021495312
245	0x3d113529	0.035451088
246	0x3e316846	0.17324933
247	0x3dfd57f9	0.12370295
248	0x3d6f4973	0.058419656
249	0x3e4537a6	0.1925951
250	0x3e127672	0.14302996
251	0xbc234747	-0.009965724
252	0x3e46adeb	0.19402282
253	0xbdc4d97a	-0.09611793
254	0xbd535817	-0.05159768
255	0x3dc7e2ea	0.09760077

onnx::Conv_90 f4 [32]
0	0xbe9ac312	-0.30226952
1	0xbeb97d39	-0.3622835
2	0xbd365d54	-0.0445226
3	0xbe2aa886	-0.16665849
4	0xbe151326	-0.14558086
5	0x3e9c959e	0.305829
6	0x3dc12669	0.09431154
7	0x3c323f72	0.010879384
8	0xbe635cf0	-0.22203422
9	0x3e89e36a	0.26931316
10	0x3dc78696	0.09742467
11	0x3d8ebcd8	0.06969613
12	0xbf4c3b06	-0.7977756
13	0xbc922fc6	-0.017845046
14	0x3ea5ab3e	0.3235721
15	0xbee91e12	-0.45530754
16	0xbd9ce954	-0.07661691
17	0x3e8c2f2f	0.27379748
18	0xbd8ba51a	-0.068186
19	0x3e176c35	0.14787371
20	0xbec4ac23	-0.3841258
21	0xbf22241f	-0.63336366
22	0x3db4efc1	0.08834792
23	0x3cfb382e	0.030666437
24	0xbec9b448	-0.39395356
25	0xbdf3ce34	-0.119045645
26	0x3cc666b0	0.024218887
27	0xbe8005d6	-0.25004452
28	0x3edb7b8d	0.428677
29	0xbe2aca43	-0.16678719
30	0xbea5baff	-0.3236923
31	0xbd65a533	-0.05606575

onnx::Conv_92 f4 [64, 32, 3, 3]
0	0x3b978c38	0.0046248697
1	0xba8406c0	-0.0010072812
2	0x3b9ebb7e	0.004844128
3	0x3ac1917b	0.0014768088
4	0xb9b1cc07	-0.00033912083
5	0x3b8e0d0e	0.0043350523
6	0x3b661d48	0.0035112668
7	0xba8dea38	-0.0010827249
8	0x3b844fb3	0.004037821
9	0x3aa1dbe3	0.0012348857
10	0xba2a95a0	-0.0006507281
11	0xbc042b30	-0.008066937
12	0x3b944369	0.0045246375
13	0xbae53d33	-0.0017489552
14	0xbc7fd9e7	-0.015615917
15	0xbaa4a3ee	-0.0012561062
16	0xbbe90017	-0.0071106064
17	0xbc15651a	-0.009118343
18	0x3c1b4dbd	0.0094789835
19	0x3c5c0449	0.013428756
20	0x3c876c06	0.016531002
21	0x3bccdc42	0.0062518427
22	0x3c22439b	0.009903814
23	0x3c0fc0b6	0.008773973
24	0x3b347891	0.0027537683
25	0x3b7a77a9	0.0038218296
26	0x3b718c30	0.003685724
27	0xbad1280c	-0.001595737
28	0x399f5b07	0.00030394664
29	0xba39ff23	-0.0007095208
30	0xbbac0262	-0.0052493075
31	0xbb91b6b5	-0.004446829
32	0xbbdaa5b5	-0.006672586
33	0x3b7927c5	0.003801809
34	0x3b2b6085	0.002615006
35	0x3b388d95	0.0028160561
36	0xbba14110	-0.004921086
37	0x36e6137f	6.856804e-06
38	0xbb3e87ba	-0.0029072599
39	0xbbb66f56	-0.0055674715
40	0xbb4d377b	-0.0031313587
41	0xbbeb976a	-0.007189681
42	0xba0a4b27	-0.0005275481
43	0x39921888	0.00027865567
44	0xbb38f247	-0.002822058
45	0xbc00c283	-0.007858875
46	0xbc76e54c	-0.015069317
47	0xbc3f75c2	-0.0116857905
48	0x3c7c8232	0.0154119
49	0x3b56f4ca	0.0032799714
50	0x3c59f80b	0.013303767
51	0x3c99e55f	0.01878613
52	0x3bf6bf6e	0.0075301444
53	0x3c992ff0	0.018699616
54	0x3ac05f53	0.0014676846
55	0xbb9229ab	-0.0044605336
56	0xba2448e8	-0.00062669674
57	0xba8046b0	-0.0009786692
58	0xbb97173d	-0.0046109245
59	0x3b2ed6cd	0.0026678324
60	0x3a98d5be	0.001166038
61	0xbbad3778	-0.0052861534
62	0x3b00f2cc	0.0019675968
63	0x3a60bb77	0.00085728563
64	0x3c4d84a0	0.012543827
65	0x3acb5618	0.0015513329
66	0xbba37f4a	-0.0049895393
67	0xbb3cb2f9	-0.00287932
68	0xbbf7adf2	-0.0075585777
69	0x3acd70d6	0.0015673887
70	0x3b0b32c4	0.0021239975
71	0x39e1c314	0.0004306069
72	0x3c81ceb1	0.015845628
73	0x3c34775d	0.011014787
74	0xbc0b00d5	-0.008484085
75	0x3c919de5	0.017775485
76	0xbb4feeac	-0.0031727953
77	0xbce5f31f	-0.02807003
78	0x3c91bd5a	0.017790485
79	0x3c6b2edd	0.014354435
80	0x3be009af	0.006837092
81	0x3c1ea4a1	0.009682805
82	0xbc8e5c36	-0.017377954
83	0xbb4b9511	-0.0031064192
84	0x3cf0a31b	0.02937465
85	0x3ccefe9e	0.025267895
86	0x3c48a0bf	0.012245356
87	0x3c80113d	0.01563322
88	0xbb9b4bea	-0.0047392743
89	0xbc420b2e	-0.011843486
90	0xbb089901	-0.002084315
91	0xbacf621a	-0.0015822083
92	0x3ae8cc12	0.0017761013
93	0xbb9597c2	-0.00456521
94	0xbba4df39	-0.005031493
95	0xbb964770	-0.0045861527
96	0x3c616885	0.01375783
97	0x3c185c33	0.009299326
98	0x3c674e58	0.0141178
99	0x3af29694	0.001850801
100	0x3bd6cde3	0.0065553053
101	0xbb0c84a9	-0.0021441376
102	0x3c474fc8	0.012165017
103	0x3a111dcc	0.0005535751
104	0xbbf3587e	-0.0074263206
105	0xbb1191ad	-0.0022212074
106	0xbb4e0514	-0.0031436132
107	0xbc98710b	-0.01860859
108	0xbb013e41	-0.0019720944
109	0xbc14bc17	-0.009078047
110	0xbce810ca	-0.028328318
111	0xba625023	-0.0008633157
112	0xbc8fd2f8	-0.017556652
113	0xbcf31802	-0.029674534
114	0xbc05aff3	-0.008159625
115	0xbc1b99ae	-0.009497089
116	0xbcae3081	-0.021263363
117	0xbb4a8c39	-0.0030906333
118	0xbaf4e0f2	-0.0018682762
119	0xbb1146e3	-0.0022167496
120	0xbbc375bc	-0.0059649628
121	0xbc04fea3	-0.008117351
122	0xbc0f0117	-0.008728287
123	0xba8f4b6a	-0.0010932509
124	0xba904872	-0.0011007919
125	0xbb12b9d4	-0.0022388594
126	0x3d21a8dd	0.03946768
127	0x3d606f3f	0.054793593
128	0x3d128686	0.035772823
129	0x3c1721a7	0.009224332
130	0x3c326e24	0.010890517
131	0x3c206d31	0.009791658
132	0x3be46b58	0.006970804
133	0xbbcf919d	-0.006334497
134	0xbcba3e0c	-0.022734664
135	0x3caf334c	0.021386765
136	0x3c39dd41	0.011344255
137	0x3997a394	0.0002892284
138	0x3a80c17c	0.0009823288
139	0xbbc44c77	-0.0059905606
140	0xbc3f675f	-0.01168236
141	0x3c22fcbd	0.009947953
142	0x3ae89ea6	0.0017747476
143	0xb6ee643e	-7.1046225e-06
144	0x3a7efe42	0.00097272184
145	0xbaaafa78	-0.0013044616
146	0xbb52c96b	-0.0032163511
147	0xb9f7a3d0	-0.0004723356
148	0x3b9a4064	0.004707383
149	0x3b54e4e9	0.0032485074
150	0xbbbf302e	-0.005834601
151	0xbb0db6a9	-0.0021623767
152	0xba1bc08c	-0.00059414725
153	0xb9d4a9ba	-0.00040562247
154	0x3bee70bc	0.0072766226
155	0x3c213078	0.009838216
156	0xbaa01498	-0.0012213169
157	0x3b27e2ab	0.0025617282
158	0x3bdebeb3	0.0067976355
159	0xbc0c42d2	-0.008560853
160	0xb9a55755	-0.0003153632
161	0x3ac82015	0.001526835
162	0xbc5d0bf1	-0.013491617
163	0xbbe53032	-0.0069942707
164	0xbb915e75	-0.004436309
165	0xbc91a7f7	-0.017780287
166	0xbc06f269	-0.008236506
167	0x3ae1a5b7	0.0017215525
168	0xbcfd27ed	-0.030902827
169	0xbc8cb92a	-0.017178137
170	0xbc5ecf5f	-0.013599246
171	0x3adb2ad9	0.0016721144
172	0x3c323249	0.010876247
173	0x3bc4c536	0.0060049547
174	0xbc164e81	-0.00917399
175	0xbbd523dc	-0.006504519
176	0xbc484380	-0.0122231245
177	0xbc216ef3	-0.0098531125
178	0xbb9265f6	-0.004467721
179	0xbc606ab9	-0.01369732
180	0x3c802eac	0.015647255
181	0x3c8366e4	0.016040273
182	0x3b8bc6f4	0.0042656604
183	0x3bb92c74	0.005651051
184	0x3b09caed	0.0021025494
185	0xbb6184c5	-0.0034411412
186	0x3b043631	0.0020173902
187	0x3bb055b9	0.0053813127
188	0xbb90d70c	-0.004420167
189	0xbb9feb68	-0.0048803575
190	0xbc4b93be	-0.012425361
191	0xb9fad5cd	-0.0004784301
192	0xba436d60	-0.0007454958
193	0x3af031e6	0.0018325418
194	0x3c1d8711	0.009614722
195	0xbcae0d11	-0.021246465
196	0xbc1a8d0c	-0.009433042
197	0x3c8c3390	0.01711443
198	0x3c2cf9b8	0.010557584
199	0x3ba8fd57	0.0051571536
200	0x3b9ed955	0.0048476853
201	0x3b50f444	0.0031883875
202	0xbad76af3	-0.0016435072
203	0x3a713f8e	0.0009202891
204	0x39cf1ac8	0.0003950207
205	0xbb3ca8d7	-0.002878716
206	0xba89fc36	-0.0010527435
207	0xbbbf3396	-0.005835007
208	0xbc24aa4f	-0.01005037
209	0xbc2c036f	-0.0104988655
210	0xbb26de65	-0.0025462147
211	0xbc38b518	-0.011273645
212	0xbc6ac6dd	-0.014329639
213	0xbc6ca86e	-0.014444454
214	0xbb1c5d55	-0.002385934
215	0xbbbffd63	-0.0058590635
216	0x3b181fb4	0.0023212256
217	0xbae0e39c	-0.0017157677
218	0x3b67fc81	0.0035398307
219	0x3b112b42	0.0022151028
220	0x3b0bd6b7	0.0021337697
221	0x3b50579b	0.0031790498
222	0x3c2721b6	0.010200908
223	0x3c1ed101	0.009693385
224	0x3c3251b1	0.010883735
225	0x3b9c788f	0.004775114
226	0x3b438fb2	0.0029840288
227	0x3c333f31	0.010940359
228	0xbb2ff017	-0.0026845986
229	0xbb9d4138	-0.0047990344
230	0xbb0dea7f	-0.0021654663
231	0xbb8a6eb5	-0.004224623
232	0xbbadbd05	-0.005302074
233	0xbbbc1342	-0.0057396004
234	0xbc1c15ee	-0.009526713
235	0xbb8d13f8	-0.004305359
236	0xba743a87	-0.00093165826
237	0xbbdf3df1	-0.006812804
238	0xbb741cfd	-0.0037248724
239	0xbaafdf62	-0.0013418014
240	0xbafc8b98	-0.0019267676
241	0x3b0575e3	0.0020364455
242	0x3b90f30b	0.004423504
243	0x3c1c93e6	0.009556746
244	0xb9401661	-0.00018318884
245	0xbcd20cd9	-0.025640892
246	0x3b39721c	0.0028296774
247	0xbc4efc8a	-0.012633452
248	0xbcd277d1	-0.025691899
249	0x3b0bde4d	0.0021342218
250	0xbc2664da	-0.010155881
251	0xbcd9755a	-0.026545215
252	0x3c0ceeaf	0.0086018285
253	0xbcfd25dd	-0.030901844
254	0xbd15415b	-0.03643928
255	0x3c8374af	0.01604685

onnx::Conv_93 f4 [64]
0	0x3d0fc5a6	0.0351006
1	0x3e4d16c0	0.2002821
2	0xbb9d7974	-0.004805738
3	0x3c53b05b	0.012920464
4	0xbe0630f8	-0.13104618
5	0x3e1078c1	0.14108564
6	0xbd6a3d12	-0.057187147
7	0xbdc2e3d3	-0.0951611
8	0x3ddccc16	0.10781114
9	0x3cefc165	0.029267022
10	0x3df7308e	0.12069808
11	0x3e1a60e7	0.15076028
12	0x3cc5e4a8	0.024156883
13	0xbadadea1	-0.0016698429
14	0xbd90c1ff	-0.07068252
15	0xbb5c5150	-0.0033617802
16	0xbaa0591d	-0.0012233589
17	0xbae96e90	-0.001780944
18	0x3e468899	0.19388045
19	0x3e4056f8	0.18783176
20	0x3deb8f76	0.115019724
21	0x3d83a59c	0.06428072
22	0xbb30ec58	-0.002699634
23	0xbd1bf04e	-0.03807097
24	0x3c046548	0.008080788
25	0xbd710337	-0.058840957
26	0x3d89549f	0.06705593
27	0xbd66b854	-0.056328133
28	0x3cb971c4	0.022637255
29	0x3e172440	0.14759922
30	0x3d98d869	0.07463152
31	0x3c999286	0.018746626
32	0xba6b1efe	-0.0008969157
33	0xbce6f6bc	-0.028193824
34	0xbd670854	-0.056404427
35	0x3e0b76d0	0.13619542
36	0x3c00c75e	0.007860033
37	0xbd217920	-0.039422154
38	0x3e140220	0.14453936
39	0x3d88fcd3	0.066888474
40	0xbe89bce2	-0.2690192
41	0xbd135d18	-0.035977453
42	0xbd942ba5	-0.07234887
43	0x3cd9a4d6	0.026567858
44	0x3da5e8a6	0.08101015
45	0x3defea8d	0.11714659
46	0xbd6f646a	-0.05844537
47	0x3df80263	0.1210983
48	0x3e9cb16b	0.3060411
49	0x3df90aca	0.12160261
50	0xbd9c5638	-0.076336324
51	0x3d129eab	0.03579585
52	0x3b51a440	0.003198877
53	0xbcbe76e0	-0.023250043
54	0x3da1fce2	0.07909562
55	0x3d873ca6	0.06603365
56	0x3d89de62	0.06731869
57	0x3d0ea1c4	0.03482224
58	0xbc96c3f9	-0.018403994
59	0xbd479a96	-0.04873141
60	0x3dbd45f6	0.092418596
61	0x3e341b45	0.17588528
62	0x3e09be00	0.13451385
63	0xbd421f36	-0.047393046
