model/xicara_de_cafe.onnx (onnx, 302121 bytes, 16 tensors)

fc.weight f4 [2, 256]
0	0x8024dac2	-3.384553e-39
1	0x8023d6be	-3.291277e-39
2	0x801c7cce	-2.616165e-39
3	0x801d1696	-2.671332e-39
4	0xbdbfc3e1	-0.09363533
5	0xbdc01b17	-0.09380167
6	0xbdd48dca	-0.103786066
7	0xbdd95dcb	-0.10613593
8	0x800ec7d8	-1.357387e-39
9	0x800a5b8b	-9.51194e-40
10	0x0009c80a	8.9828e-40
11	0x000863f4	7.7054e-40
12	0x801a552a	-2.418274e-39
13	0x800d054b	-1.19576e-39
14	0x8022b545	-3.187434e-39
15	0x802cd991	-4.11881e-39
16	0x801231db	-1.670924e-39
17	0x800f1d3f	-1.388024e-39
18	0x80147ed6	-1.88221e-39
19	0x8014341d	-1.855405e-39
20	0x00184295	2.227937e-39
21	0x000f4c6b	1.404946e-39
22	0x003c6068	5.544714e-39
23	0x0030396c	4.428703e-39
24	0x804103fa	-5.970734e-39
25	0x80397c62	-5.279243e-39
26	0x0005e620	5.41731e-40
27	0x001d1c35	2.673348e-39
28	0x804ac68b	-6.86705e-39
29	0x8042fb3b	-6.151267e-39
30	0x803f7178	-5.826341e-39
31	0x802173c7	-3.072104e-39
32	0x3e15b67d	0.14620395
33	0x3e12e1cf	0.14343952
34	0x3d508134	0.050904468
35	0x3cfcda00	0.03086567
36	0x003e423b	5.71756e-39
37	0x0036881b	5.007942e-39
38	0x003e4d29	5.72148e-39
39	0x0036e04f	5.039584e-39
40	0x000286c9	2.32023e-40
41	0x0004143b	3.746e-40
42	0x0005d8dd	5.36973e-40
43	0x0002f688	2.7211e-40
44	0x800e55ec	-1.31652e-39
45	0x801343ba	-1.76917e-39
46	0x80095b31	-8.59233e-40
47	0x800d7f9c	-1.239639e-39
48	0x0025e6ef	3.480757e-39
49	0x002849c6	3.699885e-39
50	0x002bc945	4.021128e-39
51	0x00256077	3.432518e-39
52	0xbd8bc746	-0.06825118
53	0xbd8e8f6d	-0.0696095
54	0xbd9bb916	-0.07603662
55	0xbda2ff3f	-0.079588406
56	0xbe0724dc	-0.13197654
57	0xbe0879e2	-0.13327745
58	0xbe1d02ad	-0.15333052
59	0xbe20c4a4	-0.15700012
60	0x8030b99a	-4.474685e-39
61	0x801009cd	-1.472884e-39
62	0x800d64a6	-1.229967e-39
63	0x80139a85	-1.800306e-39
64	0x3e680a4b	0.22660176
65	0x3e61dfde	0.22058055
66	0x3e06abef	0.13151525
67	0x3dec4c4e	0.115379915
68	0x0027820f	3.62824e-39
69	0x00261ab8	3.499334e-39
70	0x0027943d	3.634762e-39
71	0x8025813c	-3.444274e-39
72	0x00137077	1.785219e-39
73	0x000ebd58	1.35362e-39
74	0x8011a6a1	-1.620979e-39
75	0x801a26f2	-2.401694e-39
76	0x003d0ab5	5.605806e-39
77	0x0041f691	6.057759e-39
78	0x00410a7a	5.973066e-39
79	0x003d55f9	5.632806e-39
80	0x002b37c9	3.968938e-39
81	0x00301bf5	4.418133e-39
82	0x00258511	3.445649e-39
83	0x00267000	3.529927e-39
84	0x000c4442	1.126512e-39
85	0x000926a3	8.4038e-40
86	0x000c4932	1.128283e-39
87	0x00075fcd	6.77215e-40
88	0xbbc8cbce	-0.006127811
89	0xbbdd3e0a	-0.0067517804
90	0xbbd2d267	-0.0064337733
91	0xbbe83739	-0.007086661
92	0x000598af	5.1395e-40
93	0x800a9bb8	-9.74216e-40
94	0x800652b2	-5.80678e-40
95	0x80071d70	-6.53409e-40
96	0x00325257	4.621313e-39
97	0x00204c89	2.966192e-39
98	0x0020e093	3.019298e-39
99	0x002312ab	3.220939e-39
100	0x8002362f	-2.03108e-40
101	0x000c8d27	1.152662e-39
102	0x000b1d3e	1.02068e-39
103	0x000d155c	1.201524e-39
104	0x8026de84	-3.569572e-39
105	0x801db8d1	-2.729529e-39
106	0x8024522a	-3.335553e-39
107	0x801ae1ad	-2.46868e-39
108	0x003ea7bc	5.753973e-39
109	0x003f1d1b	5.796077e-39
110	0x0041b105	6.03281e-39
111	0x004574aa	6.3785e-39
112	0xbdb5715e	-0.08859514
113	0xbdb8a068	-0.0901497
114	0xbdd62ca5	-0.10457734
115	0xbddfe67f	-0.109326355
116	0x00008aaa	4.9743e-41
117	0x80001071	-5.898e-42
118	0x00009345	5.283e-41
119	0x80027d04	-2.28518e-40
120	0x800e3d14	-1.307608e-39
121	0x800d629f	-1.22924e-39
122	0x8006a2d6	-6.09428e-40
123	0x00034916	3.01725e-40
124	0x3d469eb7	0.048491206
125	0x3d4c559c	0.04988633
126	0x3d0f8743	0.035041105
127	0x3d10d58d	0.035359908
128	0x801c368e	-2.590964e-39
129	0x80271324	-3.588451e-39
130	0x000b4650	1.035414e-39
131	0x0008d2e7	8.10341e-40
132	0x00298acc	3.815046e-39
133	0x802a39b0	-3.877785e-39
134	0x80261cdc	-3.500102e-39
135	0x802770a6	-3.621995e-39
136	0x3cbff2f7	0.023431284
137	0x3cc59ce6	0.024122667
138	0x3c88772d	0.01665839
139	0x3c8d259a	0.017229844
140	0x0014fe14	1.927856e-39
141	0x000eedeb	1.371046e-39
142	0x001c4275	2.595234e-39
143	0x0019bbc8	2.36325e-39
144	0x0013b206	1.808737e-39
145	0x000b3af2	1.031336e-39
146	0x001b4df3	2.507521e-39
147	0x0011b8d7	1.627511e-39
148	0xbdca6066	-0.09881668
149	0xbdbd2ef1	-0.09237469
150	0xbe19a456	-0.15004095
151	0xbe194b66	-0.14970168
152	0x30898a72	1.000741e-09
153	0x3088c25a	9.95054e-10
154	0x3065d5d1	8.3613566e-10
155	0x30606d34	8.164591e-10
156	0x00026700	2.2062e-40
157	0x0003603c	3.10029e-40
158	0x00078527	6.90615e-40
159	0x00096278	8.61843e-40
160	0x80080458	-7.36242e-40
161	0x001057d0	1.500869e-39
162	0x801b2279	-2.491925e-39
163	0x8008e793	-8.17757e-40
164	0x800903dd	-8.27905e-40
165	0x8003a408	-3.3435e-40
166	0x00073c61	6.64508e-40
167	0x00044a02	3.93891e-40
168	0xbe1ac54d	-0.15114327
169	0xbe1e2048	-0.15442002
170	0xbe2f296e	-0.17105648
171	0xbe2e71a8	-0.17035544
172	0x800598c0	-5.13974e-40
173	0x000b28bc	1.024803e-39
174	0x000b3d86	1.032261e-39
175	0x00090de4	8.31502e-40
176	0x3e08331a	0.13300744
177	0x3dfe1b22	0.12407519
178	0x3d532a24	0.05155386
179	0x3d0fae34	0.035078242
180	0xbde5a54a	-0.11213167
181	0xbde54a15	-0.11195771
182	0xbdebc57f	-0.11512279
183	0xbdf07180	-0.117403984
184	0x0005bc34	5.26692e-40
185	0x8003e315	-3.56968e-40
186	0x000dfbb3	1.284154e-39
187	0x0008dcda	8.1391e-40
188	0x80325528	-4.622323e-39
189	0x803bbd4f	-5.486205e-39
190	0x001a5ee6	2.421766e-39
191	0x0019f1df	2.382654e-39
192	0x800071e9	-4.0863e-41
193	0x001b6978	2.517393e-39
194	0x000bfd3f	1.101038e-39
195	0x800a7c0d	-9.62856e-40
196	0x803fbc55	-5.853197e-39
197	0x803de359	-5.683522e-39
198	0x8044e5d7	-6.327265e-39
199	0x804165d2	-6.005833e-39
200	0x80198df8	-2.346816e-39
201	0x803a1114	-5.332585e-39
202	0x8021857a	-3.078454e-39
203	0x80236f69	-3.254209e-39
204	0x8024daff	-3.384639e-39
205	0x801ef72a	-2.84373e-39
206	0x80271c72	-3.591789e-39
207	0x802530e6	-3.415455e-39
208	0x8015cfa9	-2.00304e-39
209	0x8016aa2d	-2.081428e-39
210	0x80290eac	-3.770519e-39
211	0x8017e2d0	-2.193581e-39
212	0x806d9f7b	-1.006728e-38
213	0x806cf0c2	-1.0004601e-38
214	0x806eb865	-1.0168053e-38
215	0x80704846	-1.0311502e-38
216	0x80070244	-6.43661e-40
217	0x8006fd23	-6.41821e-40
218	0x000feb3b	1.461917e-39
219	0x000adde6	9.97957e-40
220	0x3d2f63e4	0.042819872
221	0x3d3454cc	0.04402618
222	0x3c8ffa57	0.017575426
223	0x3c761a77	0.015020958
224	0xbe12c0c6	-0.1433135
225	0xbe16aa23	-0.1471334
226	0xbe522490	-0.2052176
227	0xbe5baf93	-0.21453695
228	0x3da31125	0.079622544
229	0x3da72a44	0.081623584
230	0x3d7c9384	0.06166412
231	0x3d7bdfd2	0.06149275
232	0x3e29741e	0.16548201
233	0x3e2bc5ce	0.16774675
234	0x3d76df31	0.060271446
235	0x3d346c58	0.044048637
236	0x002accc5	3.930548e-39
237	0x002d1915	4.141595e-39
238	0x002d60a5	4.167267e-39
239	0x002a4274	3.88093e-39
240	0xbde02629	-0.109447785
241	0xbde3b0c9	-0.111177035
242	0xbddd129f	-0.10794567
243	0xbde5dca1	-0.11223722
244	0x3ca5f2d3	0.02025739
245	0x3cab8df0	0.020941705
246	0x3c5cd981	0.013479591
247	0x3c63699b	0.013880159
248	0x3e82136f	0.25405452
249	0x3e62f226	0.22162685
250	0x3de1be9b	0.11022683
251	0x3d7edab6	0.062220298
252	0x802500bc	-3.398177e-39
253	0x0022fbb8	3.212707e-39
254	0x801316fe	-1.753122e-39
255	0x80113f4b	-1.583909e-39

fc.bias f4 [2]
0	0xbd517fe3	-0.051147353
1	0x3d427d77	0.047482934

onnx::Conv_80 f4 [16, 3, 7, 7]
0	0x3d0de416	0.034641348
1	0x3cd4a5de	0.025957998
2	0x3a795db7	0.0009512561
3	0xbc990ae1	-0.018681945
4	0xbd33b17c	-0.043870434
5	0xbd919c5a	-0.071099
6	0xbd794cf9	-0.060864422
7	0x3cfc7c21	0.030820908
8	0x3c0fe265	0.008782004
9	0xbc9d4a5d	-0.019200498
10	0xbd012b9e	-0.031535737
11	0xbd7e78af	-0.06212681
12	0xbddc2079	-0.10748381
13	0xbde213b4	-0.11038914
14	0x3d032564	0.03201808
15	0x3d00346d	0.031299997
16	0x3c7fb3a8	0.015606798
17	0xbc5f2038	-0.013618521
18	0xbcfd2944	-0.030903466
19	0xbd996add	-0.07491086
20	0xbdadc86a	-0.084854916
21	0x3d2a1c5d	0.041530956
22	0x3d61ca09	0.055124316
23	0x3ce61c8d	0.028089786
24	0x3c5eb97d	0.013594029
25	0xbc967bfb	-0.018369665
26	0xbd9e5e8e	-0.077328786
27	0xbdba2947	-0.09089904
28	0x3d6abf55	0.057311375
29	0x3d98313b	0.07431265
30	0x3d6f8ece	0.0584858
31	0x3cef52e4	0.02921433
32	0x3c670f41	0.014102758
33	0xbd51f9fd	-0.051263798
34	0xbd93e205	-0.07220844
35	0x3d9f31ec	0.07773194
36	0x3d980e64	0.0742462
37	0x3d976182	0.07391645
38	0x3d50725c	0.05089031
39	0x3d1ca674	0.03824468
40	0xbd080143	-0.03320433
41	0xbd547a39	-0.051874373
42	0x3da22988	0.07918078
43	0x3dba44bb	0.090951405
44	0x3d9afa42	0.07567264
45	0x3d875635	0.066082396
46	0x3d0cc28b	0.034365218
47	0x393c25d2	0.00017943166
48	0xbce3b728	-0.027797297
49	0x3c12cec8	0.008960433
50	0xb9f17f9c	-0.00046062178
51	0x3ba12999	0.004918289
52	0xbb5c76f8	-0.0033640247
53	0xbc10a1bf	-0.008827626
54	0xbc4299af	-0.011877461
55	0xbae46867	-0.0017426134
56	0x3c577558	0.0131505355
57	0x3c14b7d8	0.009077035
58	0x3b967f21	0.0045927917
59	0xbb9076b9	-0.004408684
60	0xbc2b9f4b	-0.01047499
61	0xbd17d1bd	-0.037065256
62	0xbcfb4519	-0.030672597
63	0x3c493058	0.012279592
64	0x3c2bb7af	0.010480805
65	0x3c12fc6a	0.008971313
66	0xb9c56b1e	-0.00037654577
67	0x39d2bd9f	0.000401956
68	0xbc7765fb	-0.015099998
69	0xbc6b28f3	-0.014353025
70	0x3baa0fa0	0.005189851
71	0x3c14ce3c	0.009082373
72	0x3bd6ead5	0.006558756
73	0xbbba078e	-0.00567717
74	0xbbf96b03	-0.0076116337
75	0xbc8b168b	-0.016978523
76	0xbc822dc9	-0.015890973
77	0x3c00a125	0.00785092
78	0x3c8044b5	0.015657762
79	0x3c5ad213	0.01335575
80	0x3bb44362	0.0055011967
81	0x3bdb1c1a	0.0066866996
82	0xbc5af3ef	-0.013363822
83	0xbc9dc8ba	-0.019260753
84	0x3c4774be	0.01217383
85	0x3c59319b	0.013256456
86	0x3c01af8e	0.007915391
87	0x3c3d474b	0.011552642
88	0x3c81e11d	0.015854413
89	0xbc876004	-0.016525276
90	0xbca36cf8	-0.019949421
91	0x3cdb596a	0.026776034
92	0x3c90617d	0.017624611
93	0x3ca2fe50	0.019896656
94	0x3c1aa4b0	0.009438679
95	0x3c83f6ab	0.016108831
96	0xbca3c762	-0.019992534
97	0xbd36898f	-0.04456478
98	0x3cda527f	0.026650665
99	0x3a68e249	0.0008883817
100	0x3c4896e0	0.012243003
101	0x3bb55e1e	0.0055349013
102	0x3c6b69f8	0.014368527
103	0x3924d108	0.00015718129
104	0x3d14f23f	0.036363836
105	0xbc1e7621	-0.009671719
106	0x3aca0bee	0.0015414932
107	0x3c587797	0.013212106
108	0xba1ef646	-0.0006063919
109	0x3c33641b	0.01094916
110	0xbb20f20f	-0.002455834
111	0x3c6edd37	0.014579109
112	0xbba3cfe6	-0.0049991487
113	0xbbdea6a6	-0.0067947684
114	0x3a070308	0.0005150293
115	0x3bc61761	0.0060452675
116	0x3c199050	0.009372786
117	0x3c83154c	0.016001366
118	0x3c98a89f	0.018635092
119	0xbc82331e	-0.015893515
120	0x3c4cd8af	0.012502833
121	0x3b54b7dc	0.0032458222
122	0x3c39047f	0.011292576
123	0x3c832fb0	0.01601395
124	0x3c8ed10c	0.017433666
125	0x3c93fae6	0.018063974
126	0xbca8591d	-0.020550305
127	0xbbd4d9e5	-0.0064957016
128	0xbafe9eb0	-0.0019425955
129	0x3c0cba67	0.008589364
130	0x3c414978	0.0117973015
131	0x3c200626	0.009767091
132	0x3bf355fe	0.0074260226
133	0xbce7ddeb	-0.02830406
134	0xbc83b474	-0.016077258
135	0xbcc0b811	-0.02352527
136	0xbcb377c9	-0.021907704
137	0xbb4d0efc	-0.003128945
138	0xbc875678	-0.016520724
139	0xbc0d2a8c	-0.008616101
140	0xbca4c82a	-0.020114977
141	0xbcbbcd21	-0.022924962
142	0xbcf0e1e5	-0.02940459
143	0xbcb78236	-0.022400957
144	0xbc55d37d	-0.013050911
145	0xbc082bd6	-0.008311233
146	0xbd0ba804	-0.03409578
147	0xbd581735	-0.052756507
148	0xbd71df73	-0.05905099
149	0xbd410c88	-0.04713109
150	0xbcf41de3	-0.029799407
151	0xbcc3fc35	-0.023923973
152	0xbb366eec	-0.002783711
153	0x3c14f4cf	0.00909157
154	0xbd875d2b	-0.06609567
155	0xbd9cd058	-0.07656926
156	0xbd8d4093	-0.06897082
157	0xbd2c94fe	-0.042134278
158	0xbca66966	-0.02031393
159	0xbc7c5e19	-0.015403294
160	0x3c726e3e	0.014796792
161	0xbd81c0f4	-0.06335631
162	0xbd9fd486	-0.078042075
163	0xbd817457	-0.06321018
164	0xbd29b90a	-0.041436233
165	0xbcbcdf00	-0.023055553
166	0xbb212c85	-0.0024593186
167	0x3c270248	0.010193415
168	0xbd905d93	-0.07049098
169	0xbd5f6cba	-0.05454705
170	0xbd654e1e	-0.0559827
171	0xbd2b4599	-0.04181442
172	0xbc947e35	-0.018126586
173	0xbb87f8fb	-0.004149554
174	0xbbb7a280	-0.0056040883
175	0xbd2379ea	-0.03991119
176	0xbd285d06	-0.04110434
177	0xbd2c1824	-0.04201521
178	0xbc94c22f	-0.018159
179	0x3bd1475f	0.006386682
180	0x3b2d80a1	0.0026474374
181	0x3b103970	0.0022006892
182	0xbd177a1e	-0.036981694
183	0xbcf097e8	-0.02936931
184	0xbc8c02e1	-0.017091217
185	0xbbb205d3	-0.005432823
186	0x3cc66a08	0.024220482
187	0x3c8cc615	0.017184297
188	0x3c3a961b	0.011388327
189	0xbbc17b81	-0.0059046154
190	0x3c20b253	0.009808141
191	0x3c342591	0.010995285
192	0x3d05f729	0.032706413
193	0x3d3e21f4	0.0464191
194	0x3cf03b4d	0.029325152
195	0x3ce9f2ed	0.028558219
196	0xbd0a7547	-0.03380325
197	0xbd2d4e7c	-0.042311177
198	0xbcde16e1	-0.027110519
199	0xbccfcd5b	-0.025366476
200	0xbbc047dc	-0.0058679413
201	0x3b184766	0.0023235916
202	0x3ca31a48	0.019909993
203	0xbd1bd727	-0.038046982
204	0xbcb8c0a3	-0.022552794
205	0xbcd38b77	-0.025823338
206	0xbc7b05e8	-0.015321232
207	0x3bb8b434	0.0056367163
208	0x3c1c7eb8	0.0095516965
209	0x3cd00305	0.025392065
210	0xbd10570b	-0.03523926
211	0xbc55c0a4	-0.013046417
212	0xbc96e35e	-0.018418964
213	0xbc19caea	-0.009386757
214	0x3b31ab5b	0.0027110192
215	0x3cb91634	0.022593595
216	0x3c84b7b6	0.016200881
217	0xbcd870ef	-0.026421038
218	0xbc668756	-0.014070353
219	0xbc851d49	-0.016249316
220	0xbc0538f9	-0.008131259
221	0xbbec99ca	-0.0072204815
222	0x3bb238e2	0.00543891
223	0x3be0e176	0.0068628145
224	0xbc1e91e8	-0.009678341
225	0xbb920b9f	-0.0044569517
226	0xbc5acd15	-0.013354559
227	0xbb87c078	-0.004142817
228	0x3b81105f	0.003938719
229	0x3c3db749	0.011579343
230	0x3b645d9a	0.003484583
231	0x3b856072	0.004070335
232	0xbc0117a1	-0.007879169
233	0xbc78edc5	-0.015193407
234	0xbbc973b6	-0.006147827
235	0x3c991f54	0.018691696
236	0x3c02ffbd	0.007995543
237	0x3c02327c	0.007946607
238	0x3c8fd6dc	0.017558508
239	0x3c36b7ff	0.0111522665
240	0x3b693a53	0.0035587742
241	0x3c869e98	0.016433045
242	0x3cf77454	0.030206837
243	0x3cc11fe6	0.02357478
244	0x3c12cd86	0.008960133
245	0xbbc17dde	-0.005904897
246	0x3c1d5836	0.009603551
247	0x3a22473c	0.00061904243
248	0x3c4c54af	0.012471362
249	0x3c4385f4	0.011933792
250	0x3cd04252	0.025422249
251	0x3d639745	0.055564184
252	0x39641459	0.00021751355
253	0x3c372f18	0.011180662
254	0x3c28d24c	0.010304045
255	0x3c49f8d3	0.012327391

onnx::Conv_81 f4 [16]
0	0xbc125516	-0.008931419
1	0x3e493cd3	0.19652109
2	0xbc87da72	-0.016583655
3	0xbf1df792	-0.6170589
4	0xbd1d6e16	-0.038435064
5	0x8027f933	-3.67098e-39
6	0x80166f55	-2.06032e-39
7	0xbe070814	-0.13186675
8	0x802b6bbb	-3.987573e-39
9	0xbe4873a5	-0.19575365
10	0x3e3882e4	0.18018681
11	0x3f10f88f	0.5662927
12	0x3e12fb28	0.14353621
13	0xbebd3d8c	-0.3696102
14	0x3e994a85	0.29939666
15	0xb782e4e2	-1.560379e-05

onnx::Conv_83 f4 [32, 16, 3, 3]
0	0x80000000	-0.0
1	0x80000000	-0.0
2	0x80000000	-0.0
3	0x00000000	0.0
4	0x00000000	0.0
5	0x00000000	0.0
6	0x00000000	0.0
7	0x00000000	0.0
8	0x00000000	0.0
9	0x80000000	-0.0
10	0x80000000	-0.0
11	0x80000000	-0.0
12	0x80000000	-0.0
13	0x80000000	-0.0
14	0x00000000	0.0
15	0x00000000	0.0
16	0x00000000	0.0
17	0x00000000	0.0
18	0x80000000	-0.0
19	0x80000000	-0.0
20	0x80000000	-0.0
21	0x80000000	-0.0
22	0x80000000	-0.0
23	0x00000000	0.0
24	0x80000000	-0.0
25	0x00000000	0.0
26	0x00000000	0.0
27	0x00000000	0.0
28	0x00000000	0.0
29	0x00000000	0.0
30	0x00000000	0.0
31	0x00000000	0.0
32	0x00000000	0.0
33	0x00000000	0.0
34	0x00000000	0.0
35	0x00000000	0.0
36	0x80000000	-0.0
37	0x80000000	-0.0
38	0x80000000	-0.0
39	0x80000000	-0.0
40	0x80000000	-0.0
41	0x80000000	-0.0
42	0x00000000	0.0
43	0x00000000	0.0
44	0x00000000	0.0
45	0x80000000	-0.0
46	0x00000000	0.0
47	0x80000000	-0.0
48	0x00000000	0.0
49	0x80000000	-0.0
50	0x00000000	0.0
51	0x80000000	-0.0
52	0x80000000	-0.0
53	0x80000000	-0.0
54	0x80000000	-0.0
55	0x80000000	-0.0
56	0x80000000	-0.0
57	0x80000000	-0.0
58	0x80000000	-0.0
59	0x00000000	0.0
60	0x80000000	-0.0
61	0x00000000	0.0
62	0x80000000	-0.0
63	0x80000000	-0.0
64	0x80000000	-0.0
65	0x80000000	-0.0
66	0x00000000	0.0
67	0x80000000	-0.0
68	0x80000000	-0.0
69	0x80000000	-0.0
70	0x00000000	0.0
71	0x00000000	0.0
72	0x80000000	-0.0
73	0x80000000	-0.0
74	0x80000000	-0.0
75	0x00000000	0.0
76	0x80000000	-0.0
77	0x00000000	0.0
78	0x80000000	-0.0
79	0x00000000	0.0
80	0x80000000	-0.0
81	0x00000000	0.0
82	0x00000000	0.0
83	0x00000000	0.0
84	0x00000000	0.0
85	0x00000000	0.0
86	0x00000000	0.0
87	0x00000000	0.0
88	0x00000000	0.0
89	0x00000000	0.0
90	0x80000000	-0.0
91	0x80000000	-0.0
92	0x80000000	-0.0
93	0x00000000	0.0
94	0x80000000	-0.0
95	0x00000000	0.0
96	0x00000000	0.0
97	0x00000000	0.0
98	0x00000000	0.0
99	0x80000000	-0.0
100	0x80000000	-0.0
101	0x80000000	-0.0
102	0x80000000	-0.0
103	0x80000000	-0.0
104	0x00000000	0.0
105	0x80000000	-0.0
106	0x80000000	-0.0
107	0x00000000	0.0
108	0x00000000	0.0
109	0x80000000	-0.0
110	0x80000000	-0.0
111	0x00000000	0.0
112	0x00000000	0.0
113	0x80000000	-0.0
114	0x80000000	-0.0
115	0x80000000	-0.0
116	0x80000000	-0.0
117	0x00000000	0.0
118	0x00000000	0.0
119	0x80000000	-0.0
120	0x00000000	0.0
121	0x00000000	0.0
122	0x00000000	0.0
123	0x00000000	0.0
124	0x00000000	0.0
125	0x00000000	0.0
126	0x00000000	0.0
127	0x00000000	0.0
128	0x00000000	0.0
129	0x00000000	0.0
130	0x00000000	0.0
131	0x00000000	0.0
132	0x00000000	0.0
133	0x00000000	0.0
134	0x00000000	0.0
135	0x80000000	-0.0
136	0x80000000	-0.0
137	0x80000000	-0.0
138	0x00000000	0.0
139	0x00000000	0.0
140	0x00000000	0.0
141	0x00000000	0.0
142	0x00000000	0.0
143	0x00000000	0.0
144	0x00000000	0.0
145	0x80000000	-0.0
146	0x80000000	-0.0
147	0x00000000	0.0
148	0x80000000	-0.0
149	0x80000000	-0.0
150	0x00000000	0.0
151	0x00000000	0.0
152	0x00000000	0.0
153	0x00000000	0.0
154	0x80000000	-0.0
155	0x80000000	-0.0
156	0x00000000	0.0
157	0x00000000	0.0
158	0x80000000	-0.0
159	0x00000000	0.0
160	0x00000000	0.0
161	0x00000000	0.0
162	0x00000000	0.0
163	0x80000000	-0.0
164	0x80000000	-0.0
165	0x00000000	0.0
166	0x80000000	-0.0
167	0x80000000	-0.0
168	0x00000000	0.0
169	0x00000000	0.0
170	0x00000000	0.0
171	0x80000000	-0.0
172	0x80000000	-0.0
173	0x80000000	-0.0
174	0x80000000	-0.0
175	0x80000000	-0.0
176	0x80000000	-0.0
177	0x80000000	-0.0
178	0x80000000	-0.0
179	0x80000000	-0.0
180	0x00000000	0.0
181	0x00000000	0.0
182	0x80000000	-0.0
183	0x00000000	0.0
184	0x80000000	-0.0
185	0x80000000	-0.0
186	0x00000000	0.0
187	0x80000000	-0.0
188	0x80000000	-0.0
189	0x00000000	0.0
190	0x80000000	-0.0
191	0x80000000	-0.0
192	0x00000000	0.0
193	0x00000000	0.0
194	0x00000000	0.0
195	0x80000000	-0.0
196	0x80000000	-0.0
197	0x80000000	-0.0
198	0x80000000	-0.0
199	0x00000000	0.0
200	0x00000000	0.0
201	0x00000000	0.0
202	0x00000000	0.0
203	0x00000000	0.0
204	0x80000000	-0.0
205	0x00000000	0.0
206	0x80000000	-0.0
207	0x80000000	-0.0
208	0x00000000	0.0
209	0x80000000	-0.0
210	0x00000000	0.0
211	0x80000000	-0.0
212	0x80000000	-0.0
213	0x00000000	0.0
214	0x00000000	0.0
215	0x00000000	0.0
216	0x00000000	0.0
217	0x00000000	0.0
218	0x80000000	-0.0
219	0x00000000	0.0
220	0x00000000	0.0
221	0x80000000	-0.0
222	0x00000000	0.0
223	0x80000000	-0.0
224	0x80000000	-0.0
225	0x00000000	0.0
226	0x00000000	0.0
227	0x00000000	0.0
228	0x00000000	0.0
229	0x00000000	0.0
230	0x00000000	0.0
231	0x00000000	0.0
232	0x00000000	0.0
233	0x80000000	-0.0
234	0x00000000	0.0
235	0x80000000	-0.0
236	0x00000000	0.0
237	0x00000000	0.0
238	0x80000000	-0.0
239	0x00000000	0.0
240	0x00000000	0.0
241	0x00000000	0.0
242	0x00000000	0.0
243	0x80000000	-0.0
244	0x80000000	-0.0
245	0x00000000	0.0
246	0x80000000	-0.0
247	0x80000000	-0.0
248	0x00000000	0.0
249	0x80000000	-0.0
250	0x80000000	-0.0
251	0x80000000	-0.0
252	0x00000000	0.0
253	0x00000000	0.0
254	0x80000000	-0.0
255	0x00000000	0.0

onnx::Conv_84 f4 [32]
0	0x8027d7ea	-3.65904e-39
1	0x80117188	-1.601931e-39
2	0x8004f529	-4.55289e-40
3	0x8007dd34	-7.22201e-40
4	0x800a17ee	-9.2694e-40
5	0xbda45e6f	-0.08025824
6	0x8014dc5c	-1.91576e-39
7	0x80084f92	-7.63228e-40
8	0xbd30c8a0	-0.04316008
9	0x3e03efa2	0.12884381
10	0x802b26eb	-3.962887e-39
11	0x3ea0e97a	0.31428128
12	0xbdfc978b	-0.12333592
13	0x3df48124	0.11938694
14	0x800e0ff6	-1.291423e-39
15	0x3dabc6e8	0.08387548
16	0x8022fa7e	-3.212267e-39
17	0x801e2a0a	-2.770146e-39
18	0x800d5434	-1.224068e-39
19	0x8062cd67	-9.073563e-39
20	0xbe058c72	-0.13041857
21	0xbe6175c8	-0.22017586
22	0x3df3e254	0.11908403
23	0x800ea5d0	-1.345179e-39
24	0x800c91c5	-1.154318e-39
25	0xbdaa9c8b	-0.083306395
26	0x3e1f66f0	0.15566611
27	0x800c63fc	-1.137894e-39
28	0x800c5b31	-1.134739e-39
29	0xbc17308f	-0.009227886
30	0x3bdd3a80	0.0067513585
31	0x8000b81e	-6.6049e-41

onnx::Conv_86 f4 [32, 32, 3, 3]
0	0x80000000	-0.0
1	0x00000000	0.0
2	0x80000000	-0.0
3	0x80000000	-0.0
4	0x00000000	0.0
5	0x80000000	-0.0
6	0x00000000	0.0
7	0x80000000	-0.0
8	0x80000000	-0.0
9	0x80000000	-0.0
10	0x80000000	-0.0
11	0x80000000	-0.0
12	0x00000000	0.0
13	0x80000000	-0.0
14	0x00000000	0.0
15	0x80000000	-0.0
16	0x00000000	0.0
17	0x00000000	0.0
18	0x80000000	-0.0
19	0x00000000	0.0
20	0x80000000	-0.0
21	0x00000000	0.0
22	0x00000000	0.0
23	0x00000000	0.0
24	0x80000000	-0.0
25	0x00000000	0.0
26	0x80000000	-0.0
27	0x00000000	0.0
28	0x00000000	0.0
29	0x00000000	0.0
30	0x00000000	0.0
31	0x00000000	0.0
32	0x00000000	0.0
33	0x80000000	-0.0
34	0x00000000	0.0
35	0x80000000	-0.0
36	0x00000000	0.0
37	0x00000000	0.0
38	0x80000000	-0.0
39	0x00000000	0.0
40	0x80000000	-0.0
41	0x00000000	0.0
42	0x00000000	0.0
43	0x00000000	0.0
44	0x80000000	-0.0
45	0x80000000	-0.0
46	0x00000000	0.0
47	0x00000000	0.0
48	0x80000000	-0.0
49	0x80000000	-0.0
50	0x80000000	-0.0
51	0x00000000	0.0
52	0x00000000	0.0
53	0x00000000	0.0
54	0x80000000	-0.0
55	0x80000000	-0.0
56	0x80000000	-0.0
57	0x00000000	0.0
58	0x00000000	0.0
59	0x80000000	-0.0
60	0x80000000	-0.0
61	0x80000000	-0.0
62	0x00000000	0.0
63	0x80000000	-0.0
64	0x80000000	-0.0
65	0x80000000	-0.0
66	0x80000000	-0.0
67	0x80000000	-0.0
68	0x80000000	-0.0
69	0x00000000	0.0
70	0x80000000	-0.0
71	0x80000000	-0.0
72	0x00000000	0.0
73	0x00000000	0.0
74	0x00000000	0.0
75	0x80000000	-0.0
76	0x00000000	0.0
77	0x00000000	0.0
78	0x80000000	-0.0
79	0x80000000	-0.0
80	0x80000000	-0.0
81	0x00000000	0.0
82	0x00000000	0.0
83	0x00000000	0.0
84	0x80000000	-0.0
85	0x80000000	-0.0
86	0x80000000	-0.0
87	0x80000000	-0.0
88	0x80000000	-0.0
89	0x00000000	0.0
90	0x00000000	0.0
91	0x00000000	0.0
92	0x00000000	0.0
93	0x00000000	0.0
94	0x00000000	0.0
95	0x00000000	0.0
96	0x00000000	0.0
97	0x00000000	0.0
98	0x00000000	0.0
99	0x80000000	-0.0
100	0x80000000	-0.0
101	0x80000000	-0.0
102	0x80000000	-0.0
103	0x80000000	-0.0
104	0x80000000	-0.0
105	0x80000000	-0.0
106	0x80000000	-0.0
107	0x80000000	-0.0
108	0x00000000	0.0
109	0x00000000	0.0
110	0x00000000	0.0
111	0x00000000	0.0
112	0x00000000	0.0
113	0x00000000	0.0
114	0x00000000	0.0
115	0x00000000	0.0
116	0x00000000	0.0
117	0x00000000	0.0
118	0x00000000	0.0
119	0x00000000	0.0
120	0x00000000	0.0
121	0x00000000	0.0
122	0x00000000	0.0
123	0x00000000	0.0
124	0x00000000	0.0
125	0x00000000	0.0
126	0x80000000	-0.0
127	0x00000000	0.0
128	0x80000000	-0.0
129	0x80000000	-0.0
130	0x00000000	0.0
131	0x80000000	-0.0
132	0x80000000	-0.0
133	0x00000000	0.0
134	0x80000000	-0.0
135	0x00000000	0.0
136	0x00000000	0.0
137	0x00000000	0.0
138	0x00000000	0.0
139	0x00000000	0.0
140	0x00000000	0.0
141	0x00000000	0.0
142	0x00000000	0.0
143	0x00000000	0.0
144	0x00000000	0.0
145	0x00000000	0.0
146	0x80000000	-0.0
147	0x00000000	0.0
148	0x00000000	0.0
149	0x80000000	-0.0
150	0x00000000	0.0
151	0x80000000	-0.0
152	0x00000000	0.0
153	0x00000000	0.0
154	0x00000000	0.0
155	0x80000000	-0.0
156	0x80000000	-0.0
157	0x80000000	-0.0
158	0x00000000	0.0
159	0x80000000	-0.0
160	0x00000000	0.0
161	0x00000000	0.0
162	0x80000000	-0.0
163	0x00000000	0.0
164	0x80000000	-0.0
165	0x80000000	-0.0
166	0x80000000	-0.0
167	0x80000000	-0.0
168	0x80000000	-0.0
169	0x80000000	-0.0
170	0x80000000	-0.0
171	0x80000000	-0.0
172	0x80000000	-0.0
173	0x80000000	-0.0
174	0x00000000	0.0
175	0x00000000	0.0
176	0x00000000	0.0
177	0x00000000	0.0
178	0x00000000	0.0
179	0x00000000	0.0
180	0x00000000	0.0
181	0x00000000	0.0
182	0x80000000	-0.0
183	0x00000000	0.0
184	0x00000000	0.0
185	0x00000000	0.0
186	0x80000000	-0.0
187	0x80000000	-0.0
188	0x00000000	0.0
189	0x00000000	0.0
190	0x00000000	0.0
191	0x00000000	0.0
192	0x00000000	0.0
193	0x80000000	-0.0
194	0x80000000	-0.0
195	0x80000000	-0.0
196	0x80000000	-0.0
197	0x80000000	-0.0
198	0x80000000	-0.0
199	0x00000000	0.0
200	0x00000000	0.0
201	0x80000000	-0.0
202	0x80000000	-0.0
203	0x80000000	-0.0
204	0x00000000	0.0
205	0x00000000	0.0
206	0x00000000	0.0
207	0x00000000	0.0
208	0x80000000	-0.0
209	0x00000000	0.0
210	0x80000000	-0.0
211	0x80000000	-0.0
212	0x80000000	-0.0
213	0x80000000	-0.0
214	0x00000000	0.0
215	0x00000000	0.0
216	0x80000000	-0.0
217	0x00000000	0.0
218	0x00000000	0.0
219	0x80000000	-0.0
220	0x00000000	0.0
221	0x00000000	0.0
222	0x80000000	-0.0
223	0x00000000	0.0
224	0x80000000	-0.0
225	0x80000000	-0.0
226	0x80000000	-0.0
227	0x80000000	-0.0
228	0x00000000	0.0
229	0x00000000	0.0
230	0x00000000	0.0
231	0x80000000	-0.0
232	0x80000000	-0.0
233	0x80000000	-0.0
234	0x80000000	-0.0
235	0x80000000	-0.0
236	0x80000000	-0.0
237	0x00000000	0.0
238	0x00000000	0.0
239	0x00000000	0.0
240	0x00000000	0.0
241	0x00000000	0.0
242	0x00000000	0.0
243	0x00000000	0.0
244	0x00000000	0.0
245	0x00000000	0.0
246	0x00000000	0.0
247	0x00000000	0.0
248	0x00000000	0.0
249	0x80000000	-0.0
250	0x00000000	0.0
251	0x80000000	-0.0
252	0x00000000	0.0
253	0x00000000	0.0
254	0x00000000	0.0
255	0x80000000	-0.0

onnx::Conv_87 f4 [32]
0	0x801c9982	-2.626462e-39
1	0x8024f139	-3.392612e-39
2	0x801895fc	-2.257856e-39
3	0x800ee2bf	-1.367038e-39
4	0x801bed24	-2.564628e-39
5	0x806236ef	-9.019585e-39
6	0xbdad03bf	-0.0844798
7	0xbc1bed35	-0.009517004
8	0x8013d0da	-1.819796e-39
9	0x8020e42b	-3.020587e-39
10	0x800703fa	-6.44275e-40
11	0xbb89d358	-0.0042061023
12	0x801a6286	-2.423066e-39
13	0x8009b234	-8.90447e-40
14	0xbdc3faf1	-0.09569348
15	0x3d423581	0.047414307
16	0xbda2e9e3	-0.079547666
17	0x8033b67b	-4.749072e-39
18	0x3e251b6f	0.16123746
19	0x800d2357	-1.206539e-39
20	0x3e951b9c	0.29122627
21	0x80171c53	-2.122377e-39
22	0x800cd18e	-1.1772e-39
23	0xbc7918ca	-0.015203664
24	0x80501710	-7.355113e-39
25	0x8099f7a2	-1.4139665e-38
26	0x3d1b9d7b	0.037991982
27	0x800889f2	-7.8417e-40
28	0x3c1d979b	0.009618665
29	0x3e8c3c70	0.2738986
30	0xbd4a25ac	-0.049352333
31	0x80256162	-3.432848e-39

onnx::Conv_89 f4 [32, 16, 1, 1]
0	0x00000000	0.0
1	0x00000000	0.0
2	0x00000000	0.0
3	0x80000000	-0.0
4	0x00000000	0.0
5	0x80000000	-0.0
6	0x80000000	-0.0
7	0x80000000	-0.0
8	0x80000000	-0.0
9	0x00000000	0.0
10	0x80000000	-0.0
11	0x00000000	0.0
12	0x00000000	0.0
13	0x80000000	-0.0
14	0x80000000	-0.0
15	0x00000000	0.0
16	0x80000000	-0.0
17	0x80000000	-0.0
18	0x00000000	0.0
19	0x00000000	0.0
20	0x00000000	0.0
21	0x00000000	0.0
22	0x80000000	-0.0
23	0x00000000	0.0
24	0x80000000	-0.0
25	0x80000000	-0.0
26	0x00000000	0.0
27	0x00000000	0.0
28	0x80000000	-0.0
29	0x80000000	-0.0
30	0x80000000	-0.0
31	0x80000000	-0.0
32	0x00000000	0.0
33	0x80000000	-0.0
34	0x00000000	0.0
35	0x80000000	-0.0
36	0x80000000	-0.0
37	0x80000000	-0.0
38	0x80000000	-0.0
39	0x80000000	-0.0
40	0x80000000	-0.0
41	0x80000000	-0.0
42	0x80000000	-0.0
43	0x00000000	0.0
44	0x00000000	0.0
45	0x80000000	-0.0
46	0x80000000	-0.0
47	0x00000000	0.0
48	0x00000000	0.0
49	0x80000000	-0.0
50	0x80000000	-0.0
51	0x00000000	0.0
52	0x80000000	-0.0
53	0x00000000	0.0
54	0x80000000	-0.0
55	0x80000000	-0.0
56	0x80000000	-0.0
57	0x80000000	-0.0
58	0x80000000	-0.0
59	0x00000000	0.0
60	0x80000000	-0.0
61	0x80000000	-0.0
62	0x00000000	0.0
63	0x80000000	-0.0
64	0x00000000	0.0
65	0x80000000	-0.0
66	0x80000000	-0.0
67	0x00000000	0.0
68	0x80000000	-0.0
69	0x00000000	0.0
70	0x00000000	0.0
71	0x00000000	0.0
72	0x00000000	0.0
73	0x80000000	-0.0
74	0x80000000	-0.0
75	0x80000000	-0.0
76	0x00000000	0.0
77	0x80000000	-0.0
78	0x80000000	-0.0
79	0x80000000	-0.0
80	0x00000000	0.0
81	0x80000000	-0.0
82	0x80000000	-0.0
83	0x80000000	-0.0
84	0x00000000	0.0
85	0x00000000	0.0
86	0x00000000	0.0
87	0x80000000	-0.0
88	0x00000000	0.0
89	0x80000000	-0.0
90	0x80000000	-0.0
91	0x80000000	-0.0
92	0x80000000	-0.0
93	0x00000000	0.0
94	0x80000000	-0.0
95	0x00000000	0.0
96	0x3e40475a	0.18777218
97	0xbe2ae0ae	-0.16687271
98	0x3d954bec	0.072898716
99	0xbd8b3303	-0.06796839
100	0xbd16c50f	-0.036809023
101	0x8097f619	-1.3955443e-38
102	0x80c1f0ac	-1.7810588e-38
103	0xbd7d3634	-0.06181927
104	0x011258c4	2.687965e-38
105	0x3d1e45fb	0.038640957
106	0xbdb935ae	-0.09043442
107	0xbe4c7eff	-0.1997032
108	0x3c8d2d8b	0.01723363
109	0xbdfd6d0d	-0.123743154
110	0x3e490a58	0.19632852
111	0x0206fedb	9.917905e-38
112	0x3c2648a2	0.010149153
113	0x3c1d6889	0.009607443
114	0x3ba3eb04	0.0050023813
115	0x3bbcfa7e	0.0057671657
116	0x3ac588d0	0.001507068
117	0x802d8cf3	-4.18316e-39
118	0x803548e4	-4.89343e-39
119	0x3d6e105a	0.058121063
120	0x80e57cc4	-2.1075086e-38
121	0xbcb4141a	-0.021982241
122	0x3cb49d97	0.022047801
123	0x3cbc1319	0.022958325
124	0xbc14c980	-0.0090812445
125	0xbc99d983	-0.018780475
126	0xbc4a2b40	-0.012339413
127	0x001553fd	1.958675e-39
128	0x00000000	0.0
129	0x80000000	-0.0
130	0x00000000	0.0
131	0x80000000	-0.0
132	0x00000000	0.0
133	0x80000000	-0.0
134	0x80000000	-0.0
135	0x00000000	0.0
136	0x00000000	0.0
137	0x00000000	0.0
138	0x00000000	0.0
139	0x80000000	-0.0
140	0x80000000	-0.0
141	0x80000000	-0.0
142	0x00000000	0.0
143	0x80000000	-0.0
144	0x00000000	0.0
145	0x00000000	0.0
146	0x80000000	-0.0
147	0x00000000	0.0
148	0x80000000	-0.0
149	0x80000000	-0.0
150	0x80000000	-0.0
151	0x80000000	-0.0
152	0x80000000	-0.0
153	0x00000000	0.0
154	0x00000000	0.0
155	0x80000000	-0.0
156	0x00000000	0.0
157	0x80000000	-0.0
158	0x80000000	-0.0
159	0x00000000	0.0
160	0x00000000	0.0
161	0x00000000	0.0
162	0x80000000	-0.0
163	0x80000000	-0.0
164	0x80000000	-0.0
165	0x80000000	-0.0
166	0x80000000	-0.0
167	0x80000000	-0.0
168	0x80000000	-0.0
169	0x80000000	-0.0
170	0x80000000	-0.0
171	0x80000000	-0.0
172	0x80000000	-0.0
173	0x00000000	0.0
174	0x80000000	-0.0
175	0x80000000	-0.0
176	0x3b9288a7	0.0044718566
177	0xbbd90d7c	-0.006623922
178	0x3d1af514	0.03783138
179	0xbd82e665	-0.063916005
180	0x3cea2565	0.028582284
181	0x00484f14	6.640524e-39
182	0x803eea55	-5.777863e-39
183	0x3d2e760c	0.042593047
184	0x8052edb7	-7.615787e-39
185	0xbc8e1149	-0.017342227
186	0x3b8d8326	0.0043186126
187	0x3ced9560	0.029001892
188	0x3cd4ee1a	0.025992442
189	0x3c8cc189	0.017182129
190	0x3c12c254	0.008957464
191	0x00764859	1.0862542e-38
192	0x00000000	0.0
193	0x80000000	-0.0
194	0x00000000	0.0
195	0x80000000	-0.0
196	0x00000000	0.0
197	0x00000000	0.0
198	0x80000000	-0.0
199	0x80000000	-0.0
200	0x00000000	0.0
201	0x80000000	-0.0
202	0x80000000	-0.0
203	0x80000000	-0.0
204	0x00000000	0.0
205	0x80000000	-0.0
206	0x80000000	-0.0
207	0x80000000	-0.0
208	0x00000000	0.0
209	0x00000000	0.0
210	0x80000000	-0.0
211	0x80000000	-0.0
212	0x80000000	-0.0
213	0x00000000	0.0
214	0x00000000	0.0
215	0x80000000	-0.0
216	0x00000000	0.0
217	0x80000000	-0.0
218	0x00000000	0.0
219	0x80000000	-0.0
220	0x80000000	-0.0
221	0x80000000	-0.0
222	0x80000000	-0.0
223	0x80000000	-0.0
224	0x3d217e9b	0.03942738
225	0x3d30ee1e	0.043195836
226	0xbd323cf6	-0.043515168
227	0xbcacffe2	-0.021118108
228	0xbd86e057	-0.06585758
229	0x00c9811c	1.850525e-38
230	0x8065a3f3	-9.334199e-39
231	0xbd49d2a4	-0.04927315
232	0x800565a0	-4.95634e-40
233	0x3c8d03d3	0.017213738
234	0xbdf06036	-0.11737101
235	0x3dc74163	0.097292684
236	0x3e12fa62	0.14353326
237	0xbd617fb1	-0.055053417
238	0x3d822f81	0.06356717
239	0x01b7c121	6.750071e-38
240	0x3f057395	0.5212949
241	0x3e58405c	0.21118301
242	0xbced57ae	-0.028972473
243	0x3df6cbdc	0.12050602
244	0x3d27192f	0.0407955
245	0x005bc084	8.426092e-39
246	0x00d92279	1.9940669e-38
247	0x3d02e205	0.03195383
248	0x016fcfff	4.4046597e-38
249	0x3d9e84c7	0.07740169
250	0xbbb9486c	-0.0056543853
251	0xbe8cb77b	-0.27483734
252	0x3e86da21	0.26338294
253	0x3da66deb	0.08126434
254	0xbe7a7c36	-0.24461445
255	0x0248663c	1.4723019e-37

onnx::Conv_90 f4 [32]
0	0x801c9982	-2.626462e-39
1	0x8024f139	-3.392612e-39
2	0x801895fc	-2.257856e-39
3	0x800ee2bf	-1.367038e-39
4	0x801bed24	-2.564628e-39
5	0x806236ef	-9.019585e-39
6	0x3dc57472	0.09641351
7	0xbd07f90f	-0.033196505
8	0x8013d0da	-1.819796e-39
9	0x8020e42b	-3.020587e-39
10	0x800703fa	-6.44275e-40
11	0xbd003f7a	-0.031310536
12	0x801a6286	-2.423066e-39
13	0x8009b234	-8.90447e-40
14	0xbd22f405	-0.039783496
15	0xbe20f714	-0.15719253
16	0xbca483f2	-0.020082448
17	0x8033b67b	-4.749072e-39
18	0xbcf58d24	-0.029974528
19	0x800d2357	-1.206539e-39
20	0xbec990aa	-0.39368182
21	0x80171c53	-2.122377e-39
22	0x800cd18e	-1.1772e-39
23	0xba0bd560	-0.00053342246
24	0x80501710	-7.355113e-39
25	0x8099f7a2	-1.4139665e-38
26	0xbc8c0e2c	-0.017096601
27	0x800889f2	-7.8417e-40
28	0x3cf0d99c	0.02940064
29	0xbe8bd024	-0.27307236
30	0x3c9f45d0	0.019442469
31	0x80256162	-3.432848e-39

onnx::Conv_92 f4 [64, 32, 3, 3]
0	0x805372ee	-7.663575e-39
1	0x8092213a	-1.3419902e-38
2	0x001aacdf	2.449737e-39
3	0x0053731e	7.663642e-39
4	0x006356c9	9.122847e-39
5	0x00af14a6	1.6078619e-38
6	0x800f37bc	-1.397526e-39
7	0x80002e21	-1.6548e-41
8	0x0016fc10	2.110804e-39
9	0x807c34a0	-1.140648e-38
10	0x801b4d5a	-2.507307e-39
11	0x80451d22	-6.3471e-39
12	0x80aa04c4	-1.5613744e-38
13	0x80b86bee	-1.6936449e-38
14	0x80b81fc6	-1.690913e-38
15	0x00af239f	1.608399e-38
16	0x006a79ad	9.778212e-39
17	0x8003982c	-3.30095e-40
18	0x003cd1a5	5.585336e-39
19	0x0006e9cf	6.34888e-40
20	0x80b86cc9	-1.6936756e-38
21	0x005fc9b6	8.796732e-39
22	0x004a8446	6.843277e-39
23	0x000e0a49	1.289387e-39
24	0x0033d15f	4.758719e-39
25	0x80552084	-7.817682e-39
26	0x005ebbeb	8.699949e-39
27	0x003e7cd6	5.738583e-39
28	0x80093d9b	-8.4862e-40
29	0x800607a0	-5.53748e-40
30	0x0115f05c	2.7539427e-38
31	0x808c44a1	-1.2881589e-38
32	0x80ba3397	-1.7099909e-38
33	0x010c6700	2.5787838e-38
34	0x807b2fc4	-1.1312901e-38
35	0x8042454e	-6.086005e-39
36	0x802ee874	-4.307821e-39
37	0x000c2bad	1.117694e-39
38	0x8020b5ef	-3.004001e-39
39	0x804b7155	-6.928318e-39
40	0x0035c96e	4.93954e-39
41	0x807594b9	-1.0798105e-38
42	0x000edb8f	1.36446e-39
43	0x801458b7	-1.868535e-39
44	0x80bed84a	-1.7526334e-38
45	0x81089b5e	-2.5090725e-38
46	0x02000ebc	9.408183e-38
47	0x0149f9fd	3.7097227e-38
48	0x01957586	5.4902594e-38
49	0x01423e8d	3.567705e-38
50	0x808778b3	-1.2441091e-38
51	0x008c178b	1.2865415e-38
52	0x804a7e0c	-6.841044e-39
53	0x808311a0	-1.2036773e-38
54	0xbc8c4280	-0.017121553
55	0xbc356fb2	-0.0110739935
56	0xbb61d981	-0.0034461918
57	0x3ca404d1	0.020021828
58	0x3ccc0dfc	0.024909012
59	0x3ca954be	0.020670291
60	0x3d422604	0.047399536
61	0x3d171a0b	0.03689007
62	0x3d0ae9e1	0.03391445
63	0xbdb544b3	-0.08850994
64	0xbdd2b386	-0.10288148
65	0xbdcbcde9	-0.099513836
66	0xbcecaea6	-0.028891873
67	0xbc34ccfe	-0.011035202
68	0xbc28edd8	-0.010310613
69	0xbc9c055d	-0.019045526
70	0xbaca1de8	-0.001542029
71	0x3bb69e20	0.005573049
72	0x8013c400	-1.815186e-39
73	0x80894cd5	-1.2609025e-38
74	0x804b9a36	-6.942983e-39
75	0x00c641c7	1.8207025e-38
76	0x005e84fb	8.680241e-39
77	0x00300548	4.409998e-39
78	0x009b1abb	1.4244091e-38
79	0x006a48ec	9.760722e-39
80	0x008449d2	1.2148767e-38
81	0x805f4efd	-8.752708e-39
82	0x00a1f696	1.4873973e-38
83	0x001cd87f	2.649058e-39
84	0x00b72f32	1.6822826e-38
85	0x00750ecc	1.0750061e-38
86	0x008ca308	1.2915454e-38
87	0x00410b6c	5.973405e-39
88	0x004037bb	5.897464e-39
89	0x0059e483	8.255334e-39
90	0x006b42c4	9.850349e-39
91	0x801b9758	-2.53385e-39
92	0x002ff25a	4.403208e-39
93	0x0042a3aa	6.119854e-39
94	0x006333b2	9.110259e-39
95	0x0087b897	1.246401e-38
96	0x0011252c	1.574538e-39
97	0x0047bd61	6.588257e-39
98	0x005f31ea	8.742278e-39
99	0x3e071887	0.1319295
100	0x3e2d6e57	0.16936623
101	0x3e6877ba	0.22701922
102	0xbd4e5955	-0.050378162
103	0xbca736fc	-0.02041196
104	0x3b5cf4eb	0.0033715318
105	0xbda5e35e	-0.081000075
106	0xbd8ec9c4	-0.069720775
107	0xbcd03e86	-0.025420438
108	0x002d4b11	4.159526e-39
109	0x002c1994	4.049938e-39
110	0x00462f07	6.445355e-39
111	0x005ea333	8.691081e-39
112	0x00d1bc35	1.9261135e-38
113	0x00cf8b30	1.9059879e-38
114	0x00292d7d	3.781573e-39
115	0x002e601c	4.25891e-39
116	0x0042c7bc	6.132794e-39
117	0x8027c2d0	-3.65147e-39
118	0x80a29fa6	-1.4934621e-38
119	0x80a2d9a0	-1.495542e-38
120	0x8079b538	-1.1177104e-38
121	0x80603152	-8.8339e-39
122	0x80650ac9	-9.279254e-39
123	0x80797f83	-1.1157838e-38
124	0x8063f664	-9.180102e-39
125	0x80911364	-1.3323103e-38
126	0xbc953a09	-0.01821615
127	0x3ca1d92c	0.019756876
128	0xbd0117da	-0.031516887
129	0x3d1523b1	0.03641099
130	0x3d54ba6d	0.051935602
131	0xbd010310	-0.03149706
132	0xbce001d1	-0.027344616
133	0xbc982c97	-0.01857595
134	0xbdbb8b63	-0.09157445
135	0xbcea8ca5	-0.028631518
136	0xbd0a99f5	-0.03383823
137	0xbcb57624	-0.02215106
138	0xb975c967	-0.00023440049
139	0x3d48de5f	0.049040195
140	0xbc30dbff	-0.010794639
141	0xbcf5ab2b	-0.029988846
142	0x3d137dc6	0.03600862
143	0xbdafbec2	-0.08581306
144	0x3c44934b	0.011998008
145	0x3ab11b21	0.0013512113
146	0xbb3861e3	-0.0028134517
147	0x3cdc0e1b	0.026862195
148	0x3cd3b4ce	0.02584305
149	0x3cd4eace	0.02599087
150	0xbccc93da	-0.024972845
151	0xbd40137c	-0.04689358
152	0xbd62d953	-0.055383038
153	0x810ec743	-2.6224244e-38
154	0x811e9cbc	-2.9132468e-38
155	0x8058bf90	-8.150243e-39
156	0x8057d0b2	-8.064554e-39
157	0x801c2680	-2.585205e-39
158	0x0085a20b	1.2272251e-38
159	0x805843d6	-8.105859e-39
160	0x807f6d8a	-1.1702403e-38
161	0x006a72d8	9.775761e-39
162	0x3d80a324	0.062811166
163	0x3e16b6d0	0.14718175
164	0x3d43320c	0.04765515
165	0x3e0e4246	0.13892469
166	0x3e5db191	0.21649767
167	0x3e0da8a2	0.1383386
168	0xbb430166	-0.0029755472
169	0x3df383cf	0.11890375
170	0xbc4c5123	-0.012470516
171	0x80d6952c	-1.9706309e-38
172	0x80e2cd08	-2.0828373e-38
173	0x80ca8a1d	-1.8600316e-38
174	0x0042423e	6.084906e-39
175	0x80339b0a	-4.739228e-39
176	0x806d8387	-1.0057252e-38
177	0x003d6dd1	5.64136e-39
178	0x00877613	1.2440149e-38
179	0x0088f67e	1.2578052e-38
180	0x3c5dfb01	0.0135486135
181	0x3d96ccab	0.07363256
182	0x3d6d1da2	0.05788959
183	0x3cc026b4	0.023455955
184	0x3e1daa12	0.15396908
185	0x3e16dc82	0.14732555
186	0x3d157cf3	0.036496114
187	0x3e1fd027	0.15606748
188	0x3dab1fa3	0.083556436
189	0x802b52d2	-3.978637e-39
190	0x802e654b	-4.26077e-39
191	0x80348963	-4.824731e-39
192	0x0075fe7f	1.0836049e-38
193	0x80579008	-8.041357e-39
194	0x8042179d	-6.069614e-39
195	0x804164f9	-6.00553e-39
196	0x803ca7a9	-5.570275e-39
197	0x802f75c6	-4.358517e-39
198	0x00baadfc	1.7143816e-38
199	0x004a8f00	6.847125e-39
200	0x8017d30b	-2.187924e-39
201	0x810f053d	-2.626871e-38
202	0x00a44b27	1.5087981e-38
203	0x0024db5d	3.38477e-39
204	0x80828298	-1.1985463e-38
205	0x8029c389	-3.8354e-39
206	0x8011049f	-1.562861e-39
207	0x3e0bf1c6	0.13666448
208	0x3e2fc77d	0.17165942
209	0x3e6fbdbd	0.23412223
210	0xbc8543df	-0.016267715
211	0x3a9a8b29	0.001179074
212	0x3c97124b	0.01844134
213	0xbdf169f6	-0.117877886
214	0xbdd92c1b	-0.106041156
215	0xbd3fc415	-0.046817858
216	0x004639f1	6.44927e-39
217	0x814aaac7	-3.7224067e-38
218	0x801bf81f	-2.568567e-39
219	0x8096caf1	-1.3848126e-38
220	0x80596cba	-8.212363e-39
221	0x80799a16	-1.116737e-38
222	0x8146f35b	-3.6541455e-38
223	0x00a2c24d	1.4947052e-38
224	0x00a2816e	1.4923781e-38
225	0x00be90e6	1.7500724e-38
226	0x81e88cb5	-8.5425245e-38
227	0x81ce0b48	-7.5688637e-38
228	0x816b7d73	-4.3252689e-38
229	0x8178d4ad	-4.5702993e-38
230	0x8198544e	-5.5956953e-38
231	0x81819222	-4.7596806e-38
232	0x81626d19	-4.1587918e-38
233	0x00316f85	4.539945e-39
234	0xbd889445	-0.06668905
235	0xbd4619cb	-0.04836444
236	0xbd6ea25e	-0.058260314
237	0x3d52baa8	0.05144754
238	0x3d7bb287	0.061449554
239	0x3d29fae2	0.041499026
240	0x3bf59d9d	0.0074955956
241	0x3d544379	0.05182216
242	0x3ccd0750	0.025027901
243	0x0079ae3e	1.1174601e-38
244	0x00e12b50	2.0678524e-38
245	0x00c40524	1.8001601e-38
246	0x80c620ff	-1.8195265e-38
247	0x80733c0e	-1.0582626e-38
248	0x806ade3e	-9.814288e-39
249	0x804e76ea	-7.205827e-39
250	0x807218a5	-1.0478087e-38
251	0x8068b669	-9.616328e-39
252	0x3d81da81	0.063405044
253	0x3e0b00b0	0.13574481
254	0x3b1ea60a	0.0024207854
255	0x3bbd7a37	0.0057823914

onnx::Conv_93 f4 [64]
0	0xbdc19454	-0.094521195
1	0x801657f2	-2.05193e-39
2	0x800ecbbc	-1.358783e-39
3	0x8014b41d	-1.901322e-39
4	0x800655f6	-5.8185e-40
5	0x800c7079	-1.142374e-39
6	0x8014a9cf	-1.897626e-39
7	0xbc982b6a	-0.018575389
8	0x800e659d	-1.322149e-39
9	0x800c8fa4	-1.153555e-39
10	0x800652cd	-5.80716e-40
11	0x800efd37	-1.376533e-39
12	0xbd92676a	-0.07148631
13	0x800c17af	-1.110522e-39
14	0x8026d25d	-3.565213e-39
15	0x80044c21	-3.94652e-40
16	0x800a876b	-9.66934e-40
17	0x8017afcf	-2.175285e-39
18	0x802986fc	-3.813679e-39
19	0x800791e4	-6.95184e-40
20	0x800ff8ec	-1.466829e-39
21	0x800bcde1	-1.084046e-39
22	0x8028add7	-3.735782e-39
23	0x808ee161	-1.3121491e-38
24	0x80151559	-1.936204e-39
25	0x80081e8f	-7.45646e-40
26	0x80128964	-1.702325e-39
27	0x8014b2ae	-1.900808e-39
28	0x800fd3f4	-1.453567e-39
29	0x800c0df6	-1.107034e-39
30	0x8012d82d	-1.730588e-39
31	0x800efa1b	-1.375418e-39
32	0x8002233a	-1.96308e-40
33	0x800eea7c	-1.369814e-39
34	0x801b4fdd	-2.508208e-39
35	0x8009bdfc	-8.94673e-40
36	0x80092a6e	-8.4174e-40
37	0x80049a17	-4.22619e-40
38	0x80436c8d	-6.191919e-39
39	0x800092d5	-5.2673e-41
40	0x8017c478	-2.182696e-39
41	0x801ec29a	-2.824875e-39
42	0x80086a52	-7.72825e-40
43	0x8003758d	-3.17676e-40
44	0x3d584273	0.052797746
45	0x8019fdbd	-2.386912e-39
46	0x800f42d9	-1.401513e-39
47	0x801167b2	-1.598402e-39
48	0x8008a251	-7.92912e-40
49	0x80111fdd	-1.572634e-39
50	0x8011d9bf	-1.639316e-39
51	0x8010a2f8	-1.52783e-39
52	0x8004f66d	-4.55743e-40
53	0x80112ee8	-1.57803e-39
54	0x3e60afc3	0.21942048
55	0x80044365	-3.91519e-40
56	0x809c3b6b	-1.4347653e-38
57	0x80191289	-2.302537e-39
58	0x80230d62	-3.219043e-39
59	0x80138e7b	-1.795987e-39
60	0x8008a50b	-7.9389e-40
61	0x800e897e	-1.33502e-39
62	0x8024ca07	-3.378552e-39
63	0x800b3823	-1.030329e-39

onnx::Conv_95 f4 [64, 64, 3, 3]
0	0x00000000	0.0
1	0x00000000	0.0
2	0x00000000	0.0
3	0x80000000	-0.0
4	0x00000000	0.0
5	0x00000000	0.0
6	0x80000000	-0.0
7	0x80000000	-0.0
8	0x80000000	-0.0
9	0x00000000	0.0
10	0x00000000	0.0
11	0x00000000	0.0
12	0x00000000	0.0
13	0x00000000	0.0
14	0x80000000	-0.0
15	0x80000000	-0.0
16	0x80000000	-0.0
17	0x80000000	-0.0
18	0x80000000	-0.0
19	0x80000000	-0.0
20	0x80000000	-0.0
21	0x80000000	-0.0
22	0x80000000	-0.0
23	0x80000000	-0.0
24	0x00000000	0.0
25	0x00000000	0.0
26	0x00000000	0.0
27	0x80000000	-0.0
28	0x80000000	-0.0
29	0x80000000	-0.0
30	0x80000000	-0.0
31	0x80000000	-0.0
32	0x80000000	-0.0
33	0x00000000	0.0
34	0x00000000	0.0
35	0x80000000	-0.0
36	0x00000000	0.0
37	0x00000000	0.0
38	0x80000000	-0.0
39	0x00000000	0.0
40	0x80000000	-0.0
41	0x80000000	-0.0
42	0x00000000	0.0
43	0x80000000	-0.0
44	0x80000000	-0.0
45	0x80000000	-0.0
46	0x80000000	-0.0
47	0x00000000	0.0
48	0x00000000	0.0
49	0x80000000	-0.0
50	0x00000000	0.0
51	0x80000000	-0.0
52	0x00000000	0.0
53	0x00000000	0.0
54	0x80000000	-0.0
55	0x00000000	0.0
56	0x80000000	-0.0
57	0x80000000	-0.0
58	0x00000000	0.0
59	0x80000000	-0.0
60	0x80000000	-0.0
61	0x00000000	0.0
62	0x00000000	0.0
63	0x80000000	-0.0
64	0x80000000	-0.0
65	0x80000000	-0.0
66	0x80000000	-0.0
67	0x00000000	0.0
68	0x80000000	-0.0
69	0x80000000	-0.0
70	0x80000000	-0.0
71	0x00000000	0.0
72	0x80000000	-0.0
73	0x00000000	0.0
74	0x80000000	-0.0
75	0x00000000	0.0
76	0x80000000	-0.0
77	0x00000000	0.0
78	0x00000000	0.0
79	0x80000000	-0.0
80	0x00000000	0.0
81	0x00000000	0.0
82	0x80000000	-0.0
83	0x00000000	0.0
84	0x80000000	-0.0
85	0x80000000	-0.0
86	0x80000000	-0.0
87	0x80000000	-0.0
88	0x80000000	-0.0
89	0x80000000	-0.0
90	0x00000000	0.0
91	0x80000000	-0.0
92	0x00000000	0.0
93	0x00000000	0.0
94	0x00000000	0.0
95	0x80000000	-0.0
96	0x00000000	0.0
97	0x80000000	-0.0
98	0x00000000	0.0
99	0x00000000	0.0
100	0x80000000	-0.0
101	0x00000000	0.0
102	0x00000000	0.0
103	0x00000000	0.0
104	0x80000000	-0.0
105	0x80000000	-0.0
106	0x80000000	-0.0
107	0x00000000	0.0
108	0x80000000	-0.0
109	0x00000000	0.0
110	0x00000000	0.0
111	0x80000000	-0.0
112	0x00000000	0.0
113	0x00000000	0.0
114	0x00000000	0.0
115	0x80000000	-0.0
116	0x00000000	0.0
117	0x80000000	-0.0
118	0x80000000	-0.0
119	0x80000000	-0.0
120	0x80000000	-0.0
121	0x00000000	0.0
122	0x80000000	-0.0
123	0x80000000	-0.0
124	0x00000000	0.0
125	0x00000000	0.0
126	0x00000000	0.0
127	0x00000000	0.0
128	0x00000000	0.0
129	0x00000000	0.0
130	0x80000000	-0.0
131	0x80000000	-0.0
132	0x00000000	0.0
133	0x00000000	0.0
134	0x00000000	0.0
135	0x80000000	-0.0
136	0x80000000	-0.0
137	0x00000000	0.0
138	0x80000000	-0.0
139	0x00000000	0.0
140	0x80000000	-0.0
141	0x00000000	0.0
142	0x80000000	-0.0
143	0x00000000	0.0
144	0x00000000	0.0
145	0x80000000	-0.0
146	0x00000000	0.0
147	0x80000000	-0.0
148	0x80000000	-0.0
149	0x80000000	-0.0
150	0x00000000	0.0
151	0x80000000	-0.0
152	0x80000000	-0.0
153	0x80000000	-0.0
154	0x00000000	0.0
155	0x80000000	-0.0
156	0x00000000	0.0
157	0x00000000	0.0
158	0x80000000	-0.0
159	0x80000000	-0.0
160	0x80000000	-0.0
161	0x80000000	-0.0
162	0x00000000	0.0
163	0x00000000	0.0
164	0x00000000	0.0
165	0x80000000	-0.0
166	0x80000000	-0.0
167	0x00000000	0.0
168	0x00000000	0.0
169	0x80000000	-0.0
170	0x80000000	-0.0
171	0x80000000	-0.0
172	0x00000000	0.0
173	0x00000000	0.0
174	0x00000000	0.0
175	0x80000000	-0.0
176	0x00000000	0.0
177	0x00000000	0.0
178	0x80000000	-0.0
179	0x00000000	0.0
180	0x80000000	-0.0
181	0x00000000	0.0
182	0x00000000	0.0
183	0x80000000	-0.0
184	0x80000000	-0.0
185	0x80000000	-0.0
186	0x80000000	-0.0
187	0x00000000	0.0
188	0x00000000	0.0
189	0x80000000	-0.0
190	0x00000000	0.0
191	0x00000000	0.0
192	0x00000000	0.0
193	0x00000000	0.0
194	0x00000000	0.0
195	0x00000000	0.0
196	0x80000000	-0.0
197	0x00000000	0.0
198	0x00000000	0.0
199	0x00000000	0.0
200	0x00000000	0.0
201	0x80000000	-0.0
202	0x80000000	-0.0
203	0x80000000	-0.0
204	0x00000000	0.0
205	0x80000000	-0.0
206	0x80000000	-0.0
207	0x80000000	-0.0
208	0x80000000	-0.0
209	0x80000000	-0.0
210	0x00000000	0.0
211	0x80000000	-0.0
212	0x80000000	-0.0
213	0x80000000	-0.0
214	0x00000000	0.0
215	0x00000000	0.0
216	0x00000000	0.0
217	0x00000000	0.0
218	0x00000000	0.0
219	0x00000000	0.0
220	0x00000000	0.0
221	0x00000000	0.0
222	0x00000000	0.0
223	0x00000000	0.0
224	0x00000000	0.0
225	0x80000000	-0.0
226	0x00000000	0.0
227	0x80000000	-0.0
228	0x00000000	0.0
229	0x80000000	-0.0
230	0x00000000	0.0
231	0x80000000	-0.0
232	0x80000000	-0.0
233	0x80000000	-0.0
234	0x00000000	0.0
235	0x00000000	0.0
236	0x00000000	0.0
237	0x80000000	-0.0
238	0x00000000	0.0
239	0x00000000	0.0
240	0x00000000	0.0
241	0x80000000	-0.0
242	0x00000000	0.0
243	0x00000000	0.0
244	0x00000000	0.0
245	0x80000000	-0.0
246	0x80000000	-0.0
247	0x80000000	-0.0
248	0x80000000	-0.0
249	0x80000000	-0.0
250	0x00000000	0.0
251	0x00000000	0.0
252	0x00000000	0.0
253	0x00000000	0.0
254	0x80000000	-0.0
255	0x00000000	0.0

onnx::Conv_96 f4 [64]
0	0x8060ec5a	-8.900995e-39
1	0xbe298dc4	-0.16557986
2	0x803c60ad	-5.54481e-39
3	0x8010e231	-1.55051e-39
4	0x8013211e	-1.756755e-39
5	0x80866de6	-1.234538e-38
6	0x800b5400	-1.040324e-39
7	0x80586b28	-8.119964e-39
8	0x3d9f9130	0.07791364
9	0x804cad39	-7.041638e-39
10	0x800dd8cf	-1.271638e-39
11	0x800dee06	-1.279248e-39
12	0x8012075b	-1.655678e-39
13	0xbdf1ea7b	-0.11812302
14	0xbe767cc5	-0.24071033
15	0x80b064ef	-1.6199255e-38
16	0x3e460e5e	0.19341418
17	0x801e518c	-2.784318e-39
18	0x8015d1d9	-2.003825e-39
19	0x802a731b	-3.898383e-39
20	0x803160ab	-4.534617e-39
21	0x801bc2dc	-2.549461e-39
22	0x3abc1ff4	0.0014352784
23	0x800c12d2	-1.108777e-39
24	0x804c8a37	-7.02908e-39
25	0x80065b18	-5.83691e-40
26	0x801f0ad1	-2.85078e-39
27	0x800d8e95	-1.24501e-39
28	0xbe284568	-0.16432726
29	0x8044b2dd	-6.308978e-39
30	0x800646e1	-5.7644e-40
31	0x3d0d6d1e	0.03452789
32	0x801145a8	-1.586191e-39
33	0x80131a7e	-1.754378e-39
34	0x3c8b6d50	0.017019898
35	0x806bf013	-9.91252e-39
36	0x80083dad	-7.56809e-40
37	0xbe565f69	-0.20934834
38	0xb33e106a	-4.425275e-08
39	0x8002a198	-2.4164e-40
40	0x800de79f	-1.276951e-39
41	0x801d3f4b	-2.685935e-39
42	0xbe8aaf7c	-0.2708701
43	0x8010f055	-1.555583e-39
44	0x3db11820	0.086471796
45	0xbe422f56	-0.1896337
46	0x8002226f	-1.96023e-40
47	0x80039b96	-3.3132e-40
48	0x800d24c2	-1.207048e-39
49	0x804b19d6	-6.89693e-39
50	0x8032aabc	-4.653023e-39
51	0x800bf624	-1.098489e-39
52	0x80491a0a	-6.713332e-39
53	0x804f97a3	-7.309401e-39
54	0x80040874	-3.70374e-40
55	0x3cc5cb88	0.024144903
56	0xbe9ca0ca	-0.30591422
57	0x3d3fccf4	0.046826318
58	0x3dbd8c34	0.09255257
59	0x800405ac	-3.69377e-40
60	0xbe3597c8	-0.17733681
61	0x3c7225a8	0.014779486
62	0x3e30ed47	0.17278014
63	0x8045bf92	-6.405372e-39
